…
snapshot: 10000
snapshot_prefix: "./models/"
solver_mode: GPU
device_id: 0
net: "train24.prototxt"
train_state {
  level: 0
  stage: ""
}
I0614 19:08:31.575354 17739 solver.cpp:87] Creating training net from net file: train24.prototxt
I0614 19:08:31.575640 17739 net.cpp:51] Initializing net from parameters: 
name: "face_24c"
state {
  phase: TRAIN
  level: 0
  stage: ""
}
layer {
  name: "PythonLayer"
  type: "Python"
  top: "data"
  top: "label"
  top: "roi"
  top: "pts"
  python_param {
    module: "pythonLayer"
    layer: "Data_Layer_train"
  }
}
layer {
  name: "conv1"
  type: "Convolution"
  bottom: "data"
  top: "conv1"
  param {
    lr_mult: 0
    decay_mult: 0
  }
  param {
    lr_mult: 0
    decay_mult: 0
  }
  convolution_param {
    num_output: 28
    kernel_size: 3
    weight_filler {
      type: "gaussian"
      std: 0.0001
    }
    bias_filler {
      type: "constant"
      value: 0
    }
  }
}
layer {
  name: "relu1"
  type: "PReLU"
  bottom: "conv1"
  top: "conv1"
}
layer {
  name: "pool1"
  type: "Pooling"
  bottom: "conv1"
  top: "pool1"
  pooling_param {
    pool: MAX
    kernel_size: 3
    stride: 2
  }
}
layer {
  name: "conv2"
  type: "Convolution"
  bottom: "pool1"
  top: "conv2"
  param {
    lr_mult: 1
  }
  param {
    lr_mult: 2
  }
  convolution_param {
    num_output: 48
    kernel_size: 3
    weight_filler {
      type: "gaussian"
      std: 0.0001
    }
    bias_filler {
      type: "constant"
    }
  }
}
layer {
  name: "relu2"
  type: "PReLU"
  bottom: "conv2"
  top: "conv2"
}
layer {
  name: "pool2"
  type: "Pooling"
  bottom: "conv2"
  top: "pool2"
  pooling_param {
    pool: MAX
    kernel_size: 3
    stride: 2
  }
}
layer {
  name: "conv3"
  type: "Convolution"
  bottom: "pool2"
  top: "conv3"
  param {
    lr_mult: 1
    decay_mult: 1
  }
  param {
    lr_mult: 2
    decay_mult: 0
  }
  convolution_param {
    num_output: 64
    kernel_size: 2
    stride: 1
    weight_filler {
      type: "xavier"
    }
    bias_filler {
      type: "constant"
      value: 0
    }
  }
}
layer {
  name: "relu3"
  type: "PReLU"
  bottom: "conv3"
  top: "conv3"
}
layer {
  name: "fc4"
  type: "InnerProduct"
  bottom: "conv3"
  top: "fc4"
  param {
    lr_mult: 1
    decay_mult: 1
  }
  param {
    lr_mult: 2
    decay_mult: 0
  }
  inner_product_param {
    num_output: 128
    weight_filler {
      type: "xavier"
    }
    bias_filler {
      type: "constant"
      value: 0
    }
  }
}
layer {
  name: "relu4"
  type: "PReLU"
  bottom: "fc4"
  top: "fc4"
}
layer {
  name: "fc5-1"
  type: "InnerProduct"
  bottom: "fc4"
  top: "fc5-1"
  param {
    lr_mult: 1
    decay_mult: 1
  }
  param {
    lr_mult: 2
    decay_mult: 0
  }
  inner_product_param {
    num_output: 2
    weight_filler {
      type: "xavier"
    }
    bias_filler {
      type: "constant"
      value: 0
    }
  }
}
layer {
  name: "cls_bridge"
  type: "Python"
  bottom: "fc5-1"
  bottom: "label"
  top: "fc5-1-valid"
  top: "label-valid"
  python_param {
    module: "pythonLayer"
    layer: "cls_Layer"
  }
}
layer {
  name: "cls_loss"
  type: "SoftmaxWithLoss"
  bottom: "fc5-1-valid"
  bottom: "label-valid"
  top: "cls_loss"
  loss_weight: 1
  propagate_down: true
  propagate_down: false
}
layer {
  name: "cls_acc"
  type: "Accuracy"
  bottom: "fc5-1-valid"
  bottom: "label-valid"
  top: "cls_acc"
  include {
    phase: TRAIN
  }
}
layer {
  name: "fc5-2"
  type: "InnerProduct"
  bottom: "fc4"
  top: "fc5-2"
  param {
    lr_mult: 1
    decay_mult: 1
  }
  param {
    lr_mult: 2
    decay_mult: 0
  }
  inner_product_param {
    num_output: 4
    weight_filler {
      type: "xavier"
    }
    bias_filler {
      type: "constant"
      value: 0
    }
  }
}
layer {
  name: "roi_loss"
  type: "EuclideanLoss"
  bottom: "fc5-2"
  bottom: "roi"
  top: "roi_loss"
  loss_weight: 0.5
}
layer {
  name: "fc5-3"
  type: "InnerProduct"
  bottom: "fc4"
  top: "fc5-3"
  param {
    lr_mult: 1
    decay_mult: 1
  }
  param {
    lr_mult: 2
    decay_mult: 0
  }
  inner_product_param {
    num_output: 10
    weight_filler {
      type: "xavier"
    }
    bias_filler {
      type: "constant"
      value: 0
    }
  }
}
layer {
  name: "pts_loss"
  type: "EuclideanLoss"
  bottom: "fc5-3"
  bottom: "pts"
  top: "pts_loss"
  loss_weight: 0.5
}
I0614 19:08:31.575898 17739 layer_factory.hpp:77] Creating layer PythonLayer
I0614 19:08:31.994834 17739 net.cpp:84] Creating Layer PythonLayer
I0614 19:08:31.994873 17739 net.cpp:380] PythonLayer -> data
I0614 19:08:31.994921 17739 net.cpp:380] PythonLayer -> label
I0614 19:08:31.994930 17739 net.cpp:380] PythonLayer -> roi
I0614 19:08:31.994935 17739 net.cpp:380] PythonLayer -> pts
Start Reading Classify Data into Memory...

1124566  Classify Data have been read into Memory...
Start Reading Regression Data into Memory...

524566  Regression Data have been read into Memory...
Start Reading pts-regression Data into Memory...

202599  pts-regression Data have been read into Memory...
I0614 19:51:15.724651 17739 net.cpp:122] Setting up PythonLayer
I0614 19:51:15.754812 17739 net.cpp:129] Top shape: 64 3 24 24 (110592)
I0614 19:51:15.755319 17739 net.cpp:129] Top shape: 64 1 (64)
I0614 19:51:15.755336 17739 net.cpp:129] Top shape: 64 4 (256)
I0614 19:51:15.755340 17739 net.cpp:129] Top shape: 64 10 (640)
I0614 19:51:15.755343 17739 net.cpp:137] Memory required for data: 446208
I0614 19:51:15.762854 17739 layer_factory.hpp:77] Creating layer conv1
I0614 19:51:15.828809 17739 net.cpp:84] Creating Layer conv1
I0614 19:51:15.830742 17739 net.cpp:406] conv1 <- data
I0614 19:51:15.833043 17739 net.cpp:380] conv1 -> conv1
I0614 19:51:18.520954 17739 net.cpp:122] Setting up conv1
I0614 19:51:18.524521 17739 net.cpp:129] Top shape: 64 28 22 22 (867328)
I0614 19:51:18.524543 17739 net.cpp:137] Memory required for data: 3915520
I0614 19:51:18.528702 17739 layer_factory.hpp:77] Creating layer relu1
I0614 19:51:18.531059 17739 net.cpp:84] Creating Layer relu1
I0614 19:51:18.531095 17739 net.cpp:406] relu1 <- conv1
I0614 19:51:18.531113 17739 net.cpp:367] relu1 -> conv1 (in-place)
I0614 19:51:18.534430 17739 net.cpp:122] Setting up relu1
I0614 19:51:18.534466 17739 net.cpp:129] Top shape: 64 28 22 22 (867328)
I0614 19:51:18.534477 17739 net.cpp:137] Memory required for data: 7384832
I0614 19:51:18.534729 17739 layer_factory.hpp:77] Creating layer pool1
I0614 19:51:18.534772 17739 net.cpp:84] Creating Layer pool1
I0614 19:51:18.534786 17739 net.cpp:406] pool1 <- conv1
I0614 19:51:18.534829 17739 net.cpp:380] pool1 -> pool1
I0614 19:51:18.536833 17739 net.cpp:122] Setting up pool1
I0614 19:51:18.536862 17739 net.cpp:129] Top shape: 64 28 11 11 (216832)
I0614 19:51:18.536873 17739 net.cpp:137] Memory required for data: 8252160
I0614 19:51:18.536886 17739 layer_factory.hpp:77] Creating layer conv2
I0614 19:51:18.536916 17739 net.cpp:84] Creating Layer conv2
I0614 19:51:18.536926 17739 net.cpp:406] conv2 <- pool1
I0614 19:51:18.536943 17739 net.cpp:380] conv2 -> conv2
I0614 19:51:18.543069 17739 net.cpp:122] Setting up conv2
I0614 19:51:18.543104 17739 net.cpp:129] Top shape: 64 48 9 9 (248832)
I0614 19:51:18.543118 17739 net.cpp:137] Memory required for data: 9247488
I0614 19:51:18.543143 17739 layer_factory.hpp:77] Creating layer relu2
I0614 19:51:18.543161 17739 net.cpp:84] Creating Layer relu2
I0614 19:51:18.543170 17739 net.cpp:406] relu2 <- conv2
I0614 19:51:18.543550 17739 net.cpp:367] relu2 -> conv2 (in-place)
I0614 19:51:18.545469 17739 net.cpp:122] Setting up relu2
I0614 19:51:18.545502 17739 net.cpp:129] Top shape: 64 48 9 9 (248832)
I0614 19:51:18.545513 17739 net.cpp:137] Memory required for data: 10242816
I0614 19:51:18.545527 17739 layer_factory.hpp:77] Creating layer pool2
I0614 19:51:18.546023 17739 net.cpp:84] Creating Layer pool2
I0614 19:51:18.546038 17739 net.cpp:406] pool2 <- conv2
I0614 19:51:18.546052 17739 net.cpp:380] pool2 -> pool2
I0614 19:51:18.546174 17739 net.cpp:122] Setting up pool2
I0614 19:51:18.546192 17739 net.cpp:129] Top shape: 64 48 4 4 (49152)
I0614 19:51:18.546203 17739 net.cpp:137] Memory required for data: 10439424
I0614 19:51:18.546213 17739 layer_factory.hpp:77] Creating layer conv3
I0614 19:51:18.546236 17739 net.cpp:84] Creating Layer conv3
I0614 19:51:18.546245 17739 net.cpp:406] conv3 <- pool2
I0614 19:51:18.546264 17739 net.cpp:380] conv3 -> conv3
I0614 19:51:18.551378 17739 net.cpp:122] Setting up conv3
I0614 19:51:18.551411 17739 net.cpp:129] Top shape: 64 64 3 3 (36864)
I0614 19:51:18.551422 17739 net.cpp:137] Memory required for data: 10586880
I0614 19:51:18.551440 17739 layer_factory.hpp:77] Creating layer relu3
I0614 19:51:18.551463 17739 net.cpp:84] Creating Layer relu3
I0614 19:51:18.551476 17739 net.cpp:406] relu3 <- conv3
I0614 19:51:18.551491 17739 net.cpp:367] relu3 -> conv3 (in-place)
I0614 19:51:18.551755 17739 net.cpp:122] Setting up relu3
I0614 19:51:18.551775 17739 net.cpp:129] Top shape: 64 64 3 3 (36864)
I0614 19:51:18.551784 17739 net.cpp:137] Memory required for data: 10734336
I0614 19:51:18.551800 17739 layer_factory.hpp:77] Creating layer fc4
I0614 19:51:18.552044 17739 net.cpp:84] Creating Layer fc4
I0614 19:51:18.552058 17739 net.cpp:406] fc4 <- conv3
I0614 19:51:18.552614 17739 net.cpp:380] fc4 -> fc4
I0614 19:51:18.556221 17739 net.cpp:122] Setting up fc4
I0614 19:51:18.556254 17739 net.cpp:129] Top shape: 64 128 (8192)
I0614 19:51:18.556262 17739 net.cpp:137] Memory required for data: 10767104
I0614 19:51:18.556679 17739 layer_factory.hpp:77] Creating layer relu4
I0614 19:51:18.556699 17739 net.cpp:84] Creating Layer relu4
I0614 19:51:18.556711 17739 net.cpp:406] relu4 <- fc4
I0614 19:51:18.556723 17739 net.cpp:367] relu4 -> fc4 (in-place)
I0614 19:51:18.556949 17739 net.cpp:122] Setting up relu4
I0614 19:51:18.556967 17739 net.cpp:129] Top shape: 64 128 (8192)
I0614 19:51:18.556977 17739 net.cpp:137] Memory required for data: 10799872
I0614 19:51:18.556988 17739 layer_factory.hpp:77] Creating layer fc4_relu4_0_split
I0614 19:51:18.558380 17739 net.cpp:84] Creating Layer fc4_relu4_0_split
I0614 19:51:18.558398 17739 net.cpp:406] fc4_relu4_0_split <- fc4
I0614 19:51:18.558418 17739 net.cpp:380] fc4_relu4_0_split -> fc4_relu4_0_split_0
I0614 19:51:18.558437 17739 net.cpp:380] fc4_relu4_0_split -> fc4_relu4_0_split_1
I0614 19:51:18.558460 17739 net.cpp:380] fc4_relu4_0_split -> fc4_relu4_0_split_2
I0614 19:51:18.559003 17739 net.cpp:122] Setting up fc4_relu4_0_split
I0614 19:51:18.559027 17739 net.cpp:129] Top shape: 64 128 (8192)
I0614 19:51:18.559039 17739 net.cpp:129] Top shape: 64 128 (8192)
I0614 19:51:18.559051 17739 net.cpp:129] Top shape: 64 128 (8192)
I0614 19:51:18.559059 17739 net.cpp:137] Memory required for data: 10898176
I0614 19:51:18.559072 17739 layer_factory.hpp:77] Creating layer fc5-1
I0614 19:51:18.559094 17739 net.cpp:84] Creating Layer fc5-1
I0614 19:51:18.559106 17739 net.cpp:406] fc5-1 <- fc4_relu4_0_split_0
I0614 19:51:18.559126 17739 net.cpp:380] fc5-1 -> fc5-1
I0614 19:51:18.559387 17739 net.cpp:122] Setting up fc5-1
I0614 19:51:18.559406 17739 net.cpp:129] Top shape: 64 2 (128)
I0614 19:51:18.559417 17739 net.cpp:137] Memory required for data: 10898688
I0614 19:51:18.559433 17739 layer_factory.hpp:77] Creating layer cls_bridge
I0614 19:51:18.689400 17739 net.cpp:84] Creating Layer cls_bridge
I0614 19:51:18.689435 17739 net.cpp:406] cls_bridge <- fc5-1
I0614 19:51:18.689447 17739 net.cpp:406] cls_bridge <- label
I0614 19:51:18.689460 17739 net.cpp:380] cls_bridge -> fc5-1-valid
I0614 19:51:18.689476 17739 net.cpp:380] cls_bridge -> label-valid
I0614 19:51:18.801383 17739 net.cpp:122] Setting up cls_bridge
I0614 19:51:18.801434 17739 net.cpp:129] Top shape: 64 2 (128)
I0614 19:51:18.801448 17739 net.cpp:129] Top shape: 64 1 (64)
I0614 19:51:18.801466 17739 net.cpp:137] Memory required for data: 10899456
I0614 19:51:18.801484 17739 layer_factory.hpp:77] Creating layer fc5-1-valid_cls_bridge_0_split
I0614 19:51:18.801512 17739 net.cpp:84] Creating Layer fc5-1-valid_cls_bridge_0_split
I0614 19:51:18.801527 17739 net.cpp:406] fc5-1-valid_cls_bridge_0_split <- fc5-1-valid
I0614 19:51:18.801550 17739 net.cpp:380] fc5-1-valid_cls_bridge_0_split -> fc5-1-valid_cls_bridge_0_split_0
I0614 19:51:18.801586 17739 net.cpp:380] fc5-1-valid_cls_bridge_0_split -> fc5-1-valid_cls_bridge_0_split_1
I0614 19:51:18.801692 17739 net.cpp:122] Setting up fc5-1-valid_cls_bridge_0_split
I0614 19:51:18.801709 17739 net.cpp:129] Top shape: 64 2 (128)
I0614 19:51:18.801720 17739 net.cpp:129] Top shape: 64 2 (128)
I0614 19:51:18.801728 17739 net.cpp:137] Memory required for data: 10900480
I0614 19:51:18.801738 17739 layer_factory.hpp:77] Creating layer label-valid_cls_bridge_1_split
I0614 19:51:18.801755 17739 net.cpp:84] Creating Layer label-valid_cls_bridge_1_split
I0614 19:51:18.801769 17739 net.cpp:406] label-valid_cls_bridge_1_split <- label-valid
I0614 19:51:18.801786 17739 net.cpp:380] label-valid_cls_bridge_1_split -> label-valid_cls_bridge_1_split_0
I0614 19:51:18.801813 17739 net.cpp:380] label-valid_cls_bridge_1_split -> label-valid_cls_bridge_1_split_1
I0614 19:51:18.801933 17739 net.cpp:122] Setting up label-valid_cls_bridge_1_split
I0614 19:51:18.801957 17739 net.cpp:129] Top shape: 64 1 (64)
I0614 19:51:18.801970 17739 net.cpp:129] Top shape: 64 1 (64)
I0614 19:51:18.802016 17739 net.cpp:137] Memory required for data: 10900992
I0614 19:51:18.802027 17739 layer_factory.hpp:77] Creating layer cls_loss
I0614 19:51:18.802057 17739 net.cpp:84] Creating Layer cls_loss
I0614 19:51:18.802091 17739 net.cpp:406] cls_loss <- fc5-1-valid_cls_bridge_0_split_0
I0614 19:51:18.802109 17739 net.cpp:406] cls_loss <- label-valid_cls_bridge_1_split_0
I0614 19:51:18.802126 17739 net.cpp:380] cls_loss -> cls_loss
…
