…
snapshot: 5000
snapshot_prefix: "./models/"
solver_mode: GPU
device_id: 0
net: "train24.prototxt"
train_state {
  level: 0
  stage: ""
}
I0620 11:15:31.690676  6999 solver.cpp:87] Creating training net from net file: train24.prototxt
I0620 11:15:31.690995  6999 net.cpp:51] Initializing net from parameters: 
name: "face_24c"
state {
  phase: TRAIN
  level: 0
  stage: ""
}
layer {
  name: "PythonLayer"
  type: "Python"
  top: "data"
  top: "label"
  top: "roi"
  top: "pts"
  python_param {
    module: "pythonLayer"
    layer: "Data_Layer_train"
  }
}
layer {
  name: "conv1"
  type: "Convolution"
  bottom: "data"
  top: "conv1"
  param {
    lr_mult: 1
  }
  param {
    lr_mult: 2
  }
  convolution_param {
    num_output: 28
    kernel_size: 3
    stride: 1
    weight_filler {
      type: "xavier"
    }
    bias_filler {
      type: "constant"
      value: 0
    }
  }
}
layer {
  name: "prelu1"
  type: "PReLU"
  bottom: "conv1"
  top: "conv1"
}
layer {
  name: "pool1"
  type: "Pooling"
  bottom: "conv1"
  top: "pool1"
  pooling_param {
    pool: MAX
    kernel_size: 3
    stride: 2
  }
}
layer {
  name: "conv2"
  type: "Convolution"
  bottom: "pool1"
  top: "conv2"
  param {
    lr_mult: 1
  }
  param {
    lr_mult: 2
  }
  convolution_param {
    num_output: 48
    kernel_size: 3
    stride: 1
    weight_filler {
      type: "xavier"
    }
    bias_filler {
      type: "constant"
      value: 0
    }
  }
}
layer {
  name: "prelu2"
  type: "PReLU"
  bottom: "conv2"
  top: "conv2"
}
layer {
  name: "pool2"
  type: "Pooling"
  bottom: "conv2"
  top: "pool2"
  pooling_param {
    pool: MAX
    kernel_size: 3
    stride: 2
  }
}
layer {
  name: "conv3"
  type: "Convolution"
  bottom: "pool2"
  top: "conv3"
  param {
    lr_mult: 1
    decay_mult: 1
  }
  param {
    lr_mult: 2
    decay_mult: 0
  }
  convolution_param {
    num_output: 64
    kernel_size: 2
    stride: 1
    weight_filler {
      type: "xavier"
    }
    bias_filler {
      type: "constant"
      value: 0
    }
  }
}
layer {
  name: "prelu3"
  type: "PReLU"
  bottom: "conv3"
  top: "conv3"
}
layer {
  name: "conv4"
  type: "InnerProduct"
  bottom: "conv3"
  top: "conv4"
  param {
    lr_mult: 1
    decay_mult: 1
  }
  param {
    lr_mult: 2
    decay_mult: 0
  }
  inner_product_param {
    num_output: 128
    weight_filler {
      type: "xavier"
    }
    bias_filler {
      type: "constant"
      value: 0
    }
  }
}
layer {
  name: "prelu4"
  type: "PReLU"
  bottom: "conv4"
  top: "conv4"
}
layer {
  name: "conv5-1"
  type: "InnerProduct"
  bottom: "conv4"
  top: "conv5-1"
  param {
    lr_mult: 1
    decay_mult: 1
  }
  param {
    lr_mult: 2
    decay_mult: 0
  }
  inner_product_param {
    num_output: 2
    weight_filler {
      type: "xavier"
    }
    bias_filler {
      type: "constant"
      value: 0
    }
  }
}
layer {
  name: "cls_bridge"
  type: "Python"
  bottom: "conv5-1"
  bottom: "label"
  top: "conv5-1-valid"
  top: "label-valid"
  python_param {
    module: "pythonLayer"
    layer: "cls_Layer"
  }
}
layer {
  name: "cls_loss"
  type: "SoftmaxWithLoss"
  bottom: "conv5-1-valid"
  bottom: "label-valid"
  top: "cls_loss"
  loss_weight: 1
  propagate_down: true
  propagate_down: false
}
layer {
  name: "cls_acc"
  type: "Accuracy"
  bottom: "conv5-1-valid"
  bottom: "label-valid"
  top: "cls_acc"
  include {
    phase: TRAIN
  }
}
layer {
  name: "conv5-2"
  type: "InnerProduct"
  bottom: "conv4"
  top: "conv5-2"
  param {
    lr_mult: 1
    decay_mult: 1
  }
  param {
    lr_mult: 2
    decay_mult: 0
  }
  inner_product_param {
    num_output: 4
    weight_filler {
      type: "xavier"
    }
    bias_filler {
      type: "constant"
      value: 0
    }
  }
}
layer {
  name: "roi_loss"
  type: "Python"
  bottom: "conv5-2"
  bottom: "roi"
  top: "roi_loss"
  loss_weight: 0
  python_param {
    module: "pythonLayer"
    layer: "regression_Layer"
  }
}
layer {
  name: "conv5-3"
  type: "InnerProduct"
  bottom: "conv4"
  top: "conv5-3"
  param {
    lr_mult: 1
    decay_mult: 1
  }
  param {
    lr_mult: 2
    decay_mult: 0
  }
  inner_product_param {
    num_output: 10
    weight_filler {
      type: "xavier"
    }
    bias_filler {
      type: "constant"
      value: 0
    }
  }
}
layer {
  name: "pts_loss"
  type: "Python"
  bottom: "conv5-3"
  bottom: "pts"
  top: "pts_loss"
  loss_weight: 0
  python_param {
    module: "pythonLayer"
    layer: "regression_Layer"
  }
}
I0620 11:15:31.691249  6999 layer_factory.hpp:77] Creating layer PythonLayer
I0620 11:15:32.100505  6999 net.cpp:84] Creating Layer PythonLayer
I0620 11:15:32.100541  6999 net.cpp:380] PythonLayer -> data
I0620 11:15:32.100569  6999 net.cpp:380] PythonLayer -> label
I0620 11:15:32.100579  6999 net.cpp:380] PythonLayer -> roi
I0620 11:15:32.100582  6999 net.cpp:380] PythonLayer -> pts
Start Reading Classify Data into Memory...

20000  Classify Data have been read into Memory...
Start Reading Regression Data into Memory...

10000  Regression Data have been read into Memory...
Start Reading pts-regression Data into Memory...

10000  pts-regression Data have been read into Memory...
I0620 11:16:24.663184  6999 net.cpp:122] Setting up PythonLayer
I0620 11:16:24.663245  6999 net.cpp:129] Top shape: 64 3 24 24 (110592)
I0620 11:16:24.663252  6999 net.cpp:129] Top shape: 64 1 (64)
I0620 11:16:24.663257  6999 net.cpp:129] Top shape: 64 4 (256)
I0620 11:16:24.663261  6999 net.cpp:129] Top shape: 64 10 (640)
I0620 11:16:24.663264  6999 net.cpp:137] Memory required for data: 446208
I0620 11:16:24.663274  6999 layer_factory.hpp:77] Creating layer conv1
I0620 11:16:24.663297  6999 net.cpp:84] Creating Layer conv1
I0620 11:16:24.663305  6999 net.cpp:406] conv1 <- data
I0620 11:16:24.663316  6999 net.cpp:380] conv1 -> conv1
I0620 11:16:24.977236  6999 net.cpp:122] Setting up conv1
I0620 11:16:24.977257  6999 net.cpp:129] Top shape: 64 28 22 22 (867328)
I0620 11:16:24.977260  6999 net.cpp:137] Memory required for data: 3915520
I0620 11:16:24.977294  6999 layer_factory.hpp:77] Creating layer prelu1
I0620 11:16:24.977319  6999 net.cpp:84] Creating Layer prelu1
I0620 11:16:24.977325  6999 net.cpp:406] prelu1 <- conv1
I0620 11:16:24.977332  6999 net.cpp:367] prelu1 -> conv1 (in-place)
I0620 11:16:24.977924  6999 net.cpp:122] Setting up prelu1
I0620 11:16:24.977947  6999 net.cpp:129] Top shape: 64 28 22 22 (867328)
I0620 11:16:24.977949  6999 net.cpp:137] Memory required for data: 7384832
I0620 11:16:24.977957  6999 layer_factory.hpp:77] Creating layer pool1
I0620 11:16:24.977965  6999 net.cpp:84] Creating Layer pool1
I0620 11:16:24.977969  6999 net.cpp:406] pool1 <- conv1
I0620 11:16:24.977975  6999 net.cpp:380] pool1 -> pool1
I0620 11:16:24.978014  6999 net.cpp:122] Setting up pool1
I0620 11:16:24.978020  6999 net.cpp:129] Top shape: 64 28 11 11 (216832)
I0620 11:16:24.978025  6999 net.cpp:137] Memory required for data: 8252160
I0620 11:16:24.978029  6999 layer_factory.hpp:77] Creating layer conv2
I0620 11:16:24.978041  6999 net.cpp:84] Creating Layer conv2
I0620 11:16:24.978045  6999 net.cpp:406] conv2 <- pool1
I0620 11:16:24.978052  6999 net.cpp:380] conv2 -> conv2
I0620 11:16:24.979214  6999 net.cpp:122] Setting up conv2
I0620 11:16:24.979223  6999 net.cpp:129] Top shape: 64 48 9 9 (248832)
I0620 11:16:24.979228  6999 net.cpp:137] Memory required for data: 9247488
I0620 11:16:24.979238  6999 layer_factory.hpp:77] Creating layer prelu2
I0620 11:16:24.979245  6999 net.cpp:84] Creating Layer prelu2
I0620 11:16:24.979250  6999 net.cpp:406] prelu2 <- conv2
I0620 11:16:24.979256  6999 net.cpp:367] prelu2 -> conv2 (in-place)
I0620 11:16:24.979825  6999 net.cpp:122] Setting up prelu2
I0620 11:16:24.979833  6999 net.cpp:129] Top shape: 64 48 9 9 (248832)
I0620 11:16:24.979837  6999 net.cpp:137] Memory required for data: 10242816
I0620 11:16:24.979843  6999 layer_factory.hpp:77] Creating layer pool2
I0620 11:16:24.979851  6999 net.cpp:84] Creating Layer pool2
I0620 11:16:24.979856  6999 net.cpp:406] pool2 <- conv2
I0620 11:16:24.979862  6999 net.cpp:380] pool2 -> pool2
I0620 11:16:24.979894  6999 net.cpp:122] Setting up pool2
I0620 11:16:24.979902  6999 net.cpp:129] Top shape: 64 48 4 4 (49152)
I0620 11:16:24.979905  6999 net.cpp:137] Memory required for data: 10439424
I0620 11:16:24.979909  6999 layer_factory.hpp:77] Creating layer conv3
I0620 11:16:24.979918  6999 net.cpp:84] Creating Layer conv3
I0620 11:16:24.979924  6999 net.cpp:406] conv3 <- pool2
I0620 11:16:24.979931  6999 net.cpp:380] conv3 -> conv3
I0620 11:16:24.981066  6999 net.cpp:122] Setting up conv3
I0620 11:16:24.981076  6999 net.cpp:129] Top shape: 64 64 3 3 (36864)
I0620 11:16:24.981081  6999 net.cpp:137] Memory required for data: 10586880
I0620 11:16:24.981089  6999 layer_factory.hpp:77] Creating layer prelu3
I0620 11:16:24.981097  6999 net.cpp:84] Creating Layer prelu3
I0620 11:16:24.981101  6999 net.cpp:406] prelu3 <- conv3
I0620 11:16:24.981109  6999 net.cpp:367] prelu3 -> conv3 (in-place)
I0620 11:16:24.981178  6999 net.cpp:122] Setting up prelu3
I0620 11:16:24.981184  6999 net.cpp:129] Top shape: 64 64 3 3 (36864)
I0620 11:16:24.981189  6999 net.cpp:137] Memory required for data: 10734336
I0620 11:16:24.981196  6999 layer_factory.hpp:77] Creating layer conv4
I0620 11:16:24.981204  6999 net.cpp:84] Creating Layer conv4
I0620 11:16:24.981225  6999 net.cpp:406] conv4 <- conv3
I0620 11:16:24.981233  6999 net.cpp:380] conv4 -> conv4
I0620 11:16:24.982069  6999 net.cpp:122] Setting up conv4
I0620 11:16:24.982077  6999 net.cpp:129] Top shape: 64 128 (8192)
I0620 11:16:24.982082  6999 net.cpp:137] Memory required for data: 10767104
I0620 11:16:24.982089  6999 layer_factory.hpp:77] Creating layer prelu4
I0620 11:16:24.982096  6999 net.cpp:84] Creating Layer prelu4
I0620 11:16:24.982101  6999 net.cpp:406] prelu4 <- conv4
I0620 11:16:24.982107  6999 net.cpp:367] prelu4 -> conv4 (in-place)
I0620 11:16:24.982165  6999 net.cpp:122] Setting up prelu4
I0620 11:16:24.982172  6999 net.cpp:129] Top shape: 64 128 (8192)
I0620 11:16:24.982175  6999 net.cpp:137] Memory required for data: 10799872
I0620 11:16:24.982182  6999 layer_factory.hpp:77] Creating layer conv4_prelu4_0_split
I0620 11:16:24.982188  6999 net.cpp:84] Creating Layer conv4_prelu4_0_split
I0620 11:16:24.982193  6999 net.cpp:406] conv4_prelu4_0_split <- conv4
I0620 11:16:24.982199  6999 net.cpp:380] conv4_prelu4_0_split -> conv4_prelu4_0_split_0
I0620 11:16:24.982208  6999 net.cpp:380] conv4_prelu4_0_split -> conv4_prelu4_0_split_1
I0620 11:16:24.982215  6999 net.cpp:380] conv4_prelu4_0_split -> conv4_prelu4_0_split_2
I0620 11:16:24.982254  6999 net.cpp:122] Setting up conv4_prelu4_0_split
I0620 11:16:24.982259  6999 net.cpp:129] Top shape: 64 128 (8192)
I0620 11:16:24.982264  6999 net.cpp:129] Top shape: 64 128 (8192)
I0620 11:16:24.982269  6999 net.cpp:129] Top shape: 64 128 (8192)
I0620 11:16:24.982273  6999 net.cpp:137] Memory required for data: 10898176
I0620 11:16:24.982277  6999 layer_factory.hpp:77] Creating layer conv5-1
I0620 11:16:24.982285  6999 net.cpp:84] Creating Layer conv5-1
I0620 11:16:24.982290  6999 net.cpp:406] conv5-1 <- conv4_prelu4_0_split_0
I0620 11:16:24.982297  6999 net.cpp:380] conv5-1 -> conv5-1
I0620 11:16:24.982364  6999 net.cpp:122] Setting up conv5-1
I0620 11:16:24.982370  6999 net.cpp:129] Top shape: 64 2 (128)
I0620 11:16:24.982374  6999 net.cpp:137] Memory required for data: 10898688
I0620 11:16:24.982381  6999 layer_factory.hpp:77] Creating layer cls_bridge
I0620 11:16:24.982424  6999 net.cpp:84] Creating Layer cls_bridge
I0620 11:16:24.982429  6999 net.cpp:406] cls_bridge <- conv5-1
I0620 11:16:24.982434  6999 net.cpp:406] cls_bridge <- label
I0620 11:16:24.982440  6999 net.cpp:380] cls_bridge -> conv5-1-valid
I0620 11:16:24.982448  6999 net.cpp:380] cls_bridge -> label-valid
I0620 11:16:24.982544  6999 net.cpp:122] Setting up cls_bridge
I0620 11:16:24.982551  6999 net.cpp:129] Top shape: 64 2 (128)
I0620 11:16:24.982558  6999 net.cpp:129] Top shape: 64 1 (64)
I0620 11:16:24.982561  6999 net.cpp:137] Memory required for data: 10899456
I0620 11:16:24.982565  6999 layer_factory.hpp:77] Creating layer conv5-1-valid_cls_bridge_0_split
I0620 11:16:24.982573  6999 net.cpp:84] Creating Layer conv5-1-valid_cls_bridge_0_split
I0620 11:16:24.982578  6999 net.cpp:406] conv5-1-valid_cls_bridge_0_split <- conv5-1-valid
I0620 11:16:24.982584  6999 net.cpp:380] conv5-1-valid_cls_bridge_0_split -> conv5-1-valid_cls_bridge_0_split_0
I0620 11:16:24.982594  6999 net.cpp:380] conv5-1-valid_cls_bridge_0_split -> conv5-1-valid_cls_bridge_0_split_1
I0620 11:16:24.982625  6999 net.cpp:122] Setting up conv5-1-valid_cls_bridge_0_split
I0620 11:16:24.982631  6999 net.cpp:129] Top shape: 64 2 (128)
I0620 11:16:24.982636  6999 net.cpp:129] Top shape: 64 2 (128)
I0620 11:16:24.982640  6999 net.cpp:137] Memory required for data: 10900480
I0620 11:16:24.982645  6999 layer_factory.hpp:77] Creating layer label-valid_cls_bridge_1_split
I0620 11:16:24.982651  6999 net.cpp:84] Creating Layer label-valid_cls_bridge_1_split
I0620 11:16:24.982656  6999 net.cpp:406] label-valid_cls_bridge_1_split <- label-valid
I0620 11:16:24.982662  6999 net.cpp:380] label-valid_cls_bridge_1_split -> label-valid_cls_bridge_1_split_0
I0620 11:16:24.982671  6999 net.cpp:380] label-valid_cls_bridge_1_split -> label-valid_cls_bridge_1_split_1
I0620 11:16:24.982699  6999 net.cpp:122] Setting up label-valid_cls_bridge_1_split
I0620 11:16:24.982712  6999 net.cpp:129] Top shape: 64 1 (64)
I0620 11:16:24.982718  6999 net.cpp:129] Top shape: 64 1 (64)
I0620 11:16:24.982722  6999 net.cpp:137] Memory required for data: 10900992
I0620 11:16:24.982728  6999 layer_factory.hpp:77] Creating layer cls_loss
I0620 11:16:24.982736  6999 net.cpp:84] Creating Layer cls_loss
I0620 11:16:24.982741  6999 net.cpp:406] cls_loss <- conv5-1-valid_cls_bridge_0_split_0
I0620 11:16:24.982748  6999 net.cpp:406] cls_loss <- label-valid_cls_bridge_1_split_0
I0620 11:16:24.982754  6999 net.cpp:380] cls_loss -> cls_loss
…
