…
snapshot: 10000
snapshot_prefix: "./models/"
solver_mode: GPU
device_id: 0
net: "train24.prototxt"
train_state {
  level: 0
  stage: ""
}
I0614 11:52:05.836611  8784 solver.cpp:87] Creating training net from net file: train24.prototxt
I0614 11:52:05.838212  8784 net.cpp:51] Initializing net from parameters: 
name: "face_24c"
state {
  phase: TRAIN
  level: 0
  stage: ""
}
layer {
  name: "PythonLayer"
  type: "Python"
  top: "data"
  top: "label"
  top: "roi"
  top: "pts"
  python_param {
    module: "pythonLayer"
    layer: "Data_Layer_train"
  }
}
layer {
  name: "conv1"
  type: "Convolution"
  bottom: "data"
  top: "conv1"
  param {
    lr_mult: 0
    decay_mult: 0
  }
  param {
    lr_mult: 0
    decay_mult: 0
  }
  convolution_param {
    num_output: 28
    kernel_size: 3
    weight_filler {
      type: "gaussian"
      std: 0.0001
    }
    bias_filler {
      type: "constant"
      value: 0
    }
  }
}
layer {
  name: "relu1"
  type: "PReLU"
  bottom: "conv1"
  top: "conv1"
}
layer {
  name: "pool1"
  type: "Pooling"
  bottom: "conv1"
  top: "pool1"
  pooling_param {
    pool: MAX
    kernel_size: 3
    stride: 2
  }
}
layer {
  name: "conv2"
  type: "Convolution"
  bottom: "pool1"
  top: "conv2"
  param {
    lr_mult: 1
  }
  param {
    lr_mult: 2
  }
  convolution_param {
    num_output: 48
    kernel_size: 3
    weight_filler {
      type: "gaussian"
      std: 0.0001
    }
    bias_filler {
      type: "constant"
    }
  }
}
layer {
  name: "relu2"
  type: "PReLU"
  bottom: "conv2"
  top: "conv2"
}
layer {
  name: "pool2"
  type: "Pooling"
  bottom: "conv2"
  top: "pool2"
  pooling_param {
    pool: MAX
    kernel_size: 3
    stride: 2
  }
}
layer {
  name: "conv3"
  type: "Convolution"
  bottom: "pool2"
  top: "conv3"
  param {
    lr_mult: 1
    decay_mult: 1
  }
  param {
    lr_mult: 2
    decay_mult: 0
  }
  convolution_param {
    num_output: 64
    kernel_size: 2
    stride: 1
    weight_filler {
      type: "xavier"
    }
    bias_filler {
      type: "constant"
      value: 0
    }
  }
}
layer {
  name: "relu3"
  type: "PReLU"
  bottom: "conv3"
  top: "conv3"
}
layer {
  name: "fc4"
  type: "InnerProduct"
  bottom: "conv3"
  top: "fc4"
  param {
    lr_mult: 1
    decay_mult: 1
  }
  param {
    lr_mult: 2
    decay_mult: 0
  }
  inner_product_param {
    num_output: 128
    weight_filler {
      type: "xavier"
    }
    bias_filler {
      type: "constant"
      value: 0
    }
  }
}
layer {
  name: "relu4"
  type: "PReLU"
  bottom: "fc4"
  top: "fc4"
}
layer {
  name: "fc5-1"
  type: "InnerProduct"
  bottom: "fc4"
  top: "fc5-1"
  param {
    lr_mult: 1
    decay_mult: 1
  }
  param {
    lr_mult: 2
    decay_mult: 0
  }
  inner_product_param {
    num_output: 2
    weight_filler {
      type: "xavier"
    }
    bias_filler {
      type: "constant"
      value: 0
    }
  }
}
layer {
  name: "cls_bridge"
  type: "Python"
  bottom: "fc5-1"
  bottom: "label"
  top: "fc5-1-valid"
  top: "label-valid"
  python_param {
    module: "pythonLayer"
    layer: "cls_Layer"
  }
}
layer {
  name: "cls_loss"
  type: "SoftmaxWithLoss"
  bottom: "fc5-1-valid"
  bottom: "label-valid"
  top: "cls_loss"
  loss_weight: 1
  propagate_down: true
  propagate_down: false
}
layer {
  name: "cls_acc"
  type: "Accuracy"
  bottom: "fc5-1-valid"
  bottom: "label-valid"
  top: "cls_acc"
  include {
    phase: TRAIN
  }
}
layer {
  name: "fc5-2"
  type: "InnerProduct"
  bottom: "fc4"
  top: "fc5-2"
  param {
    lr_mult: 1
    decay_mult: 1
  }
  param {
    lr_mult: 2
    decay_mult: 0
  }
  inner_product_param {
    num_output: 4
    weight_filler {
      type: "xavier"
    }
    bias_filler {
      type: "constant"
      value: 0
    }
  }
}
layer {
  name: "roi_loss"
  type: "Python"
  bottom: "fc5-2"
  bottom: "roi"
  top: "roi_loss"
  loss_weight: 0.5
  python_param {
    module: "pythonLayer"
    layer: "regression_Layer"
  }
}
layer {
  name: "fc5-3"
  type: "InnerProduct"
  bottom: "fc4"
  top: "fc5-3"
  param {
    lr_mult: 1
    decay_mult: 1
  }
  param {
    lr_mult: 2
    decay_mult: 0
  }
  inner_product_param {
    num_output: 10
    weight_filler {
      type: "xavier"
    }
    bias_filler {
      type: "constant"
      value: 0
    }
  }
}
layer {
  name: "pts_loss"
  type: "Python"
  bottom: "fc5-3"
  bottom: "pts"
  top: "pts_loss"
  loss_weight: 0.5
  python_param {
    module: "pythonLayer"
    layer: "regression_Layer"
  }
}
I0614 11:52:05.839295  8784 layer_factory.hpp:77] Creating layer PythonLayer
I0614 11:52:06.868674  8784 net.cpp:84] Creating Layer PythonLayer
I0614 11:52:06.868728  8784 net.cpp:380] PythonLayer -> data
I0614 11:52:06.868746  8784 net.cpp:380] PythonLayer -> label
I0614 11:52:06.868757  8784 net.cpp:380] PythonLayer -> roi
I0614 11:52:06.868765  8784 net.cpp:380] PythonLayer -> pts
Start Reading Classify Data into Memory...

1124566  Classify Data have been read into Memory...
Start Reading Regression Data into Memory...

524566  Regression Data have been read into Memory...
Start Reading pts-regression Data into Memory...

202599  pts-regression Data have been read into Memory...
I0614 12:35:03.220628  8784 net.cpp:122] Setting up PythonLayer
I0614 12:35:03.229167  8784 net.cpp:129] Top shape: 64 3 24 24 (110592)
I0614 12:35:03.229198  8784 net.cpp:129] Top shape: 64 1 (64)
I0614 12:35:03.229207  8784 net.cpp:129] Top shape: 64 4 (256)
I0614 12:35:03.229214  8784 net.cpp:129] Top shape: 64 10 (640)
I0614 12:35:03.229220  8784 net.cpp:137] Memory required for data: 446208
I0614 12:35:03.233394  8784 layer_factory.hpp:77] Creating layer conv1
I0614 12:35:03.237956  8784 net.cpp:84] Creating Layer conv1
I0614 12:35:03.238584  8784 net.cpp:406] conv1 <- data
I0614 12:35:03.239960  8784 net.cpp:380] conv1 -> conv1
I0614 12:35:05.597672  8784 net.cpp:122] Setting up conv1
I0614 12:35:05.600819  8784 net.cpp:129] Top shape: 64 28 22 22 (867328)
I0614 12:35:05.600841  8784 net.cpp:137] Memory required for data: 3915520
I0614 12:35:05.605542  8784 layer_factory.hpp:77] Creating layer relu1
I0614 12:35:05.608055  8784 net.cpp:84] Creating Layer relu1
I0614 12:35:05.608091  8784 net.cpp:406] relu1 <- conv1
I0614 12:35:05.608109  8784 net.cpp:367] relu1 -> conv1 (in-place)
I0614 12:35:05.611915  8784 net.cpp:122] Setting up relu1
I0614 12:35:05.611953  8784 net.cpp:129] Top shape: 64 28 22 22 (867328)
I0614 12:35:05.611963  8784 net.cpp:137] Memory required for data: 7384832
I0614 12:35:05.611982  8784 layer_factory.hpp:77] Creating layer pool1
I0614 12:35:05.612035  8784 net.cpp:84] Creating Layer pool1
I0614 12:35:05.612049  8784 net.cpp:406] pool1 <- conv1
I0614 12:35:05.612078  8784 net.cpp:380] pool1 -> pool1
I0614 12:35:05.614398  8784 net.cpp:122] Setting up pool1
I0614 12:35:05.614433  8784 net.cpp:129] Top shape: 64 28 11 11 (216832)
I0614 12:35:05.614462  8784 net.cpp:137] Memory required for data: 8252160
I0614 12:35:05.614477  8784 layer_factory.hpp:77] Creating layer conv2
I0614 12:35:05.614526  8784 net.cpp:84] Creating Layer conv2
I0614 12:35:05.614540  8784 net.cpp:406] conv2 <- pool1
I0614 12:35:05.614568  8784 net.cpp:380] conv2 -> conv2
I0614 12:35:05.620527  8784 net.cpp:122] Setting up conv2
I0614 12:35:05.620587  8784 net.cpp:129] Top shape: 64 48 9 9 (248832)
I0614 12:35:05.620602  8784 net.cpp:137] Memory required for data: 9247488
I0614 12:35:05.620640  8784 layer_factory.hpp:77] Creating layer relu2
I0614 12:35:05.620664  8784 net.cpp:84] Creating Layer relu2
I0614 12:35:05.620677  8784 net.cpp:406] relu2 <- conv2
I0614 12:35:05.620698  8784 net.cpp:367] relu2 -> conv2 (in-place)
I0614 12:35:05.622882  8784 net.cpp:122] Setting up relu2
I0614 12:35:05.622930  8784 net.cpp:129] Top shape: 64 48 9 9 (248832)
I0614 12:35:05.622952  8784 net.cpp:137] Memory required for data: 10242816
I0614 12:35:05.622974  8784 layer_factory.hpp:77] Creating layer pool2
I0614 12:35:05.622999  8784 net.cpp:84] Creating Layer pool2
I0614 12:35:05.623013  8784 net.cpp:406] pool2 <- conv2
I0614 12:35:05.623034  8784 net.cpp:380] pool2 -> pool2
I0614 12:35:05.623204  8784 net.cpp:122] Setting up pool2
I0614 12:35:05.623229  8784 net.cpp:129] Top shape: 64 48 4 4 (49152)
I0614 12:35:05.623244  8784 net.cpp:137] Memory required for data: 10439424
I0614 12:35:05.623257  8784 layer_factory.hpp:77] Creating layer conv3
I0614 12:35:05.623286  8784 net.cpp:84] Creating Layer conv3
I0614 12:35:05.623301  8784 net.cpp:406] conv3 <- pool2
I0614 12:35:05.623324  8784 net.cpp:380] conv3 -> conv3
I0614 12:35:05.630623  8784 net.cpp:122] Setting up conv3
I0614 12:35:05.630663  8784 net.cpp:129] Top shape: 64 64 3 3 (36864)
I0614 12:35:05.630681  8784 net.cpp:137] Memory required for data: 10586880
I0614 12:35:05.632609  8784 layer_factory.hpp:77] Creating layer relu3
I0614 12:35:05.632642  8784 net.cpp:84] Creating Layer relu3
I0614 12:35:05.632657  8784 net.cpp:406] relu3 <- conv3
I0614 12:35:05.632680  8784 net.cpp:367] relu3 -> conv3 (in-place)
I0614 12:35:05.632937  8784 net.cpp:122] Setting up relu3
I0614 12:35:05.632961  8784 net.cpp:129] Top shape: 64 64 3 3 (36864)
I0614 12:35:05.632975  8784 net.cpp:137] Memory required for data: 10734336
I0614 12:35:05.633005  8784 layer_factory.hpp:77] Creating layer fc4
I0614 12:35:05.633030  8784 net.cpp:84] Creating Layer fc4
I0614 12:35:05.633043  8784 net.cpp:406] fc4 <- conv3
I0614 12:35:05.633111  8784 net.cpp:380] fc4 -> fc4
I0614 12:35:05.636548  8784 net.cpp:122] Setting up fc4
I0614 12:35:05.636587  8784 net.cpp:129] Top shape: 64 128 (8192)
I0614 12:35:05.636603  8784 net.cpp:137] Memory required for data: 10767104
I0614 12:35:05.636629  8784 layer_factory.hpp:77] Creating layer relu4
I0614 12:35:05.636649  8784 net.cpp:84] Creating Layer relu4
I0614 12:35:05.636664  8784 net.cpp:406] relu4 <- fc4
I0614 12:35:05.636684  8784 net.cpp:367] relu4 -> fc4 (in-place)
I0614 12:35:05.636883  8784 net.cpp:122] Setting up relu4
I0614 12:35:05.636904  8784 net.cpp:129] Top shape: 64 128 (8192)
I0614 12:35:05.636919  8784 net.cpp:137] Memory required for data: 10799872
I0614 12:35:05.636937  8784 layer_factory.hpp:77] Creating layer fc4_relu4_0_split
I0614 12:35:05.640364  8784 net.cpp:84] Creating Layer fc4_relu4_0_split
I0614 12:35:05.640386  8784 net.cpp:406] fc4_relu4_0_split <- fc4
I0614 12:35:05.640424  8784 net.cpp:380] fc4_relu4_0_split -> fc4_relu4_0_split_0
I0614 12:35:05.640450  8784 net.cpp:380] fc4_relu4_0_split -> fc4_relu4_0_split_1
I0614 12:35:05.640475  8784 net.cpp:380] fc4_relu4_0_split -> fc4_relu4_0_split_2
I0614 12:35:05.640626  8784 net.cpp:122] Setting up fc4_relu4_0_split
I0614 12:35:05.640650  8784 net.cpp:129] Top shape: 64 128 (8192)
I0614 12:35:05.640668  8784 net.cpp:129] Top shape: 64 128 (8192)
I0614 12:35:05.640684  8784 net.cpp:129] Top shape: 64 128 (8192)
I0614 12:35:05.640697  8784 net.cpp:137] Memory required for data: 10898176
I0614 12:35:05.640717  8784 layer_factory.hpp:77] Creating layer fc5-1
I0614 12:35:05.640740  8784 net.cpp:84] Creating Layer fc5-1
I0614 12:35:05.640753  8784 net.cpp:406] fc5-1 <- fc4_relu4_0_split_0
I0614 12:35:05.640776  8784 net.cpp:380] fc5-1 -> fc5-1
I0614 12:35:05.641021  8784 net.cpp:122] Setting up fc5-1
I0614 12:35:05.641042  8784 net.cpp:129] Top shape: 64 2 (128)
I0614 12:35:05.641055  8784 net.cpp:137] Memory required for data: 10898688
I0614 12:35:05.641086  8784 layer_factory.hpp:77] Creating layer cls_bridge
I0614 12:35:05.741966  8784 net.cpp:84] Creating Layer cls_bridge
I0614 12:35:05.742043  8784 net.cpp:406] cls_bridge <- fc5-1
I0614 12:35:05.742112  8784 net.cpp:406] cls_bridge <- label
I0614 12:35:05.742148  8784 net.cpp:380] cls_bridge -> fc5-1-valid
I0614 12:35:05.742208  8784 net.cpp:380] cls_bridge -> label-valid
I0614 12:35:05.866936  8784 net.cpp:122] Setting up cls_bridge
I0614 12:35:05.867012  8784 net.cpp:129] Top shape: 64 2 (128)
I0614 12:35:05.867032  8784 net.cpp:129] Top shape: 64 1 (64)
I0614 12:35:05.867058  8784 net.cpp:137] Memory required for data: 10899456
I0614 12:35:05.867077  8784 layer_factory.hpp:77] Creating layer fc5-1-valid_cls_bridge_0_split
I0614 12:35:05.867115  8784 net.cpp:84] Creating Layer fc5-1-valid_cls_bridge_0_split
I0614 12:35:05.867141  8784 net.cpp:406] fc5-1-valid_cls_bridge_0_split <- fc5-1-valid
I0614 12:35:05.867185  8784 net.cpp:380] fc5-1-valid_cls_bridge_0_split -> fc5-1-valid_cls_bridge_0_split_0
I0614 12:35:05.867245  8784 net.cpp:380] fc5-1-valid_cls_bridge_0_split -> fc5-1-valid_cls_bridge_0_split_1
I0614 12:35:05.867363  8784 net.cpp:122] Setting up fc5-1-valid_cls_bridge_0_split
I0614 12:35:05.867385  8784 net.cpp:129] Top shape: 64 2 (128)
I0614 12:35:05.867404  8784 net.cpp:129] Top shape: 64 2 (128)
I0614 12:35:05.867416  8784 net.cpp:137] Memory required for data: 10900480
I0614 12:35:05.867442  8784 layer_factory.hpp:77] Creating layer label-valid_cls_bridge_1_split
I0614 12:35:05.867461  8784 net.cpp:84] Creating Layer label-valid_cls_bridge_1_split
I0614 12:35:05.867477  8784 net.cpp:406] label-valid_cls_bridge_1_split <- label-valid
I0614 12:35:05.867498  8784 net.cpp:380] label-valid_cls_bridge_1_split -> label-valid_cls_bridge_1_split_0
I0614 12:35:05.867521  8784 net.cpp:380] label-valid_cls_bridge_1_split -> label-valid_cls_bridge_1_split_1
I0614 12:35:05.867610  8784 net.cpp:122] Setting up label-valid_cls_bridge_1_split
I0614 12:35:05.867632  8784 net.cpp:129] Top shape: 64 1 (64)
I0614 12:35:05.867648  8784 net.cpp:129] Top shape: 64 1 (64)
I0614 12:35:05.867712  8784 net.cpp:137] Memory required for data: 10900992
I0614 12:35:05.867734  8784 layer_factory.hpp:77] Creating layer cls_loss
I0614 12:35:05.867769  8784 net.cpp:84] Creating Layer cls_loss
I0614 12:35:05.867784  8784 net.cpp:406] cls_loss <- fc5-1-valid_cls_bridge_0_split_0
I0614 12:35:05.867812  8784 net.cpp:406] cls_loss <- label-valid_cls_bridge_1_split_0
I0614 12:35:05.867847  8784 net.cpp:380] cls_loss -> cls_loss
…
