…
snapshot: 10000
snapshot_prefix: "./models/"
solver_mode: GPU
device_id: 0
net: "train24.prototxt"
train_state {
  level: 0
  stage: ""
}
I0619 10:01:26.150285 18252 solver.cpp:87] Creating training net from net file: train24.prototxt
I0619 10:01:26.150578 18252 net.cpp:51] Initializing net from parameters: 
name: "face_24c"
state {
  phase: TRAIN
  level: 0
  stage: ""
}
layer {
  name: "PythonLayer"
  type: "Python"
  top: "data"
  top: "label"
  top: "roi"
  top: "pts"
  python_param {
    module: "pythonLayer"
    layer: "Data_Layer_train"
  }
}
layer {
  name: "conv1"
  type: "Convolution"
  bottom: "data"
  top: "conv1"
  param {
    lr_mult: 0
    decay_mult: 0
  }
  param {
    lr_mult: 0
    decay_mult: 0
  }
  convolution_param {
    num_output: 28
    kernel_size: 3
    weight_filler {
      type: "gaussian"
      std: 0.0001
    }
    bias_filler {
      type: "constant"
      value: 0
    }
  }
}
layer {
  name: "relu1"
  type: "PReLU"
  bottom: "conv1"
  top: "conv1"
}
layer {
  name: "pool1"
  type: "Pooling"
  bottom: "conv1"
  top: "pool1"
  pooling_param {
    pool: MAX
    kernel_size: 3
    stride: 2
  }
}
layer {
  name: "conv2"
  type: "Convolution"
  bottom: "pool1"
  top: "conv2"
  param {
    lr_mult: 1
  }
  param {
    lr_mult: 2
  }
  convolution_param {
    num_output: 48
    kernel_size: 3
    weight_filler {
      type: "gaussian"
      std: 0.0001
    }
    bias_filler {
      type: "constant"
    }
  }
}
layer {
  name: "relu2"
  type: "PReLU"
  bottom: "conv2"
  top: "conv2"
}
layer {
  name: "pool2"
  type: "Pooling"
  bottom: "conv2"
  top: "pool2"
  pooling_param {
    pool: MAX
    kernel_size: 3
    stride: 2
  }
}
layer {
  name: "conv3"
  type: "Convolution"
  bottom: "pool2"
  top: "conv3"
  param {
    lr_mult: 1
    decay_mult: 1
  }
  param {
    lr_mult: 2
    decay_mult: 0
  }
  convolution_param {
    num_output: 64
    kernel_size: 2
    stride: 1
    weight_filler {
      type: "xavier"
    }
    bias_filler {
      type: "constant"
      value: 0
    }
  }
}
layer {
  name: "relu3"
  type: "PReLU"
  bottom: "conv3"
  top: "conv3"
}
layer {
  name: "conv4"
  type: "InnerProduct"
  bottom: "conv3"
  top: "conv4"
  param {
    lr_mult: 1
    decay_mult: 1
  }
  param {
    lr_mult: 2
    decay_mult: 0
  }
  inner_product_param {
    num_output: 128
    weight_filler {
      type: "xavier"
    }
    bias_filler {
      type: "constant"
      value: 0
    }
  }
}
layer {
  name: "relu4"
  type: "PReLU"
  bottom: "conv4"
  top: "conv4"
}
layer {
  name: "conv5-1"
  type: "InnerProduct"
  bottom: "conv4"
  top: "conv5-1"
  param {
    lr_mult: 1
    decay_mult: 1
  }
  param {
    lr_mult: 2
    decay_mult: 0
  }
  inner_product_param {
    num_output: 2
    weight_filler {
      type: "xavier"
    }
    bias_filler {
      type: "constant"
      value: 0
    }
  }
}
layer {
  name: "cls_bridge"
  type: "Python"
  bottom: "conv5-1"
  bottom: "label"
  top: "conv5-1-valid"
  top: "label-valid"
  python_param {
    module: "pythonLayer"
    layer: "cls_Layer"
  }
}
layer {
  name: "cls_loss"
  type: "SoftmaxWithLoss"
  bottom: "conv5-1-valid"
  bottom: "label-valid"
  top: "cls_loss"
  loss_weight: 1
  propagate_down: true
  propagate_down: false
}
layer {
  name: "cls_acc"
  type: "Accuracy"
  bottom: "conv5-1-valid"
  bottom: "label-valid"
  top: "cls_acc"
  include {
    phase: TRAIN
  }
}
layer {
  name: "conv5-2"
  type: "InnerProduct"
  bottom: "conv4"
  top: "conv5-2"
  param {
    lr_mult: 1
    decay_mult: 1
  }
  param {
    lr_mult: 2
    decay_mult: 0
  }
  inner_product_param {
    num_output: 4
    weight_filler {
      type: "xavier"
    }
    bias_filler {
      type: "constant"
      value: 0
    }
  }
}
layer {
  name: "roi_bridge"
  type: "Python"
  bottom: "conv5-2"
  bottom: "roi"
  top: "conv5-2-valid"
  top: "roi-valid"
  propagate_down: true
  propagate_down: false
  python_param {
    module: "pythonLayer"
    layer: "roi_filter_Layer"
  }
}
layer {
  name: "roi_loss"
  type: "EuclideanLoss"
  bottom: "conv5-2-valid"
  bottom: "roi-valid"
  top: "roi_loss"
  loss_weight: 0.5
  propagate_down: true
  propagate_down: false
}
layer {
  name: "conv5-3"
  type: "InnerProduct"
  bottom: "conv4"
  top: "conv5-3"
  param {
    lr_mult: 1
    decay_mult: 1
  }
  param {
    lr_mult: 2
    decay_mult: 0
  }
  inner_product_param {
    num_output: 10
    weight_filler {
      type: "xavier"
    }
    bias_filler {
      type: "constant"
      value: 0
    }
  }
}
layer {
  name: "pts_bridge"
  type: "Python"
  bottom: "conv5-3"
  bottom: "pts"
  top: "conv5-3-valid"
  top: "pts-valid"
  propagate_down: true
  propagate_down: false
  python_param {
    module: "pythonLayer"
    layer: "pts_filter_Layer"
  }
}
layer {
  name: "pts_loss"
  type: "EuclideanLoss"
  bottom: "conv5-3-valid"
  bottom: "pts-valid"
  top: "pts_loss"
  loss_weight: 0.5
  propagate_down: true
  propagate_down: false
}
I0619 10:01:26.150797 18252 layer_factory.hpp:77] Creating layer PythonLayer
I0619 10:01:26.934880 18252 net.cpp:84] Creating Layer PythonLayer
I0619 10:01:26.934921 18252 net.cpp:380] PythonLayer -> data
I0619 10:01:26.934953 18252 net.cpp:380] PythonLayer -> label
I0619 10:01:26.934976 18252 net.cpp:380] PythonLayer -> roi
I0619 10:01:26.934983 18252 net.cpp:380] PythonLayer -> pts
Start Reading Classify Data into Memory...

1124566  Classify Data have been read into Memory...
Start Reading Regression Data into Memory...

524566  Regression Data have been read into Memory...
Start Reading pts-regression Data into Memory...

202599  pts-regression Data have been read into Memory...
I0619 10:45:15.200259 18252 net.cpp:122] Setting up PythonLayer
I0619 10:45:15.206797 18252 net.cpp:129] Top shape: 64 3 24 24 (110592)
I0619 10:45:15.206827 18252 net.cpp:129] Top shape: 64 1 (64)
I0619 10:45:15.206838 18252 net.cpp:129] Top shape: 64 4 (256)
I0619 10:45:15.206847 18252 net.cpp:129] Top shape: 64 10 (640)
I0619 10:45:15.206853 18252 net.cpp:137] Memory required for data: 446208
I0619 10:45:15.213317 18252 layer_factory.hpp:77] Creating layer conv1
I0619 10:45:15.220309 18252 net.cpp:84] Creating Layer conv1
I0619 10:45:15.221015 18252 net.cpp:406] conv1 <- data
I0619 10:45:15.222558 18252 net.cpp:380] conv1 -> conv1
I0619 10:45:18.094341 18252 net.cpp:122] Setting up conv1
I0619 10:45:18.096473 18252 net.cpp:129] Top shape: 64 28 22 22 (867328)
I0619 10:45:18.096494 18252 net.cpp:137] Memory required for data: 3915520
I0619 10:45:18.100489 18252 layer_factory.hpp:77] Creating layer relu1
I0619 10:45:18.102787 18252 net.cpp:84] Creating Layer relu1
I0619 10:45:18.102810 18252 net.cpp:406] relu1 <- conv1
I0619 10:45:18.102828 18252 net.cpp:367] relu1 -> conv1 (in-place)
I0619 10:45:18.106235 18252 net.cpp:122] Setting up relu1
I0619 10:45:18.106269 18252 net.cpp:129] Top shape: 64 28 22 22 (867328)
I0619 10:45:18.106278 18252 net.cpp:137] Memory required for data: 7384832
I0619 10:45:18.106298 18252 layer_factory.hpp:77] Creating layer pool1
I0619 10:45:18.106576 18252 net.cpp:84] Creating Layer pool1
I0619 10:45:18.106595 18252 net.cpp:406] pool1 <- conv1
I0619 10:45:18.106611 18252 net.cpp:380] pool1 -> pool1
I0619 10:45:18.108836 18252 net.cpp:122] Setting up pool1
I0619 10:45:18.108875 18252 net.cpp:129] Top shape: 64 28 11 11 (216832)
I0619 10:45:18.108888 18252 net.cpp:137] Memory required for data: 8252160
I0619 10:45:18.108897 18252 layer_factory.hpp:77] Creating layer conv2
I0619 10:45:18.109520 18252 net.cpp:84] Creating Layer conv2
I0619 10:45:18.109557 18252 net.cpp:406] conv2 <- pool1
I0619 10:45:18.109577 18252 net.cpp:380] conv2 -> conv2
I0619 10:45:18.117511 18252 net.cpp:122] Setting up conv2
I0619 10:45:18.117553 18252 net.cpp:129] Top shape: 64 48 9 9 (248832)
I0619 10:45:18.117564 18252 net.cpp:137] Memory required for data: 9247488
I0619 10:45:18.117604 18252 layer_factory.hpp:77] Creating layer relu2
I0619 10:45:18.117625 18252 net.cpp:84] Creating Layer relu2
I0619 10:45:18.117638 18252 net.cpp:406] relu2 <- conv2
I0619 10:45:18.117883 18252 net.cpp:367] relu2 -> conv2 (in-place)
I0619 10:45:18.119978 18252 net.cpp:122] Setting up relu2
I0619 10:45:18.120010 18252 net.cpp:129] Top shape: 64 48 9 9 (248832)
I0619 10:45:18.120019 18252 net.cpp:137] Memory required for data: 10242816
I0619 10:45:18.120033 18252 layer_factory.hpp:77] Creating layer pool2
I0619 10:45:18.120054 18252 net.cpp:84] Creating Layer pool2
I0619 10:45:18.120064 18252 net.cpp:406] pool2 <- conv2
I0619 10:45:18.120077 18252 net.cpp:380] pool2 -> pool2
I0619 10:45:18.120173 18252 net.cpp:122] Setting up pool2
I0619 10:45:18.120193 18252 net.cpp:129] Top shape: 64 48 4 4 (49152)
I0619 10:45:18.120200 18252 net.cpp:137] Memory required for data: 10439424
I0619 10:45:18.120208 18252 layer_factory.hpp:77] Creating layer conv3
I0619 10:45:18.120229 18252 net.cpp:84] Creating Layer conv3
I0619 10:45:18.120242 18252 net.cpp:406] conv3 <- pool2
I0619 10:45:18.120255 18252 net.cpp:380] conv3 -> conv3
I0619 10:45:18.124624 18252 net.cpp:122] Setting up conv3
I0619 10:45:18.124660 18252 net.cpp:129] Top shape: 64 64 3 3 (36864)
I0619 10:45:18.124671 18252 net.cpp:137] Memory required for data: 10586880
I0619 10:45:18.124688 18252 layer_factory.hpp:77] Creating layer relu3
I0619 10:45:18.125141 18252 net.cpp:84] Creating Layer relu3
I0619 10:45:18.125165 18252 net.cpp:406] relu3 <- conv3
I0619 10:45:18.125187 18252 net.cpp:367] relu3 -> conv3 (in-place)
I0619 10:45:18.125497 18252 net.cpp:122] Setting up relu3
I0619 10:45:18.125520 18252 net.cpp:129] Top shape: 64 64 3 3 (36864)
I0619 10:45:18.125532 18252 net.cpp:137] Memory required for data: 10734336
I0619 10:45:18.125563 18252 layer_factory.hpp:77] Creating layer conv4
I0619 10:45:18.125593 18252 net.cpp:84] Creating Layer conv4
I0619 10:45:18.125607 18252 net.cpp:406] conv4 <- conv3
I0619 10:45:18.125674 18252 net.cpp:380] conv4 -> conv4
I0619 10:45:18.129874 18252 net.cpp:122] Setting up conv4
I0619 10:45:18.129912 18252 net.cpp:129] Top shape: 64 128 (8192)
I0619 10:45:18.129925 18252 net.cpp:137] Memory required for data: 10767104
I0619 10:45:18.129946 18252 layer_factory.hpp:77] Creating layer relu4
I0619 10:45:18.129968 18252 net.cpp:84] Creating Layer relu4
I0619 10:45:18.129982 18252 net.cpp:406] relu4 <- conv4
I0619 10:45:18.129998 18252 net.cpp:367] relu4 -> conv4 (in-place)
I0619 10:45:18.130229 18252 net.cpp:122] Setting up relu4
I0619 10:45:18.130249 18252 net.cpp:129] Top shape: 64 128 (8192)
I0619 10:45:18.130264 18252 net.cpp:137] Memory required for data: 10799872
I0619 10:45:18.130278 18252 layer_factory.hpp:77] Creating layer conv4_relu4_0_split
I0619 10:45:18.132154 18252 net.cpp:84] Creating Layer conv4_relu4_0_split
I0619 10:45:18.132194 18252 net.cpp:406] conv4_relu4_0_split <- conv4
I0619 10:45:18.132226 18252 net.cpp:380] conv4_relu4_0_split -> conv4_relu4_0_split_0
I0619 10:45:18.132257 18252 net.cpp:380] conv4_relu4_0_split -> conv4_relu4_0_split_1
I0619 10:45:18.132284 18252 net.cpp:380] conv4_relu4_0_split -> conv4_relu4_0_split_2
I0619 10:45:18.132526 18252 net.cpp:122] Setting up conv4_relu4_0_split
I0619 10:45:18.132557 18252 net.cpp:129] Top shape: 64 128 (8192)
I0619 10:45:18.132576 18252 net.cpp:129] Top shape: 64 128 (8192)
I0619 10:45:18.132594 18252 net.cpp:129] Top shape: 64 128 (8192)
I0619 10:45:18.132608 18252 net.cpp:137] Memory required for data: 10898176
I0619 10:45:18.133105 18252 layer_factory.hpp:77] Creating layer conv5-1
I0619 10:45:18.133141 18252 net.cpp:84] Creating Layer conv5-1
I0619 10:45:18.133157 18252 net.cpp:406] conv5-1 <- conv4_relu4_0_split_0
I0619 10:45:18.133185 18252 net.cpp:380] conv5-1 -> conv5-1
I0619 10:45:18.133491 18252 net.cpp:122] Setting up conv5-1
I0619 10:45:18.133515 18252 net.cpp:129] Top shape: 64 2 (128)
I0619 10:45:18.133529 18252 net.cpp:137] Memory required for data: 10898688
I0619 10:45:18.133555 18252 layer_factory.hpp:77] Creating layer cls_bridge
I0619 10:45:18.152781 18252 net.cpp:84] Creating Layer cls_bridge
I0619 10:45:18.152824 18252 net.cpp:406] cls_bridge <- conv5-1
I0619 10:45:18.152851 18252 net.cpp:406] cls_bridge <- label
I0619 10:45:18.152882 18252 net.cpp:380] cls_bridge -> conv5-1-valid
I0619 10:45:18.152915 18252 net.cpp:380] cls_bridge -> label-valid
I0619 10:45:18.167523 18252 net.cpp:122] Setting up cls_bridge
I0619 10:45:18.167568 18252 net.cpp:129] Top shape: 64 2 (128)
I0619 10:45:18.167582 18252 net.cpp:129] Top shape: 64 1 (64)
I0619 10:45:18.167592 18252 net.cpp:137] Memory required for data: 10899456
I0619 10:45:18.167604 18252 layer_factory.hpp:77] Creating layer conv5-1-valid_cls_bridge_0_split
I0619 10:45:18.167629 18252 net.cpp:84] Creating Layer conv5-1-valid_cls_bridge_0_split
I0619 10:45:18.167640 18252 net.cpp:406] conv5-1-valid_cls_bridge_0_split <- conv5-1-valid
I0619 10:45:18.167660 18252 net.cpp:380] conv5-1-valid_cls_bridge_0_split -> conv5-1-valid_cls_bridge_0_split_0
I0619 10:45:18.167691 18252 net.cpp:380] conv5-1-valid_cls_bridge_0_split -> conv5-1-valid_cls_bridge_0_split_1
I0619 10:45:18.167798 18252 net.cpp:122] Setting up conv5-1-valid_cls_bridge_0_split
I0619 10:45:18.167816 18252 net.cpp:129] Top shape: 64 2 (128)
I0619 10:45:18.167829 18252 net.cpp:129] Top shape: 64 2 (128)
I0619 10:45:18.167840 18252 net.cpp:137] Memory required for data: 10900480
I0619 10:45:18.167850 18252 layer_factory.hpp:77] Creating layer label-valid_cls_bridge_1_split
I0619 10:45:18.167876 18252 net.cpp:84] Creating Layer label-valid_cls_bridge_1_split
I0619 10:45:18.167891 18252 net.cpp:406] label-valid_cls_bridge_1_split <- label-valid
I0619 10:45:18.167909 18252 net.cpp:380] label-valid_cls_bridge_1_split -> label-valid_cls_bridge_1_split_0
I0619 10:45:18.167928 18252 net.cpp:380] label-valid_cls_bridge_1_split -> label-valid_cls_bridge_1_split_1
I0619 10:45:18.168021 18252 net.cpp:122] Setting up label-valid_cls_bridge_1_split
I0619 10:45:18.168043 18252 net.cpp:129] Top shape: 64 1 (64)
I0619 10:45:18.168097 18252 net.cpp:129] Top shape: 64 1 (64)
I0619 10:45:18.168109 18252 net.cpp:137] Memory required for data: 10900992
I0619 10:45:18.168121 18252 layer_factory.hpp:77] Creating layer cls_loss
I0619 10:45:18.168145 18252 net.cpp:84] Creating Layer cls_loss
I0619 10:45:18.168160 18252 net.cpp:406] cls_loss <- conv5-1-valid_cls_bridge_0_split_0
I0619 10:45:18.168174 18252 net.cpp:406] cls_loss <- label-valid_cls_bridge_1_split_0
I0619 10:45:18.168190 18252 net.cpp:380] cls_loss -> cls_loss
…
I0619 10:45:18.172312 18252 net.cpp:380] cls_acc -> cls_acc
I0619 10:45:18.172538 18252 net.cpp:122] Setting up cls_acc
I0619 10:45:18.172564 18252 net.cpp:129] Top shape: (1)
I0619 10:45:18.172574 18252 net.cpp:137] Memory required for data: 10901000
I0619 10:45:18.172587 18252 layer_factory.hpp:77] Creating layer conv5-2
I0619 10:45:18.172610 18252 net.cpp:84] Creating Layer conv5-2
I0619 10:45:18.172623 18252 net.cpp:406] conv5-2 <- conv4_relu4_0_split_1
I0619 10:45:18.172648 18252 net.cpp:380] conv5-2 -> conv5-2
I0619 10:45:18.173002 18252 net.cpp:122] Setting up conv5-2
I0619 10:45:18.173022 18252 net.cpp:129] Top shape: 64 4 (256)
I0619 10:45:18.173032 18252 net.cpp:137] Memory required for data: 10902024
I0619 10:45:18.173051 18252 layer_factory.hpp:77] Creating layer roi_bridge
I0619 10:45:18.173341 18252 net.cpp:84] Creating Layer roi_bridge
I0619 10:45:18.173363 18252 net.cpp:406] roi_bridge <- conv5-2
I0619 10:45:18.173379 18252 net.cpp:406] roi_bridge <- roi
I0619 10:45:18.173398 18252 net.cpp:380] roi_bridge -> conv5-2-valid
I0619 10:45:18.173422 18252 net.cpp:380] roi_bridge -> roi-valid
I0619 10:45:18.173944 18252 net.cpp:122] Setting up roi_bridge
I0619 10:45:18.173975 18252 net.cpp:129] Top shape: 64 4 (256)
I0619 10:45:18.173990 18252 net.cpp:129] Top shape: 64 4 (256)
I0619 10:45:18.174001 18252 net.cpp:137] Memory required for data: 10904072
I0619 10:45:18.174015 18252 layer_factory.hpp:77] Creating layer roi_loss
I0619 10:45:18.174036 18252 net.cpp:84] Creating Layer roi_loss
I0619 10:45:18.174051 18252 net.cpp:406] roi_loss <- conv5-2-valid
I0619 10:45:18.174067 18252 net.cpp:406] roi_loss <- roi-valid
I0619 10:45:18.174084 18252 net.cpp:380] roi_loss -> roi_loss
I0619 10:45:18.174197 18252 net.cpp:122] Setting up roi_loss
I0619 10:45:18.174214 18252 net.cpp:129] Top shape: (1)
I0619 10:45:18.174227 18252 net.cpp:132]     with loss weight 0.5
I0619 10:45:18.174247 18252 net.cpp:137] Memory required for data: 10904076
I0619 10:45:18.174258 18252 layer_factory.hpp:77] Creating layer conv5-3
I0619 10:45:18.174283 18252 net.cpp:84] Creating Layer conv5-3
I0619 10:45:18.174298 18252 net.cpp:406] conv5-3 <- conv4_relu4_0_split_2
I0619 10:45:18.174315 18252 net.cpp:380] conv5-3 -> conv5-3
I0619 10:45:18.174651 18252 net.cpp:122] Setting up conv5-3
I0619 10:45:18.174671 18252 net.cpp:129] Top shape: 64 10 (640)
I0619 10:45:18.174685 18252 net.cpp:137] Memory required for data: 10906636
I0619 10:45:18.174715 18252 layer_factory.hpp:77] Creating layer pts_bridge
I0619 10:45:18.174957 18252 net.cpp:84] Creating Layer pts_bridge
I0619 10:45:18.174978 18252 net.cpp:406] pts_bridge <- conv5-3
I0619 10:45:18.174995 18252 net.cpp:406] pts_bridge <- pts
I0619 10:45:18.175014 18252 net.cpp:380] pts_bridge -> conv5-3-valid
I0619 10:45:18.175035 18252 net.cpp:380] pts_bridge -> pts-valid
I0619 10:45:18.175276 18252 net.cpp:122] Setting up pts_bridge
I0619 10:45:18.175333 18252 net.cpp:129] Top shape: 64 10 (640)
I0619 10:45:18.175346 18252 net.cpp:129] Top shape: 64 10 (640)
I0619 10:45:18.175356 18252 net.cpp:137] Memory required for data: 10911756
I0619 10:45:18.175369 18252 layer_factory.hpp:77] Creating layer pts_loss
I0619 10:45:18.175388 18252 net.cpp:84] Creating Layer pts_loss
I0619 10:45:18.175401 18252 net.cpp:406] pts_loss <- conv5-3-valid
I0619 10:45:18.175416 18252 net.cpp:406] pts_loss <- pts-valid
I0619 10:45:18.175436 18252 net.cpp:380] pts_loss -> pts_loss
…
