…
snapshot: 5000
snapshot_prefix: "./models/"
solver_mode: GPU
device_id: 0
net: "train24.prototxt"
train_state {
  level: 0
  stage: ""
}
I0620 10:27:50.151054  5471 solver.cpp:87] Creating training net from net file: train24.prototxt
I0620 10:27:50.151355  5471 net.cpp:51] Initializing net from parameters: 
name: "face_24c"
state {
  phase: TRAIN
  level: 0
  stage: ""
}
layer {
  name: "PythonLayer"
  type: "Python"
  top: "data"
  top: "label"
  top: "roi"
  top: "pts"
  python_param {
    module: "pythonLayer"
    layer: "Data_Layer_train"
  }
}
layer {
  name: "conv1"
  type: "Convolution"
  bottom: "data"
  top: "conv1"
  param {
    lr_mult: 1
  }
  param {
    lr_mult: 2
  }
  convolution_param {
    num_output: 28
    kernel_size: 3
    stride: 1
    weight_filler {
      type: "xavier"
    }
    bias_filler {
      type: "constant"
      value: 0
    }
  }
}
layer {
  name: "prelu1"
  type: "PReLU"
  bottom: "conv1"
  top: "conv1"
}
layer {
  name: "pool1"
  type: "Pooling"
  bottom: "conv1"
  top: "pool1"
  pooling_param {
    pool: MAX
    kernel_size: 3
    stride: 2
  }
}
layer {
  name: "conv2"
  type: "Convolution"
  bottom: "pool1"
  top: "conv2"
  param {
    lr_mult: 1
  }
  param {
    lr_mult: 2
  }
  convolution_param {
    num_output: 48
    kernel_size: 3
    stride: 1
    weight_filler {
      type: "xavier"
    }
    bias_filler {
      type: "constant"
      value: 0
    }
  }
}
layer {
  name: "prelu2"
  type: "PReLU"
  bottom: "conv2"
  top: "conv2"
}
layer {
  name: "pool2"
  type: "Pooling"
  bottom: "conv2"
  top: "pool2"
  pooling_param {
    pool: MAX
    kernel_size: 3
    stride: 2
  }
}
layer {
  name: "conv3"
  type: "Convolution"
  bottom: "pool2"
  top: "conv3"
  param {
    lr_mult: 1
    decay_mult: 1
  }
  param {
    lr_mult: 2
    decay_mult: 0
  }
  convolution_param {
    num_output: 64
    kernel_size: 2
    stride: 1
    weight_filler {
      type: "xavier"
    }
    bias_filler {
      type: "constant"
      value: 0
    }
  }
}
layer {
  name: "prelu3"
  type: "PReLU"
  bottom: "conv3"
  top: "conv3"
}
layer {
  name: "conv4"
  type: "InnerProduct"
  bottom: "conv3"
  top: "conv4"
  param {
    lr_mult: 1
    decay_mult: 1
  }
  param {
    lr_mult: 2
    decay_mult: 0
  }
  propagate_down: false
  inner_product_param {
    num_output: 128
    weight_filler {
      type: "xavier"
    }
    bias_filler {
      type: "constant"
      value: 0
    }
  }
}
layer {
  name: "prelu4"
  type: "PReLU"
  bottom: "conv4"
  top: "conv4"
}
layer {
  name: "conv5-1"
  type: "InnerProduct"
  bottom: "conv4"
  top: "conv5-1"
  param {
    lr_mult: 1
    decay_mult: 1
  }
  param {
    lr_mult: 2
    decay_mult: 0
  }
  inner_product_param {
    num_output: 2
    weight_filler {
      type: "xavier"
    }
    bias_filler {
      type: "constant"
      value: 0
    }
  }
}
layer {
  name: "cls_bridge"
  type: "Python"
  bottom: "conv5-1"
  bottom: "label"
  top: "conv5-1-valid"
  top: "label-valid"
  python_param {
    module: "pythonLayer"
    layer: "cls_Layer"
  }
}
layer {
  name: "cls_loss"
  type: "SoftmaxWithLoss"
  bottom: "conv5-1-valid"
  bottom: "label-valid"
  top: "cls_loss"
  loss_weight: 1
  propagate_down: true
  propagate_down: false
}
layer {
  name: "cls_acc"
  type: "Accuracy"
  bottom: "conv5-1-valid"
  bottom: "label-valid"
  top: "cls_acc"
  include {
    phase: TRAIN
  }
}
layer {
  name: "conv5-2"
  type: "InnerProduct"
  bottom: "conv4"
  top: "conv5-2"
  param {
    lr_mult: 1
    decay_mult: 1
  }
  param {
    lr_mult: 2
    decay_mult: 0
  }
  inner_product_param {
    num_output: 4
    weight_filler {
      type: "xavier"
    }
    bias_filler {
      type: "constant"
      value: 0
    }
  }
}
layer {
  name: "roi_loss"
  type: "Python"
  bottom: "conv5-2"
  bottom: "roi"
  top: "roi_loss"
  loss_weight: 0
  python_param {
    module: "pythonLayer"
    layer: "regression_Layer"
  }
}
layer {
  name: "conv5-3"
  type: "InnerProduct"
  bottom: "conv4"
  top: "conv5-3"
  param {
    lr_mult: 1
    decay_mult: 1
  }
  param {
    lr_mult: 2
    decay_mult: 0
  }
  propagate_down: false
  inner_product_param {
    num_output: 10
    weight_filler {
      type: "xavier"
    }
    bias_filler {
      type: "constant"
      value: 0
    }
  }
}
layer {
  name: "pts_loss"
  type: "Python"
  bottom: "conv5-3"
  bottom: "pts"
  top: "pts_loss"
  loss_weight: 0
  python_param {
    module: "pythonLayer"
    layer: "regression_Layer"
  }
}
I0620 10:27:50.151595  5471 layer_factory.hpp:77] Creating layer PythonLayer
I0620 10:27:50.737378  5471 net.cpp:84] Creating Layer PythonLayer
I0620 10:27:50.737402  5471 net.cpp:380] PythonLayer -> data
I0620 10:27:50.737439  5471 net.cpp:380] PythonLayer -> label
I0620 10:27:50.737449  5471 net.cpp:380] PythonLayer -> roi
I0620 10:27:50.737457  5471 net.cpp:380] PythonLayer -> pts
Start Reading Classify Data into Memory...

20000  Classify Data have been read into Memory...
Start Reading Regression Data into Memory...

10000  Regression Data have been read into Memory...
Start Reading pts-regression Data into Memory...

10000  pts-regression Data have been read into Memory...
I0620 10:28:51.521685  5471 net.cpp:122] Setting up PythonLayer
I0620 10:28:51.521728  5471 net.cpp:129] Top shape: 64 3 24 24 (110592)
I0620 10:28:51.521747  5471 net.cpp:129] Top shape: 64 1 (64)
I0620 10:28:51.521751  5471 net.cpp:129] Top shape: 64 4 (256)
I0620 10:28:51.521754  5471 net.cpp:129] Top shape: 64 10 (640)
I0620 10:28:51.521757  5471 net.cpp:137] Memory required for data: 446208
I0620 10:28:51.521765  5471 layer_factory.hpp:77] Creating layer conv1
I0620 10:28:51.521785  5471 net.cpp:84] Creating Layer conv1
I0620 10:28:51.521790  5471 net.cpp:406] conv1 <- data
I0620 10:28:51.521800  5471 net.cpp:380] conv1 -> conv1
I0620 10:28:51.843552  5471 net.cpp:122] Setting up conv1
I0620 10:28:51.843590  5471 net.cpp:129] Top shape: 64 28 22 22 (867328)
I0620 10:28:51.843595  5471 net.cpp:137] Memory required for data: 3915520
I0620 10:28:51.843642  5471 layer_factory.hpp:77] Creating layer prelu1
I0620 10:28:51.843664  5471 net.cpp:84] Creating Layer prelu1
I0620 10:28:51.843680  5471 net.cpp:406] prelu1 <- conv1
I0620 10:28:51.843685  5471 net.cpp:367] prelu1 -> conv1 (in-place)
I0620 10:28:51.844312  5471 net.cpp:122] Setting up prelu1
I0620 10:28:51.844336  5471 net.cpp:129] Top shape: 64 28 22 22 (867328)
I0620 10:28:51.844338  5471 net.cpp:137] Memory required for data: 7384832
I0620 10:28:51.844343  5471 layer_factory.hpp:77] Creating layer pool1
I0620 10:28:51.844364  5471 net.cpp:84] Creating Layer pool1
I0620 10:28:51.844386  5471 net.cpp:406] pool1 <- conv1
I0620 10:28:51.844393  5471 net.cpp:380] pool1 -> pool1
I0620 10:28:51.844454  5471 net.cpp:122] Setting up pool1
I0620 10:28:51.844458  5471 net.cpp:129] Top shape: 64 28 11 11 (216832)
I0620 10:28:51.844460  5471 net.cpp:137] Memory required for data: 8252160
I0620 10:28:51.844462  5471 layer_factory.hpp:77] Creating layer conv2
I0620 10:28:51.844471  5471 net.cpp:84] Creating Layer conv2
I0620 10:28:51.844475  5471 net.cpp:406] conv2 <- pool1
I0620 10:28:51.844478  5471 net.cpp:380] conv2 -> conv2
I0620 10:28:51.845660  5471 net.cpp:122] Setting up conv2
I0620 10:28:51.845683  5471 net.cpp:129] Top shape: 64 48 9 9 (248832)
I0620 10:28:51.845685  5471 net.cpp:137] Memory required for data: 9247488
I0620 10:28:51.845706  5471 layer_factory.hpp:77] Creating layer prelu2
I0620 10:28:51.845711  5471 net.cpp:84] Creating Layer prelu2
I0620 10:28:51.845715  5471 net.cpp:406] prelu2 <- conv2
I0620 10:28:51.845736  5471 net.cpp:367] prelu2 -> conv2 (in-place)
I0620 10:28:51.846320  5471 net.cpp:122] Setting up prelu2
I0620 10:28:51.846328  5471 net.cpp:129] Top shape: 64 48 9 9 (248832)
I0620 10:28:51.846345  5471 net.cpp:137] Memory required for data: 10242816
I0620 10:28:51.846350  5471 layer_factory.hpp:77] Creating layer pool2
I0620 10:28:51.846355  5471 net.cpp:84] Creating Layer pool2
I0620 10:28:51.846359  5471 net.cpp:406] pool2 <- conv2
I0620 10:28:51.846362  5471 net.cpp:380] pool2 -> pool2
I0620 10:28:51.846403  5471 net.cpp:122] Setting up pool2
I0620 10:28:51.846408  5471 net.cpp:129] Top shape: 64 48 4 4 (49152)
I0620 10:28:51.846411  5471 net.cpp:137] Memory required for data: 10439424
I0620 10:28:51.846426  5471 layer_factory.hpp:77] Creating layer conv3
I0620 10:28:51.846431  5471 net.cpp:84] Creating Layer conv3
I0620 10:28:51.846433  5471 net.cpp:406] conv3 <- pool2
I0620 10:28:51.846437  5471 net.cpp:380] conv3 -> conv3
I0620 10:28:51.847604  5471 net.cpp:122] Setting up conv3
I0620 10:28:51.847612  5471 net.cpp:129] Top shape: 64 64 3 3 (36864)
I0620 10:28:51.847630  5471 net.cpp:137] Memory required for data: 10586880
I0620 10:28:51.847635  5471 layer_factory.hpp:77] Creating layer prelu3
I0620 10:28:51.847654  5471 net.cpp:84] Creating Layer prelu3
I0620 10:28:51.847657  5471 net.cpp:406] prelu3 <- conv3
I0620 10:28:51.847661  5471 net.cpp:367] prelu3 -> conv3 (in-place)
I0620 10:28:51.847751  5471 net.cpp:122] Setting up prelu3
I0620 10:28:51.847755  5471 net.cpp:129] Top shape: 64 64 3 3 (36864)
I0620 10:28:51.847759  5471 net.cpp:137] Memory required for data: 10734336
I0620 10:28:51.847776  5471 layer_factory.hpp:77] Creating layer conv4
I0620 10:28:51.847800  5471 net.cpp:84] Creating Layer conv4
I0620 10:28:51.847831  5471 net.cpp:406] conv4 <- conv3
I0620 10:28:51.847851  5471 net.cpp:380] conv4 -> conv4
I0620 10:28:51.848698  5471 net.cpp:122] Setting up conv4
I0620 10:28:51.848707  5471 net.cpp:129] Top shape: 64 128 (8192)
I0620 10:28:51.848724  5471 net.cpp:137] Memory required for data: 10767104
I0620 10:28:51.848728  5471 layer_factory.hpp:77] Creating layer prelu4
I0620 10:28:51.848747  5471 net.cpp:84] Creating Layer prelu4
I0620 10:28:51.848750  5471 net.cpp:406] prelu4 <- conv4
I0620 10:28:51.848753  5471 net.cpp:367] prelu4 -> conv4 (in-place)
I0620 10:28:51.848846  5471 net.cpp:122] Setting up prelu4
I0620 10:28:51.848850  5471 net.cpp:129] Top shape: 64 128 (8192)
I0620 10:28:51.848867  5471 net.cpp:137] Memory required for data: 10799872
I0620 10:28:51.848870  5471 layer_factory.hpp:77] Creating layer conv4_prelu4_0_split
I0620 10:28:51.848876  5471 net.cpp:84] Creating Layer conv4_prelu4_0_split
I0620 10:28:51.848893  5471 net.cpp:406] conv4_prelu4_0_split <- conv4
I0620 10:28:51.848897  5471 net.cpp:380] conv4_prelu4_0_split -> conv4_prelu4_0_split_0
I0620 10:28:51.848902  5471 net.cpp:380] conv4_prelu4_0_split -> conv4_prelu4_0_split_1
I0620 10:28:51.848906  5471 net.cpp:380] conv4_prelu4_0_split -> conv4_prelu4_0_split_2
I0620 10:28:51.848937  5471 net.cpp:122] Setting up conv4_prelu4_0_split
I0620 10:28:51.848954  5471 net.cpp:129] Top shape: 64 128 (8192)
I0620 10:28:51.848958  5471 net.cpp:129] Top shape: 64 128 (8192)
I0620 10:28:51.848959  5471 net.cpp:129] Top shape: 64 128 (8192)
I0620 10:28:51.848961  5471 net.cpp:137] Memory required for data: 10898176
I0620 10:28:51.848963  5471 layer_factory.hpp:77] Creating layer conv5-1
I0620 10:28:51.848968  5471 net.cpp:84] Creating Layer conv5-1
I0620 10:28:51.848970  5471 net.cpp:406] conv5-1 <- conv4_prelu4_0_split_0
I0620 10:28:51.848973  5471 net.cpp:380] conv5-1 -> conv5-1
I0620 10:28:51.849050  5471 net.cpp:122] Setting up conv5-1
I0620 10:28:51.849056  5471 net.cpp:129] Top shape: 64 2 (128)
I0620 10:28:51.849058  5471 net.cpp:137] Memory required for data: 10898688
I0620 10:28:51.849062  5471 layer_factory.hpp:77] Creating layer cls_bridge
I0620 10:28:51.849102  5471 net.cpp:84] Creating Layer cls_bridge
I0620 10:28:51.849107  5471 net.cpp:406] cls_bridge <- conv5-1
I0620 10:28:51.849110  5471 net.cpp:406] cls_bridge <- label
I0620 10:28:51.849114  5471 net.cpp:380] cls_bridge -> conv5-1-valid
I0620 10:28:51.849133  5471 net.cpp:380] cls_bridge -> label-valid
I0620 10:28:51.849225  5471 net.cpp:122] Setting up cls_bridge
I0620 10:28:51.849231  5471 net.cpp:129] Top shape: 64 2 (128)
I0620 10:28:51.849234  5471 net.cpp:129] Top shape: 64 1 (64)
I0620 10:28:51.849238  5471 net.cpp:137] Memory required for data: 10899456
I0620 10:28:51.849241  5471 layer_factory.hpp:77] Creating layer conv5-1-valid_cls_bridge_0_split
I0620 10:28:51.849259  5471 net.cpp:84] Creating Layer conv5-1-valid_cls_bridge_0_split
I0620 10:28:51.849263  5471 net.cpp:406] conv5-1-valid_cls_bridge_0_split <- conv5-1-valid
I0620 10:28:51.849268  5471 net.cpp:380] conv5-1-valid_cls_bridge_0_split -> conv5-1-valid_cls_bridge_0_split_0
I0620 10:28:51.849275  5471 net.cpp:380] conv5-1-valid_cls_bridge_0_split -> conv5-1-valid_cls_bridge_0_split_1
I0620 10:28:51.849310  5471 net.cpp:122] Setting up conv5-1-valid_cls_bridge_0_split
I0620 10:28:51.849329  5471 net.cpp:129] Top shape: 64 2 (128)
I0620 10:28:51.849334  5471 net.cpp:129] Top shape: 64 2 (128)
I0620 10:28:51.849336  5471 net.cpp:137] Memory required for data: 10900480
I0620 10:28:51.849339  5471 layer_factory.hpp:77] Creating layer label-valid_cls_bridge_1_split
I0620 10:28:51.849344  5471 net.cpp:84] Creating Layer label-valid_cls_bridge_1_split
I0620 10:28:51.849347  5471 net.cpp:406] label-valid_cls_bridge_1_split <- label-valid
I0620 10:28:51.849350  5471 net.cpp:380] label-valid_cls_bridge_1_split -> label-valid_cls_bridge_1_split_0
I0620 10:28:51.849355  5471 net.cpp:380] label-valid_cls_bridge_1_split -> label-valid_cls_bridge_1_split_1
I0620 10:28:51.849377  5471 net.cpp:122] Setting up label-valid_cls_bridge_1_split
I0620 10:28:51.849390  5471 net.cpp:129] Top shape: 64 1 (64)
I0620 10:28:51.849395  5471 net.cpp:129] Top shape: 64 1 (64)
I0620 10:28:51.849396  5471 net.cpp:137] Memory required for data: 10900992
I0620 10:28:51.849400  5471 layer_factory.hpp:77] Creating layer cls_loss
I0620 10:28:51.849406  5471 net.cpp:84] Creating Layer cls_loss
I0620 10:28:51.849409  5471 net.cpp:406] cls_loss <- conv5-1-valid_cls_bridge_0_split_0
I0620 10:28:51.849413  5471 net.cpp:406] cls_loss <- label-valid_cls_bridge_1_split_0
I0620 10:28:51.849418  5471 net.cpp:380] cls_loss -> cls_loss
…
