…
stepsize: 30000
snapshot: 5000
snapshot_prefix: "./models/"
solver_mode: GPU
device_id: 0
net: "train48.prototxt"
train_state {
  level: 0
  stage: ""
}
I0620 18:45:25.062018  5810 solver.cpp:87] Creating training net from net file: train48.prototxt
I0620 18:45:25.062408  5810 net.cpp:51] Initializing net from parameters: 
name: "face_48"
state {
  phase: TRAIN
  level: 0
  stage: ""
}
layer {
  name: "PythonLayer"
  type: "Python"
  top: "data"
  top: "label"
  top: "roi"
  top: "pts"
  python_param {
    module: "pythonLayer"
    layer: "Data_Layer_train"
  }
}
layer {
  name: "conv1"
  type: "Convolution"
  bottom: "data"
  top: "conv1"
  param {
    lr_mult: 1
    decay_mult: 1
  }
  param {
    lr_mult: 2
    decay_mult: 1
  }
  convolution_param {
    num_output: 32
    kernel_size: 3
    stride: 1
    weight_filler {
      type: "xavier"
    }
    bias_filler {
      type: "constant"
      value: 0
    }
  }
}
layer {
  name: "prelu1"
  type: "PReLU"
  bottom: "conv1"
  top: "conv1"
}
layer {
  name: "pool1"
  type: "Pooling"
  bottom: "conv1"
  top: "pool1"
  pooling_param {
    pool: MAX
    kernel_size: 3
    stride: 2
  }
}
layer {
  name: "conv2"
  type: "Convolution"
  bottom: "pool1"
  top: "conv2"
  param {
    lr_mult: 1
    decay_mult: 1
  }
  param {
    lr_mult: 2
    decay_mult: 1
  }
  convolution_param {
    num_output: 64
    kernel_size: 3
    stride: 1
    weight_filler {
      type: "xavier"
    }
    bias_filler {
      type: "constant"
      value: 0
    }
  }
}
layer {
  name: "prelu2"
  type: "PReLU"
  bottom: "conv2"
  top: "conv2"
}
layer {
  name: "pool2"
  type: "Pooling"
  bottom: "conv2"
  top: "pool2"
  pooling_param {
    pool: MAX
    kernel_size: 3
    stride: 2
  }
}
layer {
  name: "conv3"
  type: "Convolution"
  bottom: "pool2"
  top: "conv3"
  param {
    lr_mult: 1
    decay_mult: 1
  }
  param {
    lr_mult: 2
    decay_mult: 1
  }
  convolution_param {
    num_output: 64
    kernel_size: 3
    weight_filler {
      type: "xavier"
    }
    bias_filler {
      type: "constant"
      value: 0
    }
  }
}
layer {
  name: "prelu3"
  type: "PReLU"
  bottom: "conv3"
  top: "conv3"
}
layer {
  name: "pool3"
  type: "Pooling"
  bottom: "conv3"
  top: "pool3"
  pooling_param {
    pool: MAX
    kernel_size: 2
    stride: 2
  }
}
layer {
  name: "conv4"
  type: "Convolution"
  bottom: "pool3"
  top: "conv4"
  param {
    lr_mult: 1
    decay_mult: 1
  }
  param {
    lr_mult: 2
    decay_mult: 1
  }
  convolution_param {
    num_output: 128
    kernel_size: 2
    stride: 1
    weight_filler {
      type: "xavier"
    }
    bias_filler {
      type: "constant"
      value: 0
    }
  }
}
layer {
  name: "prelu4"
  type: "PReLU"
  bottom: "conv4"
  top: "conv4"
}
layer {
  name: "conv5"
  type: "InnerProduct"
  bottom: "conv4"
  top: "conv5"
  param {
    lr_mult: 1
    decay_mult: 1
  }
  param {
    lr_mult: 2
    decay_mult: 1
  }
  inner_product_param {
    num_output: 256
    weight_filler {
      type: "xavier"
    }
    bias_filler {
      type: "constant"
      value: 0
    }
  }
}
layer {
  name: "drop5"
  type: "Dropout"
  bottom: "conv5"
  top: "conv5"
  dropout_param {
    dropout_ratio: 0.25
  }
}
layer {
  name: "prelu5"
  type: "PReLU"
  bottom: "conv5"
  top: "conv5"
}
layer {
  name: "conv6-1"
  type: "InnerProduct"
  bottom: "conv5"
  top: "conv6-1"
  param {
    lr_mult: 1
    decay_mult: 1
  }
  param {
    lr_mult: 2
    decay_mult: 1
  }
  inner_product_param {
    num_output: 2
    weight_filler {
      type: "xavier"
    }
    bias_filler {
      type: "constant"
      value: 0
    }
  }
}
layer {
  name: "cls_bridge"
  type: "Python"
  bottom: "conv6-1"
  bottom: "label"
  top: "conv6-1-valid"
  top: "label-valid"
  python_param {
    module: "pythonLayer"
    layer: "cls_Layer"
  }
}
layer {
  name: "ClassifyLoss"
  type: "SoftmaxWithLoss"
  bottom: "conv6-1-valid"
  bottom: "label-valid"
  top: "ClassifyLoss"
  loss_weight: 1
  propagate_down: true
  propagate_down: false
}
layer {
  name: "cls_Acc"
  type: "Accuracy"
  bottom: "conv6-1-valid"
  bottom: "label-valid"
  top: "cls_Acc"
  include {
    phase: TRAIN
  }
}
layer {
  name: "conv6-2"
  type: "InnerProduct"
  bottom: "conv5"
  top: "conv6-2"
  param {
    lr_mult: 1
    decay_mult: 1
  }
  param {
    lr_mult: 2
    decay_mult: 1
  }
  inner_product_param {
    num_output: 4
    weight_filler {
      type: "xavier"
    }
    bias_filler {
      type: "constant"
      value: 0
    }
  }
}
layer {
  name: "RegressionLoss"
  type: "Python"
  bottom: "conv6-2"
  bottom: "roi"
  top: "RegressionLoss"
  loss_weight: 0.5
  python_param {
    module: "pythonLayer"
    layer: "regression_Layer"
  }
}
layer {
  name: "conv6-3"
  type: "InnerProduct"
  bottom: "conv5"
  top: "conv6-3"
  param {
    lr_mult: 1
    decay_mult: 1
  }
  param {
    lr_mult: 2
    decay_mult: 1
  }
  inner_product_param {
    num_output: 10
    weight_filler {
      type: "xavier"
    }
    bias_filler {
      type: "constant"
      value: 0
    }
  }
}
layer {
  name: "LandmarkLoss"
  type: "Python"
  bottom: "conv6-3"
  bottom: "pts"
  top: "LandmarkLoss"
  loss_weight: 1
  python_param {
    module: "pythonLayer"
    layer: "regression_Layer"
  }
}
I0620 18:45:25.062758  5810 layer_factory.hpp:77] Creating layer PythonLayer
I0620 18:45:25.575548  5810 net.cpp:84] Creating Layer PythonLayer
I0620 18:45:25.575598  5810 net.cpp:380] PythonLayer -> data
I0620 18:45:25.575628  5810 net.cpp:380] PythonLayer -> label
I0620 18:45:25.575649  5810 net.cpp:380] PythonLayer -> roi
I0620 18:45:25.575654  5810 net.cpp:380] PythonLayer -> pts
Start Reading Classify Data into Memory...

20000  Classify Data have been read into Memory...
Start Reading Regression Data into Memory...

15000  Regression Data have been read into Memory...
Start Reading pts-regression Data into Memory...

10000  pts-regression Data have been read into Memory...
I0620 18:49:22.381778  5810 net.cpp:122] Setting up PythonLayer
I0620 18:49:22.382133  5810 net.cpp:129] Top shape: 64 3 48 48 (442368)
I0620 18:49:22.382151  5810 net.cpp:129] Top shape: 64 1 (64)
I0620 18:49:22.382164  5810 net.cpp:129] Top shape: 64 4 (256)
I0620 18:49:22.382174  5810 net.cpp:129] Top shape: 64 10 (640)
I0620 18:49:22.382179  5810 net.cpp:137] Memory required for data: 1773312
I0620 18:49:22.382208  5810 layer_factory.hpp:77] Creating layer conv1
I0620 18:49:22.382269  5810 net.cpp:84] Creating Layer conv1
I0620 18:49:22.382285  5810 net.cpp:406] conv1 <- data
I0620 18:49:22.382321  5810 net.cpp:380] conv1 -> conv1
I0620 18:49:23.340602  5810 net.cpp:122] Setting up conv1
I0620 18:49:23.340626  5810 net.cpp:129] Top shape: 64 32 46 46 (4333568)
I0620 18:49:23.340631  5810 net.cpp:137] Memory required for data: 19107584
I0620 18:49:23.340653  5810 layer_factory.hpp:77] Creating layer prelu1
I0620 18:49:23.340665  5810 net.cpp:84] Creating Layer prelu1
I0620 18:49:23.340669  5810 net.cpp:406] prelu1 <- conv1
I0620 18:49:23.340674  5810 net.cpp:367] prelu1 -> conv1 (in-place)
I0620 18:49:23.341384  5810 net.cpp:122] Setting up prelu1
I0620 18:49:23.341393  5810 net.cpp:129] Top shape: 64 32 46 46 (4333568)
I0620 18:49:23.341397  5810 net.cpp:137] Memory required for data: 36441856
I0620 18:49:23.341403  5810 layer_factory.hpp:77] Creating layer pool1
I0620 18:49:23.341408  5810 net.cpp:84] Creating Layer pool1
I0620 18:49:23.341410  5810 net.cpp:406] pool1 <- conv1
I0620 18:49:23.341414  5810 net.cpp:380] pool1 -> pool1
I0620 18:49:23.341449  5810 net.cpp:122] Setting up pool1
I0620 18:49:23.341454  5810 net.cpp:129] Top shape: 64 32 23 23 (1083392)
I0620 18:49:23.341456  5810 net.cpp:137] Memory required for data: 40775424
I0620 18:49:23.341459  5810 layer_factory.hpp:77] Creating layer conv2
I0620 18:49:23.341467  5810 net.cpp:84] Creating Layer conv2
I0620 18:49:23.341470  5810 net.cpp:406] conv2 <- pool1
I0620 18:49:23.341473  5810 net.cpp:380] conv2 -> conv2
I0620 18:49:23.343854  5810 net.cpp:122] Setting up conv2
I0620 18:49:23.343865  5810 net.cpp:129] Top shape: 64 64 21 21 (1806336)
I0620 18:49:23.343868  5810 net.cpp:137] Memory required for data: 48000768
I0620 18:49:23.343874  5810 layer_factory.hpp:77] Creating layer prelu2
I0620 18:49:23.343879  5810 net.cpp:84] Creating Layer prelu2
I0620 18:49:23.343881  5810 net.cpp:406] prelu2 <- conv2
I0620 18:49:23.343885  5810 net.cpp:367] prelu2 -> conv2 (in-place)
I0620 18:49:23.343961  5810 net.cpp:122] Setting up prelu2
I0620 18:49:23.343966  5810 net.cpp:129] Top shape: 64 64 21 21 (1806336)
I0620 18:49:23.343968  5810 net.cpp:137] Memory required for data: 55226112
I0620 18:49:23.343971  5810 layer_factory.hpp:77] Creating layer pool2
I0620 18:49:23.343976  5810 net.cpp:84] Creating Layer pool2
I0620 18:49:23.343977  5810 net.cpp:406] pool2 <- conv2
I0620 18:49:23.343981  5810 net.cpp:380] pool2 -> pool2
I0620 18:49:23.344007  5810 net.cpp:122] Setting up pool2
I0620 18:49:23.344010  5810 net.cpp:129] Top shape: 64 64 10 10 (409600)
I0620 18:49:23.344013  5810 net.cpp:137] Memory required for data: 56864512
I0620 18:49:23.344015  5810 layer_factory.hpp:77] Creating layer conv3
I0620 18:49:23.344022  5810 net.cpp:84] Creating Layer conv3
I0620 18:49:23.344023  5810 net.cpp:406] conv3 <- pool2
I0620 18:49:23.344027  5810 net.cpp:380] conv3 -> conv3
I0620 18:49:23.345363  5810 net.cpp:122] Setting up conv3
I0620 18:49:23.345373  5810 net.cpp:129] Top shape: 64 64 8 8 (262144)
I0620 18:49:23.345376  5810 net.cpp:137] Memory required for data: 57913088
I0620 18:49:23.345381  5810 layer_factory.hpp:77] Creating layer prelu3
I0620 18:49:23.345386  5810 net.cpp:84] Creating Layer prelu3
I0620 18:49:23.345388  5810 net.cpp:406] prelu3 <- conv3
I0620 18:49:23.345391  5810 net.cpp:367] prelu3 -> conv3 (in-place)
I0620 18:49:23.345463  5810 net.cpp:122] Setting up prelu3
I0620 18:49:23.345468  5810 net.cpp:129] Top shape: 64 64 8 8 (262144)
I0620 18:49:23.345471  5810 net.cpp:137] Memory required for data: 58961664
I0620 18:49:23.345475  5810 layer_factory.hpp:77] Creating layer pool3
I0620 18:49:23.345479  5810 net.cpp:84] Creating Layer pool3
I0620 18:49:23.345497  5810 net.cpp:406] pool3 <- conv3
I0620 18:49:23.345502  5810 net.cpp:380] pool3 -> pool3
I0620 18:49:23.345528  5810 net.cpp:122] Setting up pool3
I0620 18:49:23.345533  5810 net.cpp:129] Top shape: 64 64 4 4 (65536)
I0620 18:49:23.345535  5810 net.cpp:137] Memory required for data: 59223808
I0620 18:49:23.345538  5810 layer_factory.hpp:77] Creating layer conv4
I0620 18:49:23.345543  5810 net.cpp:84] Creating Layer conv4
I0620 18:49:23.345547  5810 net.cpp:406] conv4 <- pool3
I0620 18:49:23.345551  5810 net.cpp:380] conv4 -> conv4
I0620 18:49:23.346794  5810 net.cpp:122] Setting up conv4
I0620 18:49:23.346803  5810 net.cpp:129] Top shape: 64 128 3 3 (73728)
I0620 18:49:23.346823  5810 net.cpp:137] Memory required for data: 59518720
I0620 18:49:23.346829  5810 layer_factory.hpp:77] Creating layer prelu4
I0620 18:49:23.346834  5810 net.cpp:84] Creating Layer prelu4
I0620 18:49:23.346837  5810 net.cpp:406] prelu4 <- conv4
I0620 18:49:23.346842  5810 net.cpp:367] prelu4 -> conv4 (in-place)
I0620 18:49:23.346911  5810 net.cpp:122] Setting up prelu4
I0620 18:49:23.346917  5810 net.cpp:129] Top shape: 64 128 3 3 (73728)
I0620 18:49:23.346935  5810 net.cpp:137] Memory required for data: 59813632
I0620 18:49:23.346937  5810 layer_factory.hpp:77] Creating layer conv5
I0620 18:49:23.346943  5810 net.cpp:84] Creating Layer conv5
I0620 18:49:23.346946  5810 net.cpp:406] conv5 <- conv4
I0620 18:49:23.346951  5810 net.cpp:380] conv5 -> conv5
I0620 18:49:23.348106  5810 net.cpp:122] Setting up conv5
I0620 18:49:23.348111  5810 net.cpp:129] Top shape: 64 256 (16384)
I0620 18:49:23.348129  5810 net.cpp:137] Memory required for data: 59879168
I0620 18:49:23.348134  5810 layer_factory.hpp:77] Creating layer drop5
I0620 18:49:23.348140  5810 net.cpp:84] Creating Layer drop5
I0620 18:49:23.348142  5810 net.cpp:406] drop5 <- conv5
I0620 18:49:23.348146  5810 net.cpp:367] drop5 -> conv5 (in-place)
I0620 18:49:23.348166  5810 net.cpp:122] Setting up drop5
I0620 18:49:23.348170  5810 net.cpp:129] Top shape: 64 256 (16384)
I0620 18:49:23.348173  5810 net.cpp:137] Memory required for data: 59944704
I0620 18:49:23.348176  5810 layer_factory.hpp:77] Creating layer prelu5
I0620 18:49:23.348179  5810 net.cpp:84] Creating Layer prelu5
I0620 18:49:23.348182  5810 net.cpp:406] prelu5 <- conv5
I0620 18:49:23.348186  5810 net.cpp:367] prelu5 -> conv5 (in-place)
I0620 18:49:23.348249  5810 net.cpp:122] Setting up prelu5
I0620 18:49:23.348253  5810 net.cpp:129] Top shape: 64 256 (16384)
I0620 18:49:23.348255  5810 net.cpp:137] Memory required for data: 60010240
I0620 18:49:23.348273  5810 layer_factory.hpp:77] Creating layer conv5_prelu5_0_split
I0620 18:49:23.348278  5810 net.cpp:84] Creating Layer conv5_prelu5_0_split
I0620 18:49:23.348282  5810 net.cpp:406] conv5_prelu5_0_split <- conv5
I0620 18:49:23.348286  5810 net.cpp:380] conv5_prelu5_0_split -> conv5_prelu5_0_split_0
I0620 18:49:23.348305  5810 net.cpp:380] conv5_prelu5_0_split -> conv5_prelu5_0_split_1
I0620 18:49:23.348311  5810 net.cpp:380] conv5_prelu5_0_split -> conv5_prelu5_0_split_2
I0620 18:49:23.348356  5810 net.cpp:122] Setting up conv5_prelu5_0_split
I0620 18:49:23.348361  5810 net.cpp:129] Top shape: 64 256 (16384)
I0620 18:49:23.348363  5810 net.cpp:129] Top shape: 64 256 (16384)
I0620 18:49:23.348367  5810 net.cpp:129] Top shape: 64 256 (16384)
I0620 18:49:23.348369  5810 net.cpp:137] Memory required for data: 60206848
I0620 18:49:23.348372  5810 layer_factory.hpp:77] Creating layer conv6-1
I0620 18:49:23.348378  5810 net.cpp:84] Creating Layer conv6-1
I0620 18:49:23.348382  5810 net.cpp:406] conv6-1 <- conv5_prelu5_0_split_0
I0620 18:49:23.348402  5810 net.cpp:380] conv6-1 -> conv6-1
I0620 18:49:23.348482  5810 net.cpp:122] Setting up conv6-1
I0620 18:49:23.348487  5810 net.cpp:129] Top shape: 64 2 (128)
I0620 18:49:23.348490  5810 net.cpp:137] Memory required for data: 60207360
I0620 18:49:23.348510  5810 layer_factory.hpp:77] Creating layer cls_bridge
I0620 18:49:23.348567  5810 net.cpp:84] Creating Layer cls_bridge
I0620 18:49:23.348572  5810 net.cpp:406] cls_bridge <- conv6-1
I0620 18:49:23.348600  5810 net.cpp:406] cls_bridge <- label
I0620 18:49:23.348605  5810 net.cpp:380] cls_bridge -> conv6-1-valid
I0620 18:49:23.348611  5810 net.cpp:380] cls_bridge -> label-valid
I0620 18:49:23.348724  5810 net.cpp:122] Setting up cls_bridge
I0620 18:49:23.348732  5810 net.cpp:129] Top shape: 64 2 (128)
I0620 18:49:23.348737  5810 net.cpp:129] Top shape: 64 1 (64)
I0620 18:49:23.348738  5810 net.cpp:137] Memory required for data: 60208128
I0620 18:49:23.348742  5810 layer_factory.hpp:77] Creating layer conv6-1-valid_cls_bridge_0_split
I0620 18:49:23.348747  5810 net.cpp:84] Creating Layer conv6-1-valid_cls_bridge_0_split
I0620 18:49:23.348749  5810 net.cpp:406] conv6-1-valid_cls_bridge_0_split <- conv6-1-valid
I0620 18:49:23.348754  5810 net.cpp:380] conv6-1-valid_cls_bridge_0_split -> conv6-1-valid_cls_bridge_0_split_0
I0620 18:49:23.348760  5810 net.cpp:380] conv6-1-valid_cls_bridge_0_split -> conv6-1-valid_cls_bridge_0_split_1
I0620 18:49:23.348784  5810 net.cpp:122] Setting up conv6-1-valid_cls_bridge_0_split
I0620 18:49:23.348789  5810 net.cpp:129] Top shape: 64 2 (128)
I0620 18:49:23.348793  5810 net.cpp:129] Top shape: 64 2 (128)
I0620 18:49:23.348795  5810 net.cpp:137] Memory required for data: 60209152
I0620 18:49:23.348798  5810 layer_factory.hpp:77] Creating layer label-valid_cls_bridge_1_split
I0620 18:49:23.348803  5810 net.cpp:84] Creating Layer label-valid_cls_bridge_1_split
I0620 18:49:23.348805  5810 net.cpp:406] label-valid_cls_bridge_1_split <- label-valid
I0620 18:49:23.348809  5810 net.cpp:380] label-valid_cls_bridge_1_split -> label-valid_cls_bridge_1_split_0
I0620 18:49:23.348814  5810 net.cpp:380] label-valid_cls_bridge_1_split -> label-valid_cls_bridge_1_split_1
I0620 18:49:23.348837  5810 net.cpp:122] Setting up label-valid_cls_bridge_1_split
I0620 18:49:23.348841  5810 net.cpp:129] Top shape: 64 1 (64)
I0620 18:49:23.348845  5810 net.cpp:129] Top shape: 64 1 (64)
I0620 18:49:23.348847  5810 net.cpp:137] Memory required for data: 60209664
I0620 18:49:23.348850  5810 layer_factory.hpp:77] Creating layer ClassifyLoss
I0620 18:49:23.348855  5810 net.cpp:84] Creating Layer ClassifyLoss
I0620 18:49:23.348857  5810 net.cpp:406] ClassifyLoss <- conv6-1-valid_cls_bridge_0_split_0
I0620 18:49:23.348861  5810 net.cpp:406] ClassifyLoss <- label-valid_cls_bridge_1_split_0
…
