…
snapshot: 10000
snapshot_prefix: "./models/"
solver_mode: GPU
device_id: 0
net: "train24.prototxt"
train_state {
  level: 0
  stage: ""
}
I0616 09:51:42.917165  5352 solver.cpp:87] Creating training net from net file: train24.prototxt
I0616 09:51:42.917503  5352 net.cpp:51] Initializing net from parameters: 
name: "face_24c"
state {
  phase: TRAIN
  level: 0
  stage: ""
}
layer {
  name: "PythonLayer"
  type: "Python"
  top: "data"
  top: "label"
  top: "roi"
  top: "pts"
  python_param {
    module: "pythonLayer"
    layer: "Data_Layer_train"
  }
}
layer {
  name: "conv1"
  type: "Convolution"
  bottom: "data"
  top: "conv1"
  param {
    lr_mult: 0
    decay_mult: 0
  }
  param {
    lr_mult: 0
    decay_mult: 0
  }
  convolution_param {
    num_output: 28
    kernel_size: 3
    weight_filler {
      type: "gaussian"
      std: 0.0001
    }
    bias_filler {
      type: "constant"
      value: 0
    }
  }
}
layer {
  name: "relu1"
  type: "PReLU"
  bottom: "conv1"
  top: "conv1"
}
layer {
  name: "pool1"
  type: "Pooling"
  bottom: "conv1"
  top: "pool1"
  pooling_param {
    pool: MAX
    kernel_size: 3
    stride: 2
  }
}
layer {
  name: "conv2"
  type: "Convolution"
  bottom: "pool1"
  top: "conv2"
  param {
    lr_mult: 1
  }
  param {
    lr_mult: 2
  }
  convolution_param {
    num_output: 48
    kernel_size: 3
    weight_filler {
      type: "gaussian"
      std: 0.0001
    }
    bias_filler {
      type: "constant"
    }
  }
}
layer {
  name: "relu2"
  type: "PReLU"
  bottom: "conv2"
  top: "conv2"
}
layer {
  name: "pool2"
  type: "Pooling"
  bottom: "conv2"
  top: "pool2"
  pooling_param {
    pool: MAX
    kernel_size: 3
    stride: 2
  }
}
layer {
  name: "conv3"
  type: "Convolution"
  bottom: "pool2"
  top: "conv3"
  param {
    lr_mult: 1
    decay_mult: 1
  }
  param {
    lr_mult: 2
    decay_mult: 0
  }
  convolution_param {
    num_output: 64
    kernel_size: 2
    stride: 1
    weight_filler {
      type: "xavier"
    }
    bias_filler {
      type: "constant"
      value: 0
    }
  }
}
layer {
  name: "relu3"
  type: "PReLU"
  bottom: "conv3"
  top: "conv3"
}
layer {
  name: "fc4"
  type: "InnerProduct"
  bottom: "conv3"
  top: "fc4"
  param {
    lr_mult: 1
    decay_mult: 1
  }
  param {
    lr_mult: 2
    decay_mult: 0
  }
  inner_product_param {
    num_output: 128
    weight_filler {
      type: "xavier"
    }
    bias_filler {
      type: "constant"
      value: 0
    }
  }
}
layer {
  name: "relu4"
  type: "PReLU"
  bottom: "fc4"
  top: "fc4"
}
layer {
  name: "fc5-1"
  type: "InnerProduct"
  bottom: "fc4"
  top: "fc5-1"
  param {
    lr_mult: 1
    decay_mult: 1
  }
  param {
    lr_mult: 2
    decay_mult: 0
  }
  inner_product_param {
    num_output: 2
    weight_filler {
      type: "xavier"
    }
    bias_filler {
      type: "constant"
      value: 0
    }
  }
}
layer {
  name: "cls_bridge"
  type: "Python"
  bottom: "fc5-1"
  bottom: "label"
  top: "fc5-1-valid"
  top: "label-valid"
  python_param {
    module: "pythonLayer"
    layer: "cls_Layer"
  }
}
layer {
  name: "cls_loss"
  type: "SoftmaxWithLoss"
  bottom: "fc5-1-valid"
  bottom: "label-valid"
  top: "cls_loss"
  loss_weight: 1
  propagate_down: true
  propagate_down: false
}
layer {
  name: "cls_acc"
  type: "Accuracy"
  bottom: "fc5-1-valid"
  bottom: "label-valid"
  top: "cls_acc"
  include {
    phase: TRAIN
  }
}
layer {
  name: "fc5-2"
  type: "InnerProduct"
  bottom: "fc4"
  top: "fc5-2"
  param {
    lr_mult: 1
    decay_mult: 1
  }
  param {
    lr_mult: 2
    decay_mult: 0
  }
  inner_product_param {
    num_output: 4
    weight_filler {
      type: "xavier"
    }
    bias_filler {
      type: "constant"
      value: 0
    }
  }
}
layer {
  name: "roi_bridge"
  type: "Python"
  bottom: "fc5-2"
  bottom: "roi"
  top: "fc5-2-valid"
  top: "roi-valid"
  propagate_down: true
  propagate_down: false
  python_param {
    module: "pythonLayer"
    layer: "roi_filter_Layer"
  }
}
layer {
  name: "roi_loss"
  type: "EuclideanLoss"
  bottom: "fc5-2-valid"
  bottom: "roi-valid"
  top: "roi_loss"
  loss_weight: 0.5
  propagate_down: true
  propagate_down: false
}
layer {
  name: "fc5-3"
  type: "InnerProduct"
  bottom: "fc4"
  top: "fc5-3"
  param {
    lr_mult: 1
    decay_mult: 1
  }
  param {
    lr_mult: 2
    decay_mult: 0
  }
  inner_product_param {
    num_output: 10
    weight_filler {
      type: "xavier"
    }
    bias_filler {
      type: "constant"
      value: 0
    }
  }
}
layer {
  name: "pts_bridge"
  type: "Python"
  bottom: "fc5-3"
  bottom: "pts"
  top: "fc5-3-valid"
  top: "pts-valid"
  propagate_down: true
  propagate_down: false
  python_param {
    module: "pythonLayer"
    layer: "pts_filter_Layer"
  }
}
layer {
  name: "pts_loss"
  type: "EuclideanLoss"
  bottom: "fc5-3-valid"
  bottom: "pts-valid"
  top: "pts_loss"
  loss_weight: 0.5
  propagate_down: true
  propagate_down: false
}
I0616 09:51:42.917824  5352 layer_factory.hpp:77] Creating layer PythonLayer
I0616 09:51:43.333822  5352 net.cpp:84] Creating Layer PythonLayer
I0616 09:51:43.333847  5352 net.cpp:380] PythonLayer -> data
I0616 09:51:43.333883  5352 net.cpp:380] PythonLayer -> label
I0616 09:51:43.333890  5352 net.cpp:380] PythonLayer -> roi
I0616 09:51:43.333895  5352 net.cpp:380] PythonLayer -> pts
Start Reading Classify Data into Memory...

1124566  Classify Data have been read into Memory...
Start Reading Regression Data into Memory...

524566  Regression Data have been read into Memory...
Start Reading pts-regression Data into Memory...

202599  pts-regression Data have been read into Memory...
I0616 10:34:36.945884  5352 net.cpp:122] Setting up PythonLayer
I0616 10:34:37.006600  5352 net.cpp:129] Top shape: 64 3 24 24 (110592)
I0616 10:34:37.009973  5352 net.cpp:129] Top shape: 64 1 (64)
I0616 10:34:37.010013  5352 net.cpp:129] Top shape: 64 4 (256)
I0616 10:34:37.010032  5352 net.cpp:129] Top shape: 64 10 (640)
I0616 10:34:37.010051  5352 net.cpp:137] Memory required for data: 446208
I0616 10:34:37.043979  5352 layer_factory.hpp:77] Creating layer conv1
I0616 10:34:37.074470  5352 net.cpp:84] Creating Layer conv1
I0616 10:34:37.075336  5352 net.cpp:406] conv1 <- data
I0616 10:34:37.078433  5352 net.cpp:380] conv1 -> conv1
I0616 10:34:39.753171  5352 net.cpp:122] Setting up conv1
I0616 10:34:39.755334  5352 net.cpp:129] Top shape: 64 28 22 22 (867328)
I0616 10:34:39.755357  5352 net.cpp:137] Memory required for data: 3915520
I0616 10:34:39.760361  5352 layer_factory.hpp:77] Creating layer relu1
I0616 10:34:39.762933  5352 net.cpp:84] Creating Layer relu1
I0616 10:34:39.762971  5352 net.cpp:406] relu1 <- conv1
I0616 10:34:39.762989  5352 net.cpp:367] relu1 -> conv1 (in-place)
I0616 10:34:39.766569  5352 net.cpp:122] Setting up relu1
I0616 10:34:39.766603  5352 net.cpp:129] Top shape: 64 28 22 22 (867328)
I0616 10:34:39.766615  5352 net.cpp:137] Memory required for data: 7384832
I0616 10:34:39.766635  5352 layer_factory.hpp:77] Creating layer pool1
I0616 10:34:39.766670  5352 net.cpp:84] Creating Layer pool1
I0616 10:34:39.766681  5352 net.cpp:406] pool1 <- conv1
I0616 10:34:39.766698  5352 net.cpp:380] pool1 -> pool1
I0616 10:34:39.769315  5352 net.cpp:122] Setting up pool1
I0616 10:34:39.769356  5352 net.cpp:129] Top shape: 64 28 11 11 (216832)
I0616 10:34:39.769366  5352 net.cpp:137] Memory required for data: 8252160
I0616 10:34:39.769376  5352 layer_factory.hpp:77] Creating layer conv2
I0616 10:34:39.769423  5352 net.cpp:84] Creating Layer conv2
I0616 10:34:39.769434  5352 net.cpp:406] conv2 <- pool1
I0616 10:34:39.769450  5352 net.cpp:380] conv2 -> conv2
I0616 10:34:39.775897  5352 net.cpp:122] Setting up conv2
I0616 10:34:39.775930  5352 net.cpp:129] Top shape: 64 48 9 9 (248832)
I0616 10:34:39.775940  5352 net.cpp:137] Memory required for data: 9247488
I0616 10:34:39.775961  5352 layer_factory.hpp:77] Creating layer relu2
I0616 10:34:39.827239  5352 net.cpp:84] Creating Layer relu2
I0616 10:34:39.827265  5352 net.cpp:406] relu2 <- conv2
I0616 10:34:39.827889  5352 net.cpp:367] relu2 -> conv2 (in-place)
I0616 10:34:39.829898  5352 net.cpp:122] Setting up relu2
I0616 10:34:39.829933  5352 net.cpp:129] Top shape: 64 48 9 9 (248832)
I0616 10:34:39.829942  5352 net.cpp:137] Memory required for data: 10242816
I0616 10:34:39.829959  5352 layer_factory.hpp:77] Creating layer pool2
I0616 10:34:39.829978  5352 net.cpp:84] Creating Layer pool2
I0616 10:34:39.829993  5352 net.cpp:406] pool2 <- conv2
I0616 10:34:39.830011  5352 net.cpp:380] pool2 -> pool2
I0616 10:34:39.830111  5352 net.cpp:122] Setting up pool2
I0616 10:34:39.830128  5352 net.cpp:129] Top shape: 64 48 4 4 (49152)
I0616 10:34:39.830138  5352 net.cpp:137] Memory required for data: 10439424
I0616 10:34:39.830145  5352 layer_factory.hpp:77] Creating layer conv3
I0616 10:34:39.830174  5352 net.cpp:84] Creating Layer conv3
I0616 10:34:39.830185  5352 net.cpp:406] conv3 <- pool2
I0616 10:34:39.830202  5352 net.cpp:380] conv3 -> conv3
I0616 10:34:39.834569  5352 net.cpp:122] Setting up conv3
I0616 10:34:39.834604  5352 net.cpp:129] Top shape: 64 64 3 3 (36864)
I0616 10:34:39.834614  5352 net.cpp:137] Memory required for data: 10586880
I0616 10:34:39.834631  5352 layer_factory.hpp:77] Creating layer relu3
I0616 10:34:39.834655  5352 net.cpp:84] Creating Layer relu3
I0616 10:34:39.834666  5352 net.cpp:406] relu3 <- conv3
I0616 10:34:39.834682  5352 net.cpp:367] relu3 -> conv3 (in-place)
I0616 10:34:39.834933  5352 net.cpp:122] Setting up relu3
I0616 10:34:39.834952  5352 net.cpp:129] Top shape: 64 64 3 3 (36864)
I0616 10:34:39.834964  5352 net.cpp:137] Memory required for data: 10734336
I0616 10:34:39.835211  5352 layer_factory.hpp:77] Creating layer fc4
I0616 10:34:39.835718  5352 net.cpp:84] Creating Layer fc4
I0616 10:34:39.835734  5352 net.cpp:406] fc4 <- conv3
I0616 10:34:39.835798  5352 net.cpp:380] fc4 -> fc4
I0616 10:34:39.839684  5352 net.cpp:122] Setting up fc4
I0616 10:34:39.839725  5352 net.cpp:129] Top shape: 64 128 (8192)
I0616 10:34:39.839737  5352 net.cpp:137] Memory required for data: 10767104
I0616 10:34:39.839756  5352 layer_factory.hpp:77] Creating layer relu4
I0616 10:34:39.839777  5352 net.cpp:84] Creating Layer relu4
I0616 10:34:39.839792  5352 net.cpp:406] relu4 <- fc4
I0616 10:34:39.839807  5352 net.cpp:367] relu4 -> fc4 (in-place)
I0616 10:34:39.840008  5352 net.cpp:122] Setting up relu4
I0616 10:34:39.840024  5352 net.cpp:129] Top shape: 64 128 (8192)
I0616 10:34:39.840035  5352 net.cpp:137] Memory required for data: 10799872
I0616 10:34:39.840049  5352 layer_factory.hpp:77] Creating layer fc4_relu4_0_split
I0616 10:34:39.841246  5352 net.cpp:84] Creating Layer fc4_relu4_0_split
I0616 10:34:39.841281  5352 net.cpp:406] fc4_relu4_0_split <- fc4
I0616 10:34:39.841310  5352 net.cpp:380] fc4_relu4_0_split -> fc4_relu4_0_split_0
I0616 10:34:39.841331  5352 net.cpp:380] fc4_relu4_0_split -> fc4_relu4_0_split_1
I0616 10:34:39.841351  5352 net.cpp:380] fc4_relu4_0_split -> fc4_relu4_0_split_2
I0616 10:34:39.841841  5352 net.cpp:122] Setting up fc4_relu4_0_split
I0616 10:34:39.841887  5352 net.cpp:129] Top shape: 64 128 (8192)
I0616 10:34:39.841899  5352 net.cpp:129] Top shape: 64 128 (8192)
I0616 10:34:39.841908  5352 net.cpp:129] Top shape: 64 128 (8192)
I0616 10:34:39.841918  5352 net.cpp:137] Memory required for data: 10898176
I0616 10:34:39.841930  5352 layer_factory.hpp:77] Creating layer fc5-1
I0616 10:34:39.841953  5352 net.cpp:84] Creating Layer fc5-1
I0616 10:34:39.841964  5352 net.cpp:406] fc5-1 <- fc4_relu4_0_split_0
I0616 10:34:39.842002  5352 net.cpp:380] fc5-1 -> fc5-1
I0616 10:34:39.842270  5352 net.cpp:122] Setting up fc5-1
I0616 10:34:39.842289  5352 net.cpp:129] Top shape: 64 2 (128)
I0616 10:34:39.842299  5352 net.cpp:137] Memory required for data: 10898688
I0616 10:34:39.842325  5352 layer_factory.hpp:77] Creating layer cls_bridge
I0616 10:34:39.919337  5352 net.cpp:84] Creating Layer cls_bridge
I0616 10:34:39.919373  5352 net.cpp:406] cls_bridge <- fc5-1
I0616 10:34:39.919387  5352 net.cpp:406] cls_bridge <- label
I0616 10:34:39.919404  5352 net.cpp:380] cls_bridge -> fc5-1-valid
I0616 10:34:39.919426  5352 net.cpp:380] cls_bridge -> label-valid
I0616 10:34:39.937309  5352 net.cpp:122] Setting up cls_bridge
I0616 10:34:39.937355  5352 net.cpp:129] Top shape: 64 2 (128)
I0616 10:34:39.937368  5352 net.cpp:129] Top shape: 64 1 (64)
I0616 10:34:39.937378  5352 net.cpp:137] Memory required for data: 10899456
I0616 10:34:39.937391  5352 layer_factory.hpp:77] Creating layer fc5-1-valid_cls_bridge_0_split
I0616 10:34:39.937412  5352 net.cpp:84] Creating Layer fc5-1-valid_cls_bridge_0_split
I0616 10:34:39.937425  5352 net.cpp:406] fc5-1-valid_cls_bridge_0_split <- fc5-1-valid
I0616 10:34:39.937449  5352 net.cpp:380] fc5-1-valid_cls_bridge_0_split -> fc5-1-valid_cls_bridge_0_split_0
I0616 10:34:39.937479  5352 net.cpp:380] fc5-1-valid_cls_bridge_0_split -> fc5-1-valid_cls_bridge_0_split_1
I0616 10:34:39.937584  5352 net.cpp:122] Setting up fc5-1-valid_cls_bridge_0_split
I0616 10:34:39.937603  5352 net.cpp:129] Top shape: 64 2 (128)
I0616 10:34:39.937618  5352 net.cpp:129] Top shape: 64 2 (128)
I0616 10:34:39.937626  5352 net.cpp:137] Memory required for data: 10900480
I0616 10:34:39.937638  5352 layer_factory.hpp:77] Creating layer label-valid_cls_bridge_1_split
I0616 10:34:39.937650  5352 net.cpp:84] Creating Layer label-valid_cls_bridge_1_split
I0616 10:34:39.937664  5352 net.cpp:406] label-valid_cls_bridge_1_split <- label-valid
I0616 10:34:39.937681  5352 net.cpp:380] label-valid_cls_bridge_1_split -> label-valid_cls_bridge_1_split_0
I0616 10:34:39.937700  5352 net.cpp:380] label-valid_cls_bridge_1_split -> label-valid_cls_bridge_1_split_1
I0616 10:34:39.937793  5352 net.cpp:122] Setting up label-valid_cls_bridge_1_split
I0616 10:34:39.937813  5352 net.cpp:129] Top shape: 64 1 (64)
I0616 10:34:39.937824  5352 net.cpp:129] Top shape: 64 1 (64)
I0616 10:34:39.937871  5352 net.cpp:137] Memory required for data: 10900992
I0616 10:34:39.938064  5352 layer_factory.hpp:77] Creating layer cls_loss
I0616 10:34:39.938105  5352 net.cpp:84] Creating Layer cls_loss
I0616 10:34:39.938119  5352 net.cpp:406] cls_loss <- fc5-1-valid_cls_bridge_0_split_0
I0616 10:34:39.938138  5352 net.cpp:406] cls_loss <- label-valid_cls_bridge_1_split_0
I0616 10:34:39.938155  5352 net.cpp:380] cls_loss -> cls_loss
…
I0616 10:34:39.941846  5352 net.cpp:380] cls_acc -> cls_acc
I0616 10:34:39.942075  5352 net.cpp:122] Setting up cls_acc
I0616 10:34:39.942092  5352 net.cpp:129] Top shape: (1)
I0616 10:34:39.942101  5352 net.cpp:137] Memory required for data: 10901000
I0616 10:34:39.942109  5352 layer_factory.hpp:77] Creating layer fc5-2
I0616 10:34:39.942126  5352 net.cpp:84] Creating Layer fc5-2
I0616 10:34:39.942137  5352 net.cpp:406] fc5-2 <- fc4_relu4_0_split_1
I0616 10:34:39.942159  5352 net.cpp:380] fc5-2 -> fc5-2
I0616 10:34:39.942461  5352 net.cpp:122] Setting up fc5-2
I0616 10:34:39.942478  5352 net.cpp:129] Top shape: 64 4 (256)
I0616 10:34:39.942487  5352 net.cpp:137] Memory required for data: 10902024
I0616 10:34:39.942503  5352 layer_factory.hpp:77] Creating layer roi_bridge
I0616 10:34:39.943066  5352 net.cpp:84] Creating Layer roi_bridge
I0616 10:34:39.943085  5352 net.cpp:406] roi_bridge <- fc5-2
I0616 10:34:39.943097  5352 net.cpp:406] roi_bridge <- roi
I0616 10:34:39.943115  5352 net.cpp:380] roi_bridge -> fc5-2-valid
I0616 10:34:39.943135  5352 net.cpp:380] roi_bridge -> roi-valid
I0616 10:34:39.944665  5352 net.cpp:122] Setting up roi_bridge
I0616 10:34:39.944694  5352 net.cpp:129] Top shape: 64 4 (256)
I0616 10:34:39.944707  5352 net.cpp:129] Top shape: 64 4 (256)
I0616 10:34:39.944716  5352 net.cpp:137] Memory required for data: 10904072
I0616 10:34:39.944726  5352 layer_factory.hpp:77] Creating layer roi_loss
I0616 10:34:39.944749  5352 net.cpp:84] Creating Layer roi_loss
I0616 10:34:39.944766  5352 net.cpp:406] roi_loss <- fc5-2-valid
I0616 10:34:39.944780  5352 net.cpp:406] roi_loss <- roi-valid
I0616 10:34:39.944797  5352 net.cpp:380] roi_loss -> roi_loss
I0616 10:34:39.944898  5352 net.cpp:122] Setting up roi_loss
I0616 10:34:39.944916  5352 net.cpp:129] Top shape: (1)
I0616 10:34:39.944923  5352 net.cpp:132]     with loss weight 0.5
I0616 10:34:39.944939  5352 net.cpp:137] Memory required for data: 10904076
I0616 10:34:39.944953  5352 layer_factory.hpp:77] Creating layer fc5-3
I0616 10:34:39.944973  5352 net.cpp:84] Creating Layer fc5-3
I0616 10:34:39.944985  5352 net.cpp:406] fc5-3 <- fc4_relu4_0_split_2
I0616 10:34:39.945005  5352 net.cpp:380] fc5-3 -> fc5-3
I0616 10:34:39.945307  5352 net.cpp:122] Setting up fc5-3
I0616 10:34:39.945327  5352 net.cpp:129] Top shape: 64 10 (640)
I0616 10:34:39.945338  5352 net.cpp:137] Memory required for data: 10906636
I0616 10:34:39.945361  5352 layer_factory.hpp:77] Creating layer pts_bridge
I0616 10:34:39.945852  5352 net.cpp:84] Creating Layer pts_bridge
I0616 10:34:39.945873  5352 net.cpp:406] pts_bridge <- fc5-3
I0616 10:34:39.945888  5352 net.cpp:406] pts_bridge <- pts
I0616 10:34:39.945904  5352 net.cpp:380] pts_bridge -> fc5-3-valid
I0616 10:34:39.945924  5352 net.cpp:380] pts_bridge -> pts-valid
I0616 10:34:39.946285  5352 net.cpp:122] Setting up pts_bridge
I0616 10:34:39.946310  5352 net.cpp:129] Top shape: 64 10 (640)
I0616 10:34:39.946322  5352 net.cpp:129] Top shape: 64 10 (640)
I0616 10:34:39.946357  5352 net.cpp:137] Memory required for data: 10911756
I0616 10:34:39.946372  5352 layer_factory.hpp:77] Creating layer pts_loss
I0616 10:34:39.946388  5352 net.cpp:84] Creating Layer pts_loss
I0616 10:34:39.946400  5352 net.cpp:406] pts_loss <- fc5-3-valid
I0616 10:34:39.946414  5352 net.cpp:406] pts_loss <- pts-valid
I0616 10:34:39.946430  5352 net.cpp:380] pts_loss -> pts_loss
…
