…
snapshot: 5000
snapshot_prefix: "./models/48net"
solver_mode: GPU
device_id: 0
net: "train48.prototxt"
train_state {
  level: 0
  stage: ""
}
I0622 16:25:22.592157  5940 solver.cpp:87] Creating training net from net file: train48.prototxt
I0622 16:25:22.592666  5940 net.cpp:51] Initializing net from parameters: 
name: "face_48"
state {
  phase: TRAIN
  level: 0
  stage: ""
}
layer {
  name: "PythonLayer"
  type: "Python"
  top: "data"
  top: "label"
  top: "roi"
  top: "pts"
  python_param {
    module: "pythonLayer"
    layer: "Data_Layer_train"
  }
}
layer {
  name: "conv1"
  type: "Convolution"
  bottom: "data"
  top: "conv1"
  param {
    lr_mult: 1
    decay_mult: 1
  }
  param {
    lr_mult: 2
    decay_mult: 1
  }
  convolution_param {
    num_output: 32
    kernel_size: 3
    stride: 1
    weight_filler {
      type: "xavier"
    }
    bias_filler {
      type: "constant"
      value: 0
    }
  }
}
layer {
  name: "prelu1"
  type: "PReLU"
  bottom: "conv1"
  top: "conv1"
}
layer {
  name: "pool1"
  type: "Pooling"
  bottom: "conv1"
  top: "pool1"
  pooling_param {
    pool: MAX
    kernel_size: 3
    stride: 2
  }
}
layer {
  name: "conv2"
  type: "Convolution"
  bottom: "pool1"
  top: "conv2"
  param {
    lr_mult: 1
    decay_mult: 1
  }
  param {
    lr_mult: 2
    decay_mult: 1
  }
  convolution_param {
    num_output: 64
    kernel_size: 3
    stride: 1
    weight_filler {
      type: "xavier"
    }
    bias_filler {
      type: "constant"
      value: 0
    }
  }
}
layer {
  name: "prelu2"
  type: "PReLU"
  bottom: "conv2"
  top: "conv2"
}
layer {
  name: "pool2"
  type: "Pooling"
  bottom: "conv2"
  top: "pool2"
  pooling_param {
    pool: MAX
    kernel_size: 3
    stride: 2
  }
}
layer {
  name: "conv3"
  type: "Convolution"
  bottom: "pool2"
  top: "conv3"
  param {
    lr_mult: 1
    decay_mult: 1
  }
  param {
    lr_mult: 2
    decay_mult: 1
  }
  convolution_param {
    num_output: 64
    kernel_size: 3
    weight_filler {
      type: "xavier"
    }
    bias_filler {
      type: "constant"
      value: 0
    }
  }
}
layer {
  name: "prelu3"
  type: "PReLU"
  bottom: "conv3"
  top: "conv3"
}
layer {
  name: "pool3"
  type: "Pooling"
  bottom: "conv3"
  top: "pool3"
  pooling_param {
    pool: MAX
    kernel_size: 2
    stride: 2
  }
}
layer {
  name: "conv4"
  type: "Convolution"
  bottom: "pool3"
  top: "conv4"
  param {
    lr_mult: 1
    decay_mult: 1
  }
  param {
    lr_mult: 2
    decay_mult: 1
  }
  convolution_param {
    num_output: 128
    kernel_size: 2
    stride: 1
    weight_filler {
      type: "xavier"
    }
    bias_filler {
      type: "constant"
      value: 0
    }
  }
}
layer {
  name: "prelu4"
  type: "PReLU"
  bottom: "conv4"
  top: "conv4"
}
layer {
  name: "conv5"
  type: "InnerProduct"
  bottom: "conv4"
  top: "conv5"
  param {
    lr_mult: 1
    decay_mult: 1
  }
  param {
    lr_mult: 2
    decay_mult: 1
  }
  inner_product_param {
    num_output: 256
    weight_filler {
      type: "xavier"
    }
    bias_filler {
      type: "constant"
      value: 0
    }
  }
}
layer {
  name: "drop5"
  type: "Dropout"
  bottom: "conv5"
  top: "conv5"
  dropout_param {
    dropout_ratio: 0.25
  }
}
layer {
  name: "prelu5"
  type: "PReLU"
  bottom: "conv5"
  top: "conv5"
}
layer {
  name: "conv6-1"
  type: "InnerProduct"
  bottom: "conv5"
  top: "conv6-1"
  param {
    lr_mult: 1
    decay_mult: 1
  }
  param {
    lr_mult: 2
    decay_mult: 1
  }
  inner_product_param {
    num_output: 2
    weight_filler {
      type: "xavier"
    }
    bias_filler {
      type: "constant"
      value: 0
    }
  }
}
layer {
  name: "cls_bridge"
  type: "Python"
  bottom: "conv6-1"
  bottom: "label"
  top: "conv6-1-valid"
  top: "label-valid"
  python_param {
    module: "pythonLayer"
    layer: "cls_Layer"
  }
}
layer {
  name: "ClassifyLoss"
  type: "SoftmaxWithLoss"
  bottom: "conv6-1-valid"
  bottom: "label-valid"
  top: "ClassifyLoss"
  loss_weight: 1
  propagate_down: true
  propagate_down: false
}
layer {
  name: "cls_Acc"
  type: "Accuracy"
  bottom: "conv6-1-valid"
  bottom: "label-valid"
  top: "cls_Acc"
  include {
    phase: TRAIN
  }
}
layer {
  name: "conv6-2"
  type: "InnerProduct"
  bottom: "conv5"
  top: "conv6-2"
  param {
    lr_mult: 1
    decay_mult: 1
  }
  param {
    lr_mult: 2
    decay_mult: 1
  }
  inner_product_param {
    num_output: 4
    weight_filler {
      type: "xavier"
    }
    bias_filler {
      type: "constant"
      value: 0
    }
  }
}
layer {
  name: "roi_bridge"
  type: "Python"
  bottom: "conv6-2"
  bottom: "roi"
  top: "conv6-2-valid"
  top: "roi-valid"
  propagate_down: true
  propagate_down: false
  python_param {
    module: "pythonLayer"
    layer: "roi_filter_Layer"
  }
}
layer {
  name: "RegressionLoss"
  type: "Python"
  bottom: "conv6-2-valid"
  bottom: "roi-valid"
  top: "RegressionLoss"
  loss_weight: 0.5
  python_param {
    module: "pythonLayer"
    layer: "regression_Layer"
  }
}
layer {
  name: "conv6-3"
  type: "InnerProduct"
  bottom: "conv5"
  top: "conv6-3"
  param {
    lr_mult: 1
    decay_mult: 1
  }
  param {
    lr_mult: 2
    decay_mult: 1
  }
  inner_product_param {
    num_output: 10
    weight_filler {
      type: "xavier"
    }
    bias_filler {
      type: "constant"
      value: 0
    }
  }
}
layer {
  name: "pts_bridge"
  type: "Python"
  bottom: "conv6-3"
  bottom: "pts"
  top: "conv6-3-valid"
  top: "pts-valid"
  propagate_down: true
  propagate_down: false
  python_param {
    module: "pythonLayer"
    layer: "pts_filter_Layer"
  }
}
layer {
  name: "LandmarkLoss"
  type: "Python"
  bottom: "conv6-3-valid"
  bottom: "pts-valid"
  top: "LandmarkLoss"
  loss_weight: 1
  python_param {
    module: "pythonLayer"
    layer: "regression_Layer"
  }
}
I0622 16:25:22.592923  5940 layer_factory.hpp:77] Creating layer PythonLayer
I0622 16:25:23.002676  5940 net.cpp:84] Creating Layer PythonLayer
I0622 16:25:23.002701  5940 net.cpp:380] PythonLayer -> data
I0622 16:25:23.002745  5940 net.cpp:380] PythonLayer -> label
I0622 16:25:23.002755  5940 net.cpp:380] PythonLayer -> roi
I0622 16:25:23.002761  5940 net.cpp:380] PythonLayer -> pts
Start Reading Classify Data into Memory...

80000  Classify Data have been read into Memory...
Start Reading Regression Data into Memory...

40000  Regression Data have been read into Memory...
Start Reading pts-regression Data into Memory...

40000  pts-regression Data have been read into Memory...
I0622 16:39:08.291791  5940 net.cpp:122] Setting up PythonLayer
I0622 16:39:08.292248  5940 net.cpp:129] Top shape: 64 3 48 48 (442368)
I0622 16:39:08.292255  5940 net.cpp:129] Top shape: 64 1 (64)
I0622 16:39:08.292273  5940 net.cpp:129] Top shape: 64 4 (256)
I0622 16:39:08.292278  5940 net.cpp:129] Top shape: 64 10 (640)
I0622 16:39:08.292279  5940 net.cpp:137] Memory required for data: 1773312
I0622 16:39:08.292305  5940 layer_factory.hpp:77] Creating layer conv1
I0622 16:39:08.292356  5940 net.cpp:84] Creating Layer conv1
I0622 16:39:08.292376  5940 net.cpp:406] conv1 <- data
I0622 16:39:08.292417  5940 net.cpp:380] conv1 -> conv1
I0622 16:39:08.827781  5940 net.cpp:122] Setting up conv1
I0622 16:39:08.827806  5940 net.cpp:129] Top shape: 64 32 46 46 (4333568)
I0622 16:39:08.827811  5940 net.cpp:137] Memory required for data: 19107584
I0622 16:39:08.827834  5940 layer_factory.hpp:77] Creating layer prelu1
I0622 16:39:08.827847  5940 net.cpp:84] Creating Layer prelu1
I0622 16:39:08.827852  5940 net.cpp:406] prelu1 <- conv1
I0622 16:39:08.827857  5940 net.cpp:367] prelu1 -> conv1 (in-place)
I0622 16:39:08.828619  5940 net.cpp:122] Setting up prelu1
I0622 16:39:08.828630  5940 net.cpp:129] Top shape: 64 32 46 46 (4333568)
I0622 16:39:08.828634  5940 net.cpp:137] Memory required for data: 36441856
I0622 16:39:08.828640  5940 layer_factory.hpp:77] Creating layer pool1
I0622 16:39:08.828647  5940 net.cpp:84] Creating Layer pool1
I0622 16:39:08.828650  5940 net.cpp:406] pool1 <- conv1
I0622 16:39:08.828655  5940 net.cpp:380] pool1 -> pool1
I0622 16:39:08.828697  5940 net.cpp:122] Setting up pool1
I0622 16:39:08.828703  5940 net.cpp:129] Top shape: 64 32 23 23 (1083392)
I0622 16:39:08.828706  5940 net.cpp:137] Memory required for data: 40775424
I0622 16:39:08.828709  5940 layer_factory.hpp:77] Creating layer conv2
I0622 16:39:08.828718  5940 net.cpp:84] Creating Layer conv2
I0622 16:39:08.828721  5940 net.cpp:406] conv2 <- pool1
I0622 16:39:08.828725  5940 net.cpp:380] conv2 -> conv2
I0622 16:39:08.831300  5940 net.cpp:122] Setting up conv2
I0622 16:39:08.831310  5940 net.cpp:129] Top shape: 64 64 21 21 (1806336)
I0622 16:39:08.831313  5940 net.cpp:137] Memory required for data: 48000768
I0622 16:39:08.831321  5940 layer_factory.hpp:77] Creating layer prelu2
I0622 16:39:08.831326  5940 net.cpp:84] Creating Layer prelu2
I0622 16:39:08.831327  5940 net.cpp:406] prelu2 <- conv2
I0622 16:39:08.831331  5940 net.cpp:367] prelu2 -> conv2 (in-place)
I0622 16:39:08.831410  5940 net.cpp:122] Setting up prelu2
I0622 16:39:08.831416  5940 net.cpp:129] Top shape: 64 64 21 21 (1806336)
I0622 16:39:08.831418  5940 net.cpp:137] Memory required for data: 55226112
I0622 16:39:08.831423  5940 layer_factory.hpp:77] Creating layer pool2
I0622 16:39:08.831426  5940 net.cpp:84] Creating Layer pool2
I0622 16:39:08.831429  5940 net.cpp:406] pool2 <- conv2
I0622 16:39:08.831432  5940 net.cpp:380] pool2 -> pool2
I0622 16:39:08.831459  5940 net.cpp:122] Setting up pool2
I0622 16:39:08.831463  5940 net.cpp:129] Top shape: 64 64 10 10 (409600)
I0622 16:39:08.831465  5940 net.cpp:137] Memory required for data: 56864512
I0622 16:39:08.831467  5940 layer_factory.hpp:77] Creating layer conv3
I0622 16:39:08.831473  5940 net.cpp:84] Creating Layer conv3
I0622 16:39:08.831476  5940 net.cpp:406] conv3 <- pool2
I0622 16:39:08.831480  5940 net.cpp:380] conv3 -> conv3
I0622 16:39:08.832566  5940 net.cpp:122] Setting up conv3
I0622 16:39:08.832576  5940 net.cpp:129] Top shape: 64 64 8 8 (262144)
I0622 16:39:08.832579  5940 net.cpp:137] Memory required for data: 57913088
I0622 16:39:08.832583  5940 layer_factory.hpp:77] Creating layer prelu3
I0622 16:39:08.832588  5940 net.cpp:84] Creating Layer prelu3
I0622 16:39:08.832592  5940 net.cpp:406] prelu3 <- conv3
I0622 16:39:08.832595  5940 net.cpp:367] prelu3 -> conv3 (in-place)
I0622 16:39:08.832667  5940 net.cpp:122] Setting up prelu3
I0622 16:39:08.832672  5940 net.cpp:129] Top shape: 64 64 8 8 (262144)
I0622 16:39:08.832674  5940 net.cpp:137] Memory required for data: 58961664
I0622 16:39:08.832680  5940 layer_factory.hpp:77] Creating layer pool3
I0622 16:39:08.832684  5940 net.cpp:84] Creating Layer pool3
I0622 16:39:08.832703  5940 net.cpp:406] pool3 <- conv3
I0622 16:39:08.832708  5940 net.cpp:380] pool3 -> pool3
I0622 16:39:08.832736  5940 net.cpp:122] Setting up pool3
I0622 16:39:08.832741  5940 net.cpp:129] Top shape: 64 64 4 4 (65536)
I0622 16:39:08.832743  5940 net.cpp:137] Memory required for data: 59223808
I0622 16:39:08.832746  5940 layer_factory.hpp:77] Creating layer conv4
I0622 16:39:08.832754  5940 net.cpp:84] Creating Layer conv4
I0622 16:39:08.832757  5940 net.cpp:406] conv4 <- pool3
I0622 16:39:08.832762  5940 net.cpp:380] conv4 -> conv4
I0622 16:39:08.834105  5940 net.cpp:122] Setting up conv4
I0622 16:39:08.834115  5940 net.cpp:129] Top shape: 64 128 3 3 (73728)
I0622 16:39:08.834118  5940 net.cpp:137] Memory required for data: 59518720
I0622 16:39:08.834123  5940 layer_factory.hpp:77] Creating layer prelu4
I0622 16:39:08.834128  5940 net.cpp:84] Creating Layer prelu4
I0622 16:39:08.834132  5940 net.cpp:406] prelu4 <- conv4
I0622 16:39:08.834136  5940 net.cpp:367] prelu4 -> conv4 (in-place)
I0622 16:39:08.834200  5940 net.cpp:122] Setting up prelu4
I0622 16:39:08.834205  5940 net.cpp:129] Top shape: 64 128 3 3 (73728)
I0622 16:39:08.834209  5940 net.cpp:137] Memory required for data: 59813632
I0622 16:39:08.834213  5940 layer_factory.hpp:77] Creating layer conv5
I0622 16:39:08.834219  5940 net.cpp:84] Creating Layer conv5
I0622 16:39:08.834223  5940 net.cpp:406] conv5 <- conv4
I0622 16:39:08.834228  5940 net.cpp:380] conv5 -> conv5
I0622 16:39:08.835495  5940 net.cpp:122] Setting up conv5
I0622 16:39:08.835500  5940 net.cpp:129] Top shape: 64 256 (16384)
I0622 16:39:08.835503  5940 net.cpp:137] Memory required for data: 59879168
I0622 16:39:08.835508  5940 layer_factory.hpp:77] Creating layer drop5
I0622 16:39:08.835532  5940 net.cpp:84] Creating Layer drop5
I0622 16:39:08.835535  5940 net.cpp:406] drop5 <- conv5
I0622 16:39:08.835537  5940 net.cpp:367] drop5 -> conv5 (in-place)
I0622 16:39:08.835558  5940 net.cpp:122] Setting up drop5
I0622 16:39:08.835575  5940 net.cpp:129] Top shape: 64 256 (16384)
I0622 16:39:08.835577  5940 net.cpp:137] Memory required for data: 59944704
I0622 16:39:08.835580  5940 layer_factory.hpp:77] Creating layer prelu5
I0622 16:39:08.835584  5940 net.cpp:84] Creating Layer prelu5
I0622 16:39:08.835587  5940 net.cpp:406] prelu5 <- conv5
I0622 16:39:08.835590  5940 net.cpp:367] prelu5 -> conv5 (in-place)
I0622 16:39:08.835640  5940 net.cpp:122] Setting up prelu5
I0622 16:39:08.835645  5940 net.cpp:129] Top shape: 64 256 (16384)
I0622 16:39:08.835647  5940 net.cpp:137] Memory required for data: 60010240
I0622 16:39:08.835651  5940 layer_factory.hpp:77] Creating layer conv5_prelu5_0_split
I0622 16:39:08.835656  5940 net.cpp:84] Creating Layer conv5_prelu5_0_split
I0622 16:39:08.835659  5940 net.cpp:406] conv5_prelu5_0_split <- conv5
I0622 16:39:08.835664  5940 net.cpp:380] conv5_prelu5_0_split -> conv5_prelu5_0_split_0
I0622 16:39:08.835667  5940 net.cpp:380] conv5_prelu5_0_split -> conv5_prelu5_0_split_1
I0622 16:39:08.835672  5940 net.cpp:380] conv5_prelu5_0_split -> conv5_prelu5_0_split_2
I0622 16:39:08.835703  5940 net.cpp:122] Setting up conv5_prelu5_0_split
I0622 16:39:08.835708  5940 net.cpp:129] Top shape: 64 256 (16384)
I0622 16:39:08.835711  5940 net.cpp:129] Top shape: 64 256 (16384)
I0622 16:39:08.835714  5940 net.cpp:129] Top shape: 64 256 (16384)
I0622 16:39:08.835716  5940 net.cpp:137] Memory required for data: 60206848
I0622 16:39:08.835719  5940 layer_factory.hpp:77] Creating layer conv6-1
I0622 16:39:08.835726  5940 net.cpp:84] Creating Layer conv6-1
I0622 16:39:08.835728  5940 net.cpp:406] conv6-1 <- conv5_prelu5_0_split_0
I0622 16:39:08.835733  5940 net.cpp:380] conv6-1 -> conv6-1
I0622 16:39:08.835801  5940 net.cpp:122] Setting up conv6-1
I0622 16:39:08.835805  5940 net.cpp:129] Top shape: 64 2 (128)
I0622 16:39:08.835808  5940 net.cpp:137] Memory required for data: 60207360
I0622 16:39:08.835815  5940 layer_factory.hpp:77] Creating layer cls_bridge
I0622 16:39:08.835858  5940 net.cpp:84] Creating Layer cls_bridge
I0622 16:39:08.835862  5940 net.cpp:406] cls_bridge <- conv6-1
I0622 16:39:08.835873  5940 net.cpp:406] cls_bridge <- label
I0622 16:39:08.835878  5940 net.cpp:380] cls_bridge -> conv6-1-valid
I0622 16:39:08.835886  5940 net.cpp:380] cls_bridge -> label-valid
I0622 16:39:08.836000  5940 net.cpp:122] Setting up cls_bridge
I0622 16:39:08.836007  5940 net.cpp:129] Top shape: 64 2 (128)
I0622 16:39:08.836011  5940 net.cpp:129] Top shape: 64 1 (64)
I0622 16:39:08.836014  5940 net.cpp:137] Memory required for data: 60208128
I0622 16:39:08.836016  5940 layer_factory.hpp:77] Creating layer conv6-1-valid_cls_bridge_0_split
I0622 16:39:08.836020  5940 net.cpp:84] Creating Layer conv6-1-valid_cls_bridge_0_split
I0622 16:39:08.836024  5940 net.cpp:406] conv6-1-valid_cls_bridge_0_split <- conv6-1-valid
I0622 16:39:08.836028  5940 net.cpp:380] conv6-1-valid_cls_bridge_0_split -> conv6-1-valid_cls_bridge_0_split_0
I0622 16:39:08.836033  5940 net.cpp:380] conv6-1-valid_cls_bridge_0_split -> conv6-1-valid_cls_bridge_0_split_1
I0622 16:39:08.836057  5940 net.cpp:122] Setting up conv6-1-valid_cls_bridge_0_split
I0622 16:39:08.836062  5940 net.cpp:129] Top shape: 64 2 (128)
I0622 16:39:08.836066  5940 net.cpp:129] Top shape: 64 2 (128)
I0622 16:39:08.836067  5940 net.cpp:137] Memory required for data: 60209152
I0622 16:39:08.836071  5940 layer_factory.hpp:77] Creating layer label-valid_cls_bridge_1_split
I0622 16:39:08.836074  5940 net.cpp:84] Creating Layer label-valid_cls_bridge_1_split
I0622 16:39:08.836077  5940 net.cpp:406] label-valid_cls_bridge_1_split <- label-valid
I0622 16:39:08.836081  5940 net.cpp:380] label-valid_cls_bridge_1_split -> label-valid_cls_bridge_1_split_0
I0622 16:39:08.836086  5940 net.cpp:380] label-valid_cls_bridge_1_split -> label-valid_cls_bridge_1_split_1
I0622 16:39:08.836109  5940 net.cpp:122] Setting up label-valid_cls_bridge_1_split
I0622 16:39:08.836113  5940 net.cpp:129] Top shape: 64 1 (64)
I0622 16:39:08.836115  5940 net.cpp:129] Top shape: 64 1 (64)
I0622 16:39:08.836118  5940 net.cpp:137] Memory required for data: 60209664
I0622 16:39:08.836122  5940 layer_factory.hpp:77] Creating layer ClassifyLoss
I0622 16:39:08.836127  5940 net.cpp:84] Creating Layer ClassifyLoss
I0622 16:39:08.836129  5940 net.cpp:406] ClassifyLoss <- conv6-1-valid_cls_bridge_0_split_0
I0622 16:39:08.836133  5940 net.cpp:406] ClassifyLoss <- label-valid_cls_bridge_1_split_0
…
I0622 16:39:08.836385  5940 net.cpp:380] cls_Acc -> cls_Acc
I0622 16:39:08.836392  5940 net.cpp:122] Setting up cls_Acc
I0622 16:39:08.836396  5940 net.cpp:129] Top shape: (1)
I0622 16:39:08.836398  5940 net.cpp:137] Memory required for data: 60209672
I0622 16:39:08.836400  5940 layer_factory.hpp:77] Creating layer conv6-2
I0622 16:39:08.836405  5940 net.cpp:84] Creating Layer conv6-2
I0622 16:39:08.836408  5940 net.cpp:406] conv6-2 <- conv5_prelu5_0_split_1
I0622 16:39:08.836413  5940 net.cpp:380] conv6-2 -> conv6-2
I0622 16:39:08.836486  5940 net.cpp:122] Setting up conv6-2
I0622 16:39:08.836491  5940 net.cpp:129] Top shape: 64 4 (256)
I0622 16:39:08.836494  5940 net.cpp:137] Memory required for data: 60210696
I0622 16:39:08.836498  5940 layer_factory.hpp:77] Creating layer roi_bridge
I0622 16:39:08.836515  5940 net.cpp:84] Creating Layer roi_bridge
I0622 16:39:08.836519  5940 net.cpp:406] roi_bridge <- conv6-2
I0622 16:39:08.836524  5940 net.cpp:406] roi_bridge <- roi
I0622 16:39:08.836529  5940 net.cpp:380] roi_bridge -> conv6-2-valid
I0622 16:39:08.836539  5940 net.cpp:380] roi_bridge -> roi-valid
I0622 16:39:08.836602  5940 net.cpp:122] Setting up roi_bridge
I0622 16:39:08.836609  5940 net.cpp:129] Top shape: 64 4 (256)
I0622 16:39:08.836613  5940 net.cpp:129] Top shape: 64 4 (256)
I0622 16:39:08.836616  5940 net.cpp:137] Memory required for data: 60212744
I0622 16:39:08.836618  5940 layer_factory.hpp:77] Creating layer RegressionLoss
I0622 16:39:08.836633  5940 net.cpp:84] Creating Layer RegressionLoss
I0622 16:39:08.836637  5940 net.cpp:406] RegressionLoss <- conv6-2-valid
I0622 16:39:08.836640  5940 net.cpp:406] RegressionLoss <- roi-valid
I0622 16:39:08.836644  5940 net.cpp:380] RegressionLoss -> RegressionLoss
I0622 16:39:08.836732  5940 net.cpp:122] Setting up RegressionLoss
I0622 16:39:08.836740  5940 net.cpp:129] Top shape: 1 (1)
I0622 16:39:08.836742  5940 net.cpp:132]     with loss weight 0.5
I0622 16:39:08.836746  5940 net.cpp:137] Memory required for data: 60212748
I0622 16:39:08.836750  5940 layer_factory.hpp:77] Creating layer conv6-3
I0622 16:39:08.836755  5940 net.cpp:84] Creating Layer conv6-3
I0622 16:39:08.836758  5940 net.cpp:406] conv6-3 <- conv5_prelu5_0_split_2
I0622 16:39:08.836763  5940 net.cpp:380] conv6-3 -> conv6-3
I0622 16:39:08.836844  5940 net.cpp:122] Setting up conv6-3
I0622 16:39:08.836849  5940 net.cpp:129] Top shape: 64 10 (640)
I0622 16:39:08.836853  5940 net.cpp:137] Memory required for data: 60215308
I0622 16:39:08.836856  5940 layer_factory.hpp:77] Creating layer pts_bridge
I0622 16:39:08.836871  5940 net.cpp:84] Creating Layer pts_bridge
I0622 16:39:08.836875  5940 net.cpp:406] pts_bridge <- conv6-3
I0622 16:39:08.836879  5940 net.cpp:406] pts_bridge <- pts
I0622 16:39:08.836882  5940 net.cpp:380] pts_bridge -> conv6-3-valid
I0622 16:39:08.836889  5940 net.cpp:380] pts_bridge -> pts-valid
I0622 16:39:08.836942  5940 net.cpp:122] Setting up pts_bridge
I0622 16:39:08.836948  5940 net.cpp:129] Top shape: 64 10 (640)
I0622 16:39:08.836951  5940 net.cpp:129] Top shape: 64 10 (640)
I0622 16:39:08.836954  5940 net.cpp:137] Memory required for data: 60220428
I0622 16:39:08.836956  5940 layer_factory.hpp:77] Creating layer LandmarkLoss
I0622 16:39:08.836968  5940 net.cpp:84] Creating Layer LandmarkLoss
I0622 16:39:08.836971  5940 net.cpp:406] LandmarkLoss <- conv6-3-valid
I0622 16:39:08.836977  5940 net.cpp:406] LandmarkLoss <- pts-valid
I0622 16:39:08.836979  5940 net.cpp:380] LandmarkLoss -> LandmarkLoss
I0622 16:39:08.837052  5940 net.cpp:122] Setting up LandmarkLoss
I0622 16:39:08.837059  5940 net.cpp:129] Top shape: 1 (1)
I0622 16:39:08.837061  5940 net.cpp:132]     with loss weight 1
I0622 16:39:08.837066  5940 net.cpp:137] Memory required for data: 60220432
I0622 16:39:08.837069  5940 net.cpp:198] LandmarkLoss needs backward computation.
I0622 16:39:08.837075  5940 net.cpp:198] pts_bridge needs backward computation.
I0622 16:39:08.837080  5940 net.cpp:198] conv6-3 needs backward computation.
I0622 16:39:08.837082  5940 net.cpp:198] RegressionLoss needs backward computation.
…
