…
snapshot: 10000
snapshot_prefix: "./models/"
solver_mode: GPU
device_id: 0
net: "train12.prototxt"
train_state {
  level: 0
  stage: ""
}
I0608 16:14:13.976830 16443 solver.cpp:87] Creating training net from net file: train12.prototxt
I0608 16:14:13.977150 16443 net.cpp:51] Initializing net from parameters: 
name: "face_12c"
state {
  phase: TRAIN
  level: 0
  stage: ""
}
layer {
  name: "PythonLayer"
  type: "Python"
  top: "data"
  top: "label"
  top: "roi"
  top: "pts"
  python_param {
    module: "pythonLayer"
    layer: "Data_Layer_train"
  }
}
layer {
  name: "conv1"
  type: "Convolution"
  bottom: "data"
  top: "conv1"
  param {
    lr_mult: 1
  }
  param {
    lr_mult: 2
  }
  convolution_param {
    num_output: 10
    kernel_size: 3
    weight_filler {
      type: "gaussian"
      std: 0.0001
    }
    bias_filler {
      type: "constant"
    }
  }
}
layer {
  name: "relu1"
  type: "PReLU"
  bottom: "conv1"
  top: "conv1"
}
layer {
  name: "pool1"
  type: "Pooling"
  bottom: "conv1"
  top: "pool1"
  pooling_param {
    pool: MAX
    kernel_size: 3
    stride: 2
  }
}
layer {
  name: "conv2"
  type: "Convolution"
  bottom: "pool1"
  top: "conv2"
  param {
    lr_mult: 1
  }
  param {
    lr_mult: 2
  }
  convolution_param {
    num_output: 16
    kernel_size: 3
    weight_filler {
      type: "gaussian"
      std: 0.0001
    }
    bias_filler {
      type: "constant"
    }
  }
}
layer {
  name: "relu2"
  type: "PReLU"
  bottom: "conv2"
  top: "conv2"
}
layer {
  name: "conv3"
  type: "Convolution"
  bottom: "conv2"
  top: "conv3"
  param {
    lr_mult: 1
    decay_mult: 1
  }
  param {
    lr_mult: 2
    decay_mult: 0
  }
  convolution_param {
    num_output: 32
    kernel_size: 3
    stride: 1
    weight_filler {
      type: "xavier"
    }
    bias_filler {
      type: "constant"
      value: 0
    }
  }
}
layer {
  name: "relu3"
  type: "PReLU"
  bottom: "conv3"
  top: "conv3"
}
layer {
  name: "conv4-1"
  type: "Convolution"
  bottom: "conv3"
  top: "conv4-1"
  param {
    lr_mult: 1
    decay_mult: 1
  }
  param {
    lr_mult: 2
    decay_mult: 0
  }
  convolution_param {
    num_output: 2
    kernel_size: 1
    stride: 1
    weight_filler {
      type: "xavier"
    }
    bias_filler {
      type: "constant"
      value: 0
    }
  }
}
layer {
  name: "cls_bridge"
  type: "Python"
  bottom: "conv4-1"
  bottom: "label"
  top: "conv4-1-valid"
  top: "label-valid"
  python_param {
    module: "pythonLayer"
    layer: "cls_Layer_fc"
  }
}
layer {
  name: "cls_loss"
  type: "SoftmaxWithLoss"
  bottom: "conv4-1-valid"
  bottom: "label-valid"
  top: "cls_loss"
  loss_weight: 1
  propagate_down: true
  propagate_down: false
}
layer {
  name: "cls_Acc"
  type: "Accuracy"
  bottom: "conv4-1-valid"
  bottom: "label-valid"
  top: "cls_Acc"
  include {
    phase: TRAIN
  }
}
layer {
  name: "conv4-2"
  type: "Convolution"
  bottom: "conv3"
  top: "conv4-2"
  param {
    lr_mult: 1
    decay_mult: 1
  }
  param {
    lr_mult: 2
    decay_mult: 0
  }
  convolution_param {
    num_output: 4
    kernel_size: 1
    stride: 1
    weight_filler {
      type: "xavier"
    }
    bias_filler {
      type: "constant"
      value: 0
    }
  }
}
layer {
  name: "roi_loss"
  type: "Python"
  bottom: "conv4-2"
  bottom: "roi"
  top: "roi_loss"
  loss_weight: 0.5
  python_param {
    module: "pythonLayer"
    layer: "regression_Layer"
  }
}
layer {
  name: "conv4-3"
  type: "Convolution"
  bottom: "conv3"
  top: "conv4-3"
  param {
    lr_mult: 1
    decay_mult: 1
  }
  param {
    lr_mult: 2
    decay_mult: 0
  }
  convolution_param {
    num_output: 10
    kernel_size: 1
    stride: 1
    weight_filler {
      type: "xavier"
    }
    bias_filler {
      type: "constant"
      value: 0
    }
  }
}
layer {
  name: "pts_loss"
  type: "Python"
  bottom: "conv4-3"
  bottom: "pts"
  top: "pts_loss"
  loss_weight: 0.5
  python_param {
    module: "pythonLayer"
    layer: "regression_Layer"
  }
}
I0608 16:14:13.977411 16443 layer_factory.hpp:77] Creating layer PythonLayer
I0608 16:14:14.407827 16443 net.cpp:84] Creating Layer PythonLayer
I0608 16:14:14.407866 16443 net.cpp:380] PythonLayer -> data
I0608 16:14:14.407881 16443 net.cpp:380] PythonLayer -> label
I0608 16:14:14.407892 16443 net.cpp:380] PythonLayer -> roi
I0608 16:14:14.407898 16443 net.cpp:380] PythonLayer -> pts
Start Reading Classify Data into Memory...

788878  Classify Data have been read into Memory...
Start Reading Regression Data into Memory...

488878  Regression Data have been read into Memory...
Start Reading pts-regression Data into Memory...

202599  pts-regression Data have been read into Memory...
I0608 16:23:13.109024 16443 net.cpp:122] Setting up PythonLayer
I0608 16:23:13.112534 16443 net.cpp:129] Top shape: 64 3 12 12 (27648)
I0608 16:23:13.112545 16443 net.cpp:129] Top shape: 64 1 (64)
I0608 16:23:13.112565 16443 net.cpp:129] Top shape: 64 4 (256)
I0608 16:23:13.112571 16443 net.cpp:129] Top shape: 64 10 (640)
I0608 16:23:13.112574 16443 net.cpp:137] Memory required for data: 114432
I0608 16:23:13.114418 16443 layer_factory.hpp:77] Creating layer conv1
I0608 16:23:13.114876 16443 net.cpp:84] Creating Layer conv1
I0608 16:23:13.114902 16443 net.cpp:406] conv1 <- data
I0608 16:23:13.115389 16443 net.cpp:380] conv1 -> conv1
I0608 16:23:13.984761 16443 net.cpp:122] Setting up conv1
I0608 16:23:13.985718 16443 net.cpp:129] Top shape: 64 10 10 10 (64000)
I0608 16:23:13.985723 16443 net.cpp:137] Memory required for data: 370432
I0608 16:23:13.990070 16443 layer_factory.hpp:77] Creating layer relu1
I0608 16:23:13.993077 16443 net.cpp:84] Creating Layer relu1
I0608 16:23:13.993083 16443 net.cpp:406] relu1 <- conv1
I0608 16:23:13.993088 16443 net.cpp:367] relu1 -> conv1 (in-place)
I0608 16:23:13.994128 16443 net.cpp:122] Setting up relu1
I0608 16:23:13.994137 16443 net.cpp:129] Top shape: 64 10 10 10 (64000)
I0608 16:23:13.994153 16443 net.cpp:137] Memory required for data: 626432
I0608 16:23:13.994158 16443 layer_factory.hpp:77] Creating layer pool1
I0608 16:23:13.994182 16443 net.cpp:84] Creating Layer pool1
I0608 16:23:13.994185 16443 net.cpp:406] pool1 <- conv1
I0608 16:23:13.994189 16443 net.cpp:380] pool1 -> pool1
I0608 16:23:13.995956 16443 net.cpp:122] Setting up pool1
I0608 16:23:13.995964 16443 net.cpp:129] Top shape: 64 10 5 5 (16000)
I0608 16:23:13.995980 16443 net.cpp:137] Memory required for data: 690432
I0608 16:23:13.995985 16443 layer_factory.hpp:77] Creating layer conv2
I0608 16:23:13.996008 16443 net.cpp:84] Creating Layer conv2
I0608 16:23:13.996011 16443 net.cpp:406] conv2 <- pool1
I0608 16:23:13.996016 16443 net.cpp:380] conv2 -> conv2
I0608 16:23:13.999238 16443 net.cpp:122] Setting up conv2
I0608 16:23:13.999264 16443 net.cpp:129] Top shape: 64 16 3 3 (9216)
I0608 16:23:13.999266 16443 net.cpp:137] Memory required for data: 727296
I0608 16:23:13.999274 16443 layer_factory.hpp:77] Creating layer relu2
I0608 16:23:13.999289 16443 net.cpp:84] Creating Layer relu2
I0608 16:23:13.999292 16443 net.cpp:406] relu2 <- conv2
I0608 16:23:13.999296 16443 net.cpp:367] relu2 -> conv2 (in-place)
I0608 16:23:13.999359 16443 net.cpp:122] Setting up relu2
I0608 16:23:13.999377 16443 net.cpp:129] Top shape: 64 16 3 3 (9216)
I0608 16:23:13.999379 16443 net.cpp:137] Memory required for data: 764160
I0608 16:23:13.999382 16443 layer_factory.hpp:77] Creating layer conv3
I0608 16:23:13.999403 16443 net.cpp:84] Creating Layer conv3
I0608 16:23:13.999406 16443 net.cpp:406] conv3 <- conv2
I0608 16:23:13.999410 16443 net.cpp:380] conv3 -> conv3
I0608 16:23:14.002326 16443 net.cpp:122] Setting up conv3
I0608 16:23:14.002354 16443 net.cpp:129] Top shape: 64 32 1 1 (2048)
I0608 16:23:14.002357 16443 net.cpp:137] Memory required for data: 772352
I0608 16:23:14.002372 16443 layer_factory.hpp:77] Creating layer relu3
I0608 16:23:14.002377 16443 net.cpp:84] Creating Layer relu3
I0608 16:23:14.002380 16443 net.cpp:406] relu3 <- conv3
I0608 16:23:14.002384 16443 net.cpp:367] relu3 -> conv3 (in-place)
I0608 16:23:14.002497 16443 net.cpp:122] Setting up relu3
I0608 16:23:14.002502 16443 net.cpp:129] Top shape: 64 32 1 1 (2048)
I0608 16:23:14.002521 16443 net.cpp:137] Memory required for data: 780544
I0608 16:23:14.002526 16443 layer_factory.hpp:77] Creating layer conv3_relu3_0_split
I0608 16:23:14.008225 16443 net.cpp:84] Creating Layer conv3_relu3_0_split
I0608 16:23:14.008234 16443 net.cpp:406] conv3_relu3_0_split <- conv3
I0608 16:23:14.008239 16443 net.cpp:380] conv3_relu3_0_split -> conv3_relu3_0_split_0
I0608 16:23:14.008245 16443 net.cpp:380] conv3_relu3_0_split -> conv3_relu3_0_split_1
I0608 16:23:14.008250 16443 net.cpp:380] conv3_relu3_0_split -> conv3_relu3_0_split_2
I0608 16:23:14.008294 16443 net.cpp:122] Setting up conv3_relu3_0_split
I0608 16:23:14.008301 16443 net.cpp:129] Top shape: 64 32 1 1 (2048)
I0608 16:23:14.008322 16443 net.cpp:129] Top shape: 64 32 1 1 (2048)
I0608 16:23:14.008325 16443 net.cpp:129] Top shape: 64 32 1 1 (2048)
I0608 16:23:14.008328 16443 net.cpp:137] Memory required for data: 805120
I0608 16:23:14.008332 16443 layer_factory.hpp:77] Creating layer conv4-1
I0608 16:23:14.008339 16443 net.cpp:84] Creating Layer conv4-1
I0608 16:23:14.008342 16443 net.cpp:406] conv4-1 <- conv3_relu3_0_split_0
I0608 16:23:14.008347 16443 net.cpp:380] conv4-1 -> conv4-1
I0608 16:23:14.009707 16443 net.cpp:122] Setting up conv4-1
I0608 16:23:14.009718 16443 net.cpp:129] Top shape: 64 2 1 1 (128)
I0608 16:23:14.009721 16443 net.cpp:137] Memory required for data: 805632
I0608 16:23:14.009727 16443 layer_factory.hpp:77] Creating layer cls_bridge
I0608 16:23:14.033385 16443 net.cpp:84] Creating Layer cls_bridge
I0608 16:23:14.033419 16443 net.cpp:406] cls_bridge <- conv4-1
I0608 16:23:14.033427 16443 net.cpp:406] cls_bridge <- label
I0608 16:23:14.033432 16443 net.cpp:380] cls_bridge -> conv4-1-valid
I0608 16:23:14.033438 16443 net.cpp:380] cls_bridge -> label-valid
I0608 16:23:14.047649 16443 net.cpp:122] Setting up cls_bridge
I0608 16:23:14.047677 16443 net.cpp:129] Top shape: 64 2 1 1 (128)
I0608 16:23:14.047679 16443 net.cpp:129] Top shape: 64 1 (64)
I0608 16:23:14.047683 16443 net.cpp:137] Memory required for data: 806400
I0608 16:23:14.047686 16443 layer_factory.hpp:77] Creating layer conv4-1-valid_cls_bridge_0_split
I0608 16:23:14.047693 16443 net.cpp:84] Creating Layer conv4-1-valid_cls_bridge_0_split
I0608 16:23:14.047698 16443 net.cpp:406] conv4-1-valid_cls_bridge_0_split <- conv4-1-valid
I0608 16:23:14.047719 16443 net.cpp:380] conv4-1-valid_cls_bridge_0_split -> conv4-1-valid_cls_bridge_0_split_0
I0608 16:23:14.047737 16443 net.cpp:380] conv4-1-valid_cls_bridge_0_split -> conv4-1-valid_cls_bridge_0_split_1
I0608 16:23:14.047793 16443 net.cpp:122] Setting up conv4-1-valid_cls_bridge_0_split
I0608 16:23:14.047798 16443 net.cpp:129] Top shape: 64 2 1 1 (128)
I0608 16:23:14.047801 16443 net.cpp:129] Top shape: 64 2 1 1 (128)
I0608 16:23:14.047803 16443 net.cpp:137] Memory required for data: 807424
I0608 16:23:14.047806 16443 layer_factory.hpp:77] Creating layer label-valid_cls_bridge_1_split
I0608 16:23:14.047808 16443 net.cpp:84] Creating Layer label-valid_cls_bridge_1_split
I0608 16:23:14.047811 16443 net.cpp:406] label-valid_cls_bridge_1_split <- label-valid
I0608 16:23:14.047814 16443 net.cpp:380] label-valid_cls_bridge_1_split -> label-valid_cls_bridge_1_split_0
I0608 16:23:14.047821 16443 net.cpp:380] label-valid_cls_bridge_1_split -> label-valid_cls_bridge_1_split_1
I0608 16:23:14.047844 16443 net.cpp:122] Setting up label-valid_cls_bridge_1_split
I0608 16:23:14.047863 16443 net.cpp:129] Top shape: 64 1 (64)
I0608 16:23:14.047865 16443 net.cpp:129] Top shape: 64 1 (64)
I0608 16:23:14.047866 16443 net.cpp:137] Memory required for data: 807936
I0608 16:23:14.047868 16443 layer_factory.hpp:77] Creating layer cls_loss
I0608 16:23:14.047888 16443 net.cpp:84] Creating Layer cls_loss
I0608 16:23:14.047890 16443 net.cpp:406] cls_loss <- conv4-1-valid_cls_bridge_0_split_0
I0608 16:23:14.047894 16443 net.cpp:406] cls_loss <- label-valid_cls_bridge_1_split_0
I0608 16:23:14.047912 16443 net.cpp:380] cls_loss -> cls_loss
…
