…
snapshot: 10000
snapshot_prefix: "./models/"
solver_mode: GPU
device_id: 0
net: "train12.prototxt"
train_state {
  level: 0
  stage: ""
}
I0608 15:47:51.741963 15154 solver.cpp:87] Creating training net from net file: train12.prototxt
I0608 15:47:51.742247 15154 net.cpp:51] Initializing net from parameters: 
name: "face_12c"
state {
  phase: TRAIN
  level: 0
  stage: ""
}
layer {
  name: "PythonLayer"
  type: "Python"
  top: "data"
  top: "label"
  top: "roi"
  top: "pts"
  python_param {
    module: "pythonLayer"
    layer: "Data_Layer_train"
  }
}
layer {
  name: "conv1"
  type: "Convolution"
  bottom: "data"
  top: "conv1"
  param {
    lr_mult: 1
  }
  param {
    lr_mult: 2
  }
  convolution_param {
    num_output: 10
    kernel_size: 3
    weight_filler {
      type: "gaussian"
      std: 0.0001
    }
    bias_filler {
      type: "constant"
    }
  }
}
layer {
  name: "relu1"
  type: "PReLU"
  bottom: "conv1"
  top: "conv1"
}
layer {
  name: "pool1"
  type: "Pooling"
  bottom: "conv1"
  top: "pool1"
  pooling_param {
    pool: MAX
    kernel_size: 3
    stride: 2
  }
}
layer {
  name: "conv2"
  type: "Convolution"
  bottom: "pool1"
  top: "conv2"
  param {
    lr_mult: 1
  }
  param {
    lr_mult: 2
  }
  convolution_param {
    num_output: 16
    kernel_size: 3
    weight_filler {
      type: "gaussian"
      std: 0.0001
    }
    bias_filler {
      type: "constant"
    }
  }
}
layer {
  name: "relu2"
  type: "PReLU"
  bottom: "conv2"
  top: "conv2"
}
layer {
  name: "conv3"
  type: "Convolution"
  bottom: "conv2"
  top: "conv3"
  param {
    lr_mult: 1
    decay_mult: 1
  }
  param {
    lr_mult: 2
    decay_mult: 0
  }
  convolution_param {
    num_output: 32
    kernel_size: 3
    stride: 1
    weight_filler {
      type: "xavier"
    }
    bias_filler {
      type: "constant"
      value: 0
    }
  }
}
layer {
  name: "relu3"
  type: "PReLU"
  bottom: "conv3"
  top: "conv3"
}
layer {
  name: "conv4-1"
  type: "Convolution"
  bottom: "conv3"
  top: "conv4-1"
  param {
    lr_mult: 1
    decay_mult: 1
  }
  param {
    lr_mult: 2
    decay_mult: 0
  }
  convolution_param {
    num_output: 2
    kernel_size: 1
    stride: 1
    weight_filler {
      type: "xavier"
    }
    bias_filler {
      type: "constant"
      value: 0
    }
  }
}
layer {
  name: "cls_bridge"
  type: "Python"
  bottom: "conv4-1"
  bottom: "label"
  top: "conv4-1-valid"
  top: "label-valid"
  python_param {
    module: "pythonLayer"
    layer: "cls_Layer_fc"
  }
}
layer {
  name: "cls_loss"
  type: "SoftmaxWithLoss"
  bottom: "conv4-1-valid"
  bottom: "label-valid"
  top: "cls_loss"
  loss_weight: 1
  propagate_down: true
  propagate_down: false
}
layer {
  name: "cls_Acc"
  type: "Accuracy"
  bottom: "conv4-1-valid"
  bottom: "label-valid"
  top: "cls_Acc"
  include {
    phase: TRAIN
  }
}
layer {
  name: "conv4-2"
  type: "Convolution"
  bottom: "conv3"
  top: "conv4-2"
  param {
    lr_mult: 1
    decay_mult: 1
  }
  param {
    lr_mult: 2
    decay_mult: 0
  }
  convolution_param {
    num_output: 4
    kernel_size: 1
    stride: 1
    weight_filler {
      type: "xavier"
    }
    bias_filler {
      type: "constant"
      value: 0
    }
  }
}
layer {
  name: "roi_loss"
  type: "Python"
  bottom: "conv4-2"
  bottom: "roi"
  top: "roi_loss"
  loss_weight: 0.5
  python_param {
    module: "pythonLayer"
    layer: "regression_Layer"
  }
}
layer {
  name: "conv4-3"
  type: "Convolution"
  bottom: "conv3"
  top: "conv4-3"
  param {
    lr_mult: 1
    decay_mult: 1
  }
  param {
    lr_mult: 2
    decay_mult: 0
  }
  convolution_param {
    num_output: 10
    kernel_size: 1
    stride: 1
    weight_filler {
      type: "xavier"
    }
    bias_filler {
      type: "constant"
      value: 0
    }
  }
}
layer {
  name: "pts_loss"
  type: "Python"
  bottom: "conv4-3"
  bottom: "pts"
  top: "pts_loss"
  loss_weight: 0.5
  python_param {
    module: "pythonLayer"
    layer: "regression_Layer"
  }
}
I0608 15:47:51.742456 15154 layer_factory.hpp:77] Creating layer PythonLayer
I0608 15:47:52.147670 15154 net.cpp:84] Creating Layer PythonLayer
I0608 15:47:52.147706 15154 net.cpp:380] PythonLayer -> data
I0608 15:47:52.147734 15154 net.cpp:380] PythonLayer -> label
I0608 15:47:52.147758 15154 net.cpp:380] PythonLayer -> roi
I0608 15:47:52.147775 15154 net.cpp:380] PythonLayer -> pts
Start Reading Classify Data into Memory...

788878  Classify Data have been read into Memory...
Start Reading Regression Data into Memory...

488878  Regression Data have been read into Memory...
Start Reading pts-regression Data into Memory...

202599  pts-regression Data have been read into Memory...
I0608 15:56:26.284257 15154 net.cpp:122] Setting up PythonLayer
I0608 15:56:26.286345 15154 net.cpp:129] Top shape: 64 3 12 12 (27648)
I0608 15:56:26.286350 15154 net.cpp:129] Top shape: 64 1 (64)
I0608 15:56:26.286367 15154 net.cpp:129] Top shape: 64 4 (256)
I0608 15:56:26.286371 15154 net.cpp:129] Top shape: 64 10 (640)
I0608 15:56:26.286388 15154 net.cpp:137] Memory required for data: 114432
I0608 15:56:26.286402 15154 layer_factory.hpp:77] Creating layer conv1
I0608 15:56:26.286465 15154 net.cpp:84] Creating Layer conv1
I0608 15:56:26.286473 15154 net.cpp:406] conv1 <- data
I0608 15:56:26.286485 15154 net.cpp:380] conv1 -> conv1
I0608 15:56:27.309156 15154 net.cpp:122] Setting up conv1
I0608 15:56:27.309183 15154 net.cpp:129] Top shape: 64 10 10 10 (64000)
I0608 15:56:27.309188 15154 net.cpp:137] Memory required for data: 370432
I0608 15:56:27.313693 15154 layer_factory.hpp:77] Creating layer relu1
I0608 15:56:27.313719 15154 net.cpp:84] Creating Layer relu1
I0608 15:56:27.313725 15154 net.cpp:406] relu1 <- conv1
I0608 15:56:27.313747 15154 net.cpp:367] relu1 -> conv1 (in-place)
I0608 15:56:27.315398 15154 net.cpp:122] Setting up relu1
I0608 15:56:27.315410 15154 net.cpp:129] Top shape: 64 10 10 10 (64000)
I0608 15:56:27.315415 15154 net.cpp:137] Memory required for data: 626432
I0608 15:56:27.315425 15154 layer_factory.hpp:77] Creating layer pool1
I0608 15:56:27.315603 15154 net.cpp:84] Creating Layer pool1
I0608 15:56:27.315610 15154 net.cpp:406] pool1 <- conv1
I0608 15:56:27.315616 15154 net.cpp:380] pool1 -> pool1
I0608 15:56:27.316049 15154 net.cpp:122] Setting up pool1
I0608 15:56:27.316058 15154 net.cpp:129] Top shape: 64 10 5 5 (16000)
I0608 15:56:27.316062 15154 net.cpp:137] Memory required for data: 690432
I0608 15:56:27.316064 15154 layer_factory.hpp:77] Creating layer conv2
I0608 15:56:27.316076 15154 net.cpp:84] Creating Layer conv2
I0608 15:56:27.316078 15154 net.cpp:406] conv2 <- pool1
I0608 15:56:27.316087 15154 net.cpp:380] conv2 -> conv2
I0608 15:56:27.318173 15154 net.cpp:122] Setting up conv2
I0608 15:56:27.318188 15154 net.cpp:129] Top shape: 64 16 3 3 (9216)
I0608 15:56:27.318192 15154 net.cpp:137] Memory required for data: 727296
I0608 15:56:27.318202 15154 layer_factory.hpp:77] Creating layer relu2
I0608 15:56:27.318207 15154 net.cpp:84] Creating Layer relu2
I0608 15:56:27.318210 15154 net.cpp:406] relu2 <- conv2
I0608 15:56:27.318215 15154 net.cpp:367] relu2 -> conv2 (in-place)
I0608 15:56:27.318300 15154 net.cpp:122] Setting up relu2
I0608 15:56:27.318308 15154 net.cpp:129] Top shape: 64 16 3 3 (9216)
I0608 15:56:27.318315 15154 net.cpp:137] Memory required for data: 764160
I0608 15:56:27.318321 15154 layer_factory.hpp:77] Creating layer conv3
I0608 15:56:27.318333 15154 net.cpp:84] Creating Layer conv3
I0608 15:56:27.318337 15154 net.cpp:406] conv3 <- conv2
I0608 15:56:27.318346 15154 net.cpp:380] conv3 -> conv3
I0608 15:56:27.321574 15154 net.cpp:122] Setting up conv3
I0608 15:56:27.321602 15154 net.cpp:129] Top shape: 64 32 1 1 (2048)
I0608 15:56:27.321607 15154 net.cpp:137] Memory required for data: 772352
I0608 15:56:27.321620 15154 layer_factory.hpp:77] Creating layer relu3
I0608 15:56:27.321632 15154 net.cpp:84] Creating Layer relu3
I0608 15:56:27.321638 15154 net.cpp:406] relu3 <- conv3
I0608 15:56:27.321647 15154 net.cpp:367] relu3 -> conv3 (in-place)
I0608 15:56:27.321780 15154 net.cpp:122] Setting up relu3
I0608 15:56:27.321790 15154 net.cpp:129] Top shape: 64 32 1 1 (2048)
I0608 15:56:27.321795 15154 net.cpp:137] Memory required for data: 780544
I0608 15:56:27.321808 15154 layer_factory.hpp:77] Creating layer conv3_relu3_0_split
I0608 15:56:27.322012 15154 net.cpp:84] Creating Layer conv3_relu3_0_split
I0608 15:56:27.322023 15154 net.cpp:406] conv3_relu3_0_split <- conv3
I0608 15:56:27.322032 15154 net.cpp:380] conv3_relu3_0_split -> conv3_relu3_0_split_0
I0608 15:56:27.322046 15154 net.cpp:380] conv3_relu3_0_split -> conv3_relu3_0_split_1
I0608 15:56:27.322057 15154 net.cpp:380] conv3_relu3_0_split -> conv3_relu3_0_split_2
I0608 15:56:27.322502 15154 net.cpp:122] Setting up conv3_relu3_0_split
I0608 15:56:27.322516 15154 net.cpp:129] Top shape: 64 32 1 1 (2048)
I0608 15:56:27.322552 15154 net.cpp:129] Top shape: 64 32 1 1 (2048)
I0608 15:56:27.322557 15154 net.cpp:129] Top shape: 64 32 1 1 (2048)
I0608 15:56:27.322561 15154 net.cpp:137] Memory required for data: 805120
I0608 15:56:27.322566 15154 layer_factory.hpp:77] Creating layer conv4-1
I0608 15:56:27.322582 15154 net.cpp:84] Creating Layer conv4-1
I0608 15:56:27.322587 15154 net.cpp:406] conv4-1 <- conv3_relu3_0_split_0
I0608 15:56:27.322593 15154 net.cpp:380] conv4-1 -> conv4-1
I0608 15:56:27.324434 15154 net.cpp:122] Setting up conv4-1
I0608 15:56:27.324455 15154 net.cpp:129] Top shape: 64 2 1 1 (128)
I0608 15:56:27.324460 15154 net.cpp:137] Memory required for data: 805632
I0608 15:56:27.324468 15154 layer_factory.hpp:77] Creating layer cls_bridge
I0608 15:56:27.326961 15154 net.cpp:84] Creating Layer cls_bridge
I0608 15:56:27.326987 15154 net.cpp:406] cls_bridge <- conv4-1
I0608 15:56:27.326999 15154 net.cpp:406] cls_bridge <- label
I0608 15:56:27.327010 15154 net.cpp:380] cls_bridge -> conv4-1-valid
I0608 15:56:27.327023 15154 net.cpp:380] cls_bridge -> label-valid
I0608 15:56:27.333103 15154 net.cpp:122] Setting up cls_bridge
I0608 15:56:27.333130 15154 net.cpp:129] Top shape: 64 2 1 1 (128)
I0608 15:56:27.333137 15154 net.cpp:129] Top shape: 64 1 (64)
I0608 15:56:27.333139 15154 net.cpp:137] Memory required for data: 806400
I0608 15:56:27.333144 15154 layer_factory.hpp:77] Creating layer conv4-1-valid_cls_bridge_0_split
I0608 15:56:27.333155 15154 net.cpp:84] Creating Layer conv4-1-valid_cls_bridge_0_split
I0608 15:56:27.333160 15154 net.cpp:406] conv4-1-valid_cls_bridge_0_split <- conv4-1-valid
I0608 15:56:27.333168 15154 net.cpp:380] conv4-1-valid_cls_bridge_0_split -> conv4-1-valid_cls_bridge_0_split_0
I0608 15:56:27.333178 15154 net.cpp:380] conv4-1-valid_cls_bridge_0_split -> conv4-1-valid_cls_bridge_0_split_1
I0608 15:56:27.333217 15154 net.cpp:122] Setting up conv4-1-valid_cls_bridge_0_split
I0608 15:56:27.333223 15154 net.cpp:129] Top shape: 64 2 1 1 (128)
I0608 15:56:27.333228 15154 net.cpp:129] Top shape: 64 2 1 1 (128)
I0608 15:56:27.333231 15154 net.cpp:137] Memory required for data: 807424
I0608 15:56:27.333236 15154 layer_factory.hpp:77] Creating layer label-valid_cls_bridge_1_split
I0608 15:56:27.333241 15154 net.cpp:84] Creating Layer label-valid_cls_bridge_1_split
I0608 15:56:27.333245 15154 net.cpp:406] label-valid_cls_bridge_1_split <- label-valid
I0608 15:56:27.333251 15154 net.cpp:380] label-valid_cls_bridge_1_split -> label-valid_cls_bridge_1_split_0
I0608 15:56:27.333261 15154 net.cpp:380] label-valid_cls_bridge_1_split -> label-valid_cls_bridge_1_split_1
I0608 15:56:27.333294 15154 net.cpp:122] Setting up label-valid_cls_bridge_1_split
I0608 15:56:27.333303 15154 net.cpp:129] Top shape: 64 1 (64)
I0608 15:56:27.333308 15154 net.cpp:129] Top shape: 64 1 (64)
I0608 15:56:27.333312 15154 net.cpp:137] Memory required for data: 807936
I0608 15:56:27.333315 15154 layer_factory.hpp:77] Creating layer cls_loss
I0608 15:56:27.333328 15154 net.cpp:84] Creating Layer cls_loss
I0608 15:56:27.333331 15154 net.cpp:406] cls_loss <- conv4-1-valid_cls_bridge_0_split_0
I0608 15:56:27.333338 15154 net.cpp:406] cls_loss <- label-valid_cls_bridge_1_split_0
I0608 15:56:27.333343 15154 net.cpp:380] cls_loss -> cls_loss
…
