…
snapshot: 10000
snapshot_prefix: "./models/"
solver_mode: GPU
device_id: 0
net: "train24.prototxt"
train_state {
  level: 0
  stage: ""
}
I0609 15:36:47.025319  2334 solver.cpp:87] Creating training net from net file: train24.prototxt
I0609 15:36:47.025763  2334 net.cpp:51] Initializing net from parameters: 
name: "face_24c"
state {
  phase: TRAIN
  level: 0
  stage: ""
}
layer {
  name: "PythonLayer"
  type: "Python"
  top: "data"
  top: "label"
  top: "roi"
  top: "pts"
  python_param {
    module: "pythonLayer"
    layer: "Data_Layer_train"
  }
}
layer {
  name: "conv1"
  type: "Convolution"
  bottom: "data"
  top: "conv1"
  param {
    lr_mult: 1
  }
  param {
    lr_mult: 2
  }
  convolution_param {
    num_output: 28
    kernel_size: 3
    weight_filler {
      type: "gaussian"
      std: 0.0001
    }
    bias_filler {
      type: "constant"
    }
  }
}
layer {
  name: "relu1"
  type: "PReLU"
  bottom: "conv1"
  top: "conv1"
}
layer {
  name: "pool1"
  type: "Pooling"
  bottom: "conv1"
  top: "pool1"
  pooling_param {
    pool: MAX
    kernel_size: 3
    stride: 2
  }
}
layer {
  name: "conv2"
  type: "Convolution"
  bottom: "pool1"
  top: "conv2"
  param {
    lr_mult: 1
  }
  param {
    lr_mult: 2
  }
  convolution_param {
    num_output: 48
    kernel_size: 3
    weight_filler {
      type: "gaussian"
      std: 0.0001
    }
    bias_filler {
      type: "constant"
    }
  }
}
layer {
  name: "relu2"
  type: "PReLU"
  bottom: "conv2"
  top: "conv2"
}
layer {
  name: "pool2"
  type: "Pooling"
  bottom: "conv2"
  top: "pool2"
  pooling_param {
    pool: MAX
    kernel_size: 3
    stride: 2
  }
}
layer {
  name: "conv3"
  type: "Convolution"
  bottom: "pool2"
  top: "conv3"
  param {
    lr_mult: 1
    decay_mult: 1
  }
  param {
    lr_mult: 2
    decay_mult: 0
  }
  convolution_param {
    num_output: 64
    kernel_size: 2
    stride: 1
    weight_filler {
      type: "xavier"
    }
    bias_filler {
      type: "constant"
      value: 0
    }
  }
}
layer {
  name: "relu3"
  type: "PReLU"
  bottom: "conv3"
  top: "conv3"
}
layer {
  name: "fc4"
  type: "InnerProduct"
  bottom: "conv3"
  top: "fc4"
  param {
    lr_mult: 1
    decay_mult: 1
  }
  param {
    lr_mult: 2
    decay_mult: 0
  }
  inner_product_param {
    num_output: 128
    weight_filler {
      type: "xavier"
    }
    bias_filler {
      type: "constant"
      value: 0
    }
  }
}
layer {
  name: "relu4"
  type: "PReLU"
  bottom: "fc4"
  top: "fc4"
}
layer {
  name: "fc5-1"
  type: "InnerProduct"
  bottom: "fc4"
  top: "fc5-1"
  param {
    lr_mult: 1
    decay_mult: 1
  }
  param {
    lr_mult: 2
    decay_mult: 0
  }
  inner_product_param {
    num_output: 2
    weight_filler {
      type: "xavier"
    }
    bias_filler {
      type: "constant"
      value: 0
    }
  }
}
layer {
  name: "cls_bridge"
  type: "Python"
  bottom: "fc5-1"
  bottom: "label"
  top: "fc5-1-valid"
  top: "label-valid"
  python_param {
    module: "pythonLayer"
    layer: "cls_Layer"
  }
}
layer {
  name: "cls_loss"
  type: "SoftmaxWithLoss"
  bottom: "fc5-1-valid"
  bottom: "label-valid"
  top: "cls_loss"
  loss_weight: 1
  propagate_down: true
  propagate_down: false
}
layer {
  name: "cls_acc"
  type: "Accuracy"
  bottom: "fc5-1-valid"
  bottom: "label-valid"
  top: "cls_acc"
  include {
    phase: TRAIN
  }
}
layer {
  name: "fc5-2"
  type: "InnerProduct"
  bottom: "fc4"
  top: "fc5-2"
  param {
    lr_mult: 1
    decay_mult: 1
  }
  param {
    lr_mult: 2
    decay_mult: 0
  }
  inner_product_param {
    num_output: 4
    weight_filler {
      type: "xavier"
    }
    bias_filler {
      type: "constant"
      value: 0
    }
  }
}
layer {
  name: "roi_loss"
  type: "Python"
  bottom: "fc5-2"
  bottom: "roi"
  top: "roi_loss"
  loss_weight: 0.5
  python_param {
    module: "pythonLayer"
    layer: "regression_Layer"
  }
}
layer {
  name: "fc5-3"
  type: "InnerProduct"
  bottom: "fc4"
  top: "fc5-3"
  param {
    lr_mult: 1
    decay_mult: 1
  }
  param {
    lr_mult: 2
    decay_mult: 0
  }
  inner_product_param {
    num_output: 10
    weight_filler {
      type: "xavier"
    }
    bias_filler {
      type: "constant"
      value: 0
    }
  }
}
layer {
  name: "pts_loss"
  type: "Python"
  bottom: "fc5-3"
  bottom: "pts"
  top: "pts_loss"
  loss_weight: 0.5
  python_param {
    module: "pythonLayer"
    layer: "regression_Layer"
  }
}
I0609 15:36:47.026005  2334 layer_factory.hpp:77] Creating layer PythonLayer
I0609 15:36:48.376899  2334 net.cpp:84] Creating Layer PythonLayer
I0609 15:36:48.376942  2334 net.cpp:380] PythonLayer -> data
I0609 15:36:48.376971  2334 net.cpp:380] PythonLayer -> label
I0609 15:36:48.376996  2334 net.cpp:380] PythonLayer -> roi
I0609 15:36:48.377001  2334 net.cpp:380] PythonLayer -> pts
Start Reading Classify Data into Memory...

924063  Classify Data have been read into Memory...
Start Reading Regression Data into Memory...

524063  Regression Data have been read into Memory...
Start Reading pts-regression Data into Memory...

202599  pts-regression Data have been read into Memory...
I0609 16:15:02.257272  2334 net.cpp:122] Setting up PythonLayer
I0609 16:15:02.266659  2334 net.cpp:129] Top shape: 64 3 24 24 (110592)
I0609 16:15:02.266690  2334 net.cpp:129] Top shape: 64 1 (64)
I0609 16:15:02.266702  2334 net.cpp:129] Top shape: 64 4 (256)
I0609 16:15:02.266711  2334 net.cpp:129] Top shape: 64 10 (640)
I0609 16:15:02.266722  2334 net.cpp:137] Memory required for data: 446208
I0609 16:15:02.271335  2334 layer_factory.hpp:77] Creating layer conv1
I0609 16:15:02.277846  2334 net.cpp:84] Creating Layer conv1
I0609 16:15:02.278662  2334 net.cpp:406] conv1 <- data
I0609 16:15:02.280443  2334 net.cpp:380] conv1 -> conv1
I0609 16:15:06.064640  2334 net.cpp:122] Setting up conv1
I0609 16:15:06.068495  2334 net.cpp:129] Top shape: 64 28 22 22 (867328)
I0609 16:15:06.068518  2334 net.cpp:137] Memory required for data: 3915520
I0609 16:15:06.072233  2334 layer_factory.hpp:77] Creating layer relu1
I0609 16:15:06.074273  2334 net.cpp:84] Creating Layer relu1
I0609 16:15:06.074295  2334 net.cpp:406] relu1 <- conv1
I0609 16:15:06.074311  2334 net.cpp:367] relu1 -> conv1 (in-place)
I0609 16:15:06.077805  2334 net.cpp:122] Setting up relu1
I0609 16:15:06.077844  2334 net.cpp:129] Top shape: 64 28 22 22 (867328)
I0609 16:15:06.077854  2334 net.cpp:137] Memory required for data: 7384832
I0609 16:15:06.077877  2334 layer_factory.hpp:77] Creating layer pool1
I0609 16:15:06.078225  2334 net.cpp:84] Creating Layer pool1
I0609 16:15:06.078244  2334 net.cpp:406] pool1 <- conv1
I0609 16:15:06.078259  2334 net.cpp:380] pool1 -> pool1
I0609 16:15:06.081444  2334 net.cpp:122] Setting up pool1
I0609 16:15:06.081473  2334 net.cpp:129] Top shape: 64 28 11 11 (216832)
I0609 16:15:06.081485  2334 net.cpp:137] Memory required for data: 8252160
I0609 16:15:06.081493  2334 layer_factory.hpp:77] Creating layer conv2
I0609 16:15:06.081689  2334 net.cpp:84] Creating Layer conv2
I0609 16:15:06.081706  2334 net.cpp:406] conv2 <- pool1
I0609 16:15:06.081724  2334 net.cpp:380] conv2 -> conv2
I0609 16:15:06.088917  2334 net.cpp:122] Setting up conv2
I0609 16:15:06.088954  2334 net.cpp:129] Top shape: 64 48 9 9 (248832)
I0609 16:15:06.088965  2334 net.cpp:137] Memory required for data: 9247488
I0609 16:15:06.088996  2334 layer_factory.hpp:77] Creating layer relu2
I0609 16:15:06.089017  2334 net.cpp:84] Creating Layer relu2
I0609 16:15:06.089030  2334 net.cpp:406] relu2 <- conv2
I0609 16:15:06.089545  2334 net.cpp:367] relu2 -> conv2 (in-place)
I0609 16:15:06.091718  2334 net.cpp:122] Setting up relu2
I0609 16:15:06.091753  2334 net.cpp:129] Top shape: 64 48 9 9 (248832)
I0609 16:15:06.091763  2334 net.cpp:137] Memory required for data: 10242816
I0609 16:15:06.091778  2334 layer_factory.hpp:77] Creating layer pool2
I0609 16:15:06.091802  2334 net.cpp:84] Creating Layer pool2
I0609 16:15:06.091815  2334 net.cpp:406] pool2 <- conv2
I0609 16:15:06.091832  2334 net.cpp:380] pool2 -> pool2
I0609 16:15:06.091936  2334 net.cpp:122] Setting up pool2
I0609 16:15:06.091958  2334 net.cpp:129] Top shape: 64 48 4 4 (49152)
I0609 16:15:06.091969  2334 net.cpp:137] Memory required for data: 10439424
I0609 16:15:06.091979  2334 layer_factory.hpp:77] Creating layer conv3
I0609 16:15:06.092005  2334 net.cpp:84] Creating Layer conv3
I0609 16:15:06.092018  2334 net.cpp:406] conv3 <- pool2
I0609 16:15:06.092036  2334 net.cpp:380] conv3 -> conv3
I0609 16:15:06.097324  2334 net.cpp:122] Setting up conv3
I0609 16:15:06.097362  2334 net.cpp:129] Top shape: 64 64 3 3 (36864)
I0609 16:15:06.097378  2334 net.cpp:137] Memory required for data: 10586880
I0609 16:15:06.097786  2334 layer_factory.hpp:77] Creating layer relu3
I0609 16:15:06.097812  2334 net.cpp:84] Creating Layer relu3
I0609 16:15:06.097826  2334 net.cpp:406] relu3 <- conv3
I0609 16:15:06.097846  2334 net.cpp:367] relu3 -> conv3 (in-place)
I0609 16:15:06.098114  2334 net.cpp:122] Setting up relu3
I0609 16:15:06.098134  2334 net.cpp:129] Top shape: 64 64 3 3 (36864)
I0609 16:15:06.098143  2334 net.cpp:137] Memory required for data: 10734336
I0609 16:15:06.098165  2334 layer_factory.hpp:77] Creating layer fc4
I0609 16:15:06.098192  2334 net.cpp:84] Creating Layer fc4
I0609 16:15:06.098202  2334 net.cpp:406] fc4 <- conv3
I0609 16:15:06.098265  2334 net.cpp:380] fc4 -> fc4
I0609 16:15:06.101609  2334 net.cpp:122] Setting up fc4
I0609 16:15:06.101644  2334 net.cpp:129] Top shape: 64 128 (8192)
I0609 16:15:06.101656  2334 net.cpp:137] Memory required for data: 10767104
I0609 16:15:06.101677  2334 layer_factory.hpp:77] Creating layer relu4
I0609 16:15:06.101697  2334 net.cpp:84] Creating Layer relu4
I0609 16:15:06.101709  2334 net.cpp:406] relu4 <- fc4
I0609 16:15:06.101725  2334 net.cpp:367] relu4 -> fc4 (in-place)
I0609 16:15:06.101940  2334 net.cpp:122] Setting up relu4
I0609 16:15:06.101960  2334 net.cpp:129] Top shape: 64 128 (8192)
I0609 16:15:06.101971  2334 net.cpp:137] Memory required for data: 10799872
I0609 16:15:06.101986  2334 layer_factory.hpp:77] Creating layer fc4_relu4_0_split
I0609 16:15:06.103358  2334 net.cpp:84] Creating Layer fc4_relu4_0_split
I0609 16:15:06.103381  2334 net.cpp:406] fc4_relu4_0_split <- fc4
I0609 16:15:06.103399  2334 net.cpp:380] fc4_relu4_0_split -> fc4_relu4_0_split_0
I0609 16:15:06.103421  2334 net.cpp:380] fc4_relu4_0_split -> fc4_relu4_0_split_1
I0609 16:15:06.103441  2334 net.cpp:380] fc4_relu4_0_split -> fc4_relu4_0_split_2
I0609 16:15:06.103631  2334 net.cpp:122] Setting up fc4_relu4_0_split
I0609 16:15:06.103652  2334 net.cpp:129] Top shape: 64 128 (8192)
I0609 16:15:06.103665  2334 net.cpp:129] Top shape: 64 128 (8192)
I0609 16:15:06.103677  2334 net.cpp:129] Top shape: 64 128 (8192)
I0609 16:15:06.103690  2334 net.cpp:137] Memory required for data: 10898176
I0609 16:15:06.104182  2334 layer_factory.hpp:77] Creating layer fc5-1
I0609 16:15:06.104208  2334 net.cpp:84] Creating Layer fc5-1
I0609 16:15:06.104220  2334 net.cpp:406] fc5-1 <- fc4_relu4_0_split_0
I0609 16:15:06.104241  2334 net.cpp:380] fc5-1 -> fc5-1
I0609 16:15:06.104512  2334 net.cpp:122] Setting up fc5-1
I0609 16:15:06.104532  2334 net.cpp:129] Top shape: 64 2 (128)
I0609 16:15:06.104542  2334 net.cpp:137] Memory required for data: 10898688
I0609 16:15:06.104562  2334 layer_factory.hpp:77] Creating layer cls_bridge
I0609 16:15:06.126721  2334 net.cpp:84] Creating Layer cls_bridge
I0609 16:15:06.126762  2334 net.cpp:406] cls_bridge <- fc5-1
I0609 16:15:06.126781  2334 net.cpp:406] cls_bridge <- label
I0609 16:15:06.126802  2334 net.cpp:380] cls_bridge -> fc5-1-valid
I0609 16:15:06.126826  2334 net.cpp:380] cls_bridge -> label-valid
I0609 16:15:06.145946  2334 net.cpp:122] Setting up cls_bridge
I0609 16:15:06.146061  2334 net.cpp:129] Top shape: 64 2 (128)
I0609 16:15:06.146081  2334 net.cpp:129] Top shape: 64 1 (64)
I0609 16:15:06.146092  2334 net.cpp:137] Memory required for data: 10899456
I0609 16:15:06.146106  2334 layer_factory.hpp:77] Creating layer fc5-1-valid_cls_bridge_0_split
I0609 16:15:06.146132  2334 net.cpp:84] Creating Layer fc5-1-valid_cls_bridge_0_split
I0609 16:15:06.146149  2334 net.cpp:406] fc5-1-valid_cls_bridge_0_split <- fc5-1-valid
I0609 16:15:06.146173  2334 net.cpp:380] fc5-1-valid_cls_bridge_0_split -> fc5-1-valid_cls_bridge_0_split_0
I0609 16:15:06.146209  2334 net.cpp:380] fc5-1-valid_cls_bridge_0_split -> fc5-1-valid_cls_bridge_0_split_1
I0609 16:15:06.146364  2334 net.cpp:122] Setting up fc5-1-valid_cls_bridge_0_split
I0609 16:15:06.146401  2334 net.cpp:129] Top shape: 64 2 (128)
I0609 16:15:06.146432  2334 net.cpp:129] Top shape: 64 2 (128)
I0609 16:15:06.146455  2334 net.cpp:137] Memory required for data: 10900480
I0609 16:15:06.146476  2334 layer_factory.hpp:77] Creating layer label-valid_cls_bridge_1_split
I0609 16:15:06.146517  2334 net.cpp:84] Creating Layer label-valid_cls_bridge_1_split
I0609 16:15:06.146533  2334 net.cpp:406] label-valid_cls_bridge_1_split <- label-valid
I0609 16:15:06.146550  2334 net.cpp:380] label-valid_cls_bridge_1_split -> label-valid_cls_bridge_1_split_0
I0609 16:15:06.146589  2334 net.cpp:380] label-valid_cls_bridge_1_split -> label-valid_cls_bridge_1_split_1
I0609 16:15:06.146776  2334 net.cpp:122] Setting up label-valid_cls_bridge_1_split
I0609 16:15:06.146795  2334 net.cpp:129] Top shape: 64 1 (64)
I0609 16:15:06.146805  2334 net.cpp:129] Top shape: 64 1 (64)
I0609 16:15:06.146857  2334 net.cpp:137] Memory required for data: 10900992
I0609 16:15:06.146873  2334 layer_factory.hpp:77] Creating layer cls_loss
I0609 16:15:06.146899  2334 net.cpp:84] Creating Layer cls_loss
I0609 16:15:06.146911  2334 net.cpp:406] cls_loss <- fc5-1-valid_cls_bridge_0_split_0
I0609 16:15:06.146925  2334 net.cpp:406] cls_loss <- label-valid_cls_bridge_1_split_0
I0609 16:15:06.146947  2334 net.cpp:380] cls_loss -> cls_loss
…
