…
stepsize: 30000
snapshot: 1
snapshot_prefix: "./models/"
solver_mode: GPU
device_id: 0
net: "train12.prototxt"
train_state {
  level: 0
  stage: ""
}
I0620 13:47:38.284415 12884 solver.cpp:87] Creating training net from net file: train12.prototxt
I0620 13:47:38.284675 12884 net.cpp:51] Initializing net from parameters: 
name: "face_12c"
state {
  phase: TRAIN
  level: 0
  stage: ""
}
layer {
  name: "PythonLayer"
  type: "Python"
  top: "data"
  top: "label"
  top: "roi"
  top: "pts"
  python_param {
    module: "pythonLayer"
    layer: "Data_Layer_train"
  }
}
layer {
  name: "conv1"
  type: "Convolution"
  bottom: "data"
  top: "conv1"
  param {
    lr_mult: 1
    decay_mult: 1
  }
  param {
    lr_mult: 2
    decay_mult: 0
  }
  convolution_param {
    num_output: 10
    kernel_size: 3
    stride: 1
    weight_filler {
      type: "xavier"
    }
    bias_filler {
      type: "constant"
      value: 0
    }
  }
}
layer {
  name: "PReLU1"
  type: "PReLU"
  bottom: "conv1"
  top: "conv1"
}
layer {
  name: "pool1"
  type: "Pooling"
  bottom: "conv1"
  top: "pool1"
  pooling_param {
    pool: MAX
    kernel_size: 2
    stride: 2
  }
}
layer {
  name: "conv2"
  type: "Convolution"
  bottom: "pool1"
  top: "conv2"
  param {
    lr_mult: 1
    decay_mult: 1
  }
  param {
    lr_mult: 2
    decay_mult: 0
  }
  convolution_param {
    num_output: 16
    kernel_size: 3
    stride: 1
    weight_filler {
      type: "xavier"
    }
    bias_filler {
      type: "constant"
      value: 0
    }
  }
}
layer {
  name: "PReLU2"
  type: "PReLU"
  bottom: "conv2"
  top: "conv2"
}
layer {
  name: "conv3"
  type: "Convolution"
  bottom: "conv2"
  top: "conv3"
  param {
    lr_mult: 1
    decay_mult: 1
  }
  param {
    lr_mult: 2
    decay_mult: 0
  }
  convolution_param {
    num_output: 32
    kernel_size: 3
    stride: 1
    weight_filler {
      type: "xavier"
    }
    bias_filler {
      type: "constant"
      value: 0
    }
  }
}
layer {
  name: "PReLU3"
  type: "PReLU"
  bottom: "conv3"
  top: "conv3"
}
layer {
  name: "conv4-1"
  type: "Convolution"
  bottom: "conv3"
  top: "conv4-1"
  param {
    lr_mult: 1
    decay_mult: 1
  }
  param {
    lr_mult: 2
    decay_mult: 0
  }
  convolution_param {
    num_output: 2
    kernel_size: 1
    stride: 1
    weight_filler {
      type: "xavier"
    }
    bias_filler {
      type: "constant"
      value: 0
    }
  }
}
layer {
  name: "cls_bridge"
  type: "Python"
  bottom: "conv4-1"
  bottom: "label"
  top: "conv4-1-valid"
  top: "label-valid"
  python_param {
    module: "pythonLayer"
    layer: "cls_Layer_fc"
  }
}
layer {
  name: "cls_loss"
  type: "SoftmaxWithLoss"
  bottom: "conv4-1-valid"
  bottom: "label-valid"
  top: "cls_loss"
  loss_weight: 1
  propagate_down: true
  propagate_down: false
}
layer {
  name: "cls_Acc"
  type: "Accuracy"
  bottom: "conv4-1-valid"
  bottom: "label-valid"
  top: "cls_Acc"
  include {
    phase: TRAIN
  }
}
layer {
  name: "conv4-2"
  type: "Convolution"
  bottom: "conv3"
  top: "conv4-2"
  param {
    lr_mult: 1
    decay_mult: 1
  }
  param {
    lr_mult: 2
    decay_mult: 0
  }
  convolution_param {
    num_output: 4
    kernel_size: 1
    stride: 1
    weight_filler {
      type: "xavier"
    }
    bias_filler {
      type: "constant"
      value: 0
    }
  }
}
layer {
  name: "roi_loss"
  type: "Python"
  bottom: "conv4-2"
  bottom: "roi"
  top: "roi_loss"
  loss_weight: 0.5
  python_param {
    module: "pythonLayer"
    layer: "regression_Layer"
  }
}
layer {
  name: "conv4-3"
  type: "Convolution"
  bottom: "conv3"
  top: "conv4-3"
  param {
    lr_mult: 1
    decay_mult: 1
  }
  param {
    lr_mult: 2
    decay_mult: 0
  }
  convolution_param {
    num_output: 10
    kernel_size: 1
    stride: 1
    weight_filler {
      type: "xavier"
    }
    bias_filler {
      type: "constant"
      value: 0
    }
  }
}
layer {
  name: "pts_loss"
  type: "Python"
  bottom: "conv4-3"
  bottom: "pts"
  top: "pts_loss"
  loss_weight: 0.5
  python_param {
    module: "pythonLayer"
    layer: "regression_Layer"
  }
}
I0620 13:47:38.284934 12884 layer_factory.hpp:77] Creating layer PythonLayer
I0620 13:47:38.690260 12884 net.cpp:84] Creating Layer PythonLayer
I0620 13:47:38.690299 12884 net.cpp:380] PythonLayer -> data
I0620 13:47:38.690327 12884 net.cpp:380] PythonLayer -> label
I0620 13:47:38.690348 12884 net.cpp:380] PythonLayer -> roi
I0620 13:47:38.690353 12884 net.cpp:380] PythonLayer -> pts
Start Reading Classify Data into Memory...

640000  Classify Data have been read into Memory...
Start Reading Regression Data into Memory...

360000  Regression Data have been read into Memory...
Start Reading pts-regression Data into Memory...

200000  pts-regression Data have been read into Memory...
I0620 13:54:19.882782 12884 net.cpp:122] Setting up PythonLayer
I0620 13:54:19.883044 12884 net.cpp:129] Top shape: 64 3 12 12 (27648)
I0620 13:54:19.883050 12884 net.cpp:129] Top shape: 64 1 (64)
I0620 13:54:19.883069 12884 net.cpp:129] Top shape: 64 4 (256)
I0620 13:54:19.883072 12884 net.cpp:129] Top shape: 64 10 (640)
I0620 13:54:19.883075 12884 net.cpp:137] Memory required for data: 114432
I0620 13:54:19.883097 12884 layer_factory.hpp:77] Creating layer conv1
I0620 13:54:19.883131 12884 net.cpp:84] Creating Layer conv1
I0620 13:54:19.883137 12884 net.cpp:406] conv1 <- data
I0620 13:54:19.883148 12884 net.cpp:380] conv1 -> conv1
I0620 13:54:20.215369 12884 net.cpp:122] Setting up conv1
I0620 13:54:20.215407 12884 net.cpp:129] Top shape: 64 10 10 10 (64000)
I0620 13:54:20.215414 12884 net.cpp:137] Memory required for data: 370432
I0620 13:54:20.215448 12884 layer_factory.hpp:77] Creating layer PReLU1
I0620 13:54:20.215459 12884 net.cpp:84] Creating Layer PReLU1
I0620 13:54:20.215463 12884 net.cpp:406] PReLU1 <- conv1
I0620 13:54:20.215481 12884 net.cpp:367] PReLU1 -> conv1 (in-place)
I0620 13:54:20.215639 12884 net.cpp:122] Setting up PReLU1
I0620 13:54:20.215646 12884 net.cpp:129] Top shape: 64 10 10 10 (64000)
I0620 13:54:20.215648 12884 net.cpp:137] Memory required for data: 626432
I0620 13:54:20.215664 12884 layer_factory.hpp:77] Creating layer pool1
I0620 13:54:20.215668 12884 net.cpp:84] Creating Layer pool1
I0620 13:54:20.215670 12884 net.cpp:406] pool1 <- conv1
I0620 13:54:20.215689 12884 net.cpp:380] pool1 -> pool1
I0620 13:54:20.215746 12884 net.cpp:122] Setting up pool1
I0620 13:54:20.215751 12884 net.cpp:129] Top shape: 64 10 5 5 (16000)
I0620 13:54:20.215767 12884 net.cpp:137] Memory required for data: 690432
I0620 13:54:20.215770 12884 layer_factory.hpp:77] Creating layer conv2
I0620 13:54:20.215791 12884 net.cpp:84] Creating Layer conv2
I0620 13:54:20.215793 12884 net.cpp:406] conv2 <- pool1
I0620 13:54:20.215797 12884 net.cpp:380] conv2 -> conv2
I0620 13:54:20.217175 12884 net.cpp:122] Setting up conv2
I0620 13:54:20.217200 12884 net.cpp:129] Top shape: 64 16 3 3 (9216)
I0620 13:54:20.217202 12884 net.cpp:137] Memory required for data: 727296
I0620 13:54:20.217223 12884 layer_factory.hpp:77] Creating layer PReLU2
I0620 13:54:20.217228 12884 net.cpp:84] Creating Layer PReLU2
I0620 13:54:20.217247 12884 net.cpp:406] PReLU2 <- conv2
I0620 13:54:20.217252 12884 net.cpp:367] PReLU2 -> conv2 (in-place)
I0620 13:54:20.217325 12884 net.cpp:122] Setting up PReLU2
I0620 13:54:20.217331 12884 net.cpp:129] Top shape: 64 16 3 3 (9216)
I0620 13:54:20.217334 12884 net.cpp:137] Memory required for data: 764160
I0620 13:54:20.217337 12884 layer_factory.hpp:77] Creating layer conv3
I0620 13:54:20.217344 12884 net.cpp:84] Creating Layer conv3
I0620 13:54:20.217346 12884 net.cpp:406] conv3 <- conv2
I0620 13:54:20.217351 12884 net.cpp:380] conv3 -> conv3
I0620 13:54:20.218761 12884 net.cpp:122] Setting up conv3
I0620 13:54:20.218786 12884 net.cpp:129] Top shape: 64 32 1 1 (2048)
I0620 13:54:20.218788 12884 net.cpp:137] Memory required for data: 772352
I0620 13:54:20.218793 12884 layer_factory.hpp:77] Creating layer PReLU3
I0620 13:54:20.218798 12884 net.cpp:84] Creating Layer PReLU3
I0620 13:54:20.218801 12884 net.cpp:406] PReLU3 <- conv3
I0620 13:54:20.218806 12884 net.cpp:367] PReLU3 -> conv3 (in-place)
I0620 13:54:20.218919 12884 net.cpp:122] Setting up PReLU3
I0620 13:54:20.218924 12884 net.cpp:129] Top shape: 64 32 1 1 (2048)
I0620 13:54:20.218940 12884 net.cpp:137] Memory required for data: 780544
I0620 13:54:20.218946 12884 layer_factory.hpp:77] Creating layer conv3_PReLU3_0_split
I0620 13:54:20.218971 12884 net.cpp:84] Creating Layer conv3_PReLU3_0_split
I0620 13:54:20.218973 12884 net.cpp:406] conv3_PReLU3_0_split <- conv3
I0620 13:54:20.218977 12884 net.cpp:380] conv3_PReLU3_0_split -> conv3_PReLU3_0_split_0
I0620 13:54:20.218984 12884 net.cpp:380] conv3_PReLU3_0_split -> conv3_PReLU3_0_split_1
I0620 13:54:20.218989 12884 net.cpp:380] conv3_PReLU3_0_split -> conv3_PReLU3_0_split_2
I0620 13:54:20.219072 12884 net.cpp:122] Setting up conv3_PReLU3_0_split
I0620 13:54:20.219077 12884 net.cpp:129] Top shape: 64 32 1 1 (2048)
I0620 13:54:20.219099 12884 net.cpp:129] Top shape: 64 32 1 1 (2048)
I0620 13:54:20.219101 12884 net.cpp:129] Top shape: 64 32 1 1 (2048)
I0620 13:54:20.219103 12884 net.cpp:137] Memory required for data: 805120
I0620 13:54:20.219105 12884 layer_factory.hpp:77] Creating layer conv4-1
I0620 13:54:20.219127 12884 net.cpp:84] Creating Layer conv4-1
I0620 13:54:20.219130 12884 net.cpp:406] conv4-1 <- conv3_PReLU3_0_split_0
I0620 13:54:20.219135 12884 net.cpp:380] conv4-1 -> conv4-1
I0620 13:54:20.220314 12884 net.cpp:122] Setting up conv4-1
I0620 13:54:20.220324 12884 net.cpp:129] Top shape: 64 2 1 1 (128)
I0620 13:54:20.220326 12884 net.cpp:137] Memory required for data: 805632
I0620 13:54:20.220331 12884 layer_factory.hpp:77] Creating layer cls_bridge
I0620 13:54:20.220374 12884 net.cpp:84] Creating Layer cls_bridge
I0620 13:54:20.220378 12884 net.cpp:406] cls_bridge <- conv4-1
I0620 13:54:20.220383 12884 net.cpp:406] cls_bridge <- label
I0620 13:54:20.220387 12884 net.cpp:380] cls_bridge -> conv4-1-valid
I0620 13:54:20.220393 12884 net.cpp:380] cls_bridge -> label-valid
I0620 13:54:20.220495 12884 net.cpp:122] Setting up cls_bridge
I0620 13:54:20.220502 12884 net.cpp:129] Top shape: 64 2 1 1 (128)
I0620 13:54:20.220505 12884 net.cpp:129] Top shape: 64 1 (64)
I0620 13:54:20.220508 12884 net.cpp:137] Memory required for data: 806400
I0620 13:54:20.220511 12884 layer_factory.hpp:77] Creating layer conv4-1-valid_cls_bridge_0_split
I0620 13:54:20.220517 12884 net.cpp:84] Creating Layer conv4-1-valid_cls_bridge_0_split
I0620 13:54:20.220521 12884 net.cpp:406] conv4-1-valid_cls_bridge_0_split <- conv4-1-valid
I0620 13:54:20.220526 12884 net.cpp:380] conv4-1-valid_cls_bridge_0_split -> conv4-1-valid_cls_bridge_0_split_0
I0620 13:54:20.220531 12884 net.cpp:380] conv4-1-valid_cls_bridge_0_split -> conv4-1-valid_cls_bridge_0_split_1
I0620 13:54:20.220559 12884 net.cpp:122] Setting up conv4-1-valid_cls_bridge_0_split
I0620 13:54:20.220564 12884 net.cpp:129] Top shape: 64 2 1 1 (128)
I0620 13:54:20.220568 12884 net.cpp:129] Top shape: 64 2 1 1 (128)
I0620 13:54:20.220571 12884 net.cpp:137] Memory required for data: 807424
I0620 13:54:20.220574 12884 layer_factory.hpp:77] Creating layer label-valid_cls_bridge_1_split
I0620 13:54:20.220578 12884 net.cpp:84] Creating Layer label-valid_cls_bridge_1_split
I0620 13:54:20.220582 12884 net.cpp:406] label-valid_cls_bridge_1_split <- label-valid
I0620 13:54:20.220585 12884 net.cpp:380] label-valid_cls_bridge_1_split -> label-valid_cls_bridge_1_split_0
I0620 13:54:20.220593 12884 net.cpp:380] label-valid_cls_bridge_1_split -> label-valid_cls_bridge_1_split_1
I0620 13:54:20.220620 12884 net.cpp:122] Setting up label-valid_cls_bridge_1_split
I0620 13:54:20.220625 12884 net.cpp:129] Top shape: 64 1 (64)
I0620 13:54:20.220628 12884 net.cpp:129] Top shape: 64 1 (64)
I0620 13:54:20.220631 12884 net.cpp:137] Memory required for data: 807936
I0620 13:54:20.220634 12884 layer_factory.hpp:77] Creating layer cls_loss
I0620 13:54:20.220638 12884 net.cpp:84] Creating Layer cls_loss
I0620 13:54:20.220641 12884 net.cpp:406] cls_loss <- conv4-1-valid_cls_bridge_0_split_0
I0620 13:54:20.220645 12884 net.cpp:406] cls_loss <- label-valid_cls_bridge_1_split_0
I0620 13:54:20.220650 12884 net.cpp:380] cls_loss -> cls_loss
…
