…
snapshot: 10000
snapshot_prefix: "./models/"
solver_mode: GPU
device_id: 0
net: "train24.prototxt"
train_state {
  level: 0
  stage: ""
}
I0619 18:06:45.033182  3679 solver.cpp:87] Creating training net from net file: train24.prototxt
I0619 18:06:45.033501  3679 net.cpp:51] Initializing net from parameters: 
name: "face_24c"
state {
  phase: TRAIN
  level: 0
  stage: ""
}
layer {
  name: "PythonLayer"
  type: "Python"
  top: "data"
  top: "label"
  top: "roi"
  top: "pts"
  python_param {
    module: "pythonLayer"
    layer: "Data_Layer_train"
  }
}
layer {
  name: "conv1"
  type: "Convolution"
  bottom: "data"
  top: "conv1"
  param {
    lr_mult: 1
  }
  param {
    lr_mult: 2
  }
  convolution_param {
    num_output: 28
    kernel_size: 3
    stride: 1
    weight_filler {
      type: "xavier"
    }
    bias_filler {
      type: "constant"
      value: 0
    }
  }
}
layer {
  name: "prelu1"
  type: "PReLU"
  bottom: "conv1"
  top: "conv1"
}
layer {
  name: "pool1"
  type: "Pooling"
  bottom: "conv1"
  top: "pool1"
  pooling_param {
    pool: MAX
    kernel_size: 3
    stride: 2
  }
}
layer {
  name: "conv2"
  type: "Convolution"
  bottom: "pool1"
  top: "conv2"
  param {
    lr_mult: 1
  }
  param {
    lr_mult: 2
  }
  convolution_param {
    num_output: 48
    kernel_size: 3
    stride: 1
    weight_filler {
      type: "xavier"
    }
    bias_filler {
      type: "constant"
      value: 0
    }
  }
}
layer {
  name: "prelu2"
  type: "PReLU"
  bottom: "conv2"
  top: "conv2"
}
layer {
  name: "pool2"
  type: "Pooling"
  bottom: "conv2"
  top: "pool2"
  pooling_param {
    pool: MAX
    kernel_size: 3
    stride: 2
  }
}
layer {
  name: "conv3"
  type: "Convolution"
  bottom: "pool2"
  top: "conv3"
  param {
    lr_mult: 1
    decay_mult: 1
  }
  param {
    lr_mult: 2
    decay_mult: 0
  }
  convolution_param {
    num_output: 64
    kernel_size: 2
    stride: 1
    weight_filler {
      type: "xavier"
    }
    bias_filler {
      type: "constant"
      value: 0
    }
  }
}
layer {
  name: "prelu3"
  type: "PReLU"
  bottom: "conv3"
  top: "conv3"
}
layer {
  name: "conv4"
  type: "InnerProduct"
  bottom: "conv3"
  top: "conv4"
  param {
    lr_mult: 1
    decay_mult: 1
  }
  param {
    lr_mult: 2
    decay_mult: 0
  }
  inner_product_param {
    num_output: 128
    weight_filler {
      type: "xavier"
    }
    bias_filler {
      type: "constant"
      value: 0
    }
  }
}
layer {
  name: "prelu4"
  type: "PReLU"
  bottom: "conv4"
  top: "conv4"
}
layer {
  name: "conv5-1"
  type: "InnerProduct"
  bottom: "conv4"
  top: "conv5-1"
  param {
    lr_mult: 1
    decay_mult: 1
  }
  param {
    lr_mult: 2
    decay_mult: 0
  }
  inner_product_param {
    num_output: 2
    weight_filler {
      type: "xavier"
    }
    bias_filler {
      type: "constant"
      value: 0
    }
  }
}
layer {
  name: "cls_bridge"
  type: "Python"
  bottom: "conv5-1"
  bottom: "label"
  top: "conv5-1-valid"
  top: "label-valid"
  python_param {
    module: "pythonLayer"
    layer: "cls_Layer"
  }
}
layer {
  name: "cls_loss"
  type: "SoftmaxWithLoss"
  bottom: "conv5-1-valid"
  bottom: "label-valid"
  top: "cls_loss"
  loss_weight: 1
  propagate_down: true
  propagate_down: false
}
layer {
  name: "cls_acc"
  type: "Accuracy"
  bottom: "conv5-1-valid"
  bottom: "label-valid"
  top: "cls_acc"
  include {
    phase: TRAIN
  }
}
layer {
  name: "conv5-2"
  type: "InnerProduct"
  bottom: "conv4"
  top: "conv5-2"
  param {
    lr_mult: 1
    decay_mult: 1
  }
  param {
    lr_mult: 2
    decay_mult: 0
  }
  inner_product_param {
    num_output: 4
    weight_filler {
      type: "xavier"
    }
    bias_filler {
      type: "constant"
      value: 0
    }
  }
}
layer {
  name: "roi_loss"
  type: "Python"
  bottom: "conv5-2"
  bottom: "roi"
  top: "roi_loss"
  loss_weight: 0.5
  python_param {
    module: "pythonLayer"
    layer: "regression_Layer"
  }
}
layer {
  name: "conv5-3"
  type: "InnerProduct"
  bottom: "conv4"
  top: "conv5-3"
  param {
    lr_mult: 1
    decay_mult: 1
  }
  param {
    lr_mult: 2
    decay_mult: 0
  }
  inner_product_param {
    num_output: 10
    weight_filler {
      type: "xavier"
    }
    bias_filler {
      type: "constant"
      value: 0
    }
  }
}
layer {
  name: "pts_loss"
  type: "Python"
  bottom: "conv5-3"
  bottom: "pts"
  top: "pts_loss"
  loss_weight: 0.5
  python_param {
    module: "pythonLayer"
    layer: "regression_Layer"
  }
}
I0619 18:06:45.033726  3679 layer_factory.hpp:77] Creating layer PythonLayer
I0619 18:06:45.432369  3679 net.cpp:84] Creating Layer PythonLayer
I0619 18:06:45.432406  3679 net.cpp:380] PythonLayer -> data
I0619 18:06:45.432435  3679 net.cpp:380] PythonLayer -> label
I0619 18:06:45.432456  3679 net.cpp:380] PythonLayer -> roi
I0619 18:06:45.432461  3679 net.cpp:380] PythonLayer -> pts
Start Reading Classify Data into Memory...

1124566  Classify Data have been read into Memory...
Start Reading Regression Data into Memory...

524566  Regression Data have been read into Memory...
Start Reading pts-regression Data into Memory...

202599  pts-regression Data have been read into Memory...
I0619 18:48:49.985051  3679 net.cpp:122] Setting up PythonLayer
I0619 18:48:49.994366  3679 net.cpp:129] Top shape: 64 3 24 24 (110592)
I0619 18:48:49.994410  3679 net.cpp:129] Top shape: 64 1 (64)
I0619 18:48:49.994423  3679 net.cpp:129] Top shape: 64 4 (256)
I0619 18:48:49.994433  3679 net.cpp:129] Top shape: 64 10 (640)
I0619 18:48:49.994444  3679 net.cpp:137] Memory required for data: 446208
I0619 18:48:49.999040  3679 layer_factory.hpp:77] Creating layer conv1
I0619 18:48:50.003459  3679 net.cpp:84] Creating Layer conv1
I0619 18:48:50.004024  3679 net.cpp:406] conv1 <- data
I0619 18:48:50.005199  3679 net.cpp:380] conv1 -> conv1
I0619 18:48:53.086097  3679 net.cpp:122] Setting up conv1
I0619 18:48:53.088912  3679 net.cpp:129] Top shape: 64 28 22 22 (867328)
I0619 18:48:53.088943  3679 net.cpp:137] Memory required for data: 3915520
I0619 18:48:53.092888  3679 layer_factory.hpp:77] Creating layer prelu1
I0619 18:48:53.094759  3679 net.cpp:84] Creating Layer prelu1
I0619 18:48:53.094786  3679 net.cpp:406] prelu1 <- conv1
I0619 18:48:53.094815  3679 net.cpp:367] prelu1 -> conv1 (in-place)
I0619 18:48:53.098150  3679 net.cpp:122] Setting up prelu1
I0619 18:48:53.098186  3679 net.cpp:129] Top shape: 64 28 22 22 (867328)
I0619 18:48:53.098198  3679 net.cpp:137] Memory required for data: 7384832
I0619 18:48:53.098223  3679 layer_factory.hpp:77] Creating layer pool1
I0619 18:48:53.098261  3679 net.cpp:84] Creating Layer pool1
I0619 18:48:53.098278  3679 net.cpp:406] pool1 <- conv1
I0619 18:48:53.098295  3679 net.cpp:380] pool1 -> pool1
I0619 18:48:53.100050  3679 net.cpp:122] Setting up pool1
I0619 18:48:53.100080  3679 net.cpp:129] Top shape: 64 28 11 11 (216832)
I0619 18:48:53.100091  3679 net.cpp:137] Memory required for data: 8252160
I0619 18:48:53.100103  3679 layer_factory.hpp:77] Creating layer conv2
I0619 18:48:53.100325  3679 net.cpp:84] Creating Layer conv2
I0619 18:48:53.100342  3679 net.cpp:406] conv2 <- pool1
I0619 18:48:53.100360  3679 net.cpp:380] conv2 -> conv2
I0619 18:48:53.106034  3679 net.cpp:122] Setting up conv2
I0619 18:48:53.106073  3679 net.cpp:129] Top shape: 64 48 9 9 (248832)
I0619 18:48:53.106086  3679 net.cpp:137] Memory required for data: 9247488
I0619 18:48:53.106115  3679 layer_factory.hpp:77] Creating layer prelu2
I0619 18:48:53.106137  3679 net.cpp:84] Creating Layer prelu2
I0619 18:48:53.106151  3679 net.cpp:406] prelu2 <- conv2
I0619 18:48:53.106640  3679 net.cpp:367] prelu2 -> conv2 (in-place)
I0619 18:48:53.108794  3679 net.cpp:122] Setting up prelu2
I0619 18:48:53.108829  3679 net.cpp:129] Top shape: 64 48 9 9 (248832)
I0619 18:48:53.108844  3679 net.cpp:137] Memory required for data: 10242816
I0619 18:48:53.108887  3679 layer_factory.hpp:77] Creating layer pool2
I0619 18:48:53.108908  3679 net.cpp:84] Creating Layer pool2
I0619 18:48:53.108922  3679 net.cpp:406] pool2 <- conv2
I0619 18:48:53.108940  3679 net.cpp:380] pool2 -> pool2
I0619 18:48:53.109050  3679 net.cpp:122] Setting up pool2
I0619 18:48:53.109069  3679 net.cpp:129] Top shape: 64 48 4 4 (49152)
I0619 18:48:53.109081  3679 net.cpp:137] Memory required for data: 10439424
I0619 18:48:53.109094  3679 layer_factory.hpp:77] Creating layer conv3
I0619 18:48:53.109496  3679 net.cpp:84] Creating Layer conv3
I0619 18:48:53.109515  3679 net.cpp:406] conv3 <- pool2
I0619 18:48:53.109535  3679 net.cpp:380] conv3 -> conv3
I0619 18:48:53.114428  3679 net.cpp:122] Setting up conv3
I0619 18:48:53.114480  3679 net.cpp:129] Top shape: 64 64 3 3 (36864)
I0619 18:48:53.114492  3679 net.cpp:137] Memory required for data: 10586880
I0619 18:48:53.114516  3679 layer_factory.hpp:77] Creating layer prelu3
I0619 18:48:53.114537  3679 net.cpp:84] Creating Layer prelu3
I0619 18:48:53.114547  3679 net.cpp:406] prelu3 <- conv3
I0619 18:48:53.114564  3679 net.cpp:367] prelu3 -> conv3 (in-place)
I0619 18:48:53.114840  3679 net.cpp:122] Setting up prelu3
I0619 18:48:53.114886  3679 net.cpp:129] Top shape: 64 64 3 3 (36864)
I0619 18:48:53.114898  3679 net.cpp:137] Memory required for data: 10734336
I0619 18:48:53.114922  3679 layer_factory.hpp:77] Creating layer conv4
I0619 18:48:53.114951  3679 net.cpp:84] Creating Layer conv4
I0619 18:48:53.115013  3679 net.cpp:406] conv4 <- conv3
I0619 18:48:53.115033  3679 net.cpp:380] conv4 -> conv4
I0619 18:48:53.118768  3679 net.cpp:122] Setting up conv4
I0619 18:48:53.118798  3679 net.cpp:129] Top shape: 64 128 (8192)
I0619 18:48:53.118813  3679 net.cpp:137] Memory required for data: 10767104
I0619 18:48:53.118829  3679 layer_factory.hpp:77] Creating layer prelu4
I0619 18:48:53.118844  3679 net.cpp:84] Creating Layer prelu4
I0619 18:48:53.118852  3679 net.cpp:406] prelu4 <- conv4
I0619 18:48:53.118870  3679 net.cpp:367] prelu4 -> conv4 (in-place)
I0619 18:48:53.119079  3679 net.cpp:122] Setting up prelu4
I0619 18:48:53.119096  3679 net.cpp:129] Top shape: 64 128 (8192)
I0619 18:48:53.119107  3679 net.cpp:137] Memory required for data: 10799872
I0619 18:48:53.119122  3679 layer_factory.hpp:77] Creating layer conv4_prelu4_0_split
I0619 18:48:53.120416  3679 net.cpp:84] Creating Layer conv4_prelu4_0_split
I0619 18:48:53.120434  3679 net.cpp:406] conv4_prelu4_0_split <- conv4
I0619 18:48:53.120451  3679 net.cpp:380] conv4_prelu4_0_split -> conv4_prelu4_0_split_0
I0619 18:48:53.120473  3679 net.cpp:380] conv4_prelu4_0_split -> conv4_prelu4_0_split_1
I0619 18:48:53.120492  3679 net.cpp:380] conv4_prelu4_0_split -> conv4_prelu4_0_split_2
I0619 18:48:53.120626  3679 net.cpp:122] Setting up conv4_prelu4_0_split
I0619 18:48:53.120645  3679 net.cpp:129] Top shape: 64 128 (8192)
I0619 18:48:53.120658  3679 net.cpp:129] Top shape: 64 128 (8192)
I0619 18:48:53.120669  3679 net.cpp:129] Top shape: 64 128 (8192)
I0619 18:48:53.120678  3679 net.cpp:137] Memory required for data: 10898176
I0619 18:48:53.120692  3679 layer_factory.hpp:77] Creating layer conv5-1
I0619 18:48:53.120712  3679 net.cpp:84] Creating Layer conv5-1
I0619 18:48:53.120724  3679 net.cpp:406] conv5-1 <- conv4_prelu4_0_split_0
I0619 18:48:53.120740  3679 net.cpp:380] conv5-1 -> conv5-1
I0619 18:48:53.120999  3679 net.cpp:122] Setting up conv5-1
I0619 18:48:53.121018  3679 net.cpp:129] Top shape: 64 2 (128)
I0619 18:48:53.121028  3679 net.cpp:137] Memory required for data: 10898688
I0619 18:48:53.121045  3679 layer_factory.hpp:77] Creating layer cls_bridge
I0619 18:48:53.143523  3679 net.cpp:84] Creating Layer cls_bridge
I0619 18:48:53.143555  3679 net.cpp:406] cls_bridge <- conv5-1
I0619 18:48:53.143573  3679 net.cpp:406] cls_bridge <- label
I0619 18:48:53.143591  3679 net.cpp:380] cls_bridge -> conv5-1-valid
I0619 18:48:53.143611  3679 net.cpp:380] cls_bridge -> label-valid
I0619 18:48:53.161530  3679 net.cpp:122] Setting up cls_bridge
I0619 18:48:53.161581  3679 net.cpp:129] Top shape: 64 2 (128)
I0619 18:48:53.161589  3679 net.cpp:129] Top shape: 64 1 (64)
I0619 18:48:53.161594  3679 net.cpp:137] Memory required for data: 10899456
I0619 18:48:53.161603  3679 layer_factory.hpp:77] Creating layer conv5-1-valid_cls_bridge_0_split
I0619 18:48:53.161618  3679 net.cpp:84] Creating Layer conv5-1-valid_cls_bridge_0_split
I0619 18:48:53.161625  3679 net.cpp:406] conv5-1-valid_cls_bridge_0_split <- conv5-1-valid
I0619 18:48:53.161638  3679 net.cpp:380] conv5-1-valid_cls_bridge_0_split -> conv5-1-valid_cls_bridge_0_split_0
I0619 18:48:53.161659  3679 net.cpp:380] conv5-1-valid_cls_bridge_0_split -> conv5-1-valid_cls_bridge_0_split_1
I0619 18:48:53.161739  3679 net.cpp:122] Setting up conv5-1-valid_cls_bridge_0_split
I0619 18:48:53.161764  3679 net.cpp:129] Top shape: 64 2 (128)
I0619 18:48:53.161772  3679 net.cpp:129] Top shape: 64 2 (128)
I0619 18:48:53.161849  3679 net.cpp:137] Memory required for data: 10900480
I0619 18:48:53.176791  3679 layer_factory.hpp:77] Creating layer label-valid_cls_bridge_1_split
I0619 18:48:53.176805  3679 net.cpp:84] Creating Layer label-valid_cls_bridge_1_split
I0619 18:48:53.176811  3679 net.cpp:406] label-valid_cls_bridge_1_split <- label-valid
I0619 18:48:53.176818  3679 net.cpp:380] label-valid_cls_bridge_1_split -> label-valid_cls_bridge_1_split_0
I0619 18:48:53.176825  3679 net.cpp:380] label-valid_cls_bridge_1_split -> label-valid_cls_bridge_1_split_1
I0619 18:48:53.176858  3679 net.cpp:122] Setting up label-valid_cls_bridge_1_split
I0619 18:48:53.176877  3679 net.cpp:129] Top shape: 64 1 (64)
I0619 18:48:53.176882  3679 net.cpp:129] Top shape: 64 1 (64)
I0619 18:48:53.176883  3679 net.cpp:137] Memory required for data: 10900992
I0619 18:48:53.176885  3679 layer_factory.hpp:77] Creating layer cls_loss
I0619 18:48:53.176892  3679 net.cpp:84] Creating Layer cls_loss
I0619 18:48:53.176895  3679 net.cpp:406] cls_loss <- conv5-1-valid_cls_bridge_0_split_0
I0619 18:48:53.176899  3679 net.cpp:406] cls_loss <- label-valid_cls_bridge_1_split_0
I0619 18:48:53.176903  3679 net.cpp:380] cls_loss -> cls_loss
…
