…
snapshot: 10000
snapshot_prefix: "./models/"
solver_mode: GPU
device_id: 0
net: "train12.prototxt"
train_state {
  level: 0
  stage: ""
}
I0608 15:18:09.914896 14044 solver.cpp:87] Creating training net from net file: train12.prototxt
I0608 15:18:09.915194 14044 net.cpp:51] Initializing net from parameters: 
name: "face_12c"
state {
  phase: TRAIN
  level: 0
  stage: ""
}
layer {
  name: "PythonLayer"
  type: "Python"
  top: "data"
  top: "label"
  top: "roi"
  top: "pts"
  python_param {
    module: "pythonLayer"
    layer: "Data_Layer_train"
  }
}
layer {
  name: "conv1"
  type: "Convolution"
  bottom: "data"
  top: "conv1"
  param {
    lr_mult: 1
  }
  param {
    lr_mult: 2
  }
  convolution_param {
    num_output: 10
    kernel_size: 3
    weight_filler {
      type: "gaussian"
      std: 0.0001
    }
    bias_filler {
      type: "constant"
    }
  }
}
layer {
  name: "relu1"
  type: "PReLU"
  bottom: "conv1"
  top: "conv1"
}
layer {
  name: "pool1"
  type: "Pooling"
  bottom: "conv1"
  top: "pool1"
  pooling_param {
    pool: MAX
    kernel_size: 3
    stride: 2
  }
}
layer {
  name: "conv2"
  type: "Convolution"
  bottom: "pool1"
  top: "conv2"
  param {
    lr_mult: 1
  }
  param {
    lr_mult: 2
  }
  convolution_param {
    num_output: 16
    kernel_size: 3
    weight_filler {
      type: "gaussian"
      std: 0.0001
    }
    bias_filler {
      type: "constant"
    }
  }
}
layer {
  name: "relu2"
  type: "PReLU"
  bottom: "conv2"
  top: "conv2"
}
layer {
  name: "conv3"
  type: "Convolution"
  bottom: "conv2"
  top: "conv3"
  param {
    lr_mult: 1
    decay_mult: 1
  }
  param {
    lr_mult: 2
    decay_mult: 0
  }
  convolution_param {
    num_output: 32
    kernel_size: 3
    stride: 1
    weight_filler {
      type: "xavier"
    }
    bias_filler {
      type: "constant"
      value: 0
    }
  }
}
layer {
  name: "relu3"
  type: "PReLU"
  bottom: "conv3"
  top: "conv3"
}
layer {
  name: "conv4-1"
  type: "Convolution"
  bottom: "conv3"
  top: "conv4-1"
  param {
    lr_mult: 1
    decay_mult: 1
  }
  param {
    lr_mult: 2
    decay_mult: 0
  }
  convolution_param {
    num_output: 2
    kernel_size: 1
    stride: 1
    weight_filler {
      type: "xavier"
    }
    bias_filler {
      type: "constant"
      value: 0
    }
  }
}
layer {
  name: "cls_bridge"
  type: "Python"
  bottom: "conv4-1"
  bottom: "label"
  top: "conv4-1-valid"
  top: "label-valid"
  python_param {
    module: "pythonLayer"
    layer: "cls_Layer_fc"
  }
}
layer {
  name: "cls_loss"
  type: "SoftmaxWithLoss"
  bottom: "conv4-1-valid"
  bottom: "label-valid"
  top: "cls_loss"
  loss_weight: 1
  propagate_down: true
  propagate_down: false
}
layer {
  name: "cls_Acc"
  type: "Accuracy"
  bottom: "conv4-1-valid"
  bottom: "label-valid"
  top: "cls_Acc"
  include {
    phase: TRAIN
  }
}
layer {
  name: "conv4-2"
  type: "Convolution"
  bottom: "conv3"
  top: "conv4-2"
  param {
    lr_mult: 1
    decay_mult: 1
  }
  param {
    lr_mult: 2
    decay_mult: 0
  }
  convolution_param {
    num_output: 4
    kernel_size: 1
    stride: 1
    weight_filler {
      type: "xavier"
    }
    bias_filler {
      type: "constant"
      value: 0
    }
  }
}
layer {
  name: "roi_loss"
  type: "Python"
  bottom: "conv4-2"
  bottom: "roi"
  top: "roi_loss"
  loss_weight: 0.5
  python_param {
    module: "pythonLayer"
    layer: "regression_Layer"
  }
}
layer {
  name: "conv4-3"
  type: "Convolution"
  bottom: "conv3"
  top: "conv4-3"
  param {
    lr_mult: 1
    decay_mult: 1
  }
  param {
    lr_mult: 2
    decay_mult: 0
  }
  convolution_param {
    num_output: 10
    kernel_size: 1
    stride: 1
    weight_filler {
      type: "xavier"
    }
    bias_filler {
      type: "constant"
      value: 0
    }
  }
}
layer {
  name: "pts_loss"
  type: "Python"
  bottom: "conv4-3"
  bottom: "pts"
  top: "pts_loss"
  loss_weight: 0.5
  python_param {
    module: "pythonLayer"
    layer: "regression_Layer"
  }
}
I0608 15:18:09.915472 14044 layer_factory.hpp:77] Creating layer PythonLayer
I0608 15:18:10.345618 14044 net.cpp:84] Creating Layer PythonLayer
I0608 15:18:10.345654 14044 net.cpp:380] PythonLayer -> data
I0608 15:18:10.345685 14044 net.cpp:380] PythonLayer -> label
I0608 15:18:10.345706 14044 net.cpp:380] PythonLayer -> roi
I0608 15:18:10.345711 14044 net.cpp:380] PythonLayer -> pts
Start Reading Classify Data into Memory...

788878  Classify Data have been read into Memory...
Start Reading Regression Data into Memory...

488878  Regression Data have been read into Memory...
Start Reading pts-regression Data into Memory...

202599  pts-regression Data have been read into Memory...
I0608 15:26:36.812566 14044 net.cpp:122] Setting up PythonLayer
I0608 15:26:36.812927 14044 net.cpp:129] Top shape: 64 3 12 12 (27648)
I0608 15:26:36.812952 14044 net.cpp:129] Top shape: 64 1 (64)
I0608 15:26:36.812968 14044 net.cpp:129] Top shape: 64 4 (256)
I0608 15:26:36.812983 14044 net.cpp:129] Top shape: 64 10 (640)
I0608 15:26:36.812994 14044 net.cpp:137] Memory required for data: 114432
I0608 15:26:36.813019 14044 layer_factory.hpp:77] Creating layer conv1
I0608 15:26:36.813063 14044 net.cpp:84] Creating Layer conv1
I0608 15:26:36.813081 14044 net.cpp:406] conv1 <- data
I0608 15:26:36.813112 14044 net.cpp:380] conv1 -> conv1
I0608 15:26:37.579565 14044 net.cpp:122] Setting up conv1
I0608 15:26:37.579587 14044 net.cpp:129] Top shape: 64 10 10 10 (64000)
I0608 15:26:37.579592 14044 net.cpp:137] Memory required for data: 370432
I0608 15:26:37.579612 14044 layer_factory.hpp:77] Creating layer relu1
I0608 15:26:37.579623 14044 net.cpp:84] Creating Layer relu1
I0608 15:26:37.579628 14044 net.cpp:406] relu1 <- conv1
I0608 15:26:37.579634 14044 net.cpp:367] relu1 -> conv1 (in-place)
I0608 15:26:37.579712 14044 net.cpp:122] Setting up relu1
I0608 15:26:37.579720 14044 net.cpp:129] Top shape: 64 10 10 10 (64000)
I0608 15:26:37.579722 14044 net.cpp:137] Memory required for data: 626432
I0608 15:26:37.579730 14044 layer_factory.hpp:77] Creating layer pool1
I0608 15:26:37.579735 14044 net.cpp:84] Creating Layer pool1
I0608 15:26:37.579740 14044 net.cpp:406] pool1 <- conv1
I0608 15:26:37.579744 14044 net.cpp:380] pool1 -> pool1
I0608 15:26:37.579777 14044 net.cpp:122] Setting up pool1
I0608 15:26:37.579782 14044 net.cpp:129] Top shape: 64 10 5 5 (16000)
I0608 15:26:37.579787 14044 net.cpp:137] Memory required for data: 690432
I0608 15:26:37.579789 14044 layer_factory.hpp:77] Creating layer conv2
I0608 15:26:37.579798 14044 net.cpp:84] Creating Layer conv2
I0608 15:26:37.579802 14044 net.cpp:406] conv2 <- pool1
I0608 15:26:37.579807 14044 net.cpp:380] conv2 -> conv2
I0608 15:26:37.581255 14044 net.cpp:122] Setting up conv2
I0608 15:26:37.581265 14044 net.cpp:129] Top shape: 64 16 3 3 (9216)
I0608 15:26:37.581270 14044 net.cpp:137] Memory required for data: 727296
I0608 15:26:37.581279 14044 layer_factory.hpp:77] Creating layer relu2
I0608 15:26:37.581284 14044 net.cpp:84] Creating Layer relu2
I0608 15:26:37.581288 14044 net.cpp:406] relu2 <- conv2
I0608 15:26:37.581293 14044 net.cpp:367] relu2 -> conv2 (in-place)
I0608 15:26:37.581352 14044 net.cpp:122] Setting up relu2
I0608 15:26:37.581358 14044 net.cpp:129] Top shape: 64 16 3 3 (9216)
I0608 15:26:37.581362 14044 net.cpp:137] Memory required for data: 764160
I0608 15:26:37.581367 14044 layer_factory.hpp:77] Creating layer conv3
I0608 15:26:37.581374 14044 net.cpp:84] Creating Layer conv3
I0608 15:26:37.581377 14044 net.cpp:406] conv3 <- conv2
I0608 15:26:37.581383 14044 net.cpp:380] conv3 -> conv3
I0608 15:26:37.582862 14044 net.cpp:122] Setting up conv3
I0608 15:26:37.582873 14044 net.cpp:129] Top shape: 64 32 1 1 (2048)
I0608 15:26:37.582892 14044 net.cpp:137] Memory required for data: 772352
I0608 15:26:37.582900 14044 layer_factory.hpp:77] Creating layer relu3
I0608 15:26:37.582904 14044 net.cpp:84] Creating Layer relu3
I0608 15:26:37.582909 14044 net.cpp:406] relu3 <- conv3
I0608 15:26:37.582914 14044 net.cpp:367] relu3 -> conv3 (in-place)
I0608 15:26:37.582975 14044 net.cpp:122] Setting up relu3
I0608 15:26:37.582981 14044 net.cpp:129] Top shape: 64 32 1 1 (2048)
I0608 15:26:37.582985 14044 net.cpp:137] Memory required for data: 780544
I0608 15:26:37.582991 14044 layer_factory.hpp:77] Creating layer conv3_relu3_0_split
I0608 15:26:37.583010 14044 net.cpp:84] Creating Layer conv3_relu3_0_split
I0608 15:26:37.583014 14044 net.cpp:406] conv3_relu3_0_split <- conv3
I0608 15:26:37.583034 14044 net.cpp:380] conv3_relu3_0_split -> conv3_relu3_0_split_0
I0608 15:26:37.583040 14044 net.cpp:380] conv3_relu3_0_split -> conv3_relu3_0_split_1
I0608 15:26:37.583046 14044 net.cpp:380] conv3_relu3_0_split -> conv3_relu3_0_split_2
I0608 15:26:37.583079 14044 net.cpp:122] Setting up conv3_relu3_0_split
I0608 15:26:37.583086 14044 net.cpp:129] Top shape: 64 32 1 1 (2048)
I0608 15:26:37.583108 14044 net.cpp:129] Top shape: 64 32 1 1 (2048)
I0608 15:26:37.583113 14044 net.cpp:129] Top shape: 64 32 1 1 (2048)
I0608 15:26:37.583117 14044 net.cpp:137] Memory required for data: 805120
I0608 15:26:37.583120 14044 layer_factory.hpp:77] Creating layer conv4-1
I0608 15:26:37.583128 14044 net.cpp:84] Creating Layer conv4-1
I0608 15:26:37.583132 14044 net.cpp:406] conv4-1 <- conv3_relu3_0_split_0
I0608 15:26:37.583138 14044 net.cpp:380] conv4-1 -> conv4-1
I0608 15:26:37.584295 14044 net.cpp:122] Setting up conv4-1
I0608 15:26:37.584305 14044 net.cpp:129] Top shape: 64 2 1 1 (128)
I0608 15:26:37.584306 14044 net.cpp:137] Memory required for data: 805632
I0608 15:26:37.584326 14044 layer_factory.hpp:77] Creating layer cls_bridge
I0608 15:26:37.584395 14044 net.cpp:84] Creating Layer cls_bridge
I0608 15:26:37.584400 14044 net.cpp:406] cls_bridge <- conv4-1
I0608 15:26:37.584419 14044 net.cpp:406] cls_bridge <- label
I0608 15:26:37.584424 14044 net.cpp:380] cls_bridge -> conv4-1-valid
I0608 15:26:37.584431 14044 net.cpp:380] cls_bridge -> label-valid
I0608 15:26:37.584545 14044 net.cpp:122] Setting up cls_bridge
I0608 15:26:37.584553 14044 net.cpp:129] Top shape: 64 2 1 1 (128)
I0608 15:26:37.584571 14044 net.cpp:129] Top shape: 64 1 (64)
I0608 15:26:37.584575 14044 net.cpp:137] Memory required for data: 806400
I0608 15:26:37.584579 14044 layer_factory.hpp:77] Creating layer conv4-1-valid_cls_bridge_0_split
I0608 15:26:37.584584 14044 net.cpp:84] Creating Layer conv4-1-valid_cls_bridge_0_split
I0608 15:26:37.584589 14044 net.cpp:406] conv4-1-valid_cls_bridge_0_split <- conv4-1-valid
I0608 15:26:37.584594 14044 net.cpp:380] conv4-1-valid_cls_bridge_0_split -> conv4-1-valid_cls_bridge_0_split_0
I0608 15:26:37.584600 14044 net.cpp:380] conv4-1-valid_cls_bridge_0_split -> conv4-1-valid_cls_bridge_0_split_1
I0608 15:26:37.584626 14044 net.cpp:122] Setting up conv4-1-valid_cls_bridge_0_split
I0608 15:26:37.584632 14044 net.cpp:129] Top shape: 64 2 1 1 (128)
I0608 15:26:37.584637 14044 net.cpp:129] Top shape: 64 2 1 1 (128)
I0608 15:26:37.584640 14044 net.cpp:137] Memory required for data: 807424
I0608 15:26:37.584643 14044 layer_factory.hpp:77] Creating layer label-valid_cls_bridge_1_split
I0608 15:26:37.584648 14044 net.cpp:84] Creating Layer label-valid_cls_bridge_1_split
I0608 15:26:37.584652 14044 net.cpp:406] label-valid_cls_bridge_1_split <- label-valid
I0608 15:26:37.584657 14044 net.cpp:380] label-valid_cls_bridge_1_split -> label-valid_cls_bridge_1_split_0
I0608 15:26:37.584664 14044 net.cpp:380] label-valid_cls_bridge_1_split -> label-valid_cls_bridge_1_split_1
I0608 15:26:37.584689 14044 net.cpp:122] Setting up label-valid_cls_bridge_1_split
I0608 15:26:37.584695 14044 net.cpp:129] Top shape: 64 1 (64)
I0608 15:26:37.584700 14044 net.cpp:129] Top shape: 64 1 (64)
I0608 15:26:37.584703 14044 net.cpp:137] Memory required for data: 807936
I0608 15:26:37.584707 14044 layer_factory.hpp:77] Creating layer cls_loss
I0608 15:26:37.584712 14044 net.cpp:84] Creating Layer cls_loss
I0608 15:26:37.584717 14044 net.cpp:406] cls_loss <- conv4-1-valid_cls_bridge_0_split_0
I0608 15:26:37.584735 14044 net.cpp:406] cls_loss <- label-valid_cls_bridge_1_split_0
I0608 15:26:37.584740 14044 net.cpp:380] cls_loss -> cls_loss
…
