…
stepsize: 30000
snapshot: 5000
snapshot_prefix: "./models/"
solver_mode: GPU
device_id: 0
net: "train48.prototxt"
train_state {
  level: 0
  stage: ""
}
I0620 17:15:15.535629  3177 solver.cpp:87] Creating training net from net file: train48.prototxt
I0620 17:15:15.535990  3177 net.cpp:51] Initializing net from parameters: 
name: "face_48"
state {
  phase: TRAIN
  level: 0
  stage: ""
}
layer {
  name: "PythonLayer"
  type: "Python"
  top: "data"
  top: "label"
  top: "roi"
  top: "pts"
  python_param {
    module: "pythonLayer"
    layer: "Data_Layer_train"
  }
}
layer {
  name: "conv1"
  type: "Convolution"
  bottom: "data"
  top: "conv1"
  param {
    lr_mult: 1
    decay_mult: 1
  }
  param {
    lr_mult: 2
    decay_mult: 1
  }
  convolution_param {
    num_output: 32
    kernel_size: 3
    stride: 1
    weight_filler {
      type: "xavier"
    }
    bias_filler {
      type: "constant"
      value: 0
    }
  }
}
layer {
  name: "prelu1"
  type: "PReLU"
  bottom: "conv1"
  top: "conv1"
}
layer {
  name: "pool1"
  type: "Pooling"
  bottom: "conv1"
  top: "pool1"
  pooling_param {
    pool: MAX
    kernel_size: 3
    stride: 2
  }
}
layer {
  name: "conv2"
  type: "Convolution"
  bottom: "pool1"
  top: "conv2"
  param {
    lr_mult: 1
    decay_mult: 1
  }
  param {
    lr_mult: 2
    decay_mult: 1
  }
  convolution_param {
    num_output: 64
    kernel_size: 3
    stride: 1
    weight_filler {
      type: "xavier"
    }
    bias_filler {
      type: "constant"
      value: 0
    }
  }
}
layer {
  name: "prelu2"
  type: "PReLU"
  bottom: "conv2"
  top: "conv2"
}
layer {
  name: "pool2"
  type: "Pooling"
  bottom: "conv2"
  top: "pool2"
  pooling_param {
    pool: MAX
    kernel_size: 3
    stride: 2
  }
}
layer {
  name: "conv3"
  type: "Convolution"
  bottom: "pool2"
  top: "conv3"
  param {
    lr_mult: 1
    decay_mult: 1
  }
  param {
    lr_mult: 2
    decay_mult: 1
  }
  convolution_param {
    num_output: 64
    kernel_size: 3
    weight_filler {
      type: "xavier"
    }
    bias_filler {
      type: "constant"
      value: 0
    }
  }
}
layer {
  name: "prelu3"
  type: "PReLU"
  bottom: "conv3"
  top: "conv3"
}
layer {
  name: "pool3"
  type: "Pooling"
  bottom: "conv3"
  top: "pool3"
  pooling_param {
    pool: MAX
    kernel_size: 2
    stride: 2
  }
}
layer {
  name: "conv4"
  type: "Convolution"
  bottom: "pool3"
  top: "conv4"
  param {
    lr_mult: 1
    decay_mult: 1
  }
  param {
    lr_mult: 2
    decay_mult: 1
  }
  convolution_param {
    num_output: 128
    kernel_size: 2
    stride: 1
    weight_filler {
      type: "xavier"
    }
    bias_filler {
      type: "constant"
      value: 0
    }
  }
}
layer {
  name: "prelu4"
  type: "PReLU"
  bottom: "conv4"
  top: "conv4"
}
layer {
  name: "conv5"
  type: "InnerProduct"
  bottom: "conv4"
  top: "conv5"
  param {
    lr_mult: 1
    decay_mult: 1
  }
  param {
    lr_mult: 2
    decay_mult: 1
  }
  inner_product_param {
    num_output: 256
    weight_filler {
      type: "xavier"
    }
    bias_filler {
      type: "constant"
      value: 0
    }
  }
}
layer {
  name: "drop5"
  type: "Dropout"
  bottom: "conv5"
  top: "conv5"
  dropout_param {
    dropout_ratio: 0.25
  }
}
layer {
  name: "prelu5"
  type: "PReLU"
  bottom: "conv5"
  top: "conv5"
}
layer {
  name: "conv6-1"
  type: "InnerProduct"
  bottom: "conv5"
  top: "conv6-1"
  param {
    lr_mult: 1
    decay_mult: 1
  }
  param {
    lr_mult: 2
    decay_mult: 1
  }
  inner_product_param {
    num_output: 2
    weight_filler {
      type: "xavier"
    }
    bias_filler {
      type: "constant"
      value: 0
    }
  }
}
layer {
  name: "cls_bridge"
  type: "Python"
  bottom: "conv6-1"
  bottom: "label"
  top: "conv6-1-valid"
  top: "label-valid"
  python_param {
    module: "pythonLayer"
    layer: "cls_Layer"
  }
}
layer {
  name: "ClassifyLoss"
  type: "SoftmaxWithLoss"
  bottom: "conv6-1-valid"
  bottom: "label-valid"
  top: "ClassifyLoss"
  loss_weight: 1
  propagate_down: true
  propagate_down: false
}
layer {
  name: "cls_Acc"
  type: "Accuracy"
  bottom: "conv6-1-valid"
  bottom: "label-valid"
  top: "cls_Acc"
  include {
    phase: TRAIN
  }
}
layer {
  name: "conv6-2"
  type: "InnerProduct"
  bottom: "conv5"
  top: "conv6-2"
  param {
    lr_mult: 1
    decay_mult: 1
  }
  param {
    lr_mult: 2
    decay_mult: 1
  }
  inner_product_param {
    num_output: 4
    weight_filler {
      type: "xavier"
    }
    bias_filler {
      type: "constant"
      value: 0
    }
  }
}
layer {
  name: "RegressionLoss"
  type: "Python"
  bottom: "conv6-2"
  bottom: "roi"
  top: "RegressionLoss"
  loss_weight: 0.5
  python_param {
    module: "pythonLayer"
    layer: "regression_Layer"
  }
}
layer {
  name: "conv6-3"
  type: "InnerProduct"
  bottom: "conv5"
  top: "conv6-3"
  param {
    lr_mult: 1
    decay_mult: 1
  }
  param {
    lr_mult: 2
    decay_mult: 1
  }
  inner_product_param {
    num_output: 10
    weight_filler {
      type: "xavier"
    }
    bias_filler {
      type: "constant"
      value: 0
    }
  }
}
layer {
  name: "LandmarkLoss"
  type: "Python"
  bottom: "conv6-3"
  bottom: "pts"
  top: "LandmarkLoss"
  loss_weight: 1
  python_param {
    module: "pythonLayer"
    layer: "regression_Layer"
  }
}
I0620 17:15:15.536254  3177 layer_factory.hpp:77] Creating layer PythonLayer
I0620 17:15:15.948652  3177 net.cpp:84] Creating Layer PythonLayer
I0620 17:15:15.948688  3177 net.cpp:380] PythonLayer -> data
I0620 17:15:15.948704  3177 net.cpp:380] PythonLayer -> label
I0620 17:15:15.948714  3177 net.cpp:380] PythonLayer -> roi
I0620 17:15:15.948719  3177 net.cpp:380] PythonLayer -> pts
Start Reading Classify Data into Memory...

20000  Classify Data have been read into Memory...
Start Reading Regression Data into Memory...

15000  Regression Data have been read into Memory...
Start Reading pts-regression Data into Memory...

10000  pts-regression Data have been read into Memory...
I0620 17:19:08.231206  3177 net.cpp:122] Setting up PythonLayer
I0620 17:19:08.231497  3177 net.cpp:129] Top shape: 64 3 48 48 (442368)
I0620 17:19:08.231501  3177 net.cpp:129] Top shape: 64 1 (64)
I0620 17:19:08.231545  3177 net.cpp:129] Top shape: 64 4 (256)
I0620 17:19:08.231550  3177 net.cpp:129] Top shape: 64 10 (640)
I0620 17:19:08.231554  3177 net.cpp:137] Memory required for data: 1773312
I0620 17:19:08.231562  3177 layer_factory.hpp:77] Creating layer conv1
I0620 17:19:08.231593  3177 net.cpp:84] Creating Layer conv1
I0620 17:19:08.231611  3177 net.cpp:406] conv1 <- data
I0620 17:19:08.231634  3177 net.cpp:380] conv1 -> conv1
I0620 17:19:08.566741  3177 net.cpp:122] Setting up conv1
I0620 17:19:08.566779  3177 net.cpp:129] Top shape: 64 32 46 46 (4333568)
I0620 17:19:08.566784  3177 net.cpp:137] Memory required for data: 19107584
I0620 17:19:08.566830  3177 layer_factory.hpp:77] Creating layer prelu1
I0620 17:19:08.566839  3177 net.cpp:84] Creating Layer prelu1
I0620 17:19:08.566844  3177 net.cpp:406] prelu1 <- conv1
I0620 17:19:08.566849  3177 net.cpp:367] prelu1 -> conv1 (in-place)
I0620 17:19:08.567452  3177 net.cpp:122] Setting up prelu1
I0620 17:19:08.567461  3177 net.cpp:129] Top shape: 64 32 46 46 (4333568)
I0620 17:19:08.567478  3177 net.cpp:137] Memory required for data: 36441856
I0620 17:19:08.567483  3177 layer_factory.hpp:77] Creating layer pool1
I0620 17:19:08.567504  3177 net.cpp:84] Creating Layer pool1
I0620 17:19:08.567515  3177 net.cpp:406] pool1 <- conv1
I0620 17:19:08.567535  3177 net.cpp:380] pool1 -> pool1
I0620 17:19:08.567611  3177 net.cpp:122] Setting up pool1
I0620 17:19:08.567616  3177 net.cpp:129] Top shape: 64 32 23 23 (1083392)
I0620 17:19:08.567618  3177 net.cpp:137] Memory required for data: 40775424
I0620 17:19:08.567621  3177 layer_factory.hpp:77] Creating layer conv2
I0620 17:19:08.567631  3177 net.cpp:84] Creating Layer conv2
I0620 17:19:08.567632  3177 net.cpp:406] conv2 <- pool1
I0620 17:19:08.567637  3177 net.cpp:380] conv2 -> conv2
I0620 17:19:08.569380  3177 net.cpp:122] Setting up conv2
I0620 17:19:08.569403  3177 net.cpp:129] Top shape: 64 64 21 21 (1806336)
I0620 17:19:08.569406  3177 net.cpp:137] Memory required for data: 48000768
I0620 17:19:08.569413  3177 layer_factory.hpp:77] Creating layer prelu2
I0620 17:19:08.569419  3177 net.cpp:84] Creating Layer prelu2
I0620 17:19:08.569434  3177 net.cpp:406] prelu2 <- conv2
I0620 17:19:08.569438  3177 net.cpp:367] prelu2 -> conv2 (in-place)
I0620 17:19:08.569526  3177 net.cpp:122] Setting up prelu2
I0620 17:19:08.569545  3177 net.cpp:129] Top shape: 64 64 21 21 (1806336)
I0620 17:19:08.569547  3177 net.cpp:137] Memory required for data: 55226112
I0620 17:19:08.569550  3177 layer_factory.hpp:77] Creating layer pool2
I0620 17:19:08.569567  3177 net.cpp:84] Creating Layer pool2
I0620 17:19:08.569571  3177 net.cpp:406] pool2 <- conv2
I0620 17:19:08.569577  3177 net.cpp:380] pool2 -> pool2
I0620 17:19:08.569602  3177 net.cpp:122] Setting up pool2
I0620 17:19:08.569619  3177 net.cpp:129] Top shape: 64 64 10 10 (409600)
I0620 17:19:08.569622  3177 net.cpp:137] Memory required for data: 56864512
I0620 17:19:08.569625  3177 layer_factory.hpp:77] Creating layer conv3
I0620 17:19:08.569646  3177 net.cpp:84] Creating Layer conv3
I0620 17:19:08.569649  3177 net.cpp:406] conv3 <- pool2
I0620 17:19:08.569654  3177 net.cpp:380] conv3 -> conv3
I0620 17:19:08.570650  3177 net.cpp:122] Setting up conv3
I0620 17:19:08.570659  3177 net.cpp:129] Top shape: 64 64 8 8 (262144)
I0620 17:19:08.570662  3177 net.cpp:137] Memory required for data: 57913088
I0620 17:19:08.570667  3177 layer_factory.hpp:77] Creating layer prelu3
I0620 17:19:08.570673  3177 net.cpp:84] Creating Layer prelu3
I0620 17:19:08.570677  3177 net.cpp:406] prelu3 <- conv3
I0620 17:19:08.570682  3177 net.cpp:367] prelu3 -> conv3 (in-place)
I0620 17:19:08.570752  3177 net.cpp:122] Setting up prelu3
I0620 17:19:08.570757  3177 net.cpp:129] Top shape: 64 64 8 8 (262144)
I0620 17:19:08.570760  3177 net.cpp:137] Memory required for data: 58961664
I0620 17:19:08.570765  3177 layer_factory.hpp:77] Creating layer pool3
I0620 17:19:08.570770  3177 net.cpp:84] Creating Layer pool3
I0620 17:19:08.570788  3177 net.cpp:406] pool3 <- conv3
I0620 17:19:08.570793  3177 net.cpp:380] pool3 -> pool3
I0620 17:19:08.570821  3177 net.cpp:122] Setting up pool3
I0620 17:19:08.570825  3177 net.cpp:129] Top shape: 64 64 4 4 (65536)
I0620 17:19:08.570828  3177 net.cpp:137] Memory required for data: 59223808
I0620 17:19:08.570832  3177 layer_factory.hpp:77] Creating layer conv4
I0620 17:19:08.570837  3177 net.cpp:84] Creating Layer conv4
I0620 17:19:08.570842  3177 net.cpp:406] conv4 <- pool3
I0620 17:19:08.570847  3177 net.cpp:380] conv4 -> conv4
I0620 17:19:08.572098  3177 net.cpp:122] Setting up conv4
I0620 17:19:08.572106  3177 net.cpp:129] Top shape: 64 128 3 3 (73728)
I0620 17:19:08.572110  3177 net.cpp:137] Memory required for data: 59518720
I0620 17:19:08.572115  3177 layer_factory.hpp:77] Creating layer prelu4
I0620 17:19:08.572120  3177 net.cpp:84] Creating Layer prelu4
I0620 17:19:08.572124  3177 net.cpp:406] prelu4 <- conv4
I0620 17:19:08.572129  3177 net.cpp:367] prelu4 -> conv4 (in-place)
I0620 17:19:08.572190  3177 net.cpp:122] Setting up prelu4
I0620 17:19:08.572196  3177 net.cpp:129] Top shape: 64 128 3 3 (73728)
I0620 17:19:08.572197  3177 net.cpp:137] Memory required for data: 59813632
I0620 17:19:08.572202  3177 layer_factory.hpp:77] Creating layer conv5
I0620 17:19:08.572207  3177 net.cpp:84] Creating Layer conv5
I0620 17:19:08.572211  3177 net.cpp:406] conv5 <- conv4
I0620 17:19:08.572216  3177 net.cpp:380] conv5 -> conv5
I0620 17:19:08.573381  3177 net.cpp:122] Setting up conv5
I0620 17:19:08.573386  3177 net.cpp:129] Top shape: 64 256 (16384)
I0620 17:19:08.573390  3177 net.cpp:137] Memory required for data: 59879168
I0620 17:19:08.573393  3177 layer_factory.hpp:77] Creating layer drop5
I0620 17:19:08.573400  3177 net.cpp:84] Creating Layer drop5
I0620 17:19:08.573402  3177 net.cpp:406] drop5 <- conv5
I0620 17:19:08.573406  3177 net.cpp:367] drop5 -> conv5 (in-place)
I0620 17:19:08.573424  3177 net.cpp:122] Setting up drop5
I0620 17:19:08.573429  3177 net.cpp:129] Top shape: 64 256 (16384)
I0620 17:19:08.573431  3177 net.cpp:137] Memory required for data: 59944704
I0620 17:19:08.573434  3177 layer_factory.hpp:77] Creating layer prelu5
I0620 17:19:08.573438  3177 net.cpp:84] Creating Layer prelu5
I0620 17:19:08.573441  3177 net.cpp:406] prelu5 <- conv5
I0620 17:19:08.573446  3177 net.cpp:367] prelu5 -> conv5 (in-place)
I0620 17:19:08.573496  3177 net.cpp:122] Setting up prelu5
I0620 17:19:08.573501  3177 net.cpp:129] Top shape: 64 256 (16384)
I0620 17:19:08.573504  3177 net.cpp:137] Memory required for data: 60010240
I0620 17:19:08.573508  3177 layer_factory.hpp:77] Creating layer conv5_prelu5_0_split
I0620 17:19:08.573513  3177 net.cpp:84] Creating Layer conv5_prelu5_0_split
I0620 17:19:08.573515  3177 net.cpp:406] conv5_prelu5_0_split <- conv5
I0620 17:19:08.573519  3177 net.cpp:380] conv5_prelu5_0_split -> conv5_prelu5_0_split_0
I0620 17:19:08.573524  3177 net.cpp:380] conv5_prelu5_0_split -> conv5_prelu5_0_split_1
I0620 17:19:08.573530  3177 net.cpp:380] conv5_prelu5_0_split -> conv5_prelu5_0_split_2
I0620 17:19:08.573562  3177 net.cpp:122] Setting up conv5_prelu5_0_split
I0620 17:19:08.573567  3177 net.cpp:129] Top shape: 64 256 (16384)
I0620 17:19:08.573570  3177 net.cpp:129] Top shape: 64 256 (16384)
I0620 17:19:08.573573  3177 net.cpp:129] Top shape: 64 256 (16384)
I0620 17:19:08.573576  3177 net.cpp:137] Memory required for data: 60206848
I0620 17:19:08.573580  3177 layer_factory.hpp:77] Creating layer conv6-1
I0620 17:19:08.573585  3177 net.cpp:84] Creating Layer conv6-1
I0620 17:19:08.573588  3177 net.cpp:406] conv6-1 <- conv5_prelu5_0_split_0
I0620 17:19:08.573595  3177 net.cpp:380] conv6-1 -> conv6-1
I0620 17:19:08.573663  3177 net.cpp:122] Setting up conv6-1
I0620 17:19:08.573668  3177 net.cpp:129] Top shape: 64 2 (128)
I0620 17:19:08.573670  3177 net.cpp:137] Memory required for data: 60207360
I0620 17:19:08.573678  3177 layer_factory.hpp:77] Creating layer cls_bridge
I0620 17:19:08.573719  3177 net.cpp:84] Creating Layer cls_bridge
I0620 17:19:08.573724  3177 net.cpp:406] cls_bridge <- conv6-1
I0620 17:19:08.573736  3177 net.cpp:406] cls_bridge <- label
I0620 17:19:08.573740  3177 net.cpp:380] cls_bridge -> conv6-1-valid
I0620 17:19:08.573750  3177 net.cpp:380] cls_bridge -> label-valid
I0620 17:19:08.573846  3177 net.cpp:122] Setting up cls_bridge
I0620 17:19:08.573853  3177 net.cpp:129] Top shape: 64 2 (128)
I0620 17:19:08.573856  3177 net.cpp:129] Top shape: 64 1 (64)
I0620 17:19:08.573859  3177 net.cpp:137] Memory required for data: 60208128
I0620 17:19:08.573863  3177 layer_factory.hpp:77] Creating layer conv6-1-valid_cls_bridge_0_split
I0620 17:19:08.573866  3177 net.cpp:84] Creating Layer conv6-1-valid_cls_bridge_0_split
I0620 17:19:08.573869  3177 net.cpp:406] conv6-1-valid_cls_bridge_0_split <- conv6-1-valid
I0620 17:19:08.573875  3177 net.cpp:380] conv6-1-valid_cls_bridge_0_split -> conv6-1-valid_cls_bridge_0_split_0
I0620 17:19:08.573880  3177 net.cpp:380] conv6-1-valid_cls_bridge_0_split -> conv6-1-valid_cls_bridge_0_split_1
I0620 17:19:08.573904  3177 net.cpp:122] Setting up conv6-1-valid_cls_bridge_0_split
I0620 17:19:08.573909  3177 net.cpp:129] Top shape: 64 2 (128)
I0620 17:19:08.573912  3177 net.cpp:129] Top shape: 64 2 (128)
I0620 17:19:08.573915  3177 net.cpp:137] Memory required for data: 60209152
I0620 17:19:08.573917  3177 layer_factory.hpp:77] Creating layer label-valid_cls_bridge_1_split
I0620 17:19:08.573921  3177 net.cpp:84] Creating Layer label-valid_cls_bridge_1_split
I0620 17:19:08.573925  3177 net.cpp:406] label-valid_cls_bridge_1_split <- label-valid
I0620 17:19:08.573928  3177 net.cpp:380] label-valid_cls_bridge_1_split -> label-valid_cls_bridge_1_split_0
I0620 17:19:08.573933  3177 net.cpp:380] label-valid_cls_bridge_1_split -> label-valid_cls_bridge_1_split_1
I0620 17:19:08.573956  3177 net.cpp:122] Setting up label-valid_cls_bridge_1_split
I0620 17:19:08.573961  3177 net.cpp:129] Top shape: 64 1 (64)
I0620 17:19:08.573964  3177 net.cpp:129] Top shape: 64 1 (64)
I0620 17:19:08.573966  3177 net.cpp:137] Memory required for data: 60209664
I0620 17:19:08.573969  3177 layer_factory.hpp:77] Creating layer ClassifyLoss
I0620 17:19:08.573974  3177 net.cpp:84] Creating Layer ClassifyLoss
I0620 17:19:08.573977  3177 net.cpp:406] ClassifyLoss <- conv6-1-valid_cls_bridge_0_split_0
I0620 17:19:08.573981  3177 net.cpp:406] ClassifyLoss <- label-valid_cls_bridge_1_split_0
…
