…
snapshot: 10000
snapshot_prefix: "./models/"
solver_mode: GPU
device_id: 0
net: "train24.prototxt"
train_state {
  level: 0
  stage: ""
}
I0615 19:54:46.588907 25551 solver.cpp:87] Creating training net from net file: train24.prototxt
I0615 19:54:46.589229 25551 net.cpp:51] Initializing net from parameters: 
name: "face_24c"
state {
  phase: TRAIN
  level: 0
  stage: ""
}
layer {
  name: "PythonLayer"
  type: "Python"
  top: "data"
  top: "label"
  top: "roi"
  top: "pts"
  python_param {
    module: "pythonLayer"
    layer: "Data_Layer_train"
  }
}
layer {
  name: "conv1"
  type: "Convolution"
  bottom: "data"
  top: "conv1"
  param {
    lr_mult: 0
    decay_mult: 0
  }
  param {
    lr_mult: 0
    decay_mult: 0
  }
  convolution_param {
    num_output: 28
    kernel_size: 3
    weight_filler {
      type: "gaussian"
      std: 0.0001
    }
    bias_filler {
      type: "constant"
      value: 0
    }
  }
}
layer {
  name: "relu1"
  type: "PReLU"
  bottom: "conv1"
  top: "conv1"
}
layer {
  name: "pool1"
  type: "Pooling"
  bottom: "conv1"
  top: "pool1"
  pooling_param {
    pool: MAX
    kernel_size: 3
    stride: 2
  }
}
layer {
  name: "conv2"
  type: "Convolution"
  bottom: "pool1"
  top: "conv2"
  param {
    lr_mult: 1
  }
  param {
    lr_mult: 2
  }
  convolution_param {
    num_output: 48
    kernel_size: 3
    weight_filler {
      type: "gaussian"
      std: 0.0001
    }
    bias_filler {
      type: "constant"
    }
  }
}
layer {
  name: "relu2"
  type: "PReLU"
  bottom: "conv2"
  top: "conv2"
}
layer {
  name: "pool2"
  type: "Pooling"
  bottom: "conv2"
  top: "pool2"
  pooling_param {
    pool: MAX
    kernel_size: 3
    stride: 2
  }
}
layer {
  name: "conv3"
  type: "Convolution"
  bottom: "pool2"
  top: "conv3"
  param {
    lr_mult: 1
    decay_mult: 1
  }
  param {
    lr_mult: 2
    decay_mult: 0
  }
  convolution_param {
    num_output: 64
    kernel_size: 2
    stride: 1
    weight_filler {
      type: "xavier"
    }
    bias_filler {
      type: "constant"
      value: 0
    }
  }
}
layer {
  name: "relu3"
  type: "PReLU"
  bottom: "conv3"
  top: "conv3"
}
layer {
  name: "fc4"
  type: "InnerProduct"
  bottom: "conv3"
  top: "fc4"
  param {
    lr_mult: 1
    decay_mult: 1
  }
  param {
    lr_mult: 2
    decay_mult: 0
  }
  inner_product_param {
    num_output: 128
    weight_filler {
      type: "xavier"
    }
    bias_filler {
      type: "constant"
      value: 0
    }
  }
}
layer {
  name: "relu4"
  type: "PReLU"
  bottom: "fc4"
  top: "fc4"
}
layer {
  name: "fc5-1"
  type: "InnerProduct"
  bottom: "fc4"
  top: "fc5-1"
  param {
    lr_mult: 1
    decay_mult: 1
  }
  param {
    lr_mult: 2
    decay_mult: 0
  }
  inner_product_param {
    num_output: 2
    weight_filler {
      type: "xavier"
    }
    bias_filler {
      type: "constant"
      value: 0
    }
  }
}
layer {
  name: "cls_bridge"
  type: "Python"
  bottom: "fc5-1"
  bottom: "label"
  top: "fc5-1-valid"
  top: "label-valid"
  python_param {
    module: "pythonLayer"
    layer: "cls_Layer"
  }
}
layer {
  name: "cls_loss"
  type: "SoftmaxWithLoss"
  bottom: "fc5-1-valid"
  bottom: "label-valid"
  top: "cls_loss"
  loss_weight: 1
  propagate_down: true
  propagate_down: false
}
layer {
  name: "cls_acc"
  type: "Accuracy"
  bottom: "fc5-1-valid"
  bottom: "label-valid"
  top: "cls_acc"
  include {
    phase: TRAIN
  }
}
layer {
  name: "fc5-2"
  type: "InnerProduct"
  bottom: "fc4"
  top: "fc5-2"
  param {
    lr_mult: 1
    decay_mult: 1
  }
  param {
    lr_mult: 2
    decay_mult: 0
  }
  inner_product_param {
    num_output: 4
    weight_filler {
      type: "xavier"
    }
    bias_filler {
      type: "constant"
      value: 0
    }
  }
}
layer {
  name: "roi_loss"
  type: "Python"
  bottom: "fc5-2"
  bottom: "roi"
  top: "roi_loss"
  loss_weight: 0.5
  python_param {
    module: "pythonLayer"
    layer: "regression_Layer"
  }
}
layer {
  name: "fc5-3"
  type: "InnerProduct"
  bottom: "fc4"
  top: "fc5-3"
  param {
    lr_mult: 1
    decay_mult: 1
  }
  param {
    lr_mult: 2
    decay_mult: 0
  }
  inner_product_param {
    num_output: 10
    weight_filler {
      type: "xavier"
    }
    bias_filler {
      type: "constant"
      value: 0
    }
  }
}
layer {
  name: "pts_loss"
  type: "Python"
  bottom: "fc5-3"
  bottom: "pts"
  top: "pts_loss"
  loss_weight: 0.5
  python_param {
    module: "pythonLayer"
    layer: "regression_Layer"
  }
}
I0615 19:54:46.589481 25551 layer_factory.hpp:77] Creating layer PythonLayer
I0615 19:54:46.998699 25551 net.cpp:84] Creating Layer PythonLayer
I0615 19:54:46.998736 25551 net.cpp:380] PythonLayer -> data
I0615 19:54:46.998786 25551 net.cpp:380] PythonLayer -> label
I0615 19:54:46.998808 25551 net.cpp:380] PythonLayer -> roi
I0615 19:54:46.998816 25551 net.cpp:380] PythonLayer -> pts
Start Reading Classify Data into Memory...

202  Classify Data have been read into Memory...
Start Reading Regression Data into Memory...

202  Regression Data have been read into Memory...
Start Reading pts-regression Data into Memory...

101  pts-regression Data have been read into Memory...
I0615 19:54:47.939961 25551 net.cpp:122] Setting up PythonLayer
I0615 19:54:47.940001 25551 net.cpp:129] Top shape: 64 3 24 24 (110592)
I0615 19:54:47.940023 25551 net.cpp:129] Top shape: 64 1 (64)
I0615 19:54:47.940028 25551 net.cpp:129] Top shape: 64 4 (256)
I0615 19:54:47.940032 25551 net.cpp:129] Top shape: 64 10 (640)
I0615 19:54:47.940050 25551 net.cpp:137] Memory required for data: 446208
I0615 19:54:47.940062 25551 layer_factory.hpp:77] Creating layer conv1
I0615 19:54:47.940109 25551 net.cpp:84] Creating Layer conv1
I0615 19:54:47.940130 25551 net.cpp:406] conv1 <- data
I0615 19:54:47.940153 25551 net.cpp:380] conv1 -> conv1
I0615 19:54:48.288621 25551 net.cpp:122] Setting up conv1
I0615 19:54:48.288657 25551 net.cpp:129] Top shape: 64 28 22 22 (867328)
I0615 19:54:48.288660 25551 net.cpp:137] Memory required for data: 3915520
I0615 19:54:48.288692 25551 layer_factory.hpp:77] Creating layer relu1
I0615 19:54:48.288715 25551 net.cpp:84] Creating Layer relu1
I0615 19:54:48.288719 25551 net.cpp:406] relu1 <- conv1
I0615 19:54:48.288738 25551 net.cpp:367] relu1 -> conv1 (in-place)
I0615 19:54:48.289393 25551 net.cpp:122] Setting up relu1
I0615 19:54:48.289418 25551 net.cpp:129] Top shape: 64 28 22 22 (867328)
I0615 19:54:48.289420 25551 net.cpp:137] Memory required for data: 7384832
I0615 19:54:48.289427 25551 layer_factory.hpp:77] Creating layer pool1
I0615 19:54:48.289449 25551 net.cpp:84] Creating Layer pool1
I0615 19:54:48.289453 25551 net.cpp:406] pool1 <- conv1
I0615 19:54:48.289458 25551 net.cpp:380] pool1 -> pool1
I0615 19:54:48.289522 25551 net.cpp:122] Setting up pool1
I0615 19:54:48.289527 25551 net.cpp:129] Top shape: 64 28 11 11 (216832)
I0615 19:54:48.289542 25551 net.cpp:137] Memory required for data: 8252160
I0615 19:54:48.289544 25551 layer_factory.hpp:77] Creating layer conv2
I0615 19:54:48.289567 25551 net.cpp:84] Creating Layer conv2
I0615 19:54:48.289571 25551 net.cpp:406] conv2 <- pool1
I0615 19:54:48.289589 25551 net.cpp:380] conv2 -> conv2
I0615 19:54:48.290796 25551 net.cpp:122] Setting up conv2
I0615 19:54:48.290819 25551 net.cpp:129] Top shape: 64 48 9 9 (248832)
I0615 19:54:48.290822 25551 net.cpp:137] Memory required for data: 9247488
I0615 19:54:48.290843 25551 layer_factory.hpp:77] Creating layer relu2
I0615 19:54:48.290848 25551 net.cpp:84] Creating Layer relu2
I0615 19:54:48.290851 25551 net.cpp:406] relu2 <- conv2
I0615 19:54:48.290869 25551 net.cpp:367] relu2 -> conv2 (in-place)
I0615 19:54:48.291502 25551 net.cpp:122] Setting up relu2
I0615 19:54:48.291512 25551 net.cpp:129] Top shape: 64 48 9 9 (248832)
I0615 19:54:48.291529 25551 net.cpp:137] Memory required for data: 10242816
I0615 19:54:48.291533 25551 layer_factory.hpp:77] Creating layer pool2
I0615 19:54:48.291539 25551 net.cpp:84] Creating Layer pool2
I0615 19:54:48.291543 25551 net.cpp:406] pool2 <- conv2
I0615 19:54:48.291546 25551 net.cpp:380] pool2 -> pool2
I0615 19:54:48.291586 25551 net.cpp:122] Setting up pool2
I0615 19:54:48.291591 25551 net.cpp:129] Top shape: 64 48 4 4 (49152)
I0615 19:54:48.291610 25551 net.cpp:137] Memory required for data: 10439424
I0615 19:54:48.291630 25551 layer_factory.hpp:77] Creating layer conv3
I0615 19:54:48.291636 25551 net.cpp:84] Creating Layer conv3
I0615 19:54:48.291640 25551 net.cpp:406] conv3 <- pool2
I0615 19:54:48.291646 25551 net.cpp:380] conv3 -> conv3
I0615 19:54:48.292917 25551 net.cpp:122] Setting up conv3
I0615 19:54:48.292940 25551 net.cpp:129] Top shape: 64 64 3 3 (36864)
I0615 19:54:48.292943 25551 net.cpp:137] Memory required for data: 10586880
I0615 19:54:48.292966 25551 layer_factory.hpp:77] Creating layer relu3
I0615 19:54:48.292971 25551 net.cpp:84] Creating Layer relu3
I0615 19:54:48.292974 25551 net.cpp:406] relu3 <- conv3
I0615 19:54:48.292991 25551 net.cpp:367] relu3 -> conv3 (in-place)
I0615 19:54:48.293099 25551 net.cpp:122] Setting up relu3
I0615 19:54:48.293104 25551 net.cpp:129] Top shape: 64 64 3 3 (36864)
I0615 19:54:48.293107 25551 net.cpp:137] Memory required for data: 10734336
I0615 19:54:48.293112 25551 layer_factory.hpp:77] Creating layer fc4
I0615 19:54:48.293128 25551 net.cpp:84] Creating Layer fc4
I0615 19:54:48.293130 25551 net.cpp:406] fc4 <- conv3
I0615 19:54:48.293134 25551 net.cpp:380] fc4 -> fc4
I0615 19:54:48.294030 25551 net.cpp:122] Setting up fc4
I0615 19:54:48.294039 25551 net.cpp:129] Top shape: 64 128 (8192)
I0615 19:54:48.294055 25551 net.cpp:137] Memory required for data: 10767104
I0615 19:54:48.294059 25551 layer_factory.hpp:77] Creating layer relu4
I0615 19:54:48.294078 25551 net.cpp:84] Creating Layer relu4
I0615 19:54:48.294082 25551 net.cpp:406] relu4 <- fc4
I0615 19:54:48.294086 25551 net.cpp:367] relu4 -> fc4 (in-place)
I0615 19:54:48.294137 25551 net.cpp:122] Setting up relu4
I0615 19:54:48.294142 25551 net.cpp:129] Top shape: 64 128 (8192)
I0615 19:54:48.294145 25551 net.cpp:137] Memory required for data: 10799872
I0615 19:54:48.294148 25551 layer_factory.hpp:77] Creating layer fc4_relu4_0_split
I0615 19:54:48.294152 25551 net.cpp:84] Creating Layer fc4_relu4_0_split
I0615 19:54:48.294154 25551 net.cpp:406] fc4_relu4_0_split <- fc4
I0615 19:54:48.294158 25551 net.cpp:380] fc4_relu4_0_split -> fc4_relu4_0_split_0
I0615 19:54:48.294162 25551 net.cpp:380] fc4_relu4_0_split -> fc4_relu4_0_split_1
I0615 19:54:48.294167 25551 net.cpp:380] fc4_relu4_0_split -> fc4_relu4_0_split_2
I0615 19:54:48.294230 25551 net.cpp:122] Setting up fc4_relu4_0_split
I0615 19:54:48.294235 25551 net.cpp:129] Top shape: 64 128 (8192)
I0615 19:54:48.294239 25551 net.cpp:129] Top shape: 64 128 (8192)
I0615 19:54:48.294241 25551 net.cpp:129] Top shape: 64 128 (8192)
I0615 19:54:48.294245 25551 net.cpp:137] Memory required for data: 10898176
I0615 19:54:48.294247 25551 layer_factory.hpp:77] Creating layer fc5-1
I0615 19:54:48.294252 25551 net.cpp:84] Creating Layer fc5-1
I0615 19:54:48.294255 25551 net.cpp:406] fc5-1 <- fc4_relu4_0_split_0
I0615 19:54:48.294260 25551 net.cpp:380] fc5-1 -> fc5-1
I0615 19:54:48.294324 25551 net.cpp:122] Setting up fc5-1
I0615 19:54:48.294328 25551 net.cpp:129] Top shape: 64 2 (128)
I0615 19:54:48.294332 25551 net.cpp:137] Memory required for data: 10898688
I0615 19:54:48.294335 25551 layer_factory.hpp:77] Creating layer cls_bridge
I0615 19:54:48.294400 25551 net.cpp:84] Creating Layer cls_bridge
I0615 19:54:48.294405 25551 net.cpp:406] cls_bridge <- fc5-1
I0615 19:54:48.294409 25551 net.cpp:406] cls_bridge <- label
I0615 19:54:48.294414 25551 net.cpp:380] cls_bridge -> fc5-1-valid
I0615 19:54:48.294419 25551 net.cpp:380] cls_bridge -> label-valid
I0615 19:54:48.294538 25551 net.cpp:122] Setting up cls_bridge
I0615 19:54:48.294544 25551 net.cpp:129] Top shape: 64 2 (128)
I0615 19:54:48.294561 25551 net.cpp:129] Top shape: 64 1 (64)
I0615 19:54:48.294564 25551 net.cpp:137] Memory required for data: 10899456
I0615 19:54:48.294567 25551 layer_factory.hpp:77] Creating layer fc5-1-valid_cls_bridge_0_split
I0615 19:54:48.294572 25551 net.cpp:84] Creating Layer fc5-1-valid_cls_bridge_0_split
I0615 19:54:48.294575 25551 net.cpp:406] fc5-1-valid_cls_bridge_0_split <- fc5-1-valid
I0615 19:54:48.294580 25551 net.cpp:380] fc5-1-valid_cls_bridge_0_split -> fc5-1-valid_cls_bridge_0_split_0
I0615 19:54:48.294596 25551 net.cpp:380] fc5-1-valid_cls_bridge_0_split -> fc5-1-valid_cls_bridge_0_split_1
I0615 19:54:48.294651 25551 net.cpp:122] Setting up fc5-1-valid_cls_bridge_0_split
I0615 19:54:48.294656 25551 net.cpp:129] Top shape: 64 2 (128)
I0615 19:54:48.294672 25551 net.cpp:129] Top shape: 64 2 (128)
I0615 19:54:48.294673 25551 net.cpp:137] Memory required for data: 10900480
I0615 19:54:48.294675 25551 layer_factory.hpp:77] Creating layer label-valid_cls_bridge_1_split
I0615 19:54:48.294679 25551 net.cpp:84] Creating Layer label-valid_cls_bridge_1_split
I0615 19:54:48.294697 25551 net.cpp:406] label-valid_cls_bridge_1_split <- label-valid
I0615 19:54:48.294699 25551 net.cpp:380] label-valid_cls_bridge_1_split -> label-valid_cls_bridge_1_split_0
I0615 19:54:48.294704 25551 net.cpp:380] label-valid_cls_bridge_1_split -> label-valid_cls_bridge_1_split_1
I0615 19:54:48.294728 25551 net.cpp:122] Setting up label-valid_cls_bridge_1_split
I0615 19:54:48.294733 25551 net.cpp:129] Top shape: 64 1 (64)
I0615 19:54:48.294749 25551 net.cpp:129] Top shape: 64 1 (64)
I0615 19:54:48.294749 25551 net.cpp:137] Memory required for data: 10900992
I0615 19:54:48.294751 25551 layer_factory.hpp:77] Creating layer cls_loss
I0615 19:54:48.294772 25551 net.cpp:84] Creating Layer cls_loss
I0615 19:54:48.294775 25551 net.cpp:406] cls_loss <- fc5-1-valid_cls_bridge_0_split_0
I0615 19:54:48.294780 25551 net.cpp:406] cls_loss <- label-valid_cls_bridge_1_split_0
I0615 19:54:48.294783 25551 net.cpp:380] cls_loss -> cls_loss
…
