…
snapshot: 5000
snapshot_prefix: "./models/"
solver_mode: GPU
device_id: 0
net: "train24.prototxt"
train_state {
  level: 0
  stage: ""
}
I0621 17:25:29.666021  3279 solver.cpp:87] Creating training net from net file: train24.prototxt
I0621 17:25:29.666354  3279 net.cpp:51] Initializing net from parameters: 
name: "face_24c"
state {
  phase: TRAIN
  level: 0
  stage: ""
}
layer {
  name: "PythonLayer"
  type: "Python"
  top: "data"
  top: "label"
  top: "roi"
  top: "pts"
  python_param {
    module: "pythonLayer"
    layer: "Data_Layer_train"
  }
}
layer {
  name: "conv1"
  type: "Convolution"
  bottom: "data"
  top: "conv1"
  param {
    lr_mult: 1
  }
  param {
    lr_mult: 2
  }
  convolution_param {
    num_output: 28
    kernel_size: 3
    stride: 1
    weight_filler {
      type: "xavier"
    }
    bias_filler {
      type: "constant"
      value: 0
    }
  }
}
layer {
  name: "prelu1"
  type: "PReLU"
  bottom: "conv1"
  top: "conv1"
}
layer {
  name: "pool1"
  type: "Pooling"
  bottom: "conv1"
  top: "pool1"
  pooling_param {
    pool: MAX
    kernel_size: 3
    stride: 2
  }
}
layer {
  name: "conv2"
  type: "Convolution"
  bottom: "pool1"
  top: "conv2"
  param {
    lr_mult: 1
  }
  param {
    lr_mult: 2
  }
  convolution_param {
    num_output: 48
    kernel_size: 3
    stride: 1
    weight_filler {
      type: "xavier"
    }
    bias_filler {
      type: "constant"
      value: 0
    }
  }
}
layer {
  name: "prelu2"
  type: "PReLU"
  bottom: "conv2"
  top: "conv2"
}
layer {
  name: "pool2"
  type: "Pooling"
  bottom: "conv2"
  top: "pool2"
  pooling_param {
    pool: MAX
    kernel_size: 3
    stride: 2
  }
}
layer {
  name: "conv3"
  type: "Convolution"
  bottom: "pool2"
  top: "conv3"
  param {
    lr_mult: 1
    decay_mult: 1
  }
  param {
    lr_mult: 2
    decay_mult: 0
  }
  convolution_param {
    num_output: 64
    kernel_size: 2
    stride: 1
    weight_filler {
      type: "xavier"
    }
    bias_filler {
      type: "constant"
      value: 0
    }
  }
}
layer {
  name: "prelu3"
  type: "PReLU"
  bottom: "conv3"
  top: "conv3"
}
layer {
  name: "conv4"
  type: "InnerProduct"
  bottom: "conv3"
  top: "conv4"
  param {
    lr_mult: 1
    decay_mult: 1
  }
  param {
    lr_mult: 2
    decay_mult: 0
  }
  inner_product_param {
    num_output: 128
    weight_filler {
      type: "xavier"
    }
    bias_filler {
      type: "constant"
      value: 0
    }
  }
}
layer {
  name: "prelu4"
  type: "PReLU"
  bottom: "conv4"
  top: "conv4"
}
layer {
  name: "conv5-1"
  type: "InnerProduct"
  bottom: "conv4"
  top: "conv5-1"
  param {
    lr_mult: 1
    decay_mult: 1
  }
  param {
    lr_mult: 2
    decay_mult: 0
  }
  inner_product_param {
    num_output: 2
    weight_filler {
      type: "xavier"
    }
    bias_filler {
      type: "constant"
      value: 0
    }
  }
}
layer {
  name: "cls_bridge"
  type: "Python"
  bottom: "conv5-1"
  bottom: "label"
  top: "conv5-1-valid"
  top: "label-valid"
  python_param {
    module: "pythonLayer"
    layer: "cls_Layer"
  }
}
layer {
  name: "cls_loss"
  type: "SoftmaxWithLoss"
  bottom: "conv5-1-valid"
  bottom: "label-valid"
  top: "cls_loss"
  loss_weight: 1
  propagate_down: true
  propagate_down: false
}
layer {
  name: "cls_acc"
  type: "Accuracy"
  bottom: "conv5-1-valid"
  bottom: "label-valid"
  top: "cls_acc"
  include {
    phase: TRAIN
  }
}
layer {
  name: "conv5-2"
  type: "InnerProduct"
  bottom: "conv4"
  top: "conv5-2"
  param {
    lr_mult: 1
    decay_mult: 1
  }
  param {
    lr_mult: 2
    decay_mult: 0
  }
  inner_product_param {
    num_output: 4
    weight_filler {
      type: "xavier"
    }
    bias_filler {
      type: "constant"
      value: 0
    }
  }
}
layer {
  name: "roi_bridge"
  type: "Python"
  bottom: "conv5-2"
  bottom: "roi"
  top: "conv5-2-valid"
  top: "roi-valid"
  propagate_down: true
  propagate_down: false
  python_param {
    module: "pythonLayer"
    layer: "roi_filter_Layer"
  }
}
layer {
  name: "roi_loss"
  type: "EuclideanLoss"
  bottom: "conv5-2-valid"
  bottom: "roi-valid"
  top: "roi_loss"
  loss_weight: 0.5
  propagate_down: true
  propagate_down: false
}
layer {
  name: "conv5-3"
  type: "InnerProduct"
  bottom: "conv4"
  top: "conv5-3"
  param {
    lr_mult: 1
    decay_mult: 1
  }
  param {
    lr_mult: 2
    decay_mult: 0
  }
  inner_product_param {
    num_output: 10
    weight_filler {
      type: "xavier"
    }
    bias_filler {
      type: "constant"
      value: 0
    }
  }
}
layer {
  name: "pts_bridge"
  type: "Python"
  bottom: "conv5-3"
  bottom: "pts"
  top: "conv5-3-valid"
  top: "pts-valid"
  propagate_down: true
  propagate_down: false
  python_param {
    module: "pythonLayer"
    layer: "pts_filter_Layer"
  }
}
layer {
  name: "pts_loss"
  type: "EuclideanLoss"
  bottom: "conv5-3-valid"
  bottom: "pts-valid"
  top: "pts_loss"
  loss_weight: 0.5
  propagate_down: true
  propagate_down: false
}
I0621 17:25:29.666628  3279 layer_factory.hpp:77] Creating layer PythonLayer
I0621 17:25:30.109601  3279 net.cpp:84] Creating Layer PythonLayer
I0621 17:25:30.109640  3279 net.cpp:380] PythonLayer -> data
I0621 17:25:30.109655  3279 net.cpp:380] PythonLayer -> label
I0621 17:25:30.109663  3279 net.cpp:380] PythonLayer -> roi
I0621 17:25:30.109668  3279 net.cpp:380] PythonLayer -> pts
Start Reading Classify Data into Memory...

20000  Classify Data have been read into Memory...
Start Reading Regression Data into Memory...

10000  Regression Data have been read into Memory...
Start Reading pts-regression Data into Memory...

10000  pts-regression Data have been read into Memory...
I0621 17:26:23.234318  3279 net.cpp:122] Setting up PythonLayer
I0621 17:26:23.234380  3279 net.cpp:129] Top shape: 64 3 24 24 (110592)
I0621 17:26:23.234386  3279 net.cpp:129] Top shape: 64 1 (64)
I0621 17:26:23.234405  3279 net.cpp:129] Top shape: 64 4 (256)
I0621 17:26:23.234407  3279 net.cpp:129] Top shape: 64 10 (640)
I0621 17:26:23.234411  3279 net.cpp:137] Memory required for data: 446208
I0621 17:26:23.234419  3279 layer_factory.hpp:77] Creating layer conv1
I0621 17:26:23.234441  3279 net.cpp:84] Creating Layer conv1
I0621 17:26:23.234458  3279 net.cpp:406] conv1 <- data
I0621 17:26:23.234469  3279 net.cpp:380] conv1 -> conv1
I0621 17:26:23.573097  3279 net.cpp:122] Setting up conv1
I0621 17:26:23.573137  3279 net.cpp:129] Top shape: 64 28 22 22 (867328)
I0621 17:26:23.573140  3279 net.cpp:137] Memory required for data: 3915520
I0621 17:26:23.573174  3279 layer_factory.hpp:77] Creating layer prelu1
I0621 17:26:23.573197  3279 net.cpp:84] Creating Layer prelu1
I0621 17:26:23.573215  3279 net.cpp:406] prelu1 <- conv1
I0621 17:26:23.573218  3279 net.cpp:367] prelu1 -> conv1 (in-place)
I0621 17:26:23.573846  3279 net.cpp:122] Setting up prelu1
I0621 17:26:23.573858  3279 net.cpp:129] Top shape: 64 28 22 22 (867328)
I0621 17:26:23.573874  3279 net.cpp:137] Memory required for data: 7384832
I0621 17:26:23.573880  3279 layer_factory.hpp:77] Creating layer pool1
I0621 17:26:23.573886  3279 net.cpp:84] Creating Layer pool1
I0621 17:26:23.573891  3279 net.cpp:406] pool1 <- conv1
I0621 17:26:23.573895  3279 net.cpp:380] pool1 -> pool1
I0621 17:26:23.573930  3279 net.cpp:122] Setting up pool1
I0621 17:26:23.573935  3279 net.cpp:129] Top shape: 64 28 11 11 (216832)
I0621 17:26:23.573937  3279 net.cpp:137] Memory required for data: 8252160
I0621 17:26:23.573940  3279 layer_factory.hpp:77] Creating layer conv2
I0621 17:26:23.573948  3279 net.cpp:84] Creating Layer conv2
I0621 17:26:23.573951  3279 net.cpp:406] conv2 <- pool1
I0621 17:26:23.573956  3279 net.cpp:380] conv2 -> conv2
I0621 17:26:23.575143  3279 net.cpp:122] Setting up conv2
I0621 17:26:23.575167  3279 net.cpp:129] Top shape: 64 48 9 9 (248832)
I0621 17:26:23.575170  3279 net.cpp:137] Memory required for data: 9247488
I0621 17:26:23.575177  3279 layer_factory.hpp:77] Creating layer prelu2
I0621 17:26:23.575182  3279 net.cpp:84] Creating Layer prelu2
I0621 17:26:23.575186  3279 net.cpp:406] prelu2 <- conv2
I0621 17:26:23.575189  3279 net.cpp:367] prelu2 -> conv2 (in-place)
I0621 17:26:23.575789  3279 net.cpp:122] Setting up prelu2
I0621 17:26:23.575798  3279 net.cpp:129] Top shape: 64 48 9 9 (248832)
I0621 17:26:23.575814  3279 net.cpp:137] Memory required for data: 10242816
I0621 17:26:23.575819  3279 layer_factory.hpp:77] Creating layer pool2
I0621 17:26:23.575824  3279 net.cpp:84] Creating Layer pool2
I0621 17:26:23.575827  3279 net.cpp:406] pool2 <- conv2
I0621 17:26:23.575830  3279 net.cpp:380] pool2 -> pool2
I0621 17:26:23.575870  3279 net.cpp:122] Setting up pool2
I0621 17:26:23.575875  3279 net.cpp:129] Top shape: 64 48 4 4 (49152)
I0621 17:26:23.575891  3279 net.cpp:137] Memory required for data: 10439424
I0621 17:26:23.575893  3279 layer_factory.hpp:77] Creating layer conv3
I0621 17:26:23.575899  3279 net.cpp:84] Creating Layer conv3
I0621 17:26:23.575902  3279 net.cpp:406] conv3 <- pool2
I0621 17:26:23.575906  3279 net.cpp:380] conv3 -> conv3
I0621 17:26:23.577057  3279 net.cpp:122] Setting up conv3
I0621 17:26:23.577066  3279 net.cpp:129] Top shape: 64 64 3 3 (36864)
I0621 17:26:23.577069  3279 net.cpp:137] Memory required for data: 10586880
I0621 17:26:23.577075  3279 layer_factory.hpp:77] Creating layer prelu3
I0621 17:26:23.577080  3279 net.cpp:84] Creating Layer prelu3
I0621 17:26:23.577083  3279 net.cpp:406] prelu3 <- conv3
I0621 17:26:23.577088  3279 net.cpp:367] prelu3 -> conv3 (in-place)
I0621 17:26:23.577153  3279 net.cpp:122] Setting up prelu3
I0621 17:26:23.577158  3279 net.cpp:129] Top shape: 64 64 3 3 (36864)
I0621 17:26:23.577162  3279 net.cpp:137] Memory required for data: 10734336
I0621 17:26:23.577183  3279 layer_factory.hpp:77] Creating layer conv4
I0621 17:26:23.577189  3279 net.cpp:84] Creating Layer conv4
I0621 17:26:23.577215  3279 net.cpp:406] conv4 <- conv3
I0621 17:26:23.577219  3279 net.cpp:380] conv4 -> conv4
I0621 17:26:23.578109  3279 net.cpp:122] Setting up conv4
I0621 17:26:23.578117  3279 net.cpp:129] Top shape: 64 128 (8192)
I0621 17:26:23.578135  3279 net.cpp:137] Memory required for data: 10767104
I0621 17:26:23.578138  3279 layer_factory.hpp:77] Creating layer prelu4
I0621 17:26:23.578143  3279 net.cpp:84] Creating Layer prelu4
I0621 17:26:23.578146  3279 net.cpp:406] prelu4 <- conv4
I0621 17:26:23.578150  3279 net.cpp:367] prelu4 -> conv4 (in-place)
I0621 17:26:23.578214  3279 net.cpp:122] Setting up prelu4
I0621 17:26:23.578219  3279 net.cpp:129] Top shape: 64 128 (8192)
I0621 17:26:23.578222  3279 net.cpp:137] Memory required for data: 10799872
I0621 17:26:23.578224  3279 layer_factory.hpp:77] Creating layer conv4_prelu4_0_split
I0621 17:26:23.578229  3279 net.cpp:84] Creating Layer conv4_prelu4_0_split
I0621 17:26:23.578233  3279 net.cpp:406] conv4_prelu4_0_split <- conv4
I0621 17:26:23.578235  3279 net.cpp:380] conv4_prelu4_0_split -> conv4_prelu4_0_split_0
I0621 17:26:23.578240  3279 net.cpp:380] conv4_prelu4_0_split -> conv4_prelu4_0_split_1
I0621 17:26:23.578244  3279 net.cpp:380] conv4_prelu4_0_split -> conv4_prelu4_0_split_2
I0621 17:26:23.578275  3279 net.cpp:122] Setting up conv4_prelu4_0_split
I0621 17:26:23.578279  3279 net.cpp:129] Top shape: 64 128 (8192)
I0621 17:26:23.578282  3279 net.cpp:129] Top shape: 64 128 (8192)
I0621 17:26:23.578284  3279 net.cpp:129] Top shape: 64 128 (8192)
I0621 17:26:23.578286  3279 net.cpp:137] Memory required for data: 10898176
I0621 17:26:23.578289  3279 layer_factory.hpp:77] Creating layer conv5-1
I0621 17:26:23.578292  3279 net.cpp:84] Creating Layer conv5-1
I0621 17:26:23.578294  3279 net.cpp:406] conv5-1 <- conv4_prelu4_0_split_0
I0621 17:26:23.578299  3279 net.cpp:380] conv5-1 -> conv5-1
I0621 17:26:23.578399  3279 net.cpp:122] Setting up conv5-1
I0621 17:26:23.578403  3279 net.cpp:129] Top shape: 64 2 (128)
I0621 17:26:23.578405  3279 net.cpp:137] Memory required for data: 10898688
I0621 17:26:23.578424  3279 layer_factory.hpp:77] Creating layer cls_bridge
I0621 17:26:23.578503  3279 net.cpp:84] Creating Layer cls_bridge
I0621 17:26:23.578507  3279 net.cpp:406] cls_bridge <- conv5-1
I0621 17:26:23.578524  3279 net.cpp:406] cls_bridge <- label
I0621 17:26:23.578528  3279 net.cpp:380] cls_bridge -> conv5-1-valid
I0621 17:26:23.578533  3279 net.cpp:380] cls_bridge -> label-valid
I0621 17:26:23.578637  3279 net.cpp:122] Setting up cls_bridge
I0621 17:26:23.578644  3279 net.cpp:129] Top shape: 64 2 (128)
I0621 17:26:23.578661  3279 net.cpp:129] Top shape: 64 1 (64)
I0621 17:26:23.578665  3279 net.cpp:137] Memory required for data: 10899456
I0621 17:26:23.578666  3279 layer_factory.hpp:77] Creating layer conv5-1-valid_cls_bridge_0_split
I0621 17:26:23.578671  3279 net.cpp:84] Creating Layer conv5-1-valid_cls_bridge_0_split
I0621 17:26:23.578675  3279 net.cpp:406] conv5-1-valid_cls_bridge_0_split <- conv5-1-valid
I0621 17:26:23.578678  3279 net.cpp:380] conv5-1-valid_cls_bridge_0_split -> conv5-1-valid_cls_bridge_0_split_0
I0621 17:26:23.578685  3279 net.cpp:380] conv5-1-valid_cls_bridge_0_split -> conv5-1-valid_cls_bridge_0_split_1
I0621 17:26:23.578708  3279 net.cpp:122] Setting up conv5-1-valid_cls_bridge_0_split
I0621 17:26:23.578713  3279 net.cpp:129] Top shape: 64 2 (128)
I0621 17:26:23.578716  3279 net.cpp:129] Top shape: 64 2 (128)
I0621 17:26:23.578719  3279 net.cpp:137] Memory required for data: 10900480
I0621 17:26:23.578722  3279 layer_factory.hpp:77] Creating layer label-valid_cls_bridge_1_split
I0621 17:26:23.578725  3279 net.cpp:84] Creating Layer label-valid_cls_bridge_1_split
I0621 17:26:23.578728  3279 net.cpp:406] label-valid_cls_bridge_1_split <- label-valid
I0621 17:26:23.578732  3279 net.cpp:380] label-valid_cls_bridge_1_split -> label-valid_cls_bridge_1_split_0
I0621 17:26:23.578737  3279 net.cpp:380] label-valid_cls_bridge_1_split -> label-valid_cls_bridge_1_split_1
I0621 17:26:23.578758  3279 net.cpp:122] Setting up label-valid_cls_bridge_1_split
I0621 17:26:23.578769  3279 net.cpp:129] Top shape: 64 1 (64)
I0621 17:26:23.578773  3279 net.cpp:129] Top shape: 64 1 (64)
I0621 17:26:23.578775  3279 net.cpp:137] Memory required for data: 10900992
I0621 17:26:23.578778  3279 layer_factory.hpp:77] Creating layer cls_loss
I0621 17:26:23.578799  3279 net.cpp:84] Creating Layer cls_loss
I0621 17:26:23.578802  3279 net.cpp:406] cls_loss <- conv5-1-valid_cls_bridge_0_split_0
I0621 17:26:23.578806  3279 net.cpp:406] cls_loss <- label-valid_cls_bridge_1_split_0
I0621 17:26:23.578810  3279 net.cpp:380] cls_loss -> cls_loss
…
I0621 17:26:23.579090  3279 net.cpp:380] cls_acc -> cls_acc
I0621 17:26:23.579098  3279 net.cpp:122] Setting up cls_acc
I0621 17:26:23.579102  3279 net.cpp:129] Top shape: (1)
I0621 17:26:23.579105  3279 net.cpp:137] Memory required for data: 10901000
I0621 17:26:23.579108  3279 layer_factory.hpp:77] Creating layer conv5-2
I0621 17:26:23.579113  3279 net.cpp:84] Creating Layer conv5-2
I0621 17:26:23.579116  3279 net.cpp:406] conv5-2 <- conv4_prelu4_0_split_1
I0621 17:26:23.579120  3279 net.cpp:380] conv5-2 -> conv5-2
I0621 17:26:23.579196  3279 net.cpp:122] Setting up conv5-2
I0621 17:26:23.579201  3279 net.cpp:129] Top shape: 64 4 (256)
I0621 17:26:23.579205  3279 net.cpp:137] Memory required for data: 10902024
I0621 17:26:23.579210  3279 layer_factory.hpp:77] Creating layer roi_bridge
I0621 17:26:23.579226  3279 net.cpp:84] Creating Layer roi_bridge
I0621 17:26:23.579231  3279 net.cpp:406] roi_bridge <- conv5-2
I0621 17:26:23.579236  3279 net.cpp:406] roi_bridge <- roi
I0621 17:26:23.579239  3279 net.cpp:380] roi_bridge -> conv5-2-valid
I0621 17:26:23.579244  3279 net.cpp:380] roi_bridge -> roi-valid
I0621 17:26:23.579308  3279 net.cpp:122] Setting up roi_bridge
I0621 17:26:23.579315  3279 net.cpp:129] Top shape: 64 4 (256)
I0621 17:26:23.579319  3279 net.cpp:129] Top shape: 64 4 (256)
I0621 17:26:23.579322  3279 net.cpp:137] Memory required for data: 10904072
I0621 17:26:23.579325  3279 layer_factory.hpp:77] Creating layer roi_loss
I0621 17:26:23.579330  3279 net.cpp:84] Creating Layer roi_loss
I0621 17:26:23.579334  3279 net.cpp:406] roi_loss <- conv5-2-valid
I0621 17:26:23.579337  3279 net.cpp:406] roi_loss <- roi-valid
I0621 17:26:23.579341  3279 net.cpp:380] roi_loss -> roi_loss
I0621 17:26:23.579365  3279 net.cpp:122] Setting up roi_loss
I0621 17:26:23.579370  3279 net.cpp:129] Top shape: (1)
I0621 17:26:23.579373  3279 net.cpp:132]     with loss weight 0.5
I0621 17:26:23.579378  3279 net.cpp:137] Memory required for data: 10904076
I0621 17:26:23.579380  3279 layer_factory.hpp:77] Creating layer conv5-3
I0621 17:26:23.579386  3279 net.cpp:84] Creating Layer conv5-3
I0621 17:26:23.579390  3279 net.cpp:406] conv5-3 <- conv4_prelu4_0_split_2
I0621 17:26:23.579393  3279 net.cpp:380] conv5-3 -> conv5-3
I0621 17:26:23.579471  3279 net.cpp:122] Setting up conv5-3
I0621 17:26:23.579478  3279 net.cpp:129] Top shape: 64 10 (640)
I0621 17:26:23.579479  3279 net.cpp:137] Memory required for data: 10906636
I0621 17:26:23.579486  3279 layer_factory.hpp:77] Creating layer pts_bridge
I0621 17:26:23.579501  3279 net.cpp:84] Creating Layer pts_bridge
I0621 17:26:23.579505  3279 net.cpp:406] pts_bridge <- conv5-3
I0621 17:26:23.579509  3279 net.cpp:406] pts_bridge <- pts
I0621 17:26:23.579519  3279 net.cpp:380] pts_bridge -> conv5-3-valid
I0621 17:26:23.579524  3279 net.cpp:380] pts_bridge -> pts-valid
I0621 17:26:23.579583  3279 net.cpp:122] Setting up pts_bridge
I0621 17:26:23.579597  3279 net.cpp:129] Top shape: 64 10 (640)
I0621 17:26:23.579601  3279 net.cpp:129] Top shape: 64 10 (640)
I0621 17:26:23.579603  3279 net.cpp:137] Memory required for data: 10911756
I0621 17:26:23.579607  3279 layer_factory.hpp:77] Creating layer pts_loss
I0621 17:26:23.579612  3279 net.cpp:84] Creating Layer pts_loss
I0621 17:26:23.579614  3279 net.cpp:406] pts_loss <- conv5-3-valid
I0621 17:26:23.579618  3279 net.cpp:406] pts_loss <- pts-valid
I0621 17:26:23.579622  3279 net.cpp:380] pts_loss -> pts_loss
…
