…
snapshot: 5000
snapshot_prefix: "./models/"
solver_mode: GPU
device_id: 0
net: "train24.prototxt"
train_state {
  level: 0
  stage: ""
}
I0620 18:57:24.945044  6296 solver.cpp:87] Creating training net from net file: train24.prototxt
I0620 18:57:24.945355  6296 net.cpp:51] Initializing net from parameters: 
name: "face_24c"
state {
  phase: TRAIN
  level: 0
  stage: ""
}
layer {
  name: "PythonLayer"
  type: "Python"
  top: "data"
  top: "label"
  top: "roi"
  top: "pts"
  python_param {
    module: "pythonLayer"
    layer: "Data_Layer_train"
  }
}
layer {
  name: "conv1"
  type: "Convolution"
  bottom: "data"
  top: "conv1"
  param {
    lr_mult: 1
  }
  param {
    lr_mult: 2
  }
  convolution_param {
    num_output: 28
    kernel_size: 3
    stride: 1
    weight_filler {
      type: "xavier"
    }
    bias_filler {
      type: "constant"
      value: 0
    }
  }
}
layer {
  name: "prelu1"
  type: "PReLU"
  bottom: "conv1"
  top: "conv1"
}
layer {
  name: "pool1"
  type: "Pooling"
  bottom: "conv1"
  top: "pool1"
  pooling_param {
    pool: MAX
    kernel_size: 3
    stride: 2
  }
}
layer {
  name: "conv2"
  type: "Convolution"
  bottom: "pool1"
  top: "conv2"
  param {
    lr_mult: 1
  }
  param {
    lr_mult: 2
  }
  convolution_param {
    num_output: 48
    kernel_size: 3
    stride: 1
    weight_filler {
      type: "xavier"
    }
    bias_filler {
      type: "constant"
      value: 0
    }
  }
}
layer {
  name: "prelu2"
  type: "PReLU"
  bottom: "conv2"
  top: "conv2"
}
layer {
  name: "pool2"
  type: "Pooling"
  bottom: "conv2"
  top: "pool2"
  pooling_param {
    pool: MAX
    kernel_size: 3
    stride: 2
  }
}
layer {
  name: "conv3"
  type: "Convolution"
  bottom: "pool2"
  top: "conv3"
  param {
    lr_mult: 1
    decay_mult: 1
  }
  param {
    lr_mult: 2
    decay_mult: 0
  }
  convolution_param {
    num_output: 64
    kernel_size: 2
    stride: 1
    weight_filler {
      type: "xavier"
    }
    bias_filler {
      type: "constant"
      value: 0
    }
  }
}
layer {
  name: "prelu3"
  type: "PReLU"
  bottom: "conv3"
  top: "conv3"
}
layer {
  name: "conv4"
  type: "InnerProduct"
  bottom: "conv3"
  top: "conv4"
  param {
    lr_mult: 1
    decay_mult: 1
  }
  param {
    lr_mult: 2
    decay_mult: 0
  }
  inner_product_param {
    num_output: 128
    weight_filler {
      type: "xavier"
    }
    bias_filler {
      type: "constant"
      value: 0
    }
  }
}
layer {
  name: "prelu4"
  type: "PReLU"
  bottom: "conv4"
  top: "conv4"
}
layer {
  name: "conv5-1"
  type: "InnerProduct"
  bottom: "conv4"
  top: "conv5-1"
  param {
    lr_mult: 1
    decay_mult: 1
  }
  param {
    lr_mult: 2
    decay_mult: 0
  }
  inner_product_param {
    num_output: 2
    weight_filler {
      type: "xavier"
    }
    bias_filler {
      type: "constant"
      value: 0
    }
  }
}
layer {
  name: "cls_bridge"
  type: "Python"
  bottom: "conv5-1"
  bottom: "label"
  top: "conv5-1-valid"
  top: "label-valid"
  python_param {
    module: "pythonLayer"
    layer: "cls_Layer"
  }
}
layer {
  name: "cls_loss"
  type: "SoftmaxWithLoss"
  bottom: "conv5-1-valid"
  bottom: "label-valid"
  top: "cls_loss"
  loss_weight: 1
  propagate_down: true
  propagate_down: false
}
layer {
  name: "cls_acc"
  type: "Accuracy"
  bottom: "conv5-1-valid"
  bottom: "label-valid"
  top: "cls_acc"
  include {
    phase: TRAIN
  }
}
layer {
  name: "conv5-2"
  type: "InnerProduct"
  bottom: "conv4"
  top: "conv5-2"
  param {
    lr_mult: 1
    decay_mult: 1
  }
  param {
    lr_mult: 2
    decay_mult: 0
  }
  inner_product_param {
    num_output: 4
    weight_filler {
      type: "xavier"
    }
    bias_filler {
      type: "constant"
      value: 0
    }
  }
}
layer {
  name: "roi_loss"
  type: "Python"
  bottom: "conv5-2"
  bottom: "roi"
  top: "roi_loss"
  loss_weight: 0
  python_param {
    module: "pythonLayer"
    layer: "regression_Layer"
  }
}
layer {
  name: "conv5-3"
  type: "InnerProduct"
  bottom: "conv4"
  top: "conv5-3"
  param {
    lr_mult: 1
    decay_mult: 1
  }
  param {
    lr_mult: 2
    decay_mult: 0
  }
  inner_product_param {
    num_output: 10
    weight_filler {
      type: "xavier"
    }
    bias_filler {
      type: "constant"
      value: 0
    }
  }
}
layer {
  name: "pts_loss"
  type: "Python"
  bottom: "conv5-3"
  bottom: "pts"
  top: "pts_loss"
  loss_weight: 0
  python_param {
    module: "pythonLayer"
    layer: "regression_Layer"
  }
}
I0620 18:57:24.945611  6296 layer_factory.hpp:77] Creating layer PythonLayer
I0620 18:57:25.359400  6296 net.cpp:84] Creating Layer PythonLayer
I0620 18:57:25.359437  6296 net.cpp:380] PythonLayer -> data
I0620 18:57:25.359467  6296 net.cpp:380] PythonLayer -> label
I0620 18:57:25.359490  6296 net.cpp:380] PythonLayer -> roi
I0620 18:57:25.359495  6296 net.cpp:380] PythonLayer -> pts
Start Reading Classify Data into Memory...

20000  Classify Data have been read into Memory...
Start Reading Regression Data into Memory...

10000  Regression Data have been read into Memory...
Start Reading pts-regression Data into Memory...

10000  pts-regression Data have been read into Memory...
I0620 18:58:16.884855  6296 net.cpp:122] Setting up PythonLayer
I0620 18:58:16.884922  6296 net.cpp:129] Top shape: 64 3 24 24 (110592)
I0620 18:58:16.884928  6296 net.cpp:129] Top shape: 64 1 (64)
I0620 18:58:16.884945  6296 net.cpp:129] Top shape: 64 4 (256)
I0620 18:58:16.884948  6296 net.cpp:129] Top shape: 64 10 (640)
I0620 18:58:16.884953  6296 net.cpp:137] Memory required for data: 446208
I0620 18:58:16.884977  6296 layer_factory.hpp:77] Creating layer conv1
I0620 18:58:16.885011  6296 net.cpp:84] Creating Layer conv1
I0620 18:58:16.885030  6296 net.cpp:406] conv1 <- data
I0620 18:58:16.885053  6296 net.cpp:380] conv1 -> conv1
I0620 18:58:17.213119  6296 net.cpp:122] Setting up conv1
I0620 18:58:17.213156  6296 net.cpp:129] Top shape: 64 28 22 22 (867328)
I0620 18:58:17.213160  6296 net.cpp:137] Memory required for data: 3915520
I0620 18:58:17.213207  6296 layer_factory.hpp:77] Creating layer prelu1
I0620 18:58:17.213230  6296 net.cpp:84] Creating Layer prelu1
I0620 18:58:17.213234  6296 net.cpp:406] prelu1 <- conv1
I0620 18:58:17.213250  6296 net.cpp:367] prelu1 -> conv1 (in-place)
I0620 18:58:17.213913  6296 net.cpp:122] Setting up prelu1
I0620 18:58:17.213923  6296 net.cpp:129] Top shape: 64 28 22 22 (867328)
I0620 18:58:17.213939  6296 net.cpp:137] Memory required for data: 7384832
I0620 18:58:17.213945  6296 layer_factory.hpp:77] Creating layer pool1
I0620 18:58:17.213966  6296 net.cpp:84] Creating Layer pool1
I0620 18:58:17.213984  6296 net.cpp:406] pool1 <- conv1
I0620 18:58:17.213989  6296 net.cpp:380] pool1 -> pool1
I0620 18:58:17.214049  6296 net.cpp:122] Setting up pool1
I0620 18:58:17.214054  6296 net.cpp:129] Top shape: 64 28 11 11 (216832)
I0620 18:58:17.214071  6296 net.cpp:137] Memory required for data: 8252160
I0620 18:58:17.214073  6296 layer_factory.hpp:77] Creating layer conv2
I0620 18:58:17.214097  6296 net.cpp:84] Creating Layer conv2
I0620 18:58:17.214102  6296 net.cpp:406] conv2 <- pool1
I0620 18:58:17.214107  6296 net.cpp:380] conv2 -> conv2
I0620 18:58:17.215335  6296 net.cpp:122] Setting up conv2
I0620 18:58:17.215344  6296 net.cpp:129] Top shape: 64 48 9 9 (248832)
I0620 18:58:17.215348  6296 net.cpp:137] Memory required for data: 9247488
I0620 18:58:17.215355  6296 layer_factory.hpp:77] Creating layer prelu2
I0620 18:58:17.215360  6296 net.cpp:84] Creating Layer prelu2
I0620 18:58:17.215363  6296 net.cpp:406] prelu2 <- conv2
I0620 18:58:17.215368  6296 net.cpp:367] prelu2 -> conv2 (in-place)
I0620 18:58:17.215997  6296 net.cpp:122] Setting up prelu2
I0620 18:58:17.216006  6296 net.cpp:129] Top shape: 64 48 9 9 (248832)
I0620 18:58:17.216022  6296 net.cpp:137] Memory required for data: 10242816
I0620 18:58:17.216027  6296 layer_factory.hpp:77] Creating layer pool2
I0620 18:58:17.216032  6296 net.cpp:84] Creating Layer pool2
I0620 18:58:17.216035  6296 net.cpp:406] pool2 <- conv2
I0620 18:58:17.216040  6296 net.cpp:380] pool2 -> pool2
I0620 18:58:17.216081  6296 net.cpp:122] Setting up pool2
I0620 18:58:17.216087  6296 net.cpp:129] Top shape: 64 48 4 4 (49152)
I0620 18:58:17.216104  6296 net.cpp:137] Memory required for data: 10439424
I0620 18:58:17.216105  6296 layer_factory.hpp:77] Creating layer conv3
I0620 18:58:17.216114  6296 net.cpp:84] Creating Layer conv3
I0620 18:58:17.216119  6296 net.cpp:406] conv3 <- pool2
I0620 18:58:17.216122  6296 net.cpp:380] conv3 -> conv3
I0620 18:58:17.217363  6296 net.cpp:122] Setting up conv3
I0620 18:58:17.217372  6296 net.cpp:129] Top shape: 64 64 3 3 (36864)
I0620 18:58:17.217392  6296 net.cpp:137] Memory required for data: 10586880
I0620 18:58:17.217396  6296 layer_factory.hpp:77] Creating layer prelu3
I0620 18:58:17.217414  6296 net.cpp:84] Creating Layer prelu3
I0620 18:58:17.217417  6296 net.cpp:406] prelu3 <- conv3
I0620 18:58:17.217435  6296 net.cpp:367] prelu3 -> conv3 (in-place)
I0620 18:58:17.217533  6296 net.cpp:122] Setting up prelu3
I0620 18:58:17.217540  6296 net.cpp:129] Top shape: 64 64 3 3 (36864)
I0620 18:58:17.217542  6296 net.cpp:137] Memory required for data: 10734336
I0620 18:58:17.217548  6296 layer_factory.hpp:77] Creating layer conv4
I0620 18:58:17.217555  6296 net.cpp:84] Creating Layer conv4
I0620 18:58:17.217576  6296 net.cpp:406] conv4 <- conv3
I0620 18:58:17.217582  6296 net.cpp:380] conv4 -> conv4
I0620 18:58:17.218457  6296 net.cpp:122] Setting up conv4
I0620 18:58:17.218466  6296 net.cpp:129] Top shape: 64 128 (8192)
I0620 18:58:17.218468  6296 net.cpp:137] Memory required for data: 10767104
I0620 18:58:17.218474  6296 layer_factory.hpp:77] Creating layer prelu4
I0620 18:58:17.218479  6296 net.cpp:84] Creating Layer prelu4
I0620 18:58:17.218483  6296 net.cpp:406] prelu4 <- conv4
I0620 18:58:17.218487  6296 net.cpp:367] prelu4 -> conv4 (in-place)
I0620 18:58:17.218542  6296 net.cpp:122] Setting up prelu4
I0620 18:58:17.218547  6296 net.cpp:129] Top shape: 64 128 (8192)
I0620 18:58:17.218550  6296 net.cpp:137] Memory required for data: 10799872
I0620 18:58:17.218554  6296 layer_factory.hpp:77] Creating layer conv4_prelu4_0_split
I0620 18:58:17.218559  6296 net.cpp:84] Creating Layer conv4_prelu4_0_split
I0620 18:58:17.218562  6296 net.cpp:406] conv4_prelu4_0_split <- conv4
I0620 18:58:17.218569  6296 net.cpp:380] conv4_prelu4_0_split -> conv4_prelu4_0_split_0
I0620 18:58:17.218574  6296 net.cpp:380] conv4_prelu4_0_split -> conv4_prelu4_0_split_1
I0620 18:58:17.218580  6296 net.cpp:380] conv4_prelu4_0_split -> conv4_prelu4_0_split_2
I0620 18:58:17.218612  6296 net.cpp:122] Setting up conv4_prelu4_0_split
I0620 18:58:17.218617  6296 net.cpp:129] Top shape: 64 128 (8192)
I0620 18:58:17.218621  6296 net.cpp:129] Top shape: 64 128 (8192)
I0620 18:58:17.218623  6296 net.cpp:129] Top shape: 64 128 (8192)
I0620 18:58:17.218626  6296 net.cpp:137] Memory required for data: 10898176
I0620 18:58:17.218629  6296 layer_factory.hpp:77] Creating layer conv5-1
I0620 18:58:17.218634  6296 net.cpp:84] Creating Layer conv5-1
I0620 18:58:17.218637  6296 net.cpp:406] conv5-1 <- conv4_prelu4_0_split_0
I0620 18:58:17.218643  6296 net.cpp:380] conv5-1 -> conv5-1
I0620 18:58:17.218709  6296 net.cpp:122] Setting up conv5-1
I0620 18:58:17.218713  6296 net.cpp:129] Top shape: 64 2 (128)
I0620 18:58:17.218716  6296 net.cpp:137] Memory required for data: 10898688
I0620 18:58:17.218721  6296 layer_factory.hpp:77] Creating layer cls_bridge
I0620 18:58:17.218762  6296 net.cpp:84] Creating Layer cls_bridge
I0620 18:58:17.218767  6296 net.cpp:406] cls_bridge <- conv5-1
I0620 18:58:17.218770  6296 net.cpp:406] cls_bridge <- label
I0620 18:58:17.218775  6296 net.cpp:380] cls_bridge -> conv5-1-valid
I0620 18:58:17.218781  6296 net.cpp:380] cls_bridge -> label-valid
I0620 18:58:17.218876  6296 net.cpp:122] Setting up cls_bridge
I0620 18:58:17.218884  6296 net.cpp:129] Top shape: 64 2 (128)
I0620 18:58:17.218888  6296 net.cpp:129] Top shape: 64 1 (64)
I0620 18:58:17.218890  6296 net.cpp:137] Memory required for data: 10899456
I0620 18:58:17.218894  6296 layer_factory.hpp:77] Creating layer conv5-1-valid_cls_bridge_0_split
I0620 18:58:17.218899  6296 net.cpp:84] Creating Layer conv5-1-valid_cls_bridge_0_split
I0620 18:58:17.218902  6296 net.cpp:406] conv5-1-valid_cls_bridge_0_split <- conv5-1-valid
I0620 18:58:17.218906  6296 net.cpp:380] conv5-1-valid_cls_bridge_0_split -> conv5-1-valid_cls_bridge_0_split_0
I0620 18:58:17.218912  6296 net.cpp:380] conv5-1-valid_cls_bridge_0_split -> conv5-1-valid_cls_bridge_0_split_1
I0620 18:58:17.218936  6296 net.cpp:122] Setting up conv5-1-valid_cls_bridge_0_split
I0620 18:58:17.218942  6296 net.cpp:129] Top shape: 64 2 (128)
I0620 18:58:17.218945  6296 net.cpp:129] Top shape: 64 2 (128)
I0620 18:58:17.218947  6296 net.cpp:137] Memory required for data: 10900480
I0620 18:58:17.218950  6296 layer_factory.hpp:77] Creating layer label-valid_cls_bridge_1_split
I0620 18:58:17.218955  6296 net.cpp:84] Creating Layer label-valid_cls_bridge_1_split
I0620 18:58:17.218957  6296 net.cpp:406] label-valid_cls_bridge_1_split <- label-valid
I0620 18:58:17.218962  6296 net.cpp:380] label-valid_cls_bridge_1_split -> label-valid_cls_bridge_1_split_0
I0620 18:58:17.218967  6296 net.cpp:380] label-valid_cls_bridge_1_split -> label-valid_cls_bridge_1_split_1
I0620 18:58:17.219004  6296 net.cpp:122] Setting up label-valid_cls_bridge_1_split
I0620 18:58:17.219017  6296 net.cpp:129] Top shape: 64 1 (64)
I0620 18:58:17.219020  6296 net.cpp:129] Top shape: 64 1 (64)
I0620 18:58:17.219023  6296 net.cpp:137] Memory required for data: 10900992
I0620 18:58:17.219027  6296 layer_factory.hpp:77] Creating layer cls_loss
I0620 18:58:17.219034  6296 net.cpp:84] Creating Layer cls_loss
I0620 18:58:17.219038  6296 net.cpp:406] cls_loss <- conv5-1-valid_cls_bridge_0_split_0
I0620 18:58:17.219041  6296 net.cpp:406] cls_loss <- label-valid_cls_bridge_1_split_0
I0620 18:58:17.219045  6296 net.cpp:380] cls_loss -> cls_loss
…
