…
I0102 16:58:45.085399 14152 net.cpp:294] The NetState phase (0) differed from the phase (1) specified by a rule in layer accuracy_color_test
I0102 16:58:45.085853 14152 net.cpp:51] Initializing net from parameters: 
name: "resnet-blstm-ctc-ocr"
state {
  phase: TRAIN
  level: 0
  stage: ""
}
layer {
  name: "data"
  type: "ImageData"
  top: "data"
  top: "label"
  include {
    phase: TRAIN
  }
  image_data_param {
    source: "train.txt"
    batch_size: 40
    shuffle: true
    new_height: 112
    new_width: 240
    is_color: true
    num_of_labels: 21
  }
}
layer {
  name: "slicer_label"
  type: "Slice"
  bottom: "label"
  top: "label1"
  top: "label2"
  slice_param {
    slice_point: 20
    axis: 1
  }
}
layer {
  name: "indicator"
  type: "ContinuationIndicator"
  top: "indicator"
  include {
    phase: TRAIN
  }
  continuation_indicator_param {
    time_step: 60
    batch_size: 40
  }
}
layer {
  name: "data_bn"
  type: "BatchNorm"
  bottom: "data"
  top: "data_bn"
  param {
    lr_mult: 0
    decay_mult: 0
  }
  param {
    lr_mult: 0
    decay_mult: 0
  }
  param {
    lr_mult: 0
    decay_mult: 0
  }
  batch_norm_param {
    use_global_stats: true
  }
}
layer {
  name: "data_scale"
  type: "Scale"
  bottom: "data_bn"
  top: "data_bn"
  param {
    lr_mult: 0
    decay_mult: 1
  }
  param {
    lr_mult: 0
    decay_mult: 1
  }
  scale_param {
    bias_term: true
  }
}
layer {
  name: "conv1"
  type: "Convolution"
  bottom: "data_bn"
  top: "conv1"
  param {
    lr_mult: 0
    decay_mult: 1
  }
  param {
    lr_mult: 0
    decay_mult: 1
  }
  convolution_param {
    num_output: 64
    pad: 3
    kernel_size: 7
    stride: 2
    weight_filler {
      type: "msra"
      variance_norm: FAN_OUT
    }
    bias_filler {
      type: "constant"
      value: 0
    }
  }
}
layer {
  name: "conv1_bn"
  type: "BatchNorm"
  bottom: "conv1"
  top: "conv1"
  param {
    lr_mult: 0
    decay_mult: 0
  }
  param {
    lr_mult: 0
    decay_mult: 0
  }
  param {
    lr_mult: 0
    decay_mult: 0
  }
  batch_norm_param {
    use_global_stats: true
  }
}
layer {
  name: "conv1_scale"
  type: "Scale"
  bottom: "conv1"
  top: "conv1"
  param {
    lr_mult: 0
    decay_mult: 1
  }
  param {
    lr_mult: 0
    decay_mult: 1
  }
  scale_param {
    bias_term: true
  }
}
layer {
  name: "conv1_relu"
  type: "ReLU"
  bottom: "conv1"
  top: "conv1"
}
layer {
  name: "conv1_pool"
  type: "Pooling"
  bottom: "conv1"
  top: "conv1_pool"
  pooling_param {
    kernel_size: 3
    stride: 2
  }
}
layer {
  name: "layer_64_1_conv1"
  type: "Convolution"
  bottom: "conv1_pool"
  top: "layer_64_1_conv1"
  param {
    lr_mult: 0
    decay_mult: 1
  }
  convolution_param {
    num_output: 64
    bias_term: false
    pad: 0
    kernel_size: 1
    stride: 1
    weight_filler {
      type: "msra"
    }
    bias_filler {
      type: "constant"
      value: 0
    }
  }
}
layer {
  name: "layer_64_1_bn2"
  type: "BatchNorm"
  bottom: "layer_64_1_conv1"
  top: "layer_64_1_conv1"
  param {
    lr_mult: 0
    decay_mult: 0
  }
  param {
    lr_mult: 0
    decay_mult: 0
  }
  param {
    lr_mult: 0
    decay_mult: 0
  }
  batch_norm_param {
    use_global_stats: true
  }
}
layer {
  name: "layer_64_1_scale2"
  type: "Scale"
  bottom: "layer_64_1_conv1"
  top: "layer_64_1_conv1"
  param {
    lr_mult: 0
    decay_mult: 1
  }
  param {
    lr_mult: 0
    decay_mult: 1
  }
  scale_param {
    bias_term: true
  }
}
layer {
  name: "layer_64_1_relu2"
  type: "ReLU"
  bottom: "layer_64_1_conv1"
  top: "layer_64_1_conv1"
}
layer {
  name: "layer_64_1_conv2"
  type: "Convolution"
  bottom: "layer_64_1_conv1"
  top: "layer_64_1_conv2"
  param {
    lr_mult: 0
    decay_mult: 1
  }
  convolution_param {
    num_output: 64
    bias_term: false
    pad: 1
    kernel_size: 3
    stride: 1
    weight_filler {
      type: "msra"
    }
    bias_filler {
      type: "constant"
      value: 0
    }
  }
}
layer {
  name: "layer_64_1_bn3"
  type: "BatchNorm"
  bottom: "layer_64_1_conv2"
  top: "layer_64_1_conv2"
  param {
    lr_mult: 0
    decay_mult: 0
  }
  param {
    lr_mult: 0
    decay_mult: 0
  }
  param {
    lr_mult: 0
    decay_mult: 0
  }
  batch_norm_param {
    use_global_stats: true
  }
}
layer {
  name: "layer_64_1_scale3"
  type: "Scale"
  bottom: "layer_64_1_conv2"
  top: "layer_64_1_conv2"
  param {
    lr_mult: 0
    decay_mult: 1
  }
  param {
    lr_mult: 0
    decay_mult: 1
  }
  scale_param {
    bias_term: true
  }
}
layer {
  name: "layer_64_1_relu3"
  type: "ReLU"
  bottom: "layer_64_1_conv2"
  top: "layer_64_1_conv2"
}
layer {
  name: "layer_64_1_conv3"
  type: "Convolution"
  bottom: "layer_64_1_conv2"
  top: "layer_64_1_conv3"
  param {
    lr_mult: 0
    decay_mult: 1
  }
  convolution_param {
    num_output: 256
    bias_term: false
    pad: 0
    kernel_size: 1
    stride: 1
    weight_filler {
      type: "msra"
    }
    bias_filler {
      type: "constant"
      value: 0
    }
  }
}
layer {
  name: "layer_64_1_conv_expand"
  type: "Convolution"
  bottom: "layer_64_1_conv1"
  top: "layer_64_1_conv_expand"
  param {
    lr_mult: 0
    decay_mult: 1
  }
  convolution_param {
    num_output: 256
    bias_term: false
    pad: 0
    kernel_size: 1
    stride: 1
    weight_filler {
      type: "msra"
    }
    bias_filler {
      type: "constant"
      value: 0
    }
  }
}
layer {
  name: "layer_64_1_sum"
  type: "Eltwise"
  bottom: "layer_64_1_conv3"
  bottom: "layer_64_1_conv_expand"
  top: "layer_64_1_sum"
}
layer {
  name: "layer_64_2_bn1"
  type: "BatchNorm"
  bottom: "layer_64_1_sum"
  top: "layer_64_2_bn1"
  param {
    lr_mult: 0
    decay_mult: 0
  }
  param {
    lr_mult: 0
    decay_mult: 0
  }
  param {
    lr_mult: 0
    decay_mult: 0
  }
  batch_norm_param {
    use_global_stats: true
  }
}
layer {
  name: "layer_64_2_scale1"
  type: "Scale"
  bottom: "layer_64_2_bn1"
  top: "layer_64_2_bn1"
  param {
    lr_mult: 0
    decay_mult: 1
  }
  param {
    lr_mult: 0
    decay_mult: 1
  }
  scale_param {
    bias_term: true
  }
}
layer {
  name: "layer_64_2_relu1"
  type: "ReLU"
  bottom: "layer_64_2_bn1"
  top: "layer_64_2_bn1"
}
layer {
  name: "layer_64_2_conv1"
  type: "Convolution"
  bottom: "layer_64_2_bn1"
  top: "layer_64_2_conv1"
  param {
    lr_mult: 0
    decay_mult: 1
  }
  convolution_param {
    num_output: 64
    bias_term: false
    pad: 0
    kernel_size: 1
    stride: 1
    weight_filler {
      type: "msra"
    }
    bias_filler {
      type: "constant"
      value: 0
    }
  }
}
layer {
  name: "layer_64_2_bn2"
  type: "BatchNorm"
  bottom: "layer_64_2_conv1"
  top: "layer_64_2_conv1"
  param {
    lr_mult: 0
    decay_mult: 0
  }
  param {
    lr_mult: 0
    decay_mult: 0
  }
  param {
    lr_mult: 0
    decay_mult: 0
  }
  batch_norm_param {
    use_global_stats: true
  }
}
layer {
  name: "layer_64_2_scale2"
  type: "Scale"
  bottom: "layer_64_2_conv1"
  top: "layer_64_2_conv1"
  param {
    lr_mult: 0
    decay_mult: 1
  }
  param {
    lr_mult: 0
    decay_mult: 1
  }
  scale_param {
    bias_term: true
  }
}
layer {
  name: "layer_64_2_relu2"
  type: "ReLU"
  bottom: "layer_64_2_conv1"
  top: "layer_64_2_conv1"
}
layer {
  name: "layer_64_2_conv2"
  type: "Convolution"
  bottom: "layer_64_2_conv1"
  top: "layer_64_2_conv2"
  param {
    lr_mult: 0
    decay_mult: 1
  }
  convolution_param {
    num_output: 64
    bias_term: false
    pad: 1
    kernel_size: 3
    stride: 1
    weight_filler {
      type: "msra"
    }
    bias_filler {
      type: "constant"
      value: 0
    }
  }
}
layer {
  name: "layer_64_2_bn3"
  type: "BatchNorm"
  bottom: "layer_64_2_conv2"
  top: "layer_64_2_conv2"
  param {
    lr_mult: 0
    decay_mult: 0
  }
  param {
    lr_mult: 0
    decay_mult: 0
  }
  param {
    lr_mult: 0
    decay_mult: 0
  }
  batch_norm_param {
    use_global_stats: true
  }
}
layer {
  name: "layer_64_2_scale3"
  type: "Scale"
  bottom: "layer_64_2_conv2"
  top: "layer_64_2_conv2"
  param {
    lr_mult: 0
    decay_mult: 1
  }
  param {
    lr_mult: 0
    decay_mult: 1
  }
  scale_param {
    bias_term: true
  }
}
layer {
  name: "layer_64_2_relu3"
  type: "ReLU"
  bottom: "layer_64_2_conv2"
  top: "layer_64_2_conv2"
}
layer {
  name: "layer_64_2_conv3"
  type: "Convolution"
  bottom: "layer_64_2_conv2"
  top: "layer_64_2_conv3"
  param {
    lr_mult: 0
    decay_mult: 1
  }
  convolution_param {
    num_output: 256
    bias_term: false
    pad: 0
    kernel_size: 1
    stride: 1
    weight_filler {
      type: "msra"
    }
    bias_filler {
      type: "constant"
      value: 0
    }
  }
}
layer {
  name: "layer_64_2_sum"
  type: "Eltwise"
  bottom: "layer_64_2_conv3"
  bottom: "layer_64_1_sum"
  top: "layer_64_2_sum"
}
layer {
  name: "layer_64_3_bn1"
  type: "BatchNorm"
  bottom: "layer_64_2_sum"
  top: "layer_64_3_bn1"
  param {
    lr_mult: 0
    decay_mult: 0
  }
  param {
    lr_mult: 0
    decay_mult: 0
  }
  param {
    lr_mult: 0
    decay_mult: 0
  }
  batch_norm_param {
    use_global_stats: true
  }
}
layer {
  name: "layer_64_3_scale1"
  type: "Scale"
  bottom: "layer_64_3_bn1"
  top: "layer_64_3_bn1"
  param {
    lr_mult: 0
    decay_mult: 1
  }
  param {
    lr_mult: 0
    decay_mult: 1
  }
  scale_param {
    bias_term: true
  }
}
layer {
  name: "layer_64_3_relu1"
  type: "ReLU"
  bottom: "layer_64_3_bn1"
  top: "layer_64_3_bn1"
}
layer {
  name: "layer_64_3_conv1"
  type: "Convolution"
  bottom: "layer_64_3_bn1"
  top: "layer_64_3_conv1"
  param {
    lr_mult: 0
    decay_mult: 1
  }
  convolution_param {
    num_output: 64
    bias_term: false
    pad: 0
    kernel_size: 1
    stride: 1
    weight_filler {
      type: "msra"
    }
    bias_filler {
      type: "constant"
      value: 0
    }
  }
}
layer {
  name: "layer_64_3_bn2"
  type: "BatchNorm"
  bottom: "layer_64_3_conv1"
  top: "layer_64_3_conv1"
  param {
    lr_mult: 0
    decay_mult: 0
  }
  param {
    lr_mult: 0
    decay_mult: 0
  }
  param {
    lr_mult: 0
    decay_mult: 0
  }
  batch_norm_param {
    use_global_stats: true
  }
}
layer {
  name: "layer_64_3_scale2"
  type: "Scale"
  bottom: "layer_64_3_conv1"
  top: "layer_64_3_conv1"
  param {
    lr_mult: 0
    decay_mult: 1
  }
  param {
    lr_mult: 0
    decay_mult: 1
  }
  scale_param {
    bias_term: true
  }
}
layer {
  name: "layer_64_3_relu2"
  type: "ReLU"
  bottom: "layer_64_3_conv1"
  top: "layer_64_3_conv1"
}
layer {
  name: "layer_64_3_conv2"
  type: "Convolution"
  bottom: "layer_64_3_conv1"
  top: "layer_64_3_conv2"
  param {
    lr_mult: 0
    decay_mult: 1
  }
  convolution_param {
    num_output: 64
    bias_term: false
    pad: 1
    kernel_size: 3
    stride: 1
    weight_filler {
      type: "msra"
    }
    bias_filler {
      type: "constant"
      value: 0
    }
  }
}
layer {
  name: "layer_64_3_bn3"
  type: "BatchNorm"
  bottom: "layer_64_3_conv2"
  top: "layer_64_3_conv2"
  param {
    lr_mult: 0
    decay_mult: 0
  }
  param {
    lr_mult: 0
    decay_mult: 0
  }
  param {
    lr_mult: 0
    decay_mult: 0
  }
  batch_norm_param {
    use_global_stats: true
  }
}
layer {
  name: "layer_64_3_scale3"
  type: "Scale"
  bottom: "layer_64_3_conv2"
  top: "layer_64_3_conv2"
  param {
    lr_mult: 0
    decay_mult: 1
  }
  param {
    lr_mult: 0
    decay_mult: 1
  }
  scale_param {
    bias_term: true
  }
}
layer {
  name: "layer_64_3_relu3"
  type: "ReLU"
  bottom: "layer_64_3_conv2"
  top: "layer_64_3_conv2"
}
layer {
  name: "layer_64_3_conv3"
  type: "Convolution"
  bottom: "layer_64_3_conv2"
  top: "layer_64_3_conv3"
  param {
    lr_mult: 0
    decay_mult: 1
  }
  convolution_param {
    num_output: 256
    bias_term: false
    pad: 0
    kernel_size: 1
    stride: 1
    weight_filler {
      type: "msra"
    }
    bias_filler {
      type: "constant"
      value: 0
    }
  }
}
layer {
  name: "layer_64_3_sum"
  type: "Eltwise"
  bottom: "layer_64_3_conv3"
  bottom: "layer_64_2_sum"
  top: "layer_64_3_sum"
}
layer {
  name: "layer_128_1_bn1"
  type: "BatchNorm"
  bottom: "layer_64_3_sum"
  top: "layer_128_1_bn1"
  param {
    lr_mult: 0
    decay_mult: 0
  }
  param {
    lr_mult: 0
    decay_mult: 0
  }
  param {
    lr_mult: 0
    decay_mult: 0
  }
  batch_norm_param {
    use_global_stats: true
  }
}
layer {
  name: "layer_128_1_scale1"
  type: "Scale"
  bottom: "layer_128_1_bn1"
  top: "layer_128_1_bn1"
  param {
    lr_mult: 0
    decay_mult: 1
  }
  param {
    lr_mult: 0
    decay_mult: 1
  }
  scale_param {
    bias_term: true
  }
}
layer {
  name: "layer_128_1_relu1"
  type: "ReLU"
  bottom: "layer_128_1_bn1"
  top: "layer_128_1_bn1"
}
layer {
  name: "layer_128_1_conv1"
  type: "Convolution"
  bottom: "layer_128_1_bn1"
  top: "layer_128_1_conv1"
  param {
    lr_mult: 0
    decay_mult: 1
  }
  convolution_param {
    num_output: 128
    bias_term: false
    pad: 0
    kernel_size: 1
    stride: 1
    weight_filler {
      type: "msra"
    }
    bias_filler {
      type: "constant"
      value: 0
    }
  }
}
layer {
  name: "layer_128_1_bn2"
  type: "BatchNorm"
  bottom: "layer_128_1_conv1"
  top: "layer_128_1_conv1"
  param {
    lr_mult: 0
    decay_mult: 0
  }
  param {
    lr_mult: 0
    decay_mult: 0
  }
  param {
    lr_mult: 0
    decay_mult: 0
  }
  batch_norm_param {
    use_global_stats: true
  }
}
layer {
  name: "layer_128_1_scale2"
  type: "Scale"
  bottom: "layer_128_1_conv1"
  top: "layer_128_1_conv1"
  param {
    lr_mult: 0
    decay_mult: 1
  }
  param {
    lr_mult: 0
    decay_mult: 1
  }
  scale_param {
    bias_term: true
  }
}
layer {
  name: "layer_128_1_relu2"
  type: "ReLU"
  bottom: "layer_128_1_conv1"
  top: "layer_128_1_conv1"
}
layer {
  name: "layer_128_1_conv2"
  type: "Convolution"
  bottom: "layer_128_1_conv1"
  top: "layer_128_1_conv2"
  param {
    lr_mult: 0
    decay_mult: 1
  }
  convolution_param {
    num_output: 128
    bias_term: false
    pad: 1
    kernel_size: 3
    stride: 2
    weight_filler {
      type: "msra"
    }
    bias_filler {
      type: "constant"
      value: 0
    }
  }
}
layer {
  name: "layer_128_1_bn3"
  type: "BatchNorm"
  bottom: "layer_128_1_conv2"
  top: "layer_128_1_conv2"
  param {
    lr_mult: 0
    decay_mult: 0
  }
  param {
    lr_mult: 0
    decay_mult: 0
  }
  param {
    lr_mult: 0
    decay_mult: 0
  }
  batch_norm_param {
    use_global_stats: true
  }
}
layer {
  name: "layer_128_1_scale3"
  type: "Scale"
  bottom: "layer_128_1_conv2"
  top: "layer_128_1_conv2"
  param {
    lr_mult: 0
    decay_mult: 1
  }
  param {
    lr_mult: 0
    decay_mult: 1
  }
  scale_param {
    bias_term: true
  }
}
layer {
  name: "layer_128_1_relu3"
  type: "ReLU"
  bottom: "layer_128_1_conv2"
  top: "layer_128_1_conv2"
}
layer {
  name: "layer_128_1_conv3"
  type: "Convolution"
  bottom: "layer_128_1_conv2"
  top: "layer_128_1_conv3"
  param {
    lr_mult: 0
    decay_mult: 1
  }
  convolution_param {
    num_output: 512
    bias_term: false
    pad: 0
    kernel_size: 1
    stride: 1
    weight_filler {
      type: "msra"
    }
    bias_filler {
      type: "constant"
      value: 0
    }
  }
}
layer {
  name: "layer_128_1_conv_expand"
  type: "Convolution"
  bottom: "layer_128_1_bn1"
  top: "layer_128_1_conv_expand"
  param {
    lr_mult: 0
    decay_mult: 1
  }
  convolution_param {
    num_output: 512
    bias_term: false
    pad: 0
    kernel_size: 1
    stride: 2
    weight_filler {
      type: "msra"
    }
    bias_filler {
      type: "constant"
      value: 0
    }
  }
}
layer {
  name: "layer_128_1_sum"
  type: "Eltwise"
  bottom: "layer_128_1_conv3"
  bottom: "layer_128_1_conv_expand"
  top: "layer_128_1_sum"
}
layer {
  name: "layer_128_2_bn1"
  type: "BatchNorm"
  bottom: "layer_128_1_sum"
  top: "layer_128_2_bn1"
  param {
    lr_mult: 0
    decay_mult: 0
  }
  param {
    lr_mult: 0
    decay_mult: 0
  }
  param {
    lr_mult: 0
    decay_mult: 0
  }
  batch_norm_param {
    use_global_stats: true
  }
}
layer {
  name: "layer_128_2_scale1"
  type: "Scale"
  bottom: "layer_128_2_bn1"
  top: "layer_128_2_bn1"
  param {
    lr_mult: 0
    decay_mult: 1
  }
  param {
    lr_mult: 0
    decay_mult: 1
  }
  scale_param {
    bias_term: true
  }
}
layer {
  name: "layer_128_2_relu1"
  type: "ReLU"
  bottom: "layer_128_2_bn1"
  top: "layer_128_2_bn1"
}
layer {
  name: "layer_128_2_conv1"
  type: "Convolution"
  bottom: "layer_128_2_bn1"
  top: "layer_128_2_conv1"
  param {
    lr_mult: 0
    decay_mult: 1
  }
  convolution_param {
    num_output: 128
    bias_term: false
    pad: 0
    kernel_size: 1
    stride: 1
    weight_filler {
      type: "msra"
    }
    bias_filler {
      type: "constant"
      value: 0
    }
  }
}
layer {
  name: "layer_128_2_bn2"
  type: "BatchNorm"
  bottom: "layer_128_2_conv1"
  top: "layer_128_2_conv1"
  param {
    lr_mult: 0
    decay_mult: 0
  }
  param {
    lr_mult: 0
    decay_mult: 0
  }
  param {
    lr_mult: 0
    decay_mult: 0
  }
  batch_norm_param {
    use_global_stats: true
  }
}
layer {
  name: "layer_128_2_scale2"
  type: "Scale"
  bottom: "layer_128_2_conv1"
  top: "layer_128_2_conv1"
  param {
    lr_mult: 0
    decay_mult: 1
  }
  param {
    lr_mult: 0
    decay_mult: 1
  }
  scale_param {
    bias_term: true
  }
}
layer {
  name: "layer_128_2_relu2"
  type: "ReLU"
  bottom: "layer_128_2_conv1"
  top: "layer_128_2_conv1"
}
layer {
  name: "layer_128_2_conv2"
  type: "Convolution"
  bottom: "layer_128_2_conv1"
  top: "layer_128_2_conv2"
  param {
    lr_mult: 0
    decay_mult: 1
  }
  convolution_param {
    num_output: 128
    bias_term: false
    pad: 1
    kernel_size: 3
    stride: 1
    weight_filler {
      type: "msra"
    }
    bias_filler {
      type: "constant"
      value: 0
    }
  }
}
layer {
  name: "layer_128_2_bn3"
  type: "BatchNorm"
  bottom: "layer_128_2_conv2"
  top: "layer_128_2_conv2"
  param {
    lr_mult: 0
    decay_mult: 0
  }
  param {
    lr_mult: 0
    decay_mult: 0
  }
  param {
    lr_mult: 0
    decay_mult: 0
  }
  batch_norm_param {
    use_global_stats: true
  }
}
layer {
  name: "layer_128_2_scale3"
  type: "Scale"
  bottom: "layer_128_2_conv2"
  top: "layer_128_2_conv2"
  param {
    lr_mult: 0
    decay_mult: 1
  }
  param {
    lr_mult: 0
    decay_mult: 1
  }
  scale_param {
    bias_term: true
  }
}
layer {
  name: "layer_128_2_relu3"
  type: "ReLU"
  bottom: "layer_128_2_conv2"
  top: "layer_128_2_conv2"
}
layer {
  name: "layer_128_2_conv3"
  type: "Convolution"
  bottom: "layer_128_2_conv2"
  top: "layer_128_2_conv3"
  param {
    lr_mult: 0
    decay_mult: 1
  }
  convolution_param {
    num_output: 512
    bias_term: false
    pad: 0
    kernel_size: 1
    stride: 1
    weight_filler {
      type: "msra"
    }
    bias_filler {
      type: "constant"
      value: 0
    }
  }
}
layer {
  name: "layer_128_2_sum"
  type: "Eltwise"
  bottom: "layer_128_2_conv3"
  bottom: "layer_128_1_sum"
  top: "layer_128_2_sum"
}
layer {
  name: "layer_128_3_bn1"
  type: "BatchNorm"
  bottom: "layer_128_2_sum"
  top: "layer_128_3_bn1"
  param {
    lr_mult: 0
    decay_mult: 0
  }
  param {
    lr_mult: 0
    decay_mult: 0
  }
  param {
    lr_mult: 0
    decay_mult: 0
  }
  batch_norm_param {
    use_global_stats: true
  }
}
layer {
  name: "layer_128_3_scale1"
  type: "Scale"
  bottom: "layer_128_3_bn1"
  top: "layer_128_3_bn1"
  param {
    lr_mult: 0
    decay_mult: 1
  }
  param {
    lr_mult: 0
    decay_mult: 1
  }
  scale_param {
    bias_term: true
  }
}
layer {
  name: "layer_128_3_relu1"
  type: "ReLU"
  bottom: "layer_128_3_bn1"
  top: "layer_128_3_bn1"
}
layer {
  name: "layer_128_3_conv1"
  type: "Convolution"
  bottom: "layer_128_3_bn1"
  top: "layer_128_3_conv1"
  param {
    lr_mult: 0
    decay_mult: 1
  }
  convolution_param {
    num_output: 128
    bias_term: false
    pad: 0
    kernel_size: 1
    stride: 1
    weight_filler {
      type: "msra"
    }
    bias_filler {
      type: "constant"
      value: 0
    }
  }
}
layer {
  name: "layer_128_3_bn2"
  type: "BatchNorm"
  bottom: "layer_128_3_conv1"
  top: "layer_128_3_conv1"
  param {
    lr_mult: 0
    decay_mult: 0
  }
  param {
    lr_mult: 0
    decay_mult: 0
  }
  param {
    lr_mult: 0
    decay_mult: 0
  }
  batch_norm_param {
    use_global_stats: true
  }
}
layer {
  name: "layer_128_3_scale2"
  type: "Scale"
  bottom: "layer_128_3_conv1"
  top: "layer_128_3_conv1"
  param {
    lr_mult: 0
    decay_mult: 1
  }
  param {
    lr_mult: 0
    decay_mult: 1
  }
  scale_param {
    bias_term: true
  }
}
layer {
  name: "layer_128_3_relu2"
  type: "ReLU"
  bottom: "layer_128_3_conv1"
  top: "layer_128_3_conv1"
}
layer {
  name: "layer_128_3_conv2"
  type: "Convolution"
  bottom: "layer_128_3_conv1"
  top: "layer_128_3_conv2"
  param {
    lr_mult: 0
    decay_mult: 1
  }
  convolution_param {
    num_output: 128
    bias_term: false
    pad: 1
    kernel_size: 3
    stride: 1
    weight_filler {
      type: "msra"
    }
    bias_filler {
      type: "constant"
      value: 0
    }
  }
}
layer {
  name: "layer_128_3_bn3"
  type: "BatchNorm"
  bottom: "layer_128_3_conv2"
  top: "layer_128_3_conv2"
  param {
    lr_mult: 0
    decay_mult: 0
  }
  param {
    lr_mult: 0
    decay_mult: 0
  }
  param {
    lr_mult: 0
    decay_mult: 0
  }
  batch_norm_param {
    use_global_stats: true
  }
}
layer {
  name: "layer_128_3_scale3"
  type: "Scale"
  bottom: "layer_128_3_conv2"
  top: "layer_128_3_conv2"
  param {
    lr_mult: 0
    decay_mult: 1
  }
  param {
    lr_mult: 0
    decay_mult: 1
  }
  scale_param {
    bias_term: true
  }
}
layer {
  name: "layer_128_3_relu3"
  type: "ReLU"
  bottom: "layer_128_3_conv2"
  top: "layer_128_3_conv2"
}
layer {
  name: "layer_128_3_conv3"
  type: "Convolution"
  bottom: "layer_128_3_conv2"
  top: "layer_128_3_conv3"
  param {
    lr_mult: 0
    decay_mult: 1
  }
  convolution_param {
    num_output: 512
    bias_term: false
    pad: 0
    kernel_size: 1
    stride: 1
    weight_filler {
      type: "msra"
    }
    bias_filler {
      type: "constant"
      value: 0
    }
  }
}
layer {
  name: "layer_128_3_sum"
  type: "Eltwise"
  bottom: "layer_128_3_conv3"
  bottom: "layer_128_2_sum"
  top: "layer_128_3_sum"
}
layer {
  name: "layer_128_4_bn1"
  type: "BatchNorm"
  bottom: "layer_128_3_sum"
  top: "layer_128_4_bn1"
  param {
    lr_mult: 0
    decay_mult: 0
  }
  param {
    lr_mult: 0
    decay_mult: 0
  }
  param {
    lr_mult: 0
    decay_mult: 0
  }
  batch_norm_param {
    use_global_stats: true
  }
}
layer {
  name: "layer_128_4_scale1"
  type: "Scale"
  bottom: "layer_128_4_bn1"
  top: "layer_128_4_bn1"
  param {
    lr_mult: 0
    decay_mult: 1
  }
  param {
    lr_mult: 0
    decay_mult: 1
  }
  scale_param {
    bias_term: true
  }
}
layer {
  name: "layer_128_4_relu1"
  type: "ReLU"
  bottom: "layer_128_4_bn1"
  top: "layer_128_4_bn1"
}
layer {
  name: "layer_128_4_conv1"
  type: "Convolution"
  bottom: "layer_128_4_bn1"
  top: "layer_128_4_conv1"
  param {
    lr_mult: 0
    decay_mult: 1
  }
  convolution_param {
    num_output: 128
    bias_term: false
    pad: 0
    kernel_size: 1
    stride: 1
    weight_filler {
      type: "msra"
    }
    bias_filler {
      type: "constant"
      value: 0
    }
  }
}
layer {
  name: "layer_128_4_bn2"
  type: "BatchNorm"
  bottom: "layer_128_4_conv1"
  top: "layer_128_4_conv1"
  param {
    lr_mult: 0
    decay_mult: 0
  }
  param {
    lr_mult: 0
    decay_mult: 0
  }
  param {
    lr_mult: 0
    decay_mult: 0
  }
  batch_norm_param {
    use_global_stats: true
  }
}
layer {
  name: "layer_128_4_scale2"
  type: "Scale"
  bottom: "layer_128_4_conv1"
  top: "layer_128_4_conv1"
  param {
    lr_mult: 0
    decay_mult: 1
  }
  param {
    lr_mult: 0
    decay_mult: 1
  }
  scale_param {
    bias_term: true
  }
}
layer {
  name: "layer_128_4_relu2"
  type: "ReLU"
  bottom: "layer_128_4_conv1"
  top: "layer_128_4_conv1"
}
layer {
  name: "layer_128_4_conv2"
  type: "Convolution"
  bottom: "layer_128_4_conv1"
  top: "layer_128_4_conv2"
  param {
    lr_mult: 0
    decay_mult: 1
  }
  convolution_param {
    num_output: 128
    bias_term: false
    pad: 1
    kernel_size: 3
    stride: 1
    weight_filler {
      type: "msra"
    }
    bias_filler {
      type: "constant"
      value: 0
    }
  }
}
layer {
  name: "layer_128_4_bn3"
  type: "BatchNorm"
  bottom: "layer_128_4_conv2"
  top: "layer_128_4_conv2"
  param {
    lr_mult: 0
    decay_mult: 0
  }
  param {
    lr_mult: 0
    decay_mult: 0
  }
  param {
    lr_mult: 0
    decay_mult: 0
  }
  batch_norm_param {
    use_global_stats: true
  }
}
layer {
  name: "layer_128_4_scale3"
  type: "Scale"
  bottom: "layer_128_4_conv2"
  top: "layer_128_4_conv2"
  param {
    lr_mult: 0
    decay_mult: 1
  }
  param {
    lr_mult: 0
    decay_mult: 1
  }
  scale_param {
    bias_term: true
  }
}
layer {
  name: "layer_128_4_relu3"
  type: "ReLU"
  bottom: "layer_128_4_conv2"
  top: "layer_128_4_conv2"
}
layer {
  name: "layer_128_4_conv3"
  type: "Convolution"
  bottom: "layer_128_4_conv2"
  top: "layer_128_4_conv3"
  param {
    lr_mult: 0
    decay_mult: 1
  }
  convolution_param {
    num_output: 512
    bias_term: false
    pad: 0
    kernel_size: 1
    stride: 1
    weight_filler {
      type: "msra"
    }
    bias_filler {
      type: "constant"
      value: 0
    }
  }
}
layer {
  name: "layer_128_4_sum"
  type: "Eltwise"
  bottom: "layer_128_4_conv3"
  bottom: "layer_128_3_sum"
  top: "layer_128_4_sum"
}
layer {
  name: "last_bn"
  type: "BatchNorm"
  bottom: "layer_128_4_sum"
  top: "layer_128_4_sum"
  param {
    lr_mult: 0
    decay_mult: 0
  }
  param {
    lr_mult: 0
    decay_mult: 0
  }
  param {
    lr_mult: 0
    decay_mult: 0
  }
  batch_norm_param {
    use_global_stats: true
  }
}
layer {
  name: "last_scale"
  type: "Scale"
  bottom: "layer_128_4_sum"
  top: "layer_128_4_sum"
  param {
    lr_mult: 0
    decay_mult: 1
  }
  param {
    lr_mult: 0
    decay_mult: 1
  }
  scale_param {
    bias_term: true
  }
}
layer {
  name: "last_relu"
  type: "ReLU"
  bottom: "layer_128_4_sum"
  top: "layer_128_4_sum"
}
layer {
  name: "slicer_feature_map"
  type: "Slice"
  bottom: "layer_128_4_sum"
  top: "slice_up"
  top: "slice_down"
  slice_param {
    slice_point: 7
    axis: 2
  }
}
layer {
  name: "concat_feature"
  type: "Concat"
  bottom: "slice_up"
  bottom: "slice_down"
  top: "concat_feature"
  concat_param {
    axis: 3
  }
}
layer {
  name: "permuted_data"
  type: "Permute"
  bottom: "concat_feature"
  top: "permuted_data"
  permute_param {
    order: 3
    order: 0
    order: 1
    order: 2
  }
}
layer {
  name: "lstm-reverse1"
  type: "Reverse"
  bottom: "permuted_data"
  top: "rlstm_input"
  reverse_param {
    axis: 0
  }
}
layer {
  name: "lstm2x_r1_r1"
  type: "LSTM"
  bottom: "rlstm_input"
  bottom: "indicator"
  top: "lstm2x"
  param {
    lr_mult: 0
  }
  recurrent_param {
    num_output: 100
    weight_filler {
      type: "xavier"
    }
    bias_filler {
      type: "constant"
      value: 0
    }
  }
}
layer {
  name: "lstm-reverse2"
  type: "Reverse"
  bottom: "lstm2x"
  top: "rlstmx"
  reverse_param {
    axis: 0
  }
}
layer {
  name: "lstm1x_r1_r1"
  type: "LSTM"
  bottom: "permuted_data"
  bottom: "indicator"
  top: "lstm1x"
  param {
    lr_mult: 0
  }
  recurrent_param {
    num_output: 100
    weight_filler {
      type: "xavier"
    }
    bias_filler {
      type: "constant"
      value: 0
    }
  }
}
layer {
  name: "merge_lstm_rlstmx"
  type: "Concat"
  bottom: "lstm1x"
  bottom: "rlstmx"
  top: "merge_lstm_rlstmx"
  concat_param {
    axis: 2
  }
}
layer {
  name: "fc_all_1"
  type: "InnerProduct"
  bottom: "merge_lstm_rlstmx"
  top: "fc_all_1"
  param {
    lr_mult: 0
    decay_mult: 1
  }
  param {
    lr_mult: 0
    decay_mult: 0
  }
  propagate_down: false
  inner_product_param {
    num_output: 69
    weight_filler {
      type: "xavier"
    }
    bias_filler {
      type: "constant"
      value: 0
    }
    axis: 2
  }
}
layer {
  name: "ctc_loss"
  type: "CtcLoss"
  bottom: "fc_all_1"
  bottom: "label1"
  top: "ctc_loss"
  loss_weight: 0
  ctc_loss_param {
    alphabet_size: 69
    time_step: 60
    blank_label: 68
  }
}
layer {
  name: "pool_color_1"
  type: "Pooling"
  bottom: "layer_128_1_sum"
  top: "pool_color_1"
  pooling_param {
    pool: MAX
    kernel_size: 2
    stride: 2
  }
}
layer {
  name: "conv_color1_1"
  type: "Convolution"
  bottom: "pool_color_1"
  top: "conv_color1_1"
  param {
    lr_mult: 1
    decay_mult: 1
  }
  convolution_param {
    num_output: 256
    bias_term: false
    pad: 1
    kernel_size: 3
    stride: 1
    weight_filler {
      type: "msra"
    }
    bias_filler {
      type: "constant"
      value: 0
    }
  }
}
layer {
  name: "bn_color_1"
  type: "BatchNorm"
  bottom: "conv_color1_1"
  top: "conv_color1_1"
  param {
    lr_mult: 0
    decay_mult: 0
  }
  param {
    lr_mult: 0
    decay_mult: 0
  }
  param {
    lr_mult: 0
    decay_mult: 0
  }
}
layer {
  name: "scale_color_1"
  type: "Scale"
  bottom: "conv_color1_1"
  top: "conv_color1_1"
  param {
    lr_mult: 1
    decay_mult: 1
  }
  param {
    lr_mult: 2
    decay_mult: 1
  }
  scale_param {
    bias_term: true
  }
}
layer {
  name: "relu_color_1"
  type: "ReLU"
  bottom: "conv_color1_1"
  top: "conv_color1_1"
}
layer {
  name: "pool_color_2"
  type: "Pooling"
  bottom: "conv_color1_1"
  top: "pool_color_2"
  pooling_param {
    pool: AVE
    global_pooling: true
  }
}
layer {
  name: "fc_color_1"
  type: "InnerProduct"
  bottom: "pool_color_2"
  top: "fc_color_1"
  param {
    lr_mult: 1
    decay_mult: 1
  }
  param {
    lr_mult: 2
    decay_mult: 0
  }
  inner_product_param {
    num_output: 5
    weight_filler {
      type: "xavier"
    }
    bias_filler {
      type: "constant"
      value: 0
    }
  }
}
layer {
  name: "softmax_loss"
  type: "SoftmaxWithLoss"
  bottom: "fc_color_1"
  bottom: "label2"
  top: "softmax_loss"
}
layer {
  name: "accuracy_color_train"
  type: "Accuracy"
  bottom: "fc_color_1"
  bottom: "label2"
  top: "accuracy_color_train"
  include {
    phase: TRAIN
  }
}
I0102 16:58:45.086321 14152 layer_factory.hpp:77] Creating layer data
I0102 16:58:45.086345 14152 net.cpp:84] Creating Layer data
I0102 16:58:45.086350 14152 net.cpp:380] data -> data
I0102 16:58:45.086365 14152 net.cpp:380] data -> label
I0102 16:58:45.086378 14152 image_data_layer.cpp:41] Opening file train.txt
The0label:68----
The1label:68----
The2label:68----
The3label:68----
The4label:68----
The5label:68----
The6label:68----
The7label:68----
The8label:68----
The9label:68----
The10label:68----
The11label:68----
The12label:68----
The13label:61----
The14label:15----
The15label:6----
The16label:13----
The17label:8----
The18label:1----
The19label:65----
The20label:4----
I0102 16:58:45.102869 14152 image_data_layer.cpp:64] Shuffling data
I0102 16:58:45.103080 14152 image_data_layer.cpp:74] A total of 11365 images.
I0102 16:58:45.184824 14152 image_data_layer.cpp:101] output data size: 40,3,112,240
I0102 16:58:45.203927 14152 net.cpp:122] Setting up data
I0102 16:58:45.203948 14152 net.cpp:129] Top shape: 40 3 112 240 (3225600)
I0102 16:58:45.203953 14152 net.cpp:129] Top shape: 40 21 1 1 (840)
I0102 16:58:45.203955 14152 net.cpp:137] Memory required for data: 12905760
I0102 16:58:45.203977 14152 layer_factory.hpp:77] Creating layer slicer_label
I0102 16:58:45.203990 14152 net.cpp:84] Creating Layer slicer_label
I0102 16:58:45.203996 14152 net.cpp:406] slicer_label <- label
I0102 16:58:45.204010 14152 net.cpp:380] slicer_label -> label1
I0102 16:58:45.204020 14152 net.cpp:380] slicer_label -> label2
I0102 16:58:45.204090 14152 net.cpp:122] Setting up slicer_label
I0102 16:58:45.204097 14152 net.cpp:129] Top shape: 40 20 1 1 (800)
I0102 16:58:45.204100 14152 net.cpp:129] Top shape: 40 1 1 1 (40)
I0102 16:58:45.204103 14152 net.cpp:137] Memory required for data: 12909120
I0102 16:58:45.204107 14152 layer_factory.hpp:77] Creating layer label2_slicer_label_1_split
I0102 16:58:45.204113 14152 net.cpp:84] Creating Layer label2_slicer_label_1_split
I0102 16:58:45.204116 14152 net.cpp:406] label2_slicer_label_1_split <- label2
I0102 16:58:45.204121 14152 net.cpp:380] label2_slicer_label_1_split -> label2_slicer_label_1_split_0
I0102 16:58:45.204128 14152 net.cpp:380] label2_slicer_label_1_split -> label2_slicer_label_1_split_1
I0102 16:58:45.204152 14152 net.cpp:122] Setting up label2_slicer_label_1_split
I0102 16:58:45.204157 14152 net.cpp:129] Top shape: 40 1 1 1 (40)
I0102 16:58:45.204161 14152 net.cpp:129] Top shape: 40 1 1 1 (40)
I0102 16:58:45.204164 14152 net.cpp:137] Memory required for data: 12909440
I0102 16:58:45.204167 14152 layer_factory.hpp:77] Creating layer indicator
I0102 16:58:45.204174 14152 net.cpp:84] Creating Layer indicator
I0102 16:58:45.204179 14152 net.cpp:380] indicator -> indicator
I0102 16:58:45.204196 14152 net.cpp:122] Setting up indicator
I0102 16:58:45.204201 14152 net.cpp:129] Top shape: 60 40 (2400)
I0102 16:58:45.204203 14152 net.cpp:137] Memory required for data: 12919040
I0102 16:58:45.204206 14152 layer_factory.hpp:77] Creating layer indicator_indicator_0_split
I0102 16:58:45.204212 14152 net.cpp:84] Creating Layer indicator_indicator_0_split
I0102 16:58:45.204216 14152 net.cpp:406] indicator_indicator_0_split <- indicator
I0102 16:58:45.204221 14152 net.cpp:380] indicator_indicator_0_split -> indicator_indicator_0_split_0
I0102 16:58:45.204227 14152 net.cpp:380] indicator_indicator_0_split -> indicator_indicator_0_split_1
I0102 16:58:45.204252 14152 net.cpp:122] Setting up indicator_indicator_0_split
I0102 16:58:45.204257 14152 net.cpp:129] Top shape: 60 40 (2400)
I0102 16:58:45.204260 14152 net.cpp:129] Top shape: 60 40 (2400)
I0102 16:58:45.204263 14152 net.cpp:137] Memory required for data: 12938240
I0102 16:58:45.204267 14152 layer_factory.hpp:77] Creating layer data_bn
I0102 16:58:45.204274 14152 net.cpp:84] Creating Layer data_bn
I0102 16:58:45.204277 14152 net.cpp:406] data_bn <- data
I0102 16:58:45.204282 14152 net.cpp:380] data_bn -> data_bn
I0102 16:58:45.205049 14152 net.cpp:122] Setting up data_bn
I0102 16:58:45.205070 14152 net.cpp:129] Top shape: 40 3 112 240 (3225600)
I0102 16:58:45.205072 14152 net.cpp:137] Memory required for data: 25840640
I0102 16:58:45.205107 14152 layer_factory.hpp:77] Creating layer data_scale
I0102 16:58:45.205114 14152 net.cpp:84] Creating Layer data_scale
I0102 16:58:45.205118 14152 net.cpp:406] data_scale <- data_bn
I0102 16:58:45.205123 14152 net.cpp:367] data_scale -> data_bn (in-place)
I0102 16:58:45.205157 14152 layer_factory.hpp:77] Creating layer data_scale
I0102 16:58:45.205242 14152 net.cpp:122] Setting up data_scale
I0102 16:58:45.205247 14152 net.cpp:129] Top shape: 40 3 112 240 (3225600)
I0102 16:58:45.205251 14152 net.cpp:137] Memory required for data: 38743040
I0102 16:58:45.205258 14152 layer_factory.hpp:77] Creating layer conv1
I0102 16:58:45.205268 14152 net.cpp:84] Creating Layer conv1
I0102 16:58:45.205272 14152 net.cpp:406] conv1 <- data_bn
I0102 16:58:45.205278 14152 net.cpp:380] conv1 -> conv1
I0102 16:58:45.361387 14152 net.cpp:122] Setting up conv1
I0102 16:58:45.361408 14152 net.cpp:129] Top shape: 40 64 56 120 (17203200)
I0102 16:58:45.361412 14152 net.cpp:137] Memory required for data: 107555840
I0102 16:58:45.361438 14152 layer_factory.hpp:77] Creating layer conv1_bn
I0102 16:58:45.361455 14152 net.cpp:84] Creating Layer conv1_bn
I0102 16:58:45.361461 14152 net.cpp:406] conv1_bn <- conv1
I0102 16:58:45.361469 14152 net.cpp:367] conv1_bn -> conv1 (in-place)
I0102 16:58:45.361647 14152 net.cpp:122] Setting up conv1_bn
I0102 16:58:45.361654 14152 net.cpp:129] Top shape: 40 64 56 120 (17203200)
I0102 16:58:45.361655 14152 net.cpp:137] Memory required for data: 176368640
I0102 16:58:45.361690 14152 layer_factory.hpp:77] Creating layer conv1_scale
I0102 16:58:45.361697 14152 net.cpp:84] Creating Layer conv1_scale
I0102 16:58:45.361701 14152 net.cpp:406] conv1_scale <- conv1
I0102 16:58:45.361706 14152 net.cpp:367] conv1_scale -> conv1 (in-place)
I0102 16:58:45.361737 14152 layer_factory.hpp:77] Creating layer conv1_scale
I0102 16:58:45.361815 14152 net.cpp:122] Setting up conv1_scale
I0102 16:58:45.361820 14152 net.cpp:129] Top shape: 40 64 56 120 (17203200)
I0102 16:58:45.361824 14152 net.cpp:137] Memory required for data: 245181440
I0102 16:58:45.361829 14152 layer_factory.hpp:77] Creating layer conv1_relu
I0102 16:58:45.361835 14152 net.cpp:84] Creating Layer conv1_relu
I0102 16:58:45.361840 14152 net.cpp:406] conv1_relu <- conv1
I0102 16:58:45.361843 14152 net.cpp:367] conv1_relu -> conv1 (in-place)
I0102 16:58:45.361956 14152 net.cpp:122] Setting up conv1_relu
I0102 16:58:45.361963 14152 net.cpp:129] Top shape: 40 64 56 120 (17203200)
I0102 16:58:45.361965 14152 net.cpp:137] Memory required for data: 313994240
I0102 16:58:45.361969 14152 layer_factory.hpp:77] Creating layer conv1_pool
I0102 16:58:45.361974 14152 net.cpp:84] Creating Layer conv1_pool
I0102 16:58:45.361979 14152 net.cpp:406] conv1_pool <- conv1
I0102 16:58:45.361984 14152 net.cpp:380] conv1_pool -> conv1_pool
I0102 16:58:45.362016 14152 net.cpp:122] Setting up conv1_pool
I0102 16:58:45.362021 14152 net.cpp:129] Top shape: 40 64 28 60 (4300800)
I0102 16:58:45.362025 14152 net.cpp:137] Memory required for data: 331197440
I0102 16:58:45.362028 14152 layer_factory.hpp:77] Creating layer layer_64_1_conv1
I0102 16:58:45.362036 14152 net.cpp:84] Creating Layer layer_64_1_conv1
I0102 16:58:45.362040 14152 net.cpp:406] layer_64_1_conv1 <- conv1_pool
I0102 16:58:45.362046 14152 net.cpp:380] layer_64_1_conv1 -> layer_64_1_conv1
I0102 16:58:45.363302 14152 net.cpp:122] Setting up layer_64_1_conv1
I0102 16:58:45.363310 14152 net.cpp:129] Top shape: 40 64 28 60 (4300800)
I0102 16:58:45.363314 14152 net.cpp:137] Memory required for data: 348400640
I0102 16:58:45.363319 14152 layer_factory.hpp:77] Creating layer layer_64_1_bn2
I0102 16:58:45.363327 14152 net.cpp:84] Creating Layer layer_64_1_bn2
I0102 16:58:45.363332 14152 net.cpp:406] layer_64_1_bn2 <- layer_64_1_conv1
I0102 16:58:45.363337 14152 net.cpp:367] layer_64_1_bn2 -> layer_64_1_conv1 (in-place)
I0102 16:58:45.363450 14152 net.cpp:122] Setting up layer_64_1_bn2
I0102 16:58:45.363456 14152 net.cpp:129] Top shape: 40 64 28 60 (4300800)
I0102 16:58:45.363458 14152 net.cpp:137] Memory required for data: 365603840
I0102 16:58:45.363466 14152 layer_factory.hpp:77] Creating layer layer_64_1_scale2
I0102 16:58:45.363471 14152 net.cpp:84] Creating Layer layer_64_1_scale2
I0102 16:58:45.363476 14152 net.cpp:406] layer_64_1_scale2 <- layer_64_1_conv1
I0102 16:58:45.363481 14152 net.cpp:367] layer_64_1_scale2 -> layer_64_1_conv1 (in-place)
I0102 16:58:45.363505 14152 layer_factory.hpp:77] Creating layer layer_64_1_scale2
I0102 16:58:45.363584 14152 net.cpp:122] Setting up layer_64_1_scale2
I0102 16:58:45.363591 14152 net.cpp:129] Top shape: 40 64 28 60 (4300800)
I0102 16:58:45.363595 14152 net.cpp:137] Memory required for data: 382807040
I0102 16:58:45.363602 14152 layer_factory.hpp:77] Creating layer layer_64_1_relu2
I0102 16:58:45.363607 14152 net.cpp:84] Creating Layer layer_64_1_relu2
I0102 16:58:45.363611 14152 net.cpp:406] layer_64_1_relu2 <- layer_64_1_conv1
I0102 16:58:45.363616 14152 net.cpp:367] layer_64_1_relu2 -> layer_64_1_conv1 (in-place)
I0102 16:58:45.363723 14152 net.cpp:122] Setting up layer_64_1_relu2
I0102 16:58:45.363729 14152 net.cpp:129] Top shape: 40 64 28 60 (4300800)
I0102 16:58:45.363732 14152 net.cpp:137] Memory required for data: 400010240
I0102 16:58:45.363735 14152 layer_factory.hpp:77] Creating layer layer_64_1_conv1_layer_64_1_relu2_0_split
I0102 16:58:45.363741 14152 net.cpp:84] Creating Layer layer_64_1_conv1_layer_64_1_relu2_0_split
I0102 16:58:45.363745 14152 net.cpp:406] layer_64_1_conv1_layer_64_1_relu2_0_split <- layer_64_1_conv1
I0102 16:58:45.363759 14152 net.cpp:380] layer_64_1_conv1_layer_64_1_relu2_0_split -> layer_64_1_conv1_layer_64_1_relu2_0_split_0
I0102 16:58:45.363767 14152 net.cpp:380] layer_64_1_conv1_layer_64_1_relu2_0_split -> layer_64_1_conv1_layer_64_1_relu2_0_split_1
I0102 16:58:45.363795 14152 net.cpp:122] Setting up layer_64_1_conv1_layer_64_1_relu2_0_split
I0102 16:58:45.363801 14152 net.cpp:129] Top shape: 40 64 28 60 (4300800)
I0102 16:58:45.363804 14152 net.cpp:129] Top shape: 40 64 28 60 (4300800)
I0102 16:58:45.363807 14152 net.cpp:137] Memory required for data: 434416640
I0102 16:58:45.363811 14152 layer_factory.hpp:77] Creating layer layer_64_1_conv2
I0102 16:58:45.363818 14152 net.cpp:84] Creating Layer layer_64_1_conv2
I0102 16:58:45.363822 14152 net.cpp:406] layer_64_1_conv2 <- layer_64_1_conv1_layer_64_1_relu2_0_split_0
I0102 16:58:45.363827 14152 net.cpp:380] layer_64_1_conv2 -> layer_64_1_conv2
I0102 16:58:45.364701 14152 net.cpp:122] Setting up layer_64_1_conv2
I0102 16:58:45.364709 14152 net.cpp:129] Top shape: 40 64 28 60 (4300800)
I0102 16:58:45.364713 14152 net.cpp:137] Memory required for data: 451619840
I0102 16:58:45.364718 14152 layer_factory.hpp:77] Creating layer layer_64_1_bn3
I0102 16:58:45.364725 14152 net.cpp:84] Creating Layer layer_64_1_bn3
I0102 16:58:45.364729 14152 net.cpp:406] layer_64_1_bn3 <- layer_64_1_conv2
I0102 16:58:45.364734 14152 net.cpp:367] layer_64_1_bn3 -> layer_64_1_conv2 (in-place)
I0102 16:58:45.364853 14152 net.cpp:122] Setting up layer_64_1_bn3
I0102 16:58:45.364858 14152 net.cpp:129] Top shape: 40 64 28 60 (4300800)
I0102 16:58:45.364861 14152 net.cpp:137] Memory required for data: 468823040
I0102 16:58:45.364869 14152 layer_factory.hpp:77] Creating layer layer_64_1_scale3
I0102 16:58:45.364876 14152 net.cpp:84] Creating Layer layer_64_1_scale3
I0102 16:58:45.364878 14152 net.cpp:406] layer_64_1_scale3 <- layer_64_1_conv2
I0102 16:58:45.364883 14152 net.cpp:367] layer_64_1_scale3 -> layer_64_1_conv2 (in-place)
I0102 16:58:45.364910 14152 layer_factory.hpp:77] Creating layer layer_64_1_scale3
I0102 16:58:45.364981 14152 net.cpp:122] Setting up layer_64_1_scale3
I0102 16:58:45.364986 14152 net.cpp:129] Top shape: 40 64 28 60 (4300800)
I0102 16:58:45.364989 14152 net.cpp:137] Memory required for data: 486026240
I0102 16:58:45.364995 14152 layer_factory.hpp:77] Creating layer layer_64_1_relu3
I0102 16:58:45.365000 14152 net.cpp:84] Creating Layer layer_64_1_relu3
I0102 16:58:45.365005 14152 net.cpp:406] layer_64_1_relu3 <- layer_64_1_conv2
I0102 16:58:45.365010 14152 net.cpp:367] layer_64_1_relu3 -> layer_64_1_conv2 (in-place)
I0102 16:58:45.365114 14152 net.cpp:122] Setting up layer_64_1_relu3
I0102 16:58:45.365119 14152 net.cpp:129] Top shape: 40 64 28 60 (4300800)
I0102 16:58:45.365123 14152 net.cpp:137] Memory required for data: 503229440
I0102 16:58:45.365125 14152 layer_factory.hpp:77] Creating layer layer_64_1_conv3
I0102 16:58:45.365134 14152 net.cpp:84] Creating Layer layer_64_1_conv3
I0102 16:58:45.365137 14152 net.cpp:406] layer_64_1_conv3 <- layer_64_1_conv2
I0102 16:58:45.365142 14152 net.cpp:380] layer_64_1_conv3 -> layer_64_1_conv3
I0102 16:58:45.365900 14152 net.cpp:122] Setting up layer_64_1_conv3
I0102 16:58:45.365909 14152 net.cpp:129] Top shape: 40 256 28 60 (17203200)
I0102 16:58:45.365913 14152 net.cpp:137] Memory required for data: 572042240
I0102 16:58:45.365918 14152 layer_factory.hpp:77] Creating layer layer_64_1_conv_expand
I0102 16:58:45.365927 14152 net.cpp:84] Creating Layer layer_64_1_conv_expand
I0102 16:58:45.365931 14152 net.cpp:406] layer_64_1_conv_expand <- layer_64_1_conv1_layer_64_1_relu2_0_split_1
I0102 16:58:45.365937 14152 net.cpp:380] layer_64_1_conv_expand -> layer_64_1_conv_expand
I0102 16:58:45.366685 14152 net.cpp:122] Setting up layer_64_1_conv_expand
I0102 16:58:45.366693 14152 net.cpp:129] Top shape: 40 256 28 60 (17203200)
I0102 16:58:45.366696 14152 net.cpp:137] Memory required for data: 640855040
I0102 16:58:45.366703 14152 layer_factory.hpp:77] Creating layer layer_64_1_sum
I0102 16:58:45.366709 14152 net.cpp:84] Creating Layer layer_64_1_sum
I0102 16:58:45.366720 14152 net.cpp:406] layer_64_1_sum <- layer_64_1_conv3
I0102 16:58:45.366725 14152 net.cpp:406] layer_64_1_sum <- layer_64_1_conv_expand
I0102 16:58:45.366730 14152 net.cpp:380] layer_64_1_sum -> layer_64_1_sum
I0102 16:58:45.366750 14152 net.cpp:122] Setting up layer_64_1_sum
I0102 16:58:45.366755 14152 net.cpp:129] Top shape: 40 256 28 60 (17203200)
I0102 16:58:45.366757 14152 net.cpp:137] Memory required for data: 709667840
I0102 16:58:45.366761 14152 layer_factory.hpp:77] Creating layer layer_64_1_sum_layer_64_1_sum_0_split
I0102 16:58:45.366765 14152 net.cpp:84] Creating Layer layer_64_1_sum_layer_64_1_sum_0_split
I0102 16:58:45.366768 14152 net.cpp:406] layer_64_1_sum_layer_64_1_sum_0_split <- layer_64_1_sum
I0102 16:58:45.366773 14152 net.cpp:380] layer_64_1_sum_layer_64_1_sum_0_split -> layer_64_1_sum_layer_64_1_sum_0_split_0
I0102 16:58:45.366780 14152 net.cpp:380] layer_64_1_sum_layer_64_1_sum_0_split -> layer_64_1_sum_layer_64_1_sum_0_split_1
I0102 16:58:45.366804 14152 net.cpp:122] Setting up layer_64_1_sum_layer_64_1_sum_0_split
I0102 16:58:45.366809 14152 net.cpp:129] Top shape: 40 256 28 60 (17203200)
I0102 16:58:45.366813 14152 net.cpp:129] Top shape: 40 256 28 60 (17203200)
I0102 16:58:45.366817 14152 net.cpp:137] Memory required for data: 847293440
I0102 16:58:45.366821 14152 layer_factory.hpp:77] Creating layer layer_64_2_bn1
I0102 16:58:45.366827 14152 net.cpp:84] Creating Layer layer_64_2_bn1
I0102 16:58:45.366829 14152 net.cpp:406] layer_64_2_bn1 <- layer_64_1_sum_layer_64_1_sum_0_split_0
I0102 16:58:45.366835 14152 net.cpp:380] layer_64_2_bn1 -> layer_64_2_bn1
I0102 16:58:45.366955 14152 net.cpp:122] Setting up layer_64_2_bn1
I0102 16:58:45.366960 14152 net.cpp:129] Top shape: 40 256 28 60 (17203200)
I0102 16:58:45.366962 14152 net.cpp:137] Memory required for data: 916106240
I0102 16:58:45.366971 14152 layer_factory.hpp:77] Creating layer layer_64_2_scale1
I0102 16:58:45.366976 14152 net.cpp:84] Creating Layer layer_64_2_scale1
I0102 16:58:45.366979 14152 net.cpp:406] layer_64_2_scale1 <- layer_64_2_bn1
I0102 16:58:45.366984 14152 net.cpp:367] layer_64_2_scale1 -> layer_64_2_bn1 (in-place)
I0102 16:58:45.367012 14152 layer_factory.hpp:77] Creating layer layer_64_2_scale1
I0102 16:58:45.367080 14152 net.cpp:122] Setting up layer_64_2_scale1
I0102 16:58:45.367085 14152 net.cpp:129] Top shape: 40 256 28 60 (17203200)
I0102 16:58:45.367089 14152 net.cpp:137] Memory required for data: 984919040
I0102 16:58:45.367094 14152 layer_factory.hpp:77] Creating layer layer_64_2_relu1
I0102 16:58:45.367100 14152 net.cpp:84] Creating Layer layer_64_2_relu1
I0102 16:58:45.367102 14152 net.cpp:406] layer_64_2_relu1 <- layer_64_2_bn1
I0102 16:58:45.367107 14152 net.cpp:367] layer_64_2_relu1 -> layer_64_2_bn1 (in-place)
I0102 16:58:45.367214 14152 net.cpp:122] Setting up layer_64_2_relu1
I0102 16:58:45.367220 14152 net.cpp:129] Top shape: 40 256 28 60 (17203200)
I0102 16:58:45.367223 14152 net.cpp:137] Memory required for data: 1053731840
I0102 16:58:45.367226 14152 layer_factory.hpp:77] Creating layer layer_64_2_conv1
I0102 16:58:45.367234 14152 net.cpp:84] Creating Layer layer_64_2_conv1
I0102 16:58:45.367238 14152 net.cpp:406] layer_64_2_conv1 <- layer_64_2_bn1
I0102 16:58:45.367244 14152 net.cpp:380] layer_64_2_conv1 -> layer_64_2_conv1
I0102 16:58:45.368003 14152 net.cpp:122] Setting up layer_64_2_conv1
I0102 16:58:45.368012 14152 net.cpp:129] Top shape: 40 64 28 60 (4300800)
I0102 16:58:45.368016 14152 net.cpp:137] Memory required for data: 1070935040
I0102 16:58:45.368021 14152 layer_factory.hpp:77] Creating layer layer_64_2_bn2
I0102 16:58:45.368027 14152 net.cpp:84] Creating Layer layer_64_2_bn2
I0102 16:58:45.368032 14152 net.cpp:406] layer_64_2_bn2 <- layer_64_2_conv1
I0102 16:58:45.368037 14152 net.cpp:367] layer_64_2_bn2 -> layer_64_2_conv1 (in-place)
I0102 16:58:45.368157 14152 net.cpp:122] Setting up layer_64_2_bn2
I0102 16:58:45.368163 14152 net.cpp:129] Top shape: 40 64 28 60 (4300800)
I0102 16:58:45.368166 14152 net.cpp:137] Memory required for data: 1088138240
I0102 16:58:45.368182 14152 layer_factory.hpp:77] Creating layer layer_64_2_scale2
I0102 16:58:45.368190 14152 net.cpp:84] Creating Layer layer_64_2_scale2
I0102 16:58:45.368192 14152 net.cpp:406] layer_64_2_scale2 <- layer_64_2_conv1
I0102 16:58:45.368198 14152 net.cpp:367] layer_64_2_scale2 -> layer_64_2_conv1 (in-place)
I0102 16:58:45.368227 14152 layer_factory.hpp:77] Creating layer layer_64_2_scale2
I0102 16:58:45.368299 14152 net.cpp:122] Setting up layer_64_2_scale2
I0102 16:58:45.368304 14152 net.cpp:129] Top shape: 40 64 28 60 (4300800)
I0102 16:58:45.368307 14152 net.cpp:137] Memory required for data: 1105341440
I0102 16:58:45.368314 14152 layer_factory.hpp:77] Creating layer layer_64_2_relu2
I0102 16:58:45.368319 14152 net.cpp:84] Creating Layer layer_64_2_relu2
I0102 16:58:45.368322 14152 net.cpp:406] layer_64_2_relu2 <- layer_64_2_conv1
I0102 16:58:45.368327 14152 net.cpp:367] layer_64_2_relu2 -> layer_64_2_conv1 (in-place)
I0102 16:58:45.368438 14152 net.cpp:122] Setting up layer_64_2_relu2
I0102 16:58:45.368443 14152 net.cpp:129] Top shape: 40 64 28 60 (4300800)
I0102 16:58:45.368445 14152 net.cpp:137] Memory required for data: 1122544640
I0102 16:58:45.368449 14152 layer_factory.hpp:77] Creating layer layer_64_2_conv2
I0102 16:58:45.368458 14152 net.cpp:84] Creating Layer layer_64_2_conv2
I0102 16:58:45.368463 14152 net.cpp:406] layer_64_2_conv2 <- layer_64_2_conv1
I0102 16:58:45.368468 14152 net.cpp:380] layer_64_2_conv2 -> layer_64_2_conv2
I0102 16:58:45.369351 14152 net.cpp:122] Setting up layer_64_2_conv2
I0102 16:58:45.369359 14152 net.cpp:129] Top shape: 40 64 28 60 (4300800)
I0102 16:58:45.369364 14152 net.cpp:137] Memory required for data: 1139747840
I0102 16:58:45.369369 14152 layer_factory.hpp:77] Creating layer layer_64_2_bn3
I0102 16:58:45.369374 14152 net.cpp:84] Creating Layer layer_64_2_bn3
I0102 16:58:45.369379 14152 net.cpp:406] layer_64_2_bn3 <- layer_64_2_conv2
I0102 16:58:45.369385 14152 net.cpp:367] layer_64_2_bn3 -> layer_64_2_conv2 (in-place)
I0102 16:58:45.369508 14152 net.cpp:122] Setting up layer_64_2_bn3
I0102 16:58:45.369513 14152 net.cpp:129] Top shape: 40 64 28 60 (4300800)
I0102 16:58:45.369516 14152 net.cpp:137] Memory required for data: 1156951040
I0102 16:58:45.369524 14152 layer_factory.hpp:77] Creating layer layer_64_2_scale3
I0102 16:58:45.369529 14152 net.cpp:84] Creating Layer layer_64_2_scale3
I0102 16:58:45.369532 14152 net.cpp:406] layer_64_2_scale3 <- layer_64_2_conv2
I0102 16:58:45.369539 14152 net.cpp:367] layer_64_2_scale3 -> layer_64_2_conv2 (in-place)
I0102 16:58:45.369565 14152 layer_factory.hpp:77] Creating layer layer_64_2_scale3
I0102 16:58:45.369639 14152 net.cpp:122] Setting up layer_64_2_scale3
I0102 16:58:45.369644 14152 net.cpp:129] Top shape: 40 64 28 60 (4300800)
I0102 16:58:45.369648 14152 net.cpp:137] Memory required for data: 1174154240
I0102 16:58:45.369654 14152 layer_factory.hpp:77] Creating layer layer_64_2_relu3
I0102 16:58:45.369659 14152 net.cpp:84] Creating Layer layer_64_2_relu3
I0102 16:58:45.369663 14152 net.cpp:406] layer_64_2_relu3 <- layer_64_2_conv2
I0102 16:58:45.369668 14152 net.cpp:367] layer_64_2_relu3 -> layer_64_2_conv2 (in-place)
I0102 16:58:45.370007 14152 net.cpp:122] Setting up layer_64_2_relu3
I0102 16:58:45.370014 14152 net.cpp:129] Top shape: 40 64 28 60 (4300800)
I0102 16:58:45.370018 14152 net.cpp:137] Memory required for data: 1191357440
I0102 16:58:45.370021 14152 layer_factory.hpp:77] Creating layer layer_64_2_conv3
I0102 16:58:45.370029 14152 net.cpp:84] Creating Layer layer_64_2_conv3
I0102 16:58:45.370033 14152 net.cpp:406] layer_64_2_conv3 <- layer_64_2_conv2
I0102 16:58:45.370039 14152 net.cpp:380] layer_64_2_conv3 -> layer_64_2_conv3
I0102 16:58:45.370807 14152 net.cpp:122] Setting up layer_64_2_conv3
I0102 16:58:45.370815 14152 net.cpp:129] Top shape: 40 256 28 60 (17203200)
I0102 16:58:45.370818 14152 net.cpp:137] Memory required for data: 1260170240
I0102 16:58:45.370823 14152 layer_factory.hpp:77] Creating layer layer_64_2_sum
I0102 16:58:45.370831 14152 net.cpp:84] Creating Layer layer_64_2_sum
I0102 16:58:45.370841 14152 net.cpp:406] layer_64_2_sum <- layer_64_2_conv3
I0102 16:58:45.370846 14152 net.cpp:406] layer_64_2_sum <- layer_64_1_sum_layer_64_1_sum_0_split_1
I0102 16:58:45.370849 14152 net.cpp:380] layer_64_2_sum -> layer_64_2_sum
I0102 16:58:45.370869 14152 net.cpp:122] Setting up layer_64_2_sum
I0102 16:58:45.370874 14152 net.cpp:129] Top shape: 40 256 28 60 (17203200)
I0102 16:58:45.370877 14152 net.cpp:137] Memory required for data: 1328983040
I0102 16:58:45.370880 14152 layer_factory.hpp:77] Creating layer layer_64_2_sum_layer_64_2_sum_0_split
I0102 16:58:45.370885 14152 net.cpp:84] Creating Layer layer_64_2_sum_layer_64_2_sum_0_split
I0102 16:58:45.370888 14152 net.cpp:406] layer_64_2_sum_layer_64_2_sum_0_split <- layer_64_2_sum
I0102 16:58:45.370893 14152 net.cpp:380] layer_64_2_sum_layer_64_2_sum_0_split -> layer_64_2_sum_layer_64_2_sum_0_split_0
I0102 16:58:45.370899 14152 net.cpp:380] layer_64_2_sum_layer_64_2_sum_0_split -> layer_64_2_sum_layer_64_2_sum_0_split_1
I0102 16:58:45.370925 14152 net.cpp:122] Setting up layer_64_2_sum_layer_64_2_sum_0_split
I0102 16:58:45.370930 14152 net.cpp:129] Top shape: 40 256 28 60 (17203200)
I0102 16:58:45.370934 14152 net.cpp:129] Top shape: 40 256 28 60 (17203200)
I0102 16:58:45.370937 14152 net.cpp:137] Memory required for data: 1466608640
I0102 16:58:45.370940 14152 layer_factory.hpp:77] Creating layer layer_64_3_bn1
I0102 16:58:45.370946 14152 net.cpp:84] Creating Layer layer_64_3_bn1
I0102 16:58:45.370950 14152 net.cpp:406] layer_64_3_bn1 <- layer_64_2_sum_layer_64_2_sum_0_split_0
I0102 16:58:45.370955 14152 net.cpp:380] layer_64_3_bn1 -> layer_64_3_bn1
I0102 16:58:45.371078 14152 net.cpp:122] Setting up layer_64_3_bn1
I0102 16:58:45.371083 14152 net.cpp:129] Top shape: 40 256 28 60 (17203200)
I0102 16:58:45.371085 14152 net.cpp:137] Memory required for data: 1535421440
I0102 16:58:45.371093 14152 layer_factory.hpp:77] Creating layer layer_64_3_scale1
I0102 16:58:45.371098 14152 net.cpp:84] Creating Layer layer_64_3_scale1
I0102 16:58:45.371104 14152 net.cpp:406] layer_64_3_scale1 <- layer_64_3_bn1
I0102 16:58:45.371107 14152 net.cpp:367] layer_64_3_scale1 -> layer_64_3_bn1 (in-place)
I0102 16:58:45.371135 14152 layer_factory.hpp:77] Creating layer layer_64_3_scale1
I0102 16:58:45.371202 14152 net.cpp:122] Setting up layer_64_3_scale1
I0102 16:58:45.371208 14152 net.cpp:129] Top shape: 40 256 28 60 (17203200)
I0102 16:58:45.371212 14152 net.cpp:137] Memory required for data: 1604234240
I0102 16:58:45.371217 14152 layer_factory.hpp:77] Creating layer layer_64_3_relu1
I0102 16:58:45.371222 14152 net.cpp:84] Creating Layer layer_64_3_relu1
I0102 16:58:45.371225 14152 net.cpp:406] layer_64_3_relu1 <- layer_64_3_bn1
I0102 16:58:45.371230 14152 net.cpp:367] layer_64_3_relu1 -> layer_64_3_bn1 (in-place)
I0102 16:58:45.371340 14152 net.cpp:122] Setting up layer_64_3_relu1
I0102 16:58:45.371345 14152 net.cpp:129] Top shape: 40 256 28 60 (17203200)
I0102 16:58:45.371348 14152 net.cpp:137] Memory required for data: 1673047040
I0102 16:58:45.371351 14152 layer_factory.hpp:77] Creating layer layer_64_3_conv1
I0102 16:58:45.371358 14152 net.cpp:84] Creating Layer layer_64_3_conv1
I0102 16:58:45.371362 14152 net.cpp:406] layer_64_3_conv1 <- layer_64_3_bn1
I0102 16:58:45.371368 14152 net.cpp:380] layer_64_3_conv1 -> layer_64_3_conv1
I0102 16:58:45.372144 14152 net.cpp:122] Setting up layer_64_3_conv1
I0102 16:58:45.372153 14152 net.cpp:129] Top shape: 40 64 28 60 (4300800)
I0102 16:58:45.372156 14152 net.cpp:137] Memory required for data: 1690250240
I0102 16:58:45.372161 14152 layer_factory.hpp:77] Creating layer layer_64_3_bn2
I0102 16:58:45.372169 14152 net.cpp:84] Creating Layer layer_64_3_bn2
I0102 16:58:45.372174 14152 net.cpp:406] layer_64_3_bn2 <- layer_64_3_conv1
I0102 16:58:45.372179 14152 net.cpp:367] layer_64_3_bn2 -> layer_64_3_conv1 (in-place)
I0102 16:58:45.372308 14152 net.cpp:122] Setting up layer_64_3_bn2
I0102 16:58:45.372313 14152 net.cpp:129] Top shape: 40 64 28 60 (4300800)
I0102 16:58:45.372315 14152 net.cpp:137] Memory required for data: 1707453440
I0102 16:58:45.372329 14152 layer_factory.hpp:77] Creating layer layer_64_3_scale2
I0102 16:58:45.372336 14152 net.cpp:84] Creating Layer layer_64_3_scale2
I0102 16:58:45.372339 14152 net.cpp:406] layer_64_3_scale2 <- layer_64_3_conv1
I0102 16:58:45.372346 14152 net.cpp:367] layer_64_3_scale2 -> layer_64_3_conv1 (in-place)
I0102 16:58:45.372376 14152 layer_factory.hpp:77] Creating layer layer_64_3_scale2
I0102 16:58:45.372453 14152 net.cpp:122] Setting up layer_64_3_scale2
I0102 16:58:45.372458 14152 net.cpp:129] Top shape: 40 64 28 60 (4300800)
I0102 16:58:45.372462 14152 net.cpp:137] Memory required for data: 1724656640
I0102 16:58:45.372467 14152 layer_factory.hpp:77] Creating layer layer_64_3_relu2
I0102 16:58:45.372473 14152 net.cpp:84] Creating Layer layer_64_3_relu2
I0102 16:58:45.372478 14152 net.cpp:406] layer_64_3_relu2 <- layer_64_3_conv1
I0102 16:58:45.372483 14152 net.cpp:367] layer_64_3_relu2 -> layer_64_3_conv1 (in-place)
I0102 16:58:45.372596 14152 net.cpp:122] Setting up layer_64_3_relu2
I0102 16:58:45.372604 14152 net.cpp:129] Top shape: 40 64 28 60 (4300800)
I0102 16:58:45.372607 14152 net.cpp:137] Memory required for data: 1741859840
I0102 16:58:45.372611 14152 layer_factory.hpp:77] Creating layer layer_64_3_conv2
I0102 16:58:45.372618 14152 net.cpp:84] Creating Layer layer_64_3_conv2
I0102 16:58:45.372622 14152 net.cpp:406] layer_64_3_conv2 <- layer_64_3_conv1
I0102 16:58:45.372629 14152 net.cpp:380] layer_64_3_conv2 -> layer_64_3_conv2
I0102 16:58:45.373560 14152 net.cpp:122] Setting up layer_64_3_conv2
I0102 16:58:45.373569 14152 net.cpp:129] Top shape: 40 64 28 60 (4300800)
I0102 16:58:45.373572 14152 net.cpp:137] Memory required for data: 1759063040
I0102 16:58:45.373577 14152 layer_factory.hpp:77] Creating layer layer_64_3_bn3
I0102 16:58:45.373584 14152 net.cpp:84] Creating Layer layer_64_3_bn3
I0102 16:58:45.373589 14152 net.cpp:406] layer_64_3_bn3 <- layer_64_3_conv2
I0102 16:58:45.373594 14152 net.cpp:367] layer_64_3_bn3 -> layer_64_3_conv2 (in-place)
I0102 16:58:45.373723 14152 net.cpp:122] Setting up layer_64_3_bn3
I0102 16:58:45.373728 14152 net.cpp:129] Top shape: 40 64 28 60 (4300800)
I0102 16:58:45.373731 14152 net.cpp:137] Memory required for data: 1776266240
I0102 16:58:45.373739 14152 layer_factory.hpp:77] Creating layer layer_64_3_scale3
I0102 16:58:45.373745 14152 net.cpp:84] Creating Layer layer_64_3_scale3
I0102 16:58:45.373749 14152 net.cpp:406] layer_64_3_scale3 <- layer_64_3_conv2
I0102 16:58:45.373755 14152 net.cpp:367] layer_64_3_scale3 -> layer_64_3_conv2 (in-place)
I0102 16:58:45.373785 14152 layer_factory.hpp:77] Creating layer layer_64_3_scale3
I0102 16:58:45.373878 14152 net.cpp:122] Setting up layer_64_3_scale3
I0102 16:58:45.373883 14152 net.cpp:129] Top shape: 40 64 28 60 (4300800)
I0102 16:58:45.373886 14152 net.cpp:137] Memory required for data: 1793469440
I0102 16:58:45.373893 14152 layer_factory.hpp:77] Creating layer layer_64_3_relu3
I0102 16:58:45.373899 14152 net.cpp:84] Creating Layer layer_64_3_relu3
I0102 16:58:45.373903 14152 net.cpp:406] layer_64_3_relu3 <- layer_64_3_conv2
I0102 16:58:45.373908 14152 net.cpp:367] layer_64_3_relu3 -> layer_64_3_conv2 (in-place)
I0102 16:58:45.374054 14152 net.cpp:122] Setting up layer_64_3_relu3
I0102 16:58:45.374061 14152 net.cpp:129] Top shape: 40 64 28 60 (4300800)
I0102 16:58:45.374064 14152 net.cpp:137] Memory required for data: 1810672640
I0102 16:58:45.374068 14152 layer_factory.hpp:77] Creating layer layer_64_3_conv3
I0102 16:58:45.374078 14152 net.cpp:84] Creating Layer layer_64_3_conv3
I0102 16:58:45.374081 14152 net.cpp:406] layer_64_3_conv3 <- layer_64_3_conv2
I0102 16:58:45.374085 14152 net.cpp:380] layer_64_3_conv3 -> layer_64_3_conv3
I0102 16:58:45.374969 14152 net.cpp:122] Setting up layer_64_3_conv3
I0102 16:58:45.374976 14152 net.cpp:129] Top shape: 40 256 28 60 (17203200)
I0102 16:58:45.374980 14152 net.cpp:137] Memory required for data: 1879485440
I0102 16:58:45.374985 14152 layer_factory.hpp:77] Creating layer layer_64_3_sum
I0102 16:58:45.374991 14152 net.cpp:84] Creating Layer layer_64_3_sum
I0102 16:58:45.375002 14152 net.cpp:406] layer_64_3_sum <- layer_64_3_conv3
I0102 16:58:45.375007 14152 net.cpp:406] layer_64_3_sum <- layer_64_2_sum_layer_64_2_sum_0_split_1
I0102 16:58:45.375015 14152 net.cpp:380] layer_64_3_sum -> layer_64_3_sum
I0102 16:58:45.375036 14152 net.cpp:122] Setting up layer_64_3_sum
I0102 16:58:45.375042 14152 net.cpp:129] Top shape: 40 256 28 60 (17203200)
I0102 16:58:45.375046 14152 net.cpp:137] Memory required for data: 1948298240
I0102 16:58:45.375048 14152 layer_factory.hpp:77] Creating layer layer_128_1_bn1
I0102 16:58:45.375054 14152 net.cpp:84] Creating Layer layer_128_1_bn1
I0102 16:58:45.375057 14152 net.cpp:406] layer_128_1_bn1 <- layer_64_3_sum
I0102 16:58:45.375064 14152 net.cpp:380] layer_128_1_bn1 -> layer_128_1_bn1
I0102 16:58:45.375196 14152 net.cpp:122] Setting up layer_128_1_bn1
I0102 16:58:45.375201 14152 net.cpp:129] Top shape: 40 256 28 60 (17203200)
I0102 16:58:45.375205 14152 net.cpp:137] Memory required for data: 2017111040
I0102 16:58:45.375216 14152 layer_factory.hpp:77] Creating layer layer_128_1_scale1
I0102 16:58:45.375222 14152 net.cpp:84] Creating Layer layer_128_1_scale1
I0102 16:58:45.375226 14152 net.cpp:406] layer_128_1_scale1 <- layer_128_1_bn1
I0102 16:58:45.375231 14152 net.cpp:367] layer_128_1_scale1 -> layer_128_1_bn1 (in-place)
I0102 16:58:45.375262 14152 layer_factory.hpp:77] Creating layer layer_128_1_scale1
I0102 16:58:45.375337 14152 net.cpp:122] Setting up layer_128_1_scale1
I0102 16:58:45.375342 14152 net.cpp:129] Top shape: 40 256 28 60 (17203200)
I0102 16:58:45.375345 14152 net.cpp:137] Memory required for data: 2085923840
I0102 16:58:45.375351 14152 layer_factory.hpp:77] Creating layer layer_128_1_relu1
I0102 16:58:45.375356 14152 net.cpp:84] Creating Layer layer_128_1_relu1
I0102 16:58:45.375360 14152 net.cpp:406] layer_128_1_relu1 <- layer_128_1_bn1
I0102 16:58:45.375365 14152 net.cpp:367] layer_128_1_relu1 -> layer_128_1_bn1 (in-place)
I0102 16:58:45.375481 14152 net.cpp:122] Setting up layer_128_1_relu1
I0102 16:58:45.375488 14152 net.cpp:129] Top shape: 40 256 28 60 (17203200)
I0102 16:58:45.375490 14152 net.cpp:137] Memory required for data: 2154736640
I0102 16:58:45.375494 14152 layer_factory.hpp:77] Creating layer layer_128_1_bn1_layer_128_1_relu1_0_split
I0102 16:58:45.375500 14152 net.cpp:84] Creating Layer layer_128_1_bn1_layer_128_1_relu1_0_split
I0102 16:58:45.375504 14152 net.cpp:406] layer_128_1_bn1_layer_128_1_relu1_0_split <- layer_128_1_bn1
I0102 16:58:45.375509 14152 net.cpp:380] layer_128_1_bn1_layer_128_1_relu1_0_split -> layer_128_1_bn1_layer_128_1_relu1_0_split_0
I0102 16:58:45.375517 14152 net.cpp:380] layer_128_1_bn1_layer_128_1_relu1_0_split -> layer_128_1_bn1_layer_128_1_relu1_0_split_1
I0102 16:58:45.375566 14152 net.cpp:122] Setting up layer_128_1_bn1_layer_128_1_relu1_0_split
I0102 16:58:45.375572 14152 net.cpp:129] Top shape: 40 256 28 60 (17203200)
I0102 16:58:45.375577 14152 net.cpp:129] Top shape: 40 256 28 60 (17203200)
I0102 16:58:45.375579 14152 net.cpp:137] Memory required for data: 2292362240
I0102 16:58:45.375583 14152 layer_factory.hpp:77] Creating layer layer_128_1_conv1
I0102 16:58:45.375592 14152 net.cpp:84] Creating Layer layer_128_1_conv1
I0102 16:58:45.375597 14152 net.cpp:406] layer_128_1_conv1 <- layer_128_1_bn1_layer_128_1_relu1_0_split_0
I0102 16:58:45.375603 14152 net.cpp:380] layer_128_1_conv1 -> layer_128_1_conv1
I0102 16:58:45.376574 14152 net.cpp:122] Setting up layer_128_1_conv1
I0102 16:58:45.376582 14152 net.cpp:129] Top shape: 40 128 28 60 (8601600)
I0102 16:58:45.376585 14152 net.cpp:137] Memory required for data: 2326768640
I0102 16:58:45.376605 14152 layer_factory.hpp:77] Creating layer layer_128_1_bn2
I0102 16:58:45.376615 14152 net.cpp:84] Creating Layer layer_128_1_bn2
I0102 16:58:45.376618 14152 net.cpp:406] layer_128_1_bn2 <- layer_128_1_conv1
I0102 16:58:45.376622 14152 net.cpp:367] layer_128_1_bn2 -> layer_128_1_conv1 (in-place)
I0102 16:58:45.376791 14152 net.cpp:122] Setting up layer_128_1_bn2
I0102 16:58:45.376796 14152 net.cpp:129] Top shape: 40 128 28 60 (8601600)
I0102 16:58:45.376821 14152 net.cpp:137] Memory required for data: 2361175040
I0102 16:58:45.376828 14152 layer_factory.hpp:77] Creating layer layer_128_1_scale2
I0102 16:58:45.376837 14152 net.cpp:84] Creating Layer layer_128_1_scale2
I0102 16:58:45.376839 14152 net.cpp:406] layer_128_1_scale2 <- layer_128_1_conv1
I0102 16:58:45.376845 14152 net.cpp:367] layer_128_1_scale2 -> layer_128_1_conv1 (in-place)
I0102 16:58:45.376904 14152 layer_factory.hpp:77] Creating layer layer_128_1_scale2
I0102 16:58:45.377015 14152 net.cpp:122] Setting up layer_128_1_scale2
I0102 16:58:45.377022 14152 net.cpp:129] Top shape: 40 128 28 60 (8601600)
I0102 16:58:45.377023 14152 net.cpp:137] Memory required for data: 2395581440
I0102 16:58:45.377045 14152 layer_factory.hpp:77] Creating layer layer_128_1_relu2
I0102 16:58:45.377050 14152 net.cpp:84] Creating Layer layer_128_1_relu2
I0102 16:58:45.377053 14152 net.cpp:406] layer_128_1_relu2 <- layer_128_1_conv1
I0102 16:58:45.377059 14152 net.cpp:367] layer_128_1_relu2 -> layer_128_1_conv1 (in-place)
I0102 16:58:45.377178 14152 net.cpp:122] Setting up layer_128_1_relu2
I0102 16:58:45.377184 14152 net.cpp:129] Top shape: 40 128 28 60 (8601600)
I0102 16:58:45.377187 14152 net.cpp:137] Memory required for data: 2429987840
I0102 16:58:45.377190 14152 layer_factory.hpp:77] Creating layer layer_128_1_conv2
I0102 16:58:45.377199 14152 net.cpp:84] Creating Layer layer_128_1_conv2
I0102 16:58:45.377203 14152 net.cpp:406] layer_128_1_conv2 <- layer_128_1_conv1
I0102 16:58:45.377213 14152 net.cpp:380] layer_128_1_conv2 -> layer_128_1_conv2
I0102 16:58:45.379693 14152 net.cpp:122] Setting up layer_128_1_conv2
I0102 16:58:45.379704 14152 net.cpp:129] Top shape: 40 128 14 30 (2150400)
I0102 16:58:45.379707 14152 net.cpp:137] Memory required for data: 2438589440
I0102 16:58:45.379714 14152 layer_factory.hpp:77] Creating layer layer_128_1_bn3
I0102 16:58:45.379721 14152 net.cpp:84] Creating Layer layer_128_1_bn3
I0102 16:58:45.379726 14152 net.cpp:406] layer_128_1_bn3 <- layer_128_1_conv2
I0102 16:58:45.379734 14152 net.cpp:367] layer_128_1_bn3 -> layer_128_1_conv2 (in-place)
I0102 16:58:45.379909 14152 net.cpp:122] Setting up layer_128_1_bn3
I0102 16:58:45.379914 14152 net.cpp:129] Top shape: 40 128 14 30 (2150400)
I0102 16:58:45.379917 14152 net.cpp:137] Memory required for data: 2447191040
I0102 16:58:45.379940 14152 layer_factory.hpp:77] Creating layer layer_128_1_scale3
I0102 16:58:45.379946 14152 net.cpp:84] Creating Layer layer_128_1_scale3
I0102 16:58:45.379951 14152 net.cpp:406] layer_128_1_scale3 <- layer_128_1_conv2
I0102 16:58:45.379956 14152 net.cpp:367] layer_128_1_scale3 -> layer_128_1_conv2 (in-place)
I0102 16:58:45.380015 14152 layer_factory.hpp:77] Creating layer layer_128_1_scale3
I0102 16:58:45.380131 14152 net.cpp:122] Setting up layer_128_1_scale3
I0102 16:58:45.380136 14152 net.cpp:129] Top shape: 40 128 14 30 (2150400)
I0102 16:58:45.380139 14152 net.cpp:137] Memory required for data: 2455792640
I0102 16:58:45.380161 14152 layer_factory.hpp:77] Creating layer layer_128_1_relu3
I0102 16:58:45.380168 14152 net.cpp:84] Creating Layer layer_128_1_relu3
I0102 16:58:45.380172 14152 net.cpp:406] layer_128_1_relu3 <- layer_128_1_conv2
I0102 16:58:45.380177 14152 net.cpp:367] layer_128_1_relu3 -> layer_128_1_conv2 (in-place)
I0102 16:58:45.380537 14152 net.cpp:122] Setting up layer_128_1_relu3
I0102 16:58:45.380544 14152 net.cpp:129] Top shape: 40 128 14 30 (2150400)
I0102 16:58:45.380548 14152 net.cpp:137] Memory required for data: 2464394240
I0102 16:58:45.380551 14152 layer_factory.hpp:77] Creating layer layer_128_1_conv3
I0102 16:58:45.380578 14152 net.cpp:84] Creating Layer layer_128_1_conv3
I0102 16:58:45.380583 14152 net.cpp:406] layer_128_1_conv3 <- layer_128_1_conv2
I0102 16:58:45.380589 14152 net.cpp:380] layer_128_1_conv3 -> layer_128_1_conv3
I0102 16:58:45.381978 14152 net.cpp:122] Setting up layer_128_1_conv3
I0102 16:58:45.381986 14152 net.cpp:129] Top shape: 40 512 14 30 (8601600)
I0102 16:58:45.381990 14152 net.cpp:137] Memory required for data: 2498800640
I0102 16:58:45.382005 14152 layer_factory.hpp:77] Creating layer layer_128_1_conv_expand
I0102 16:58:45.382030 14152 net.cpp:84] Creating Layer layer_128_1_conv_expand
I0102 16:58:45.382032 14152 net.cpp:406] layer_128_1_conv_expand <- layer_128_1_bn1_layer_128_1_relu1_0_split_1
I0102 16:58:45.382055 14152 net.cpp:380] layer_128_1_conv_expand -> layer_128_1_conv_expand
I0102 16:58:45.383383 14152 net.cpp:122] Setting up layer_128_1_conv_expand
I0102 16:58:45.383390 14152 net.cpp:129] Top shape: 40 512 14 30 (8601600)
I0102 16:58:45.383394 14152 net.cpp:137] Memory required for data: 2533207040
I0102 16:58:45.383399 14152 layer_factory.hpp:77] Creating layer layer_128_1_sum
I0102 16:58:45.383406 14152 net.cpp:84] Creating Layer layer_128_1_sum
I0102 16:58:45.383410 14152 net.cpp:406] layer_128_1_sum <- layer_128_1_conv3
I0102 16:58:45.383414 14152 net.cpp:406] layer_128_1_sum <- layer_128_1_conv_expand
I0102 16:58:45.383420 14152 net.cpp:380] layer_128_1_sum -> layer_128_1_sum
I0102 16:58:45.383442 14152 net.cpp:122] Setting up layer_128_1_sum
I0102 16:58:45.383447 14152 net.cpp:129] Top shape: 40 512 14 30 (8601600)
I0102 16:58:45.383450 14152 net.cpp:137] Memory required for data: 2567613440
I0102 16:58:45.383455 14152 layer_factory.hpp:77] Creating layer layer_128_1_sum_layer_128_1_sum_0_split
I0102 16:58:45.383460 14152 net.cpp:84] Creating Layer layer_128_1_sum_layer_128_1_sum_0_split
I0102 16:58:45.383464 14152 net.cpp:406] layer_128_1_sum_layer_128_1_sum_0_split <- layer_128_1_sum
I0102 16:58:45.383471 14152 net.cpp:380] layer_128_1_sum_layer_128_1_sum_0_split -> layer_128_1_sum_layer_128_1_sum_0_split_0
I0102 16:58:45.383478 14152 net.cpp:380] layer_128_1_sum_layer_128_1_sum_0_split -> layer_128_1_sum_layer_128_1_sum_0_split_1
I0102 16:58:45.383486 14152 net.cpp:380] layer_128_1_sum_layer_128_1_sum_0_split -> layer_128_1_sum_layer_128_1_sum_0_split_2
I0102 16:58:45.383522 14152 net.cpp:122] Setting up layer_128_1_sum_layer_128_1_sum_0_split
I0102 16:58:45.383528 14152 net.cpp:129] Top shape: 40 512 14 30 (8601600)
I0102 16:58:45.383534 14152 net.cpp:129] Top shape: 40 512 14 30 (8601600)
I0102 16:58:45.383538 14152 net.cpp:129] Top shape: 40 512 14 30 (8601600)
I0102 16:58:45.383548 14152 net.cpp:137] Memory required for data: 2670832640
I0102 16:58:45.383553 14152 layer_factory.hpp:77] Creating layer layer_128_2_bn1
I0102 16:58:45.383558 14152 net.cpp:84] Creating Layer layer_128_2_bn1
I0102 16:58:45.383563 14152 net.cpp:406] layer_128_2_bn1 <- layer_128_1_sum_layer_128_1_sum_0_split_0
I0102 16:58:45.383569 14152 net.cpp:380] layer_128_2_bn1 -> layer_128_2_bn1
I0102 16:58:45.383708 14152 net.cpp:122] Setting up layer_128_2_bn1
I0102 16:58:45.383714 14152 net.cpp:129] Top shape: 40 512 14 30 (8601600)
I0102 16:58:45.383718 14152 net.cpp:137] Memory required for data: 2705239040
I0102 16:58:45.383724 14152 layer_factory.hpp:77] Creating layer layer_128_2_scale1
I0102 16:58:45.383731 14152 net.cpp:84] Creating Layer layer_128_2_scale1
I0102 16:58:45.383735 14152 net.cpp:406] layer_128_2_scale1 <- layer_128_2_bn1
I0102 16:58:45.383743 14152 net.cpp:367] layer_128_2_scale1 -> layer_128_2_bn1 (in-place)
I0102 16:58:45.383798 14152 layer_factory.hpp:77] Creating layer layer_128_2_scale1
I0102 16:58:45.383875 14152 net.cpp:122] Setting up layer_128_2_scale1
I0102 16:58:45.383882 14152 net.cpp:129] Top shape: 40 512 14 30 (8601600)
I0102 16:58:45.383884 14152 net.cpp:137] Memory required for data: 2739645440
I0102 16:58:45.383889 14152 layer_factory.hpp:77] Creating layer layer_128_2_relu1
I0102 16:58:45.383896 14152 net.cpp:84] Creating Layer layer_128_2_relu1
I0102 16:58:45.383900 14152 net.cpp:406] layer_128_2_relu1 <- layer_128_2_bn1
I0102 16:58:45.383905 14152 net.cpp:367] layer_128_2_relu1 -> layer_128_2_bn1 (in-place)
I0102 16:58:45.384268 14152 net.cpp:122] Setting up layer_128_2_relu1
I0102 16:58:45.384275 14152 net.cpp:129] Top shape: 40 512 14 30 (8601600)
I0102 16:58:45.384279 14152 net.cpp:137] Memory required for data: 2774051840
I0102 16:58:45.384282 14152 layer_factory.hpp:77] Creating layer layer_128_2_conv1
I0102 16:58:45.384299 14152 net.cpp:84] Creating Layer layer_128_2_conv1
I0102 16:58:45.384304 14152 net.cpp:406] layer_128_2_conv1 <- layer_128_2_bn1
I0102 16:58:45.384310 14152 net.cpp:380] layer_128_2_conv1 -> layer_128_2_conv1
I0102 16:58:45.385460 14152 net.cpp:122] Setting up layer_128_2_conv1
I0102 16:58:45.385468 14152 net.cpp:129] Top shape: 40 128 14 30 (2150400)
I0102 16:58:45.385471 14152 net.cpp:137] Memory required for data: 2782653440
I0102 16:58:45.385476 14152 layer_factory.hpp:77] Creating layer layer_128_2_bn2
I0102 16:58:45.385484 14152 net.cpp:84] Creating Layer layer_128_2_bn2
I0102 16:58:45.385488 14152 net.cpp:406] layer_128_2_bn2 <- layer_128_2_conv1
I0102 16:58:45.385495 14152 net.cpp:367] layer_128_2_bn2 -> layer_128_2_conv1 (in-place)
I0102 16:58:45.385632 14152 net.cpp:122] Setting up layer_128_2_bn2
I0102 16:58:45.385638 14152 net.cpp:129] Top shape: 40 128 14 30 (2150400)
I0102 16:58:45.385640 14152 net.cpp:137] Memory required for data: 2791255040
I0102 16:58:45.385648 14152 layer_factory.hpp:77] Creating layer layer_128_2_scale2
I0102 16:58:45.385655 14152 net.cpp:84] Creating Layer layer_128_2_scale2
I0102 16:58:45.385659 14152 net.cpp:406] layer_128_2_scale2 <- layer_128_2_conv1
I0102 16:58:45.385664 14152 net.cpp:367] layer_128_2_scale2 -> layer_128_2_conv1 (in-place)
I0102 16:58:45.385695 14152 layer_factory.hpp:77] Creating layer layer_128_2_scale2
I0102 16:58:45.385773 14152 net.cpp:122] Setting up layer_128_2_scale2
I0102 16:58:45.385779 14152 net.cpp:129] Top shape: 40 128 14 30 (2150400)
I0102 16:58:45.385782 14152 net.cpp:137] Memory required for data: 2799856640
I0102 16:58:45.385788 14152 layer_factory.hpp:77] Creating layer layer_128_2_relu2
I0102 16:58:45.385795 14152 net.cpp:84] Creating Layer layer_128_2_relu2
I0102 16:58:45.385800 14152 net.cpp:406] layer_128_2_relu2 <- layer_128_2_conv1
I0102 16:58:45.385804 14152 net.cpp:367] layer_128_2_relu2 -> layer_128_2_conv1 (in-place)
I0102 16:58:45.385918 14152 net.cpp:122] Setting up layer_128_2_relu2
I0102 16:58:45.385926 14152 net.cpp:129] Top shape: 40 128 14 30 (2150400)
I0102 16:58:45.385928 14152 net.cpp:137] Memory required for data: 2808458240
I0102 16:58:45.385931 14152 layer_factory.hpp:77] Creating layer layer_128_2_conv2
I0102 16:58:45.385939 14152 net.cpp:84] Creating Layer layer_128_2_conv2
I0102 16:58:45.385943 14152 net.cpp:406] layer_128_2_conv2 <- layer_128_2_conv1
I0102 16:58:45.385951 14152 net.cpp:380] layer_128_2_conv2 -> layer_128_2_conv2
I0102 16:58:45.387835 14152 net.cpp:122] Setting up layer_128_2_conv2
I0102 16:58:45.387843 14152 net.cpp:129] Top shape: 40 128 14 30 (2150400)
I0102 16:58:45.387846 14152 net.cpp:137] Memory required for data: 2817059840
I0102 16:58:45.387852 14152 layer_factory.hpp:77] Creating layer layer_128_2_bn3
I0102 16:58:45.387861 14152 net.cpp:84] Creating Layer layer_128_2_bn3
I0102 16:58:45.387866 14152 net.cpp:406] layer_128_2_bn3 <- layer_128_2_conv2
I0102 16:58:45.387872 14152 net.cpp:367] layer_128_2_bn3 -> layer_128_2_conv2 (in-place)
I0102 16:58:45.388008 14152 net.cpp:122] Setting up layer_128_2_bn3
I0102 16:58:45.388015 14152 net.cpp:129] Top shape: 40 128 14 30 (2150400)
I0102 16:58:45.388017 14152 net.cpp:137] Memory required for data: 2825661440
I0102 16:58:45.388025 14152 layer_factory.hpp:77] Creating layer layer_128_2_scale3
I0102 16:58:45.388031 14152 net.cpp:84] Creating Layer layer_128_2_scale3
I0102 16:58:45.388036 14152 net.cpp:406] layer_128_2_scale3 <- layer_128_2_conv2
I0102 16:58:45.388041 14152 net.cpp:367] layer_128_2_scale3 -> layer_128_2_conv2 (in-place)
I0102 16:58:45.388072 14152 layer_factory.hpp:77] Creating layer layer_128_2_scale3
I0102 16:58:45.388151 14152 net.cpp:122] Setting up layer_128_2_scale3
I0102 16:58:45.388157 14152 net.cpp:129] Top shape: 40 128 14 30 (2150400)
I0102 16:58:45.388160 14152 net.cpp:137] Memory required for data: 2834263040
I0102 16:58:45.388165 14152 layer_factory.hpp:77] Creating layer layer_128_2_relu3
I0102 16:58:45.388173 14152 net.cpp:84] Creating Layer layer_128_2_relu3
I0102 16:58:45.388177 14152 net.cpp:406] layer_128_2_relu3 <- layer_128_2_conv2
I0102 16:58:45.388188 14152 net.cpp:367] layer_128_2_relu3 -> layer_128_2_conv2 (in-place)
I0102 16:58:45.388308 14152 net.cpp:122] Setting up layer_128_2_relu3
I0102 16:58:45.388314 14152 net.cpp:129] Top shape: 40 128 14 30 (2150400)
I0102 16:58:45.388317 14152 net.cpp:137] Memory required for data: 2842864640
I0102 16:58:45.388320 14152 layer_factory.hpp:77] Creating layer layer_128_2_conv3
I0102 16:58:45.388329 14152 net.cpp:84] Creating Layer layer_128_2_conv3
I0102 16:58:45.388334 14152 net.cpp:406] layer_128_2_conv3 <- layer_128_2_conv2
I0102 16:58:45.388340 14152 net.cpp:380] layer_128_2_conv3 -> layer_128_2_conv3
I0102 16:58:45.389488 14152 net.cpp:122] Setting up layer_128_2_conv3
I0102 16:58:45.389497 14152 net.cpp:129] Top shape: 40 512 14 30 (8601600)
I0102 16:58:45.389500 14152 net.cpp:137] Memory required for data: 2877271040
I0102 16:58:45.389506 14152 layer_factory.hpp:77] Creating layer layer_128_2_sum
I0102 16:58:45.389513 14152 net.cpp:84] Creating Layer layer_128_2_sum
I0102 16:58:45.389518 14152 net.cpp:406] layer_128_2_sum <- layer_128_2_conv3
I0102 16:58:45.389523 14152 net.cpp:406] layer_128_2_sum <- layer_128_1_sum_layer_128_1_sum_0_split_1
I0102 16:58:45.389529 14152 net.cpp:380] layer_128_2_sum -> layer_128_2_sum
I0102 16:58:45.389550 14152 net.cpp:122] Setting up layer_128_2_sum
I0102 16:58:45.389555 14152 net.cpp:129] Top shape: 40 512 14 30 (8601600)
I0102 16:58:45.389559 14152 net.cpp:137] Memory required for data: 2911677440
I0102 16:58:45.389562 14152 layer_factory.hpp:77] Creating layer layer_128_2_sum_layer_128_2_sum_0_split
I0102 16:58:45.389569 14152 net.cpp:84] Creating Layer layer_128_2_sum_layer_128_2_sum_0_split
I0102 16:58:45.389572 14152 net.cpp:406] layer_128_2_sum_layer_128_2_sum_0_split <- layer_128_2_sum
I0102 16:58:45.389580 14152 net.cpp:380] layer_128_2_sum_layer_128_2_sum_0_split -> layer_128_2_sum_layer_128_2_sum_0_split_0
I0102 16:58:45.389587 14152 net.cpp:380] layer_128_2_sum_layer_128_2_sum_0_split -> layer_128_2_sum_layer_128_2_sum_0_split_1
I0102 16:58:45.389616 14152 net.cpp:122] Setting up layer_128_2_sum_layer_128_2_sum_0_split
I0102 16:58:45.389621 14152 net.cpp:129] Top shape: 40 512 14 30 (8601600)
I0102 16:58:45.389626 14152 net.cpp:129] Top shape: 40 512 14 30 (8601600)
I0102 16:58:45.389628 14152 net.cpp:137] Memory required for data: 2980490240
I0102 16:58:45.389631 14152 layer_factory.hpp:77] Creating layer layer_128_3_bn1
I0102 16:58:45.389636 14152 net.cpp:84] Creating Layer layer_128_3_bn1
I0102 16:58:45.389641 14152 net.cpp:406] layer_128_3_bn1 <- layer_128_2_sum_layer_128_2_sum_0_split_0
I0102 16:58:45.389647 14152 net.cpp:380] layer_128_3_bn1 -> layer_128_3_bn1
I0102 16:58:45.389787 14152 net.cpp:122] Setting up layer_128_3_bn1
I0102 16:58:45.389792 14152 net.cpp:129] Top shape: 40 512 14 30 (8601600)
I0102 16:58:45.389796 14152 net.cpp:137] Memory required for data: 3014896640
I0102 16:58:45.389803 14152 layer_factory.hpp:77] Creating layer layer_128_3_scale1
I0102 16:58:45.389811 14152 net.cpp:84] Creating Layer layer_128_3_scale1
I0102 16:58:45.389816 14152 net.cpp:406] layer_128_3_scale1 <- layer_128_3_bn1
I0102 16:58:45.389819 14152 net.cpp:367] layer_128_3_scale1 -> layer_128_3_bn1 (in-place)
I0102 16:58:45.389853 14152 layer_factory.hpp:77] Creating layer layer_128_3_scale1
I0102 16:58:45.389930 14152 net.cpp:122] Setting up layer_128_3_scale1
I0102 16:58:45.389935 14152 net.cpp:129] Top shape: 40 512 14 30 (8601600)
I0102 16:58:45.389938 14152 net.cpp:137] Memory required for data: 3049303040
I0102 16:58:45.389945 14152 layer_factory.hpp:77] Creating layer layer_128_3_relu1
I0102 16:58:45.389950 14152 net.cpp:84] Creating Layer layer_128_3_relu1
I0102 16:58:45.389952 14152 net.cpp:406] layer_128_3_relu1 <- layer_128_3_bn1
I0102 16:58:45.389958 14152 net.cpp:367] layer_128_3_relu1 -> layer_128_3_bn1 (in-place)
I0102 16:58:45.390075 14152 net.cpp:122] Setting up layer_128_3_relu1
I0102 16:58:45.390081 14152 net.cpp:129] Top shape: 40 512 14 30 (8601600)
I0102 16:58:45.390084 14152 net.cpp:137] Memory required for data: 3083709440
I0102 16:58:45.390094 14152 layer_factory.hpp:77] Creating layer layer_128_3_conv1
I0102 16:58:45.390105 14152 net.cpp:84] Creating Layer layer_128_3_conv1
I0102 16:58:45.390108 14152 net.cpp:406] layer_128_3_conv1 <- layer_128_3_bn1
I0102 16:58:45.390115 14152 net.cpp:380] layer_128_3_conv1 -> layer_128_3_conv1
I0102 16:58:45.391276 14152 net.cpp:122] Setting up layer_128_3_conv1
I0102 16:58:45.391285 14152 net.cpp:129] Top shape: 40 128 14 30 (2150400)
I0102 16:58:45.391288 14152 net.cpp:137] Memory required for data: 3092311040
I0102 16:58:45.391294 14152 layer_factory.hpp:77] Creating layer layer_128_3_bn2
I0102 16:58:45.391301 14152 net.cpp:84] Creating Layer layer_128_3_bn2
I0102 16:58:45.391306 14152 net.cpp:406] layer_128_3_bn2 <- layer_128_3_conv1
I0102 16:58:45.391312 14152 net.cpp:367] layer_128_3_bn2 -> layer_128_3_conv1 (in-place)
I0102 16:58:45.391450 14152 net.cpp:122] Setting up layer_128_3_bn2
I0102 16:58:45.391455 14152 net.cpp:129] Top shape: 40 128 14 30 (2150400)
I0102 16:58:45.391459 14152 net.cpp:137] Memory required for data: 3100912640
I0102 16:58:45.391466 14152 layer_factory.hpp:77] Creating layer layer_128_3_scale2
I0102 16:58:45.391472 14152 net.cpp:84] Creating Layer layer_128_3_scale2
I0102 16:58:45.391476 14152 net.cpp:406] layer_128_3_scale2 <- layer_128_3_conv1
I0102 16:58:45.391482 14152 net.cpp:367] layer_128_3_scale2 -> layer_128_3_conv1 (in-place)
I0102 16:58:45.391513 14152 layer_factory.hpp:77] Creating layer layer_128_3_scale2
I0102 16:58:45.391623 14152 net.cpp:122] Setting up layer_128_3_scale2
I0102 16:58:45.391628 14152 net.cpp:129] Top shape: 40 128 14 30 (2150400)
I0102 16:58:45.391633 14152 net.cpp:137] Memory required for data: 3109514240
I0102 16:58:45.391638 14152 layer_factory.hpp:77] Creating layer layer_128_3_relu2
I0102 16:58:45.391644 14152 net.cpp:84] Creating Layer layer_128_3_relu2
I0102 16:58:45.391649 14152 net.cpp:406] layer_128_3_relu2 <- layer_128_3_conv1
I0102 16:58:45.391654 14152 net.cpp:367] layer_128_3_relu2 -> layer_128_3_conv1 (in-place)
I0102 16:58:45.391772 14152 net.cpp:122] Setting up layer_128_3_relu2
I0102 16:58:45.391778 14152 net.cpp:129] Top shape: 40 128 14 30 (2150400)
I0102 16:58:45.391782 14152 net.cpp:137] Memory required for data: 3118115840
I0102 16:58:45.391785 14152 layer_factory.hpp:77] Creating layer layer_128_3_conv2
I0102 16:58:45.391794 14152 net.cpp:84] Creating Layer layer_128_3_conv2
I0102 16:58:45.391798 14152 net.cpp:406] layer_128_3_conv2 <- layer_128_3_conv1
I0102 16:58:45.391804 14152 net.cpp:380] layer_128_3_conv2 -> layer_128_3_conv2
I0102 16:58:45.394356 14152 net.cpp:122] Setting up layer_128_3_conv2
I0102 16:58:45.394369 14152 net.cpp:129] Top shape: 40 128 14 30 (2150400)
I0102 16:58:45.394373 14152 net.cpp:137] Memory required for data: 3126717440
I0102 16:58:45.394379 14152 layer_factory.hpp:77] Creating layer layer_128_3_bn3
I0102 16:58:45.394387 14152 net.cpp:84] Creating Layer layer_128_3_bn3
I0102 16:58:45.394392 14152 net.cpp:406] layer_128_3_bn3 <- layer_128_3_conv2
I0102 16:58:45.394412 14152 net.cpp:367] layer_128_3_bn3 -> layer_128_3_conv2 (in-place)
I0102 16:58:45.394569 14152 net.cpp:122] Setting up layer_128_3_bn3
I0102 16:58:45.394575 14152 net.cpp:129] Top shape: 40 128 14 30 (2150400)
I0102 16:58:45.394578 14152 net.cpp:137] Memory required for data: 3135319040
I0102 16:58:45.394585 14152 layer_factory.hpp:77] Creating layer layer_128_3_scale3
I0102 16:58:45.394593 14152 net.cpp:84] Creating Layer layer_128_3_scale3
I0102 16:58:45.394598 14152 net.cpp:406] layer_128_3_scale3 <- layer_128_3_conv2
I0102 16:58:45.394603 14152 net.cpp:367] layer_128_3_scale3 -> layer_128_3_conv2 (in-place)
I0102 16:58:45.394676 14152 layer_factory.hpp:77] Creating layer layer_128_3_scale3
I0102 16:58:45.394785 14152 net.cpp:122] Setting up layer_128_3_scale3
I0102 16:58:45.394791 14152 net.cpp:129] Top shape: 40 128 14 30 (2150400)
I0102 16:58:45.394794 14152 net.cpp:137] Memory required for data: 3143920640
I0102 16:58:45.394799 14152 layer_factory.hpp:77] Creating layer layer_128_3_relu3
I0102 16:58:45.394814 14152 net.cpp:84] Creating Layer layer_128_3_relu3
I0102 16:58:45.394819 14152 net.cpp:406] layer_128_3_relu3 <- layer_128_3_conv2
I0102 16:58:45.394841 14152 net.cpp:367] layer_128_3_relu3 -> layer_128_3_conv2 (in-place)
I0102 16:58:45.395213 14152 net.cpp:122] Setting up layer_128_3_relu3
I0102 16:58:45.395222 14152 net.cpp:129] Top shape: 40 128 14 30 (2150400)
I0102 16:58:45.395226 14152 net.cpp:137] Memory required for data: 3152522240
I0102 16:58:45.395244 14152 layer_factory.hpp:77] Creating layer layer_128_3_conv3
I0102 16:58:45.395253 14152 net.cpp:84] Creating Layer layer_128_3_conv3
I0102 16:58:45.395257 14152 net.cpp:406] layer_128_3_conv3 <- layer_128_3_conv2
I0102 16:58:45.395265 14152 net.cpp:380] layer_128_3_conv3 -> layer_128_3_conv3
I0102 16:58:45.396741 14152 net.cpp:122] Setting up layer_128_3_conv3
I0102 16:58:45.396750 14152 net.cpp:129] Top shape: 40 512 14 30 (8601600)
I0102 16:58:45.396754 14152 net.cpp:137] Memory required for data: 3186928640
I0102 16:58:45.396759 14152 layer_factory.hpp:77] Creating layer layer_128_3_sum
I0102 16:58:45.396767 14152 net.cpp:84] Creating Layer layer_128_3_sum
I0102 16:58:45.396771 14152 net.cpp:406] layer_128_3_sum <- layer_128_3_conv3
I0102 16:58:45.396776 14152 net.cpp:406] layer_128_3_sum <- layer_128_2_sum_layer_128_2_sum_0_split_1
I0102 16:58:45.396782 14152 net.cpp:380] layer_128_3_sum -> layer_128_3_sum
I0102 16:58:45.396805 14152 net.cpp:122] Setting up layer_128_3_sum
I0102 16:58:45.396808 14152 net.cpp:129] Top shape: 40 512 14 30 (8601600)
I0102 16:58:45.396811 14152 net.cpp:137] Memory required for data: 3221335040
I0102 16:58:45.396816 14152 layer_factory.hpp:77] Creating layer layer_128_3_sum_layer_128_3_sum_0_split
I0102 16:58:45.396821 14152 net.cpp:84] Creating Layer layer_128_3_sum_layer_128_3_sum_0_split
I0102 16:58:45.396826 14152 net.cpp:406] layer_128_3_sum_layer_128_3_sum_0_split <- layer_128_3_sum
I0102 16:58:45.396832 14152 net.cpp:380] layer_128_3_sum_layer_128_3_sum_0_split -> layer_128_3_sum_layer_128_3_sum_0_split_0
I0102 16:58:45.396839 14152 net.cpp:380] layer_128_3_sum_layer_128_3_sum_0_split -> layer_128_3_sum_layer_128_3_sum_0_split_1
I0102 16:58:45.396868 14152 net.cpp:122] Setting up layer_128_3_sum_layer_128_3_sum_0_split
I0102 16:58:45.396873 14152 net.cpp:129] Top shape: 40 512 14 30 (8601600)
I0102 16:58:45.396878 14152 net.cpp:129] Top shape: 40 512 14 30 (8601600)
I0102 16:58:45.396881 14152 net.cpp:137] Memory required for data: 3290147840
I0102 16:58:45.396884 14152 layer_factory.hpp:77] Creating layer layer_128_4_bn1
I0102 16:58:45.396889 14152 net.cpp:84] Creating Layer layer_128_4_bn1
I0102 16:58:45.396893 14152 net.cpp:406] layer_128_4_bn1 <- layer_128_3_sum_layer_128_3_sum_0_split_0
I0102 16:58:45.396899 14152 net.cpp:380] layer_128_4_bn1 -> layer_128_4_bn1
I0102 16:58:45.397040 14152 net.cpp:122] Setting up layer_128_4_bn1
I0102 16:58:45.397045 14152 net.cpp:129] Top shape: 40 512 14 30 (8601600)
I0102 16:58:45.397048 14152 net.cpp:137] Memory required for data: 3324554240
I0102 16:58:45.397056 14152 layer_factory.hpp:77] Creating layer layer_128_4_scale1
I0102 16:58:45.397063 14152 net.cpp:84] Creating Layer layer_128_4_scale1
I0102 16:58:45.397068 14152 net.cpp:406] layer_128_4_scale1 <- layer_128_4_bn1
I0102 16:58:45.397071 14152 net.cpp:367] layer_128_4_scale1 -> layer_128_4_bn1 (in-place)
I0102 16:58:45.397104 14152 layer_factory.hpp:77] Creating layer layer_128_4_scale1
I0102 16:58:45.397182 14152 net.cpp:122] Setting up layer_128_4_scale1
I0102 16:58:45.397188 14152 net.cpp:129] Top shape: 40 512 14 30 (8601600)
I0102 16:58:45.397192 14152 net.cpp:137] Memory required for data: 3358960640
I0102 16:58:45.397197 14152 layer_factory.hpp:77] Creating layer layer_128_4_relu1
I0102 16:58:45.397202 14152 net.cpp:84] Creating Layer layer_128_4_relu1
I0102 16:58:45.397205 14152 net.cpp:406] layer_128_4_relu1 <- layer_128_4_bn1
I0102 16:58:45.397210 14152 net.cpp:367] layer_128_4_relu1 -> layer_128_4_bn1 (in-place)
I0102 16:58:45.397572 14152 net.cpp:122] Setting up layer_128_4_relu1
I0102 16:58:45.397588 14152 net.cpp:129] Top shape: 40 512 14 30 (8601600)
I0102 16:58:45.397590 14152 net.cpp:137] Memory required for data: 3393367040
I0102 16:58:45.397593 14152 layer_factory.hpp:77] Creating layer layer_128_4_conv1
I0102 16:58:45.397603 14152 net.cpp:84] Creating Layer layer_128_4_conv1
I0102 16:58:45.397608 14152 net.cpp:406] layer_128_4_conv1 <- layer_128_4_bn1
I0102 16:58:45.397614 14152 net.cpp:380] layer_128_4_conv1 -> layer_128_4_conv1
I0102 16:58:45.398756 14152 net.cpp:122] Setting up layer_128_4_conv1
I0102 16:58:45.398764 14152 net.cpp:129] Top shape: 40 128 14 30 (2150400)
I0102 16:58:45.398768 14152 net.cpp:137] Memory required for data: 3401968640
I0102 16:58:45.398773 14152 layer_factory.hpp:77] Creating layer layer_128_4_bn2
I0102 16:58:45.398780 14152 net.cpp:84] Creating Layer layer_128_4_bn2
I0102 16:58:45.398785 14152 net.cpp:406] layer_128_4_bn2 <- layer_128_4_conv1
I0102 16:58:45.398792 14152 net.cpp:367] layer_128_4_bn2 -> layer_128_4_conv1 (in-place)
I0102 16:58:45.398926 14152 net.cpp:122] Setting up layer_128_4_bn2
I0102 16:58:45.398931 14152 net.cpp:129] Top shape: 40 128 14 30 (2150400)
I0102 16:58:45.398933 14152 net.cpp:137] Memory required for data: 3410570240
I0102 16:58:45.398941 14152 layer_factory.hpp:77] Creating layer layer_128_4_scale2
I0102 16:58:45.398948 14152 net.cpp:84] Creating Layer layer_128_4_scale2
I0102 16:58:45.398952 14152 net.cpp:406] layer_128_4_scale2 <- layer_128_4_conv1
I0102 16:58:45.398957 14152 net.cpp:367] layer_128_4_scale2 -> layer_128_4_conv1 (in-place)
I0102 16:58:45.398988 14152 layer_factory.hpp:77] Creating layer layer_128_4_scale2
I0102 16:58:45.399067 14152 net.cpp:122] Setting up layer_128_4_scale2
I0102 16:58:45.399072 14152 net.cpp:129] Top shape: 40 128 14 30 (2150400)
I0102 16:58:45.399075 14152 net.cpp:137] Memory required for data: 3419171840
I0102 16:58:45.399081 14152 layer_factory.hpp:77] Creating layer layer_128_4_relu2
I0102 16:58:45.399086 14152 net.cpp:84] Creating Layer layer_128_4_relu2
I0102 16:58:45.399091 14152 net.cpp:406] layer_128_4_relu2 <- layer_128_4_conv1
I0102 16:58:45.399096 14152 net.cpp:367] layer_128_4_relu2 -> layer_128_4_conv1 (in-place)
I0102 16:58:45.399209 14152 net.cpp:122] Setting up layer_128_4_relu2
I0102 16:58:45.399216 14152 net.cpp:129] Top shape: 40 128 14 30 (2150400)
I0102 16:58:45.399219 14152 net.cpp:137] Memory required for data: 3427773440
I0102 16:58:45.399222 14152 layer_factory.hpp:77] Creating layer layer_128_4_conv2
I0102 16:58:45.399230 14152 net.cpp:84] Creating Layer layer_128_4_conv2
I0102 16:58:45.399235 14152 net.cpp:406] layer_128_4_conv2 <- layer_128_4_conv1
I0102 16:58:45.399242 14152 net.cpp:380] layer_128_4_conv2 -> layer_128_4_conv2
I0102 16:58:45.401145 14152 net.cpp:122] Setting up layer_128_4_conv2
I0102 16:58:45.401154 14152 net.cpp:129] Top shape: 40 128 14 30 (2150400)
I0102 16:58:45.401157 14152 net.cpp:137] Memory required for data: 3436375040
I0102 16:58:45.401170 14152 layer_factory.hpp:77] Creating layer layer_128_4_bn3
I0102 16:58:45.401177 14152 net.cpp:84] Creating Layer layer_128_4_bn3
I0102 16:58:45.401182 14152 net.cpp:406] layer_128_4_bn3 <- layer_128_4_conv2
I0102 16:58:45.401187 14152 net.cpp:367] layer_128_4_bn3 -> layer_128_4_conv2 (in-place)
I0102 16:58:45.401326 14152 net.cpp:122] Setting up layer_128_4_bn3
I0102 16:58:45.401331 14152 net.cpp:129] Top shape: 40 128 14 30 (2150400)
I0102 16:58:45.401335 14152 net.cpp:137] Memory required for data: 3444976640
I0102 16:58:45.401342 14152 layer_factory.hpp:77] Creating layer layer_128_4_scale3
I0102 16:58:45.401347 14152 net.cpp:84] Creating Layer layer_128_4_scale3
I0102 16:58:45.401351 14152 net.cpp:406] layer_128_4_scale3 <- layer_128_4_conv2
I0102 16:58:45.401357 14152 net.cpp:367] layer_128_4_scale3 -> layer_128_4_conv2 (in-place)
I0102 16:58:45.401387 14152 layer_factory.hpp:77] Creating layer layer_128_4_scale3
I0102 16:58:45.401466 14152 net.cpp:122] Setting up layer_128_4_scale3
I0102 16:58:45.401473 14152 net.cpp:129] Top shape: 40 128 14 30 (2150400)
I0102 16:58:45.401476 14152 net.cpp:137] Memory required for data: 3453578240
I0102 16:58:45.401489 14152 layer_factory.hpp:77] Creating layer layer_128_4_relu3
I0102 16:58:45.401494 14152 net.cpp:84] Creating Layer layer_128_4_relu3
I0102 16:58:45.401499 14152 net.cpp:406] layer_128_4_relu3 <- layer_128_4_conv2
I0102 16:58:45.401504 14152 net.cpp:367] layer_128_4_relu3 -> layer_128_4_conv2 (in-place)
I0102 16:58:45.401655 14152 net.cpp:122] Setting up layer_128_4_relu3
I0102 16:58:45.401661 14152 net.cpp:129] Top shape: 40 128 14 30 (2150400)
I0102 16:58:45.401664 14152 net.cpp:137] Memory required for data: 3462179840
I0102 16:58:45.401682 14152 layer_factory.hpp:77] Creating layer layer_128_4_conv3
I0102 16:58:45.401691 14152 net.cpp:84] Creating Layer layer_128_4_conv3
I0102 16:58:45.401695 14152 net.cpp:406] layer_128_4_conv3 <- layer_128_4_conv2
I0102 16:58:45.401700 14152 net.cpp:380] layer_128_4_conv3 -> layer_128_4_conv3
I0102 16:58:45.402884 14152 net.cpp:122] Setting up layer_128_4_conv3
I0102 16:58:45.402892 14152 net.cpp:129] Top shape: 40 512 14 30 (8601600)
I0102 16:58:45.402895 14152 net.cpp:137] Memory required for data: 3496586240
I0102 16:58:45.402915 14152 layer_factory.hpp:77] Creating layer layer_128_4_sum
I0102 16:58:45.402921 14152 net.cpp:84] Creating Layer layer_128_4_sum
I0102 16:58:45.402925 14152 net.cpp:406] layer_128_4_sum <- layer_128_4_conv3
I0102 16:58:45.402932 14152 net.cpp:406] layer_128_4_sum <- layer_128_3_sum_layer_128_3_sum_0_split_1
I0102 16:58:45.402937 14152 net.cpp:380] layer_128_4_sum -> layer_128_4_sum
I0102 16:58:45.402987 14152 net.cpp:122] Setting up layer_128_4_sum
I0102 16:58:45.402992 14152 net.cpp:129] Top shape: 40 512 14 30 (8601600)
I0102 16:58:45.402995 14152 net.cpp:137] Memory required for data: 3530992640
I0102 16:58:45.402998 14152 layer_factory.hpp:77] Creating layer last_bn
I0102 16:58:45.403005 14152 net.cpp:84] Creating Layer last_bn
I0102 16:58:45.403009 14152 net.cpp:406] last_bn <- layer_128_4_sum
I0102 16:58:45.403013 14152 net.cpp:367] last_bn -> layer_128_4_sum (in-place)
I0102 16:58:45.403154 14152 net.cpp:122] Setting up last_bn
I0102 16:58:45.403161 14152 net.cpp:129] Top shape: 40 512 14 30 (8601600)
I0102 16:58:45.403162 14152 net.cpp:137] Memory required for data: 3565399040
I0102 16:58:45.403169 14152 layer_factory.hpp:77] Creating layer last_scale
I0102 16:58:45.403175 14152 net.cpp:84] Creating Layer last_scale
I0102 16:58:45.403180 14152 net.cpp:406] last_scale <- layer_128_4_sum
I0102 16:58:45.403187 14152 net.cpp:367] last_scale -> layer_128_4_sum (in-place)
I0102 16:58:45.403219 14152 layer_factory.hpp:77] Creating layer last_scale
I0102 16:58:45.403301 14152 net.cpp:122] Setting up last_scale
I0102 16:58:45.403307 14152 net.cpp:129] Top shape: 40 512 14 30 (8601600)
I0102 16:58:45.403311 14152 net.cpp:137] Memory required for data: 3599805440
I0102 16:58:45.403316 14152 layer_factory.hpp:77] Creating layer last_relu
I0102 16:58:45.403321 14152 net.cpp:84] Creating Layer last_relu
I0102 16:58:45.403326 14152 net.cpp:406] last_relu <- layer_128_4_sum
I0102 16:58:45.403331 14152 net.cpp:367] last_relu -> layer_128_4_sum (in-place)
I0102 16:58:45.403447 14152 net.cpp:122] Setting up last_relu
I0102 16:58:45.403453 14152 net.cpp:129] Top shape: 40 512 14 30 (8601600)
I0102 16:58:45.403456 14152 net.cpp:137] Memory required for data: 3634211840
I0102 16:58:45.403460 14152 layer_factory.hpp:77] Creating layer slicer_feature_map
I0102 16:58:45.403466 14152 net.cpp:84] Creating Layer slicer_feature_map
I0102 16:58:45.403470 14152 net.cpp:406] slicer_feature_map <- layer_128_4_sum
I0102 16:58:45.403476 14152 net.cpp:380] slicer_feature_map -> slice_up
I0102 16:58:45.403483 14152 net.cpp:380] slicer_feature_map -> slice_down
I0102 16:58:45.403519 14152 net.cpp:122] Setting up slicer_feature_map
I0102 16:58:45.403524 14152 net.cpp:129] Top shape: 40 512 7 30 (4300800)
I0102 16:58:45.403530 14152 net.cpp:129] Top shape: 40 512 7 30 (4300800)
I0102 16:58:45.403534 14152 net.cpp:137] Memory required for data: 3668618240
I0102 16:58:45.403537 14152 layer_factory.hpp:77] Creating layer concat_feature
I0102 16:58:45.403555 14152 net.cpp:84] Creating Layer concat_feature
I0102 16:58:45.403559 14152 net.cpp:406] concat_feature <- slice_up
I0102 16:58:45.403563 14152 net.cpp:406] concat_feature <- slice_down
I0102 16:58:45.403568 14152 net.cpp:380] concat_feature -> concat_feature
I0102 16:58:45.403594 14152 net.cpp:122] Setting up concat_feature
I0102 16:58:45.403599 14152 net.cpp:129] Top shape: 40 512 7 60 (8601600)
I0102 16:58:45.403602 14152 net.cpp:137] Memory required for data: 3703024640
I0102 16:58:45.403605 14152 layer_factory.hpp:77] Creating layer permuted_data
I0102 16:58:45.403610 14152 net.cpp:84] Creating Layer permuted_data
I0102 16:58:45.403614 14152 net.cpp:406] permuted_data <- concat_feature
I0102 16:58:45.403620 14152 net.cpp:380] permuted_data -> permuted_data
I0102 16:58:45.403694 14152 net.cpp:122] Setting up permuted_data
I0102 16:58:45.403699 14152 net.cpp:129] Top shape: 60 40 512 7 (8601600)
I0102 16:58:45.403702 14152 net.cpp:137] Memory required for data: 3737431040
I0102 16:58:45.403705 14152 layer_factory.hpp:77] Creating layer permuted_data_permuted_data_0_split
I0102 16:58:45.403710 14152 net.cpp:84] Creating Layer permuted_data_permuted_data_0_split
I0102 16:58:45.403713 14152 net.cpp:406] permuted_data_permuted_data_0_split <- permuted_data
I0102 16:58:45.403719 14152 net.cpp:380] permuted_data_permuted_data_0_split -> permuted_data_permuted_data_0_split_0
I0102 16:58:45.403726 14152 net.cpp:380] permuted_data_permuted_data_0_split -> permuted_data_permuted_data_0_split_1
I0102 16:58:45.403754 14152 net.cpp:122] Setting up permuted_data_permuted_data_0_split
I0102 16:58:45.403759 14152 net.cpp:129] Top shape: 60 40 512 7 (8601600)
I0102 16:58:45.403764 14152 net.cpp:129] Top shape: 60 40 512 7 (8601600)
I0102 16:58:45.403766 14152 net.cpp:137] Memory required for data: 3806243840
I0102 16:58:45.403770 14152 layer_factory.hpp:77] Creating layer lstm-reverse1
I0102 16:58:45.403775 14152 net.cpp:84] Creating Layer lstm-reverse1
I0102 16:58:45.403779 14152 net.cpp:406] lstm-reverse1 <- permuted_data_permuted_data_0_split_0
I0102 16:58:45.403784 14152 net.cpp:380] lstm-reverse1 -> rlstm_input
I0102 16:58:45.403822 14152 net.cpp:122] Setting up lstm-reverse1
I0102 16:58:45.403828 14152 net.cpp:129] Top shape: 60 40 512 7 (8601600)
I0102 16:58:45.403831 14152 net.cpp:137] Memory required for data: 3840650240
I0102 16:58:45.403833 14152 layer_factory.hpp:77] Creating layer lstm2x_r1_r1
I0102 16:58:45.403841 14152 net.cpp:84] Creating Layer lstm2x_r1_r1
I0102 16:58:45.403846 14152 net.cpp:406] lstm2x_r1_r1 <- rlstm_input
I0102 16:58:45.403849 14152 net.cpp:406] lstm2x_r1_r1 <- indicator_indicator_0_split_0
I0102 16:58:45.403856 14152 net.cpp:380] lstm2x_r1_r1 -> lstm2x
I0102 16:58:45.403863 14152 recurrent_layer.cpp:20] Initializing recurrent layer: assuming input batch contains 60 timesteps of 40 independent streams.
I0102 16:58:45.404945 14152 net.cpp:51] Initializing net from parameters: 
layer {
  name: "lstm2x_r1_r1_"
  type: "Input"
  top: "x"
  top: "cont"
  input_param {
    shape {
      dim: 60
      dim: 40
      dim: 512
      dim: 7
    }
    shape {
      dim: 60
      dim: 40
    }
  }
}
layer {
  name: "lstm2x_r1_r1_"
  type: "Input"
  top: "c_0"
  top: "h_0"
  input_param {
    shape {
      dim: 1
      dim: 40
      dim: 100
    }
    shape {
      dim: 1
      dim: 40
      dim: 100
    }
  }
}
layer {
  name: "lstm2x_r1_r1_cont_slice"
  type: "Slice"
  bottom: "cont"
  top: "cont_1"
  top: "cont_2"
  top: "cont_3"
  top: "cont_4"
  top: "cont_5"
  top: "cont_6"
  top: "cont_7"
  top: "cont_8"
  top: "cont_9"
  top: "cont_10"
  top: "cont_11"
  top: "cont_12"
  top: "cont_13"
  top: "cont_14"
  top: "cont_15"
  top: "cont_16"
  top: "cont_17"
  top: "cont_18"
  top: "cont_19"
  top: "cont_20"
  top: "cont_21"
  top: "cont_22"
  top: "cont_23"
  top: "cont_24"
  top: "cont_25"
  top: "cont_26"
  top: "cont_27"
  top: "cont_28"
  top: "cont_29"
  top: "cont_30"
  top: "cont_31"
  top: "cont_32"
  top: "cont_33"
  top: "cont_34"
  top: "cont_35"
  top: "cont_36"
  top: "cont_37"
  top: "cont_38"
  top: "cont_39"
  top: "cont_40"
  top: "cont_41"
  top: "cont_42"
  top: "cont_43"
  top: "cont_44"
  top: "cont_45"
  top: "cont_46"
  top: "cont_47"
  top: "cont_48"
  top: "cont_49"
  top: "cont_50"
  top: "cont_51"
  top: "cont_52"
  top: "cont_53"
  top: "cont_54"
  top: "cont_55"
  top: "cont_56"
  top: "cont_57"
  top: "cont_58"
  top: "cont_59"
  top: "cont_60"
  slice_param {
    axis: 0
  }
}
layer {
  name: "lstm2x_r1_r1_x_transform"
  type: "InnerProduct"
  bottom: "x"
  top: "W_xc_x"
  param {
    name: "W_xc"
  }
  param {
    name: "b_c"
  }
  propagate_down: true
  inner_product_param {
    num_output: 400
    bias_term: true
    weight_filler {
      type: "xavier"
    }
    bias_filler {
      type: "constant"
      value: 0
    }
    axis: 2
  }
}
layer {
  name: "lstm2x_r1_r1_W_xc_x_slice"
  type: "Slice"
  bottom: "W_xc_x"
  top: "W_xc_x_1"
  top: "W_xc_x_2"
  top: "W_xc_x_3"
  top: "W_xc_x_4"
  top: "W_xc_x_5"
  top: "W_xc_x_6"
  top: "W_xc_x_7"
  top: "W_xc_x_8"
  top: "W_xc_x_9"
  top: "W_xc_x_10"
  top: "W_xc_x_11"
  top: "W_xc_x_12"
  top: "W_xc_x_13"
  top: "W_xc_x_14"
  top: "W_xc_x_15"
  top: "W_xc_x_16"
  top: "W_xc_x_17"
  top: "W_xc_x_18"
  top: "W_xc_x_19"
  top: "W_xc_x_20"
  top: "W_xc_x_21"
  top: "W_xc_x_22"
  top: "W_xc_x_23"
  top: "W_xc_x_24"
  top: "W_xc_x_25"
  top: "W_xc_x_26"
  top: "W_xc_x_27"
  top: "W_xc_x_28"
  top: "W_xc_x_29"
  top: "W_xc_x_30"
  top: "W_xc_x_31"
  top: "W_xc_x_32"
  top: "W_xc_x_33"
  top: "W_xc_x_34"
  top: "W_xc_x_35"
  top: "W_xc_x_36"
  top: "W_xc_x_37"
  top: "W_xc_x_38"
  top: "W_xc_x_39"
  top: "W_xc_x_40"
  top: "W_xc_x_41"
  top: "W_xc_x_42"
  top: "W_xc_x_43"
  top: "W_xc_x_44"
  top: "W_xc_x_45"
  top: "W_xc_x_46"
  top: "W_xc_x_47"
  top: "W_xc_x_48"
  top: "W_xc_x_49"
  top: "W_xc_x_50"
  top: "W_xc_x_51"
  top: "W_xc_x_52"
  top: "W_xc_x_53"
  top: "W_xc_x_54"
  top: "W_xc_x_55"
  top: "W_xc_x_56"
  top: "W_xc_x_57"
  top: "W_xc_x_58"
  top: "W_xc_x_59"
  top: "W_xc_x_60"
  slice_param {
    axis: 0
  }
}
layer {
  name: "lstm2x_r1_r1_h_conted_0"
  type: "Scale"
  bottom: "h_0"
  bottom: "cont_1"
  top: "h_conted_0"
  scale_param {
    axis: 0
  }
}
layer {
  name: "lstm2x_r1_r1_transform_1"
  type: "InnerProduct"
  bottom: "h_conted_0"
  top: "W_hc_h_0"
  param {
    name: "W_hc"
  }
  inner_product_param {
    num_output: 400
    bias_term: false
    weight_filler {
      type: "xavier"
    }
    axis: 2
  }
}
layer {
  name: "lstm2x_r1_r1_gate_input_1"
  type: "Eltwise"
  bottom: "W_hc_h_0"
  bottom: "W_xc_x_1"
  top: "gate_input_1"
  eltwise_param {
    operation: SUM
  }
}
layer {
  name: "lstm2x_r1_r1_unit_1"
  type: "LSTMUnit"
  bottom: "c_0"
  bottom: "gate_input_1"
  bottom: "cont_1"
  top: "c_1"
  top: "h_1"
}
layer {
  name: "lstm2x_r1_r1_h_conted_1"
  type: "Scale"
  bottom: "h_1"
  bottom: "cont_2"
  top: "h_conted_1"
  scale_param {
    axis: 0
  }
}
layer {
  name: "lstm2x_r1_r1_transform_2"
  type: "InnerProduct"
  bottom: "h_conted_1"
  top: "W_hc_h_1"
  param {
    name: "W_hc"
  }
  inner_product_param {
    num_output: 400
    bias_term: false
    weight_filler {
      type: "xavier"
    }
    axis: 2
  }
}
layer {
  name: "lstm2x_r1_r1_gate_input_2"
  type: "Eltwise"
  bottom: "W_hc_h_1"
  bottom: "W_xc_x_2"
  top: "gate_input_2"
  eltwise_param {
    operation: SUM
  }
}
layer {
  name: "lstm2x_r1_r1_unit_2"
  type: "LSTMUnit"
  bottom: "c_1"
  bottom: "gate_input_2"
  bottom: "cont_2"
  top: "c_2"
  top: "h_2"
}
layer {
  name: "lstm2x_r1_r1_h_conted_2"
  type: "Scale"
  bottom: "h_2"
  bottom: "cont_3"
  top: "h_conted_2"
  scale_param {
    axis: 0
  }
}
layer {
  name: "lstm2x_r1_r1_transform_3"
  type: "InnerProduct"
  bottom: "h_conted_2"
  top: "W_hc_h_2"
  param {
    name: "W_hc"
  }
  inner_product_param {
    num_output: 400
    bias_term: false
    weight_filler {
      type: "xavier"
    }
    axis: 2
  }
}
layer {
  name: "lstm2x_r1_r1_gate_input_3"
  type: "Eltwise"
  bottom: "W_hc_h_2"
  bottom: "W_xc_x_3"
  top: "gate_input_3"
  eltwise_param {
    operation: SUM
  }
}
layer {
  name: "lstm2x_r1_r1_unit_3"
  type: "LSTMUnit"
  bottom: "c_2"
  bottom: "gate_input_3"
  bottom: "cont_3"
  top: "c_3"
  top: "h_3"
}
layer {
  name: "lstm2x_r1_r1_h_conted_3"
  type: "Scale"
  bottom: "h_3"
  bottom: "cont_4"
  top: "h_conted_3"
  scale_param {
    axis: 0
  }
}
layer {
  name: "lstm2x_r1_r1_transform_4"
  type: "InnerProduct"
  bottom: "h_conted_3"
  top: "W_hc_h_3"
  param {
    name: "W_hc"
  }
  inner_product_param {
    num_output: 400
    bias_term: false
    weight_filler {
      type: "xavier"
    }
    axis: 2
  }
}
layer {
  name: "lstm2x_r1_r1_gate_input_4"
  type: "Eltwise"
  bottom: "W_hc_h_3"
  bottom: "W_xc_x_4"
  top: "gate_input_4"
  eltwise_param {
    operation: SUM
  }
}
layer {
  name: "lstm2x_r1_r1_unit_4"
  type: "LSTMUnit"
  bottom: "c_3"
  bottom: "gate_input_4"
  bottom: "cont_4"
  top: "c_4"
  top: "h_4"
}
layer {
  name: "lstm2x_r1_r1_h_conted_4"
  type: "Scale"
  bottom: "h_4"
  bottom: "cont_5"
  top: "h_conted_4"
  scale_param {
    axis: 0
  }
}
layer {
  name: "lstm2x_r1_r1_transform_5"
  type: "InnerProduct"
  bottom: "h_conted_4"
  top: "W_hc_h_4"
  param {
    name: "W_hc"
  }
  inner_product_param {
    num_output: 400
    bias_term: false
    weight_filler {
      type: "xavier"
    }
    axis: 2
  }
}
layer {
  name: "lstm2x_r1_r1_gate_input_5"
  type: "Eltwise"
  bottom: "W_hc_h_4"
  bottom: "W_xc_x_5"
  top: "gate_input_5"
  eltwise_param {
    operation: SUM
  }
}
layer {
  name: "lstm2x_r1_r1_unit_5"
  type: "LSTMUnit"
  bottom: "c_4"
  bottom: "gate_input_5"
  bottom: "cont_5"
  top: "c_5"
  top: "h_5"
}
layer {
  name: "lstm2x_r1_r1_h_conted_5"
  type: "Scale"
  bottom: "h_5"
  bottom: "cont_6"
  top: "h_conted_5"
  scale_param {
    axis: 0
  }
}
layer {
  name: "lstm2x_r1_r1_transform_6"
  type: "InnerProduct"
  bottom: "h_conted_5"
  top: "W_hc_h_5"
  param {
    name: "W_hc"
  }
  inner_product_param {
    num_output: 400
    bias_term: false
    weight_filler {
      type: "xavier"
    }
    axis: 2
  }
}
layer {
  name: "lstm2x_r1_r1_gate_input_6"
  type: "Eltwise"
  bottom: "W_hc_h_5"
  bottom: "W_xc_x_6"
  top: "gate_input_6"
  eltwise_param {
    operation: SUM
  }
}
layer {
  name: "lstm2x_r1_r1_unit_6"
  type: "LSTMUnit"
  bottom: "c_5"
  bottom: "gate_input_6"
  bottom: "cont_6"
  top: "c_6"
  top: "h_6"
}
layer {
  name: "lstm2x_r1_r1_h_conted_6"
  type: "Scale"
  bottom: "h_6"
  bottom: "cont_7"
  top: "h_conted_6"
  scale_param {
    axis: 0
  }
}
layer {
  name: "lstm2x_r1_r1_transform_7"
  type: "InnerProduct"
  bottom: "h_conted_6"
  top: "W_hc_h_6"
  param {
    name: "W_hc"
  }
  inner_product_param {
    num_output: 400
    bias_term: false
    weight_filler {
      type: "xavier"
    }
    axis: 2
  }
}
layer {
  name: "lstm2x_r1_r1_gate_input_7"
  type: "Eltwise"
  bottom: "W_hc_h_6"
  bottom: "W_xc_x_7"
  top: "gate_input_7"
  eltwise_param {
    operation: SUM
  }
}
layer {
  name: "lstm2x_r1_r1_unit_7"
  type: "LSTMUnit"
  bottom: "c_6"
  bottom: "gate_input_7"
  bottom: "cont_7"
  top: "c_7"
  top: "h_7"
}
layer {
  name: "lstm2x_r1_r1_h_conted_7"
  type: "Scale"
  bottom: "h_7"
  bottom: "cont_8"
  top: "h_conted_7"
  scale_param {
    axis: 0
  }
}
layer {
  name: "lstm2x_r1_r1_transform_8"
  type: "InnerProduct"
  bottom: "h_conted_7"
  top: "W_hc_h_7"
  param {
    name: "W_hc"
  }
  inner_product_param {
    num_output: 400
    bias_term: false
    weight_filler {
      type: "xavier"
    }
    axis: 2
  }
}
layer {
  name: "lstm2x_r1_r1_gate_input_8"
  type: "Eltwise"
  bottom: "W_hc_h_7"
  bottom: "W_xc_x_8"
  top: "gate_input_8"
  eltwise_param {
    operation: SUM
  }
}
layer {
  name: "lstm2x_r1_r1_unit_8"
  type: "LSTMUnit"
  bottom: "c_7"
  bottom: "gate_input_8"
  bottom: "cont_8"
  top: "c_8"
  top: "h_8"
}
layer {
  name: "lstm2x_r1_r1_h_conted_8"
  type: "Scale"
  bottom: "h_8"
  bottom: "cont_9"
  top: "h_conted_8"
  scale_param {
    axis: 0
  }
}
layer {
  name: "lstm2x_r1_r1_transform_9"
  type: "InnerProduct"
  bottom: "h_conted_8"
  top: "W_hc_h_8"
  param {
    name: "W_hc"
  }
  inner_product_param {
    num_output: 400
    bias_term: false
    weight_filler {
      type: "xavier"
    }
    axis: 2
  }
}
layer {
  name: "lstm2x_r1_r1_gate_input_9"
  type: "Eltwise"
  bottom: "W_hc_h_8"
  bottom: "W_xc_x_9"
  top: "gate_input_9"
  eltwise_param {
    operation: SUM
  }
}
layer {
  name: "lstm2x_r1_r1_unit_9"
  type: "LSTMUnit"
  bottom: "c_8"
  bottom: "gate_input_9"
  bottom: "cont_9"
  top: "c_9"
  top: "h_9"
}
layer {
  name: "lstm2x_r1_r1_h_conted_9"
  type: "Scale"
  bottom: "h_9"
  bottom: "cont_10"
  top: "h_conted_9"
  scale_param {
    axis: 0
  }
}
layer {
  name: "lstm2x_r1_r1_transform_10"
  type: "InnerProduct"
  bottom: "h_conted_9"
  top: "W_hc_h_9"
  param {
    name: "W_hc"
  }
  inner_product_param {
    num_output: 400
    bias_term: false
    weight_filler {
      type: "xavier"
    }
    axis: 2
  }
}
layer {
  name: "lstm2x_r1_r1_gate_input_10"
  type: "Eltwise"
  bottom: "W_hc_h_9"
  bottom: "W_xc_x_10"
  top: "gate_input_10"
  eltwise_param {
    operation: SUM
  }
}
layer {
  name: "lstm2x_r1_r1_unit_10"
  type: "LSTMUnit"
  bottom: "c_9"
  bottom: "gate_input_10"
  bottom: "cont_10"
  top: "c_10"
  top: "h_10"
}
layer {
  name: "lstm2x_r1_r1_h_conted_10"
  type: "Scale"
  bottom: "h_10"
  bottom: "cont_11"
  top: "h_conted_10"
  scale_param {
    axis: 0
  }
}
layer {
  name: "lstm2x_r1_r1_transform_11"
  type: "InnerProduct"
  bottom: "h_conted_10"
  top: "W_hc_h_10"
  param {
    name: "W_hc"
  }
  inner_product_param {
    num_output: 400
    bias_term: false
    weight_filler {
      type: "xavier"
    }
    axis: 2
  }
}
layer {
  name: "lstm2x_r1_r1_gate_input_11"
  type: "Eltwise"
  bottom: "W_hc_h_10"
  bottom: "W_xc_x_11"
  top: "gate_input_11"
  eltwise_param {
    operation: SUM
  }
}
layer {
  name: "lstm2x_r1_r1_unit_11"
  type: "LSTMUnit"
  bottom: "c_10"
  bottom: "gate_input_11"
  bottom: "cont_11"
  top: "c_11"
  top: "h_11"
}
layer {
  name: "lstm2x_r1_r1_h_conted_11"
  type: "Scale"
  bottom: "h_11"
  bottom: "cont_12"
  top: "h_conted_11"
  scale_param {
    axis: 0
  }
}
layer {
  name: "lstm2x_r1_r1_transform_12"
  type: "InnerProduct"
  bottom: "h_conted_11"
  top: "W_hc_h_11"
  param {
    name: "W_hc"
  }
  inner_product_param {
    num_output: 400
    bias_term: false
    weight_filler {
      type: "xavier"
    }
    axis: 2
  }
}
layer {
  name: "lstm2x_r1_r1_gate_input_12"
  type: "Eltwise"
  bottom: "W_hc_h_11"
  bottom: "W_xc_x_12"
  top: "gate_input_12"
  eltwise_param {
    operation: SUM
  }
}
layer {
  name: "lstm2x_r1_r1_unit_12"
  type: "LSTMUnit"
  bottom: "c_11"
  bottom: "gate_input_12"
  bottom: "cont_12"
  top: "c_12"
  top: "h_12"
}
layer {
  name: "lstm2x_r1_r1_h_conted_12"
  type: "Scale"
  bottom: "h_12"
  bottom: "cont_13"
  top: "h_conted_12"
  scale_param {
    axis: 0
  }
}
layer {
  name: "lstm2x_r1_r1_transform_13"
  type: "InnerProduct"
  bottom: "h_conted_12"
  top: "W_hc_h_12"
  param {
    name: "W_hc"
  }
  inner_product_param {
    num_output: 400
    bias_term: false
    weight_filler {
      type: "xavier"
    }
    axis: 2
  }
}
layer {
  name: "lstm2x_r1_r1_gate_input_13"
  type: "Eltwise"
  bottom: "W_hc_h_12"
  bottom: "W_xc_x_13"
  top: "gate_input_13"
  eltwise_param {
    operation: SUM
  }
}
layer {
  name: "lstm2x_r1_r1_unit_13"
  type: "LSTMUnit"
  bottom: "c_12"
  bottom: "gate_input_13"
  bottom: "cont_13"
  top: "c_13"
  top: "h_13"
}
layer {
  name: "lstm2x_r1_r1_h_conted_13"
  type: "Scale"
  bottom: "h_13"
  bottom: "cont_14"
  top: "h_conted_13"
  scale_param {
    axis: 0
  }
}
layer {
  name: "lstm2x_r1_r1_transform_14"
  type: "InnerProduct"
  bottom: "h_conted_13"
  top: "W_hc_h_13"
  param {
    name: "W_hc"
  }
  inner_product_param {
    num_output: 400
    bias_term: false
    weight_filler {
      type: "xavier"
    }
    axis: 2
  }
}
layer {
  name: "lstm2x_r1_r1_gate_input_14"
  type: "Eltwise"
  bottom: "W_hc_h_13"
  bottom: "W_xc_x_14"
  top: "gate_input_14"
  eltwise_param {
    operation: SUM
  }
}
layer {
  name: "lstm2x_r1_r1_unit_14"
  type: "LSTMUnit"
  bottom: "c_13"
  bottom: "gate_input_14"
  bottom: "cont_14"
  top: "c_14"
  top: "h_14"
}
layer {
  name: "lstm2x_r1_r1_h_conted_14"
  type: "Scale"
  bottom: "h_14"
  bottom: "cont_15"
  top: "h_conted_14"
  scale_param {
    axis: 0
  }
}
layer {
  name: "lstm2x_r1_r1_transform_15"
  type: "InnerProduct"
  bottom: "h_conted_14"
  top: "W_hc_h_14"
  param {
    name: "W_hc"
  }
  inner_product_param {
    num_output: 400
    bias_term: false
    weight_filler {
      type: "xavier"
    }
    axis: 2
  }
}
layer {
  name: "lstm2x_r1_r1_gate_input_15"
  type: "Eltwise"
  bottom: "W_hc_h_14"
  bottom: "W_xc_x_15"
  top: "gate_input_15"
  eltwise_param {
    operation: SUM
  }
}
layer {
  name: "lstm2x_r1_r1_unit_15"
  type: "LSTMUnit"
  bottom: "c_14"
  bottom: "gate_input_15"
  bottom: "cont_15"
  top: "c_15"
  top: "h_15"
}
layer {
  name: "lstm2x_r1_r1_h_conted_15"
  type: "Scale"
  bottom: "h_15"
  bottom: "cont_16"
  top: "h_conted_15"
  scale_param {
    axis: 0
  }
}
layer {
  name: "lstm2x_r1_r1_transform_16"
  type: "InnerProduct"
  bottom: "h_conted_15"
  top: "W_hc_h_15"
  param {
    name: "W_hc"
  }
  inner_product_param {
    num_output: 400
    bias_term: false
    weight_filler {
      type: "xavier"
    }
    axis: 2
  }
}
layer {
  name: "lstm2x_r1_r1_gate_input_16"
  type: "Eltwise"
  bottom: "W_hc_h_15"
  bottom: "W_xc_x_16"
  top: "gate_input_16"
  eltwise_param {
    operation: SUM
  }
}
layer {
  name: "lstm2x_r1_r1_unit_16"
  type: "LSTMUnit"
  bottom: "c_15"
  bottom: "gate_input_16"
  bottom: "cont_16"
  top: "c_16"
  top: "h_16"
}
layer {
  name: "lstm2x_r1_r1_h_conted_16"
  type: "Scale"
  bottom: "h_16"
  bottom: "cont_17"
  top: "h_conted_16"
  scale_param {
    axis: 0
  }
}
layer {
  name: "lstm2x_r1_r1_transform_17"
  type: "InnerProduct"
  bottom: "h_conted_16"
  top: "W_hc_h_16"
  param {
    name: "W_hc"
  }
  inner_product_param {
    num_output: 400
    bias_term: false
    weight_filler {
      type: "xavier"
    }
    axis: 2
  }
}
layer {
  name: "lstm2x_r1_r1_gate_input_17"
  type: "Eltwise"
  bottom: "W_hc_h_16"
  bottom: "W_xc_x_17"
  top: "gate_input_17"
  eltwise_param {
    operation: SUM
  }
}
layer {
  name: "lstm2x_r1_r1_unit_17"
  type: "LSTMUnit"
  bottom: "c_16"
  bottom: "gate_input_17"
  bottom: "cont_17"
  top: "c_17"
  top: "h_17"
}
layer {
  name: "lstm2x_r1_r1_h_conted_17"
  type: "Scale"
  bottom: "h_17"
  bottom: "cont_18"
  top: "h_conted_17"
  scale_param {
    axis: 0
  }
}
layer {
  name: "lstm2x_r1_r1_transform_18"
  type: "InnerProduct"
  bottom: "h_conted_17"
  top: "W_hc_h_17"
  param {
    name: "W_hc"
  }
  inner_product_param {
    num_output: 400
    bias_term: false
    weight_filler {
      type: "xavier"
    }
    axis: 2
  }
}
layer {
  name: "lstm2x_r1_r1_gate_input_18"
  type: "Eltwise"
  bottom: "W_hc_h_17"
  bottom: "W_xc_x_18"
  top: "gate_input_18"
  eltwise_param {
    operation: SUM
  }
}
layer {
  name: "lstm2x_r1_r1_unit_18"
  type: "LSTMUnit"
  bottom: "c_17"
  bottom: "gate_input_18"
  bottom: "cont_18"
  top: "c_18"
  top: "h_18"
}
layer {
  name: "lstm2x_r1_r1_h_conted_18"
  type: "Scale"
  bottom: "h_18"
  bottom: "cont_19"
  top: "h_conted_18"
  scale_param {
    axis: 0
  }
}
layer {
  name: "lstm2x_r1_r1_transform_19"
  type: "InnerProduct"
  bottom: "h_conted_18"
  top: "W_hc_h_18"
  param {
    name: "W_hc"
  }
  inner_product_param {
    num_output: 400
    bias_term: false
    weight_filler {
      type: "xavier"
    }
    axis: 2
  }
}
layer {
  name: "lstm2x_r1_r1_gate_input_19"
  type: "Eltwise"
  bottom: "W_hc_h_18"
  bottom: "W_xc_x_19"
  top: "gate_input_19"
  eltwise_param {
    operation: SUM
  }
}
layer {
  name: "lstm2x_r1_r1_unit_19"
  type: "LSTMUnit"
  bottom: "c_18"
  bottom: "gate_input_19"
  bottom: "cont_19"
  top: "c_19"
  top: "h_19"
}
layer {
  name: "lstm2x_r1_r1_h_conted_19"
  type: "Scale"
  bottom: "h_19"
  bottom: "cont_20"
  top: "h_conted_19"
  scale_param {
    axis: 0
  }
}
layer {
  name: "lstm2x_r1_r1_transform_20"
  type: "InnerProduct"
  bottom: "h_conted_19"
  top: "W_hc_h_19"
  param {
    name: "W_hc"
  }
  inner_product_param {
    num_output: 400
    bias_term: false
    weight_filler {
      type: "xavier"
    }
    axis: 2
  }
}
layer {
  name: "lstm2x_r1_r1_gate_input_20"
  type: "Eltwise"
  bottom: "W_hc_h_19"
  bottom: "W_xc_x_20"
  top: "gate_input_20"
  eltwise_param {
    operation: SUM
  }
}
layer {
  name: "lstm2x_r1_r1_unit_20"
  type: "LSTMUnit"
  bottom: "c_19"
  bottom: "gate_input_20"
  bottom: "cont_20"
  top: "c_20"
  top: "h_20"
}
layer {
  name: "lstm2x_r1_r1_h_conted_20"
  type: "Scale"
  bottom: "h_20"
  bottom: "cont_21"
  top: "h_conted_20"
  scale_param {
    axis: 0
  }
}
layer {
  name: "lstm2x_r1_r1_transform_21"
  type: "InnerProduct"
  bottom: "h_conted_20"
  top: "W_hc_h_20"
  param {
    name: "W_hc"
  }
  inner_product_param {
    num_output: 400
    bias_term: false
    weight_filler {
      type: "xavier"
    }
    axis: 2
  }
}
layer {
  name: "lstm2x_r1_r1_gate_input_21"
  type: "Eltwise"
  bottom: "W_hc_h_20"
  bottom: "W_xc_x_21"
  top: "gate_input_21"
  eltwise_param {
    operation: SUM
  }
}
layer {
  name: "lstm2x_r1_r1_unit_21"
  type: "LSTMUnit"
  bottom: "c_20"
  bottom: "gate_input_21"
  bottom: "cont_21"
  top: "c_21"
  top: "h_21"
}
layer {
  name: "lstm2x_r1_r1_h_conted_21"
  type: "Scale"
  bottom: "h_21"
  bottom: "cont_22"
  top: "h_conted_21"
  scale_param {
    axis: 0
  }
}
layer {
  name: "lstm2x_r1_r1_transform_22"
  type: "InnerProduct"
  bottom: "h_conted_21"
  top: "W_hc_h_21"
  param {
    name: "W_hc"
  }
  inner_product_param {
    num_output: 400
    bias_term: false
    weight_filler {
      type: "xavier"
    }
    axis: 2
  }
}
layer {
  name: "lstm2x_r1_r1_gate_input_22"
  type: "Eltwise"
  bottom: "W_hc_h_21"
  bottom: "W_xc_x_22"
  top: "gate_input_22"
  eltwise_param {
    operation: SUM
  }
}
layer {
  name: "lstm2x_r1_r1_unit_22"
  type: "LSTMUnit"
  bottom: "c_21"
  bottom: "gate_input_22"
  bottom: "cont_22"
  top: "c_22"
  top: "h_22"
}
layer {
  name: "lstm2x_r1_r1_h_conted_22"
  type: "Scale"
  bottom: "h_22"
  bottom: "cont_23"
  top: "h_conted_22"
  scale_param {
    axis: 0
  }
}
layer {
  name: "lstm2x_r1_r1_transform_23"
  type: "InnerProduct"
  bottom: "h_conted_22"
  top: "W_hc_h_22"
  param {
    name: "W_hc"
  }
  inner_product_param {
    num_output: 400
    bias_term: false
    weight_filler {
      type: "xavier"
    }
    axis: 2
  }
}
layer {
  name: "lstm2x_r1_r1_gate_input_23"
  type: "Eltwise"
  bottom: "W_hc_h_22"
  bottom: "W_xc_x_23"
  top: "gate_input_23"
  eltwise_param {
    operation: SUM
  }
}
layer {
  name: "lstm2x_r1_r1_unit_23"
  type: "LSTMUnit"
  bottom: "c_22"
  bottom: "gate_input_23"
  bottom: "cont_23"
  top: "c_23"
  top: "h_23"
}
layer {
  name: "lstm2x_r1_r1_h_conted_23"
  type: "Scale"
  bottom: "h_23"
  bottom: "cont_24"
  top: "h_conted_23"
  scale_param {
    axis: 0
  }
}
layer {
  name: "lstm2x_r1_r1_transform_24"
  type: "InnerProduct"
  bottom: "h_conted_23"
  top: "W_hc_h_23"
  param {
    name: "W_hc"
  }
  inner_product_param {
    num_output: 400
    bias_term: false
    weight_filler {
      type: "xavier"
    }
    axis: 2
  }
}
layer {
  name: "lstm2x_r1_r1_gate_input_24"
  type: "Eltwise"
  bottom: "W_hc_h_23"
  bottom: "W_xc_x_24"
  top: "gate_input_24"
  eltwise_param {
    operation: SUM
  }
}
layer {
  name: "lstm2x_r1_r1_unit_24"
  type: "LSTMUnit"
  bottom: "c_23"
  bottom: "gate_input_24"
  bottom: "cont_24"
  top: "c_24"
  top: "h_24"
}
layer {
  name: "lstm2x_r1_r1_h_conted_24"
  type: "Scale"
  bottom: "h_24"
  bottom: "cont_25"
  top: "h_conted_24"
  scale_param {
    axis: 0
  }
}
layer {
  name: "lstm2x_r1_r1_transform_25"
  type: "InnerProduct"
  bottom: "h_conted_24"
  top: "W_hc_h_24"
  param {
    name: "W_hc"
  }
  inner_product_param {
    num_output: 400
    bias_term: false
    weight_filler {
      type: "xavier"
    }
    axis: 2
  }
}
layer {
  name: "lstm2x_r1_r1_gate_input_25"
  type: "Eltwise"
  bottom: "W_hc_h_24"
  bottom: "W_xc_x_25"
  top: "gate_input_25"
  eltwise_param {
    operation: SUM
  }
}
layer {
  name: "lstm2x_r1_r1_unit_25"
  type: "LSTMUnit"
  bottom: "c_24"
  bottom: "gate_input_25"
  bottom: "cont_25"
  top: "c_25"
  top: "h_25"
}
layer {
  name: "lstm2x_r1_r1_h_conted_25"
  type: "Scale"
  bottom: "h_25"
  bottom: "cont_26"
  top: "h_conted_25"
  scale_param {
    axis: 0
  }
}
layer {
  name: "lstm2x_r1_r1_transform_26"
  type: "InnerProduct"
  bottom: "h_conted_25"
  top: "W_hc_h_25"
  param {
    name: "W_hc"
  }
  inner_product_param {
    num_output: 400
    bias_term: false
    weight_filler {
      type: "xavier"
    }
    axis: 2
  }
}
layer {
  name: "lstm2x_r1_r1_gate_input_26"
  type: "Eltwise"
  bottom: "W_hc_h_25"
  bottom: "W_xc_x_26"
  top: "gate_input_26"
  eltwise_param {
    operation: SUM
  }
}
layer {
  name: "lstm2x_r1_r1_unit_26"
  type: "LSTMUnit"
  bottom: "c_25"
  bottom: "gate_input_26"
  bottom: "cont_26"
  top: "c_26"
  top: "h_26"
}
layer {
  name: "lstm2x_r1_r1_h_conted_26"
  type: "Scale"
  bottom: "h_26"
  bottom: "cont_27"
  top: "h_conted_26"
  scale_param {
    axis: 0
  }
}
layer {
  name: "lstm2x_r1_r1_transform_27"
  type: "InnerProduct"
  bottom: "h_conted_26"
  top: "W_hc_h_26"
  param {
    name: "W_hc"
  }
  inner_product_param {
    num_output: 400
    bias_term: false
    weight_filler {
      type: "xavier"
    }
    axis: 2
  }
}
layer {
  name: "lstm2x_r1_r1_gate_input_27"
  type: "Eltwise"
  bottom: "W_hc_h_26"
  bottom: "W_xc_x_27"
  top: "gate_input_27"
  eltwise_param {
    operation: SUM
  }
}
layer {
  name: "lstm2x_r1_r1_unit_27"
  type: "LSTMUnit"
  bottom: "c_26"
  bottom: "gate_input_27"
  bottom: "cont_27"
  top: "c_27"
  top: "h_27"
}
layer {
  name: "lstm2x_r1_r1_h_conted_27"
  type: "Scale"
  bottom: "h_27"
  bottom: "cont_28"
  top: "h_conted_27"
  scale_param {
    axis: 0
  }
}
layer {
  name: "lstm2x_r1_r1_transform_28"
  type: "InnerProduct"
  bottom: "h_conted_27"
  top: "W_hc_h_27"
  param {
    name: "W_hc"
  }
  inner_product_param {
    num_output: 400
    bias_term: false
    weight_filler {
      type: "xavier"
    }
    axis: 2
  }
}
layer {
  name: "lstm2x_r1_r1_gate_input_28"
  type: "Eltwise"
  bottom: "W_hc_h_27"
  bottom: "W_xc_x_28"
  top: "gate_input_28"
  eltwise_param {
    operation: SUM
  }
}
layer {
  name: "lstm2x_r1_r1_unit_28"
  type: "LSTMUnit"
  bottom: "c_27"
  bottom: "gate_input_28"
  bottom: "cont_28"
  top: "c_28"
  top: "h_28"
}
layer {
  name: "lstm2x_r1_r1_h_conted_28"
  type: "Scale"
  bottom: "h_28"
  bottom: "cont_29"
  top: "h_conted_28"
  scale_param {
    axis: 0
  }
}
layer {
  name: "lstm2x_r1_r1_transform_29"
  type: "InnerProduct"
  bottom: "h_conted_28"
  top: "W_hc_h_28"
  param {
    name: "W_hc"
  }
  inner_product_param {
    num_output: 400
    bias_term: false
    weight_filler {
      type: "xavier"
    }
    axis: 2
  }
}
layer {
  name: "lstm2x_r1_r1_gate_input_29"
  type: "Eltwise"
  bottom: "W_hc_h_28"
  bottom: "W_xc_x_29"
  top: "gate_input_29"
  eltwise_param {
    operation: SUM
  }
}
layer {
  name: "lstm2x_r1_r1_unit_29"
  type: "LSTMUnit"
  bottom: "c_28"
  bottom: "gate_input_29"
  bottom: "cont_29"
  top: "c_29"
  top: "h_29"
}
layer {
  name: "lstm2x_r1_r1_h_conted_29"
  type: "Scale"
  bottom: "h_29"
  bottom: "cont_30"
  top: "h_conted_29"
  scale_param {
    axis: 0
  }
}
layer {
  name: "lstm2x_r1_r1_transform_30"
  type: "InnerProduct"
  bottom: "h_conted_29"
  top: "W_hc_h_29"
  param {
    name: "W_hc"
  }
  inner_product_param {
    num_output: 400
    bias_term: false
    weight_filler {
      type: "xavier"
    }
    axis: 2
  }
}
layer {
  name: "lstm2x_r1_r1_gate_input_30"
  type: "Eltwise"
  bottom: "W_hc_h_29"
  bottom: "W_xc_x_30"
  top: "gate_input_30"
  eltwise_param {
    operation: SUM
  }
}
layer {
  name: "lstm2x_r1_r1_unit_30"
  type: "LSTMUnit"
  bottom: "c_29"
  bottom: "gate_input_30"
  bottom: "cont_30"
  top: "c_30"
  top: "h_30"
}
layer {
  name: "lstm2x_r1_r1_h_conted_30"
  type: "Scale"
  bottom: "h_30"
  bottom: "cont_31"
  top: "h_conted_30"
  scale_param {
    axis: 0
  }
}
layer {
  name: "lstm2x_r1_r1_transform_31"
  type: "InnerProduct"
  bottom: "h_conted_30"
  top: "W_hc_h_30"
  param {
    name: "W_hc"
  }
  inner_product_param {
    num_output: 400
    bias_term: false
    weight_filler {
      type: "xavier"
    }
    axis: 2
  }
}
layer {
  name: "lstm2x_r1_r1_gate_input_31"
  type: "Eltwise"
  bottom: "W_hc_h_30"
  bottom: "W_xc_x_31"
  top: "gate_input_31"
  eltwise_param {
    operation: SUM
  }
}
layer {
  name: "lstm2x_r1_r1_unit_31"
  type: "LSTMUnit"
  bottom: "c_30"
  bottom: "gate_input_31"
  bottom: "cont_31"
  top: "c_31"
  top: "h_31"
}
layer {
  name: "lstm2x_r1_r1_h_conted_31"
  type: "Scale"
  bottom: "h_31"
  bottom: "cont_32"
  top: "h_conted_31"
  scale_param {
    axis: 0
  }
}
layer {
  name: "lstm2x_r1_r1_transform_32"
  type: "InnerProduct"
  bottom: "h_conted_31"
  top: "W_hc_h_31"
  param {
    name: "W_hc"
  }
  inner_product_param {
    num_output: 400
    bias_term: false
    weight_filler {
      type: "xavier"
    }
    axis: 2
  }
}
layer {
  name: "lstm2x_r1_r1_gate_input_32"
  type: "Eltwise"
  bottom: "W_hc_h_31"
  bottom: "W_xc_x_32"
  top: "gate_input_32"
  eltwise_param {
    operation: SUM
  }
}
layer {
  name: "lstm2x_r1_r1_unit_32"
  type: "LSTMUnit"
  bottom: "c_31"
  bottom: "gate_input_32"
  bottom: "cont_32"
  top: "c_32"
  top: "h_32"
}
layer {
  name: "lstm2x_r1_r1_h_conted_32"
  type: "Scale"
  bottom: "h_32"
  bottom: "cont_33"
  top: "h_conted_32"
  scale_param {
    axis: 0
  }
}
layer {
  name: "lstm2x_r1_r1_transform_33"
  type: "InnerProduct"
  bottom: "h_conted_32"
  top: "W_hc_h_32"
  param {
    name: "W_hc"
  }
  inner_product_param {
    num_output: 400
    bias_term: false
    weight_filler {
      type: "xavier"
    }
    axis: 2
  }
}
layer {
  name: "lstm2x_r1_r1_gate_input_33"
  type: "Eltwise"
  bottom: "W_hc_h_32"
  bottom: "W_xc_x_33"
  top: "gate_input_33"
  eltwise_param {
    operation: SUM
  }
}
layer {
  name: "lstm2x_r1_r1_unit_33"
  type: "LSTMUnit"
  bottom: "c_32"
  bottom: "gate_input_33"
  bottom: "cont_33"
  top: "c_33"
  top: "h_33"
}
layer {
  name: "lstm2x_r1_r1_h_conted_33"
  type: "Scale"
  bottom: "h_33"
  bottom: "cont_34"
  top: "h_conted_33"
  scale_param {
    axis: 0
  }
}
layer {
  name: "lstm2x_r1_r1_transform_34"
  type: "InnerProduct"
  bottom: "h_conted_33"
  top: "W_hc_h_33"
  param {
    name: "W_hc"
  }
  inner_product_param {
    num_output: 400
    bias_term: false
    weight_filler {
      type: "xavier"
    }
    axis: 2
  }
}
layer {
  name: "lstm2x_r1_r1_gate_input_34"
  type: "Eltwise"
  bottom: "W_hc_h_33"
  bottom: "W_xc_x_34"
  top: "gate_input_34"
  eltwise_param {
    operation: SUM
  }
}
layer {
  name: "lstm2x_r1_r1_unit_34"
  type: "LSTMUnit"
  bottom: "c_33"
  bottom: "gate_input_34"
  bottom: "cont_34"
  top: "c_34"
  top: "h_34"
}
layer {
  name: "lstm2x_r1_r1_h_conted_34"
  type: "Scale"
  bottom: "h_34"
  bottom: "cont_35"
  top: "h_conted_34"
  scale_param {
    axis: 0
  }
}
layer {
  name: "lstm2x_r1_r1_transform_35"
  type: "InnerProduct"
  bottom: "h_conted_34"
  top: "W_hc_h_34"
  param {
    name: "W_hc"
  }
  inner_product_param {
    num_output: 400
    bias_term: false
    weight_filler {
      type: "xavier"
    }
    axis: 2
  }
}
layer {
  name: "lstm2x_r1_r1_gate_input_35"
  type: "Eltwise"
  bottom: "W_hc_h_34"
  bottom: "W_xc_x_35"
  top: "gate_input_35"
  eltwise_param {
    operation: SUM
  }
}
layer {
  name: "lstm2x_r1_r1_unit_35"
  type: "LSTMUnit"
  bottom: "c_34"
  bottom: "gate_input_35"
  bottom: "cont_35"
  top: "c_35"
  top: "h_35"
}
layer {
  name: "lstm2x_r1_r1_h_conted_35"
  type: "Scale"
  bottom: "h_35"
  bottom: "cont_36"
  top: "h_conted_35"
  scale_param {
    axis: 0
  }
}
layer {
  name: "lstm2x_r1_r1_transform_36"
  type: "InnerProduct"
  bottom: "h_conted_35"
  top: "W_hc_h_35"
  param {
    name: "W_hc"
  }
  inner_product_param {
    num_output: 400
    bias_term: false
    weight_filler {
      type: "xavier"
    }
    axis: 2
  }
}
layer {
  name: "lstm2x_r1_r1_gate_input_36"
  type: "Eltwise"
  bottom: "W_hc_h_35"
  bottom: "W_xc_x_36"
  top: "gate_input_36"
  eltwise_param {
    operation: SUM
  }
}
layer {
  name: "lstm2x_r1_r1_unit_36"
  type: "LSTMUnit"
  bottom: "c_35"
  bottom: "gate_input_36"
  bottom: "cont_36"
  top: "c_36"
  top: "h_36"
}
layer {
  name: "lstm2x_r1_r1_h_conted_36"
  type: "Scale"
  
I0102 16:58:45.406405 14152 layer_factory.hpp:77] Creating layer lstm2x_r1_r1_
I0102 16:58:45.406414 14152 net.cpp:84] Creating Layer lstm2x_r1_r1_
I0102 16:58:45.406419 14152 net.cpp:380] lstm2x_r1_r1_ -> x
I0102 16:58:45.406430 14152 net.cpp:380] lstm2x_r1_r1_ -> cont
I0102 16:58:45.406466 14152 net.cpp:122] Setting up lstm2x_r1_r1_
I0102 16:58:45.406472 14152 net.cpp:129] Top shape: 60 40 512 7 (8601600)
I0102 16:58:45.406476 14152 net.cpp:129] Top shape: 60 40 (2400)
I0102 16:58:45.406481 14152 net.cpp:137] Memory required for data: 34416000
I0102 16:58:45.406484 14152 layer_factory.hpp:77] Creating layer lstm2x_r1_r1_
I0102 16:58:45.406489 14152 net.cpp:84] Creating Layer lstm2x_r1_r1_
I0102 16:58:45.406493 14152 net.cpp:380] lstm2x_r1_r1_ -> c_0
I0102 16:58:45.406502 14152 net.cpp:380] lstm2x_r1_r1_ -> h_0
I0102 16:58:45.406532 14152 net.cpp:122] Setting up lstm2x_r1_r1_
I0102 16:58:45.406536 14152 net.cpp:129] Top shape: 1 40 100 (4000)
I0102 16:58:45.406540 14152 net.cpp:129] Top shape: 1 40 100 (4000)
I0102 16:58:45.406544 14152 net.cpp:137] Memory required for data: 34448000
I0102 16:58:45.406548 14152 layer_factory.hpp:77] Creating layer lstm2x_r1_r1_cont_slice
I0102 16:58:45.406554 14152 net.cpp:84] Creating Layer lstm2x_r1_r1_cont_slice
I0102 16:58:45.406558 14152 net.cpp:406] lstm2x_r1_r1_cont_slice <- cont
I0102 16:58:45.406565 14152 net.cpp:380] lstm2x_r1_r1_cont_slice -> cont_1
…
I0102 16:58:45.407035 14152 net.cpp:380] lstm2x_r1_r1_cont_slice -> cont_54
I0102 16:58:45.407043 14152 net.cpp:380] lstm2x_r1_r1_cont_slice -> cont_55
I0102 16:58:45.407052 14152 net.cpp:380] lstm2x_r1_r1_cont_slice -> cont_56
I0102 16:58:45.407060 14152 net.cpp:380] lstm2x_r1_r1_cont_slice -> cont_57
I0102 16:58:45.407069 14152 net.cpp:380] lstm2x_r1_r1_cont_slice -> cont_58
I0102 16:58:45.407078 14152 net.cpp:380] lstm2x_r1_r1_cont_slice -> cont_59
I0102 16:58:45.407086 14152 net.cpp:380] lstm2x_r1_r1_cont_slice -> cont_60
I0102 16:58:45.407578 14152 net.cpp:122] Setting up lstm2x_r1_r1_cont_slice
I0102 16:58:45.407585 14152 net.cpp:129] Top shape: 1 40 (40)
I0102 16:58:45.407589 14152 net.cpp:129] Top shape: 1 40 (40)
I0102 16:58:45.407593 14152 net.cpp:129] Top shape: 1 40 (40)
I0102 16:58:45.407596 14152 net.cpp:129] Top shape: 1 40 (40)
I0102 16:58:45.407600 14152 net.cpp:129] Top shape: 1 40 (40)
I0102 16:58:45.407604 14152 net.cpp:129] Top shape: 1 40 (40)
I0102 16:58:45.407608 14152 net.cpp:129] Top shape: 1 40 (40)
I0102 16:58:45.407613 14152 net.cpp:129] Top shape: 1 40 (40)
I0102 16:58:45.407616 14152 net.cpp:129] Top shape: 1 40 (40)
I0102 16:58:45.407619 14152 net.cpp:129] Top shape: 1 40 (40)
I0102 16:58:45.407624 14152 net.cpp:129] Top shape: 1 40 (40)
I0102 16:58:45.407629 14152 net.cpp:129] Top shape: 1 40 (40)
I0102 16:58:45.407631 14152 net.cpp:129] Top shape: 1 40 (40)
I0102 16:58:45.407635 14152 net.cpp:129] Top shape: 1 40 (40)
I0102 16:58:45.407639 14152 net.cpp:129] Top shape: 1 40 (40)
I0102 16:58:45.407644 14152 net.cpp:129] Top shape: 1 40 (40)
I0102 16:58:45.407647 14152 net.cpp:129] Top shape: 1 40 (40)
I0102 16:58:45.407650 14152 net.cpp:129] Top shape: 1 40 (40)
I0102 16:58:45.407654 14152 net.cpp:129] Top shape: 1 40 (40)
I0102 16:58:45.407658 14152 net.cpp:129] Top shape: 1 40 (40)
I0102 16:58:45.407662 14152 net.cpp:129] Top shape: 1 40 (40)
I0102 16:58:45.407665 14152 net.cpp:129] Top shape: 1 40 (40)
I0102 16:58:45.407670 14152 net.cpp:129] Top shape: 1 40 (40)
I0102 16:58:45.407673 14152 net.cpp:129] Top shape: 1 40 (40)
I0102 16:58:45.407677 14152 net.cpp:129] Top shape: 1 40 (40)
I0102 16:58:45.407681 14152 net.cpp:129] Top shape: 1 40 (40)
I0102 16:58:45.407685 14152 net.cpp:129] Top shape: 1 40 (40)
I0102 16:58:45.407690 14152 net.cpp:129] Top shape: 1 40 (40)
I0102 16:58:45.407693 14152 net.cpp:129] Top shape: 1 40 (40)
I0102 16:58:45.407696 14152 net.cpp:129] Top shape: 1 40 (40)
I0102 16:58:45.407701 14152 net.cpp:129] Top shape: 1 40 (40)
I0102 16:58:45.407704 14152 net.cpp:129] Top shape: 1 40 (40)
I0102 16:58:45.407707 14152 net.cpp:129] Top shape: 1 40 (40)
I0102 16:58:45.407711 14152 net.cpp:129] Top shape: 1 40 (40)
I0102 16:58:45.407721 14152 net.cpp:129] Top shape: 1 40 (40)
I0102 16:58:45.407727 14152 net.cpp:129] Top shape: 1 40 (40)
I0102 16:58:45.407730 14152 net.cpp:129] Top shape: 1 40 (40)
I0102 16:58:45.407734 14152 net.cpp:129] Top shape: 1 40 (40)
I0102 16:58:45.407737 14152 net.cpp:129] Top shape: 1 40 (40)
I0102 16:58:45.407742 14152 net.cpp:129] Top shape: 1 40 (40)
I0102 16:58:45.407745 14152 net.cpp:129] Top shape: 1 40 (40)
I0102 16:58:45.407749 14152 net.cpp:129] Top shape: 1 40 (40)
I0102 16:58:45.407752 14152 net.cpp:129] Top shape: 1 40 (40)
I0102 16:58:45.407757 14152 net.cpp:129] Top shape: 1 40 (40)
I0102 16:58:45.407762 14152 net.cpp:129] Top shape: 1 40 (40)
I0102 16:58:45.407764 14152 net.cpp:129] Top shape: 1 40 (40)
I0102 16:58:45.407768 14152 net.cpp:129] Top shape: 1 40 (40)
I0102 16:58:45.407773 14152 net.cpp:129] Top shape: 1 40 (40)
I0102 16:58:45.407776 14152 net.cpp:129] Top shape: 1 40 (40)
I0102 16:58:45.407780 14152 net.cpp:129] Top shape: 1 40 (40)
I0102 16:58:45.407783 14152 net.cpp:129] Top shape: 1 40 (40)
I0102 16:58:45.407788 14152 net.cpp:129] Top shape: 1 40 (40)
I0102 16:58:45.407791 14152 net.cpp:129] Top shape: 1 40 (40)
I0102 16:58:45.407795 14152 net.cpp:129] Top shape: 1 40 (40)
I0102 16:58:45.407799 14152 net.cpp:129] Top shape: 1 40 (40)
I0102 16:58:45.407802 14152 net.cpp:129] Top shape: 1 40 (40)
I0102 16:58:45.407807 14152 net.cpp:129] Top shape: 1 40 (40)
I0102 16:58:45.407810 14152 net.cpp:129] Top shape: 1 40 (40)
I0102 16:58:45.407814 14152 net.cpp:129] Top shape: 1 40 (40)
I0102 16:58:45.407819 14152 net.cpp:129] Top shape: 1 40 (40)
I0102 16:58:45.407821 14152 net.cpp:137] Memory required for data: 34457600
I0102 16:58:45.407824 14152 layer_factory.hpp:77] Creating layer cont_1_lstm2x_r1_r1_cont_slice_0_split
I0102 16:58:45.407830 14152 net.cpp:84] Creating Layer cont_1_lstm2x_r1_r1_cont_slice_0_split
I0102 16:58:45.407835 14152 net.cpp:406] cont_1_lstm2x_r1_r1_cont_slice_0_split <- cont_1
I0102 16:58:45.407840 14152 net.cpp:380] cont_1_lstm2x_r1_r1_cont_slice_0_split -> cont_1_lstm2x_r1_r1_cont_slice_0_split_0
I0102 16:58:45.407850 14152 net.cpp:380] cont_1_lstm2x_r1_r1_cont_slice_0_split -> cont_1_lstm2x_r1_r1_cont_slice_0_split_1
I0102 16:58:45.407881 14152 net.cpp:122] Setting up cont_1_lstm2x_r1_r1_cont_slice_0_split
I0102 16:58:45.407886 14152 net.cpp:129] Top shape: 1 40 (40)
I0102 16:58:45.407889 14152 net.cpp:129] Top shape: 1 40 (40)
I0102 16:58:45.407892 14152 net.cpp:137] Memory required for data: 34457920
I0102 16:58:45.407894 14152 layer_factory.hpp:77] Creating layer cont_2_lstm2x_r1_r1_cont_slice_1_split
I0102 16:58:45.407901 14152 net.cpp:84] Creating Layer cont_2_lstm2x_r1_r1_cont_slice_1_split
I0102 16:58:45.407904 14152 net.cpp:406] cont_2_lstm2x_r1_r1_cont_slice_1_split <- cont_2
I0102 16:58:45.407912 14152 net.cpp:380] cont_2_lstm2x_r1_r1_cont_slice_1_split -> cont_2_lstm2x_r1_r1_cont_slice_1_split_0
I0102 16:58:45.407917 14152 net.cpp:380] cont_2_lstm2x_r1_r1_cont_slice_1_split -> cont_2_lstm2x_r1_r1_cont_slice_1_split_1
I0102 16:58:45.407946 14152 net.cpp:122] Setting up cont_2_lstm2x_r1_r1_cont_slice_1_split
I0102 16:58:45.407951 14152 net.cpp:129] Top shape: 1 40 (40)
I0102 16:58:45.407954 14152 net.cpp:129] Top shape: 1 40 (40)
I0102 16:58:45.407958 14152 net.cpp:137] Memory required for data: 34458240
I0102 16:58:45.407960 14152 layer_factory.hpp:77] Creating layer cont_3_lstm2x_r1_r1_cont_slice_2_split
I0102 16:58:45.407965 14152 net.cpp:84] Creating Layer cont_3_lstm2x_r1_r1_cont_slice_2_split
I0102 16:58:45.407969 14152 net.cpp:406] cont_3_lstm2x_r1_r1_cont_slice_2_split <- cont_3
I0102 16:58:45.407974 14152 net.cpp:380] cont_3_lstm2x_r1_r1_cont_slice_2_split -> cont_3_lstm2x_r1_r1_cont_slice_2_split_0
I0102 16:58:45.407980 14152 net.cpp:380] cont_3_lstm2x_r1_r1_cont_slice_2_split -> cont_3_lstm2x_r1_r1_cont_slice_2_split_1
I0102 16:58:45.408008 14152 net.cpp:122] Setting up cont_3_lstm2x_r1_r1_cont_slice_2_split
I0102 16:58:45.408012 14152 net.cpp:129] Top shape: 1 40 (40)
I0102 16:58:45.408016 14152 net.cpp:129] Top shape: 1 40 (40)
I0102 16:58:45.408025 14152 net.cpp:137] Memory required for data: 34458560
I0102 16:58:45.408027 14152 layer_factory.hpp:77] Creating layer cont_4_lstm2x_r1_r1_cont_slice_3_split
I0102 16:58:45.408032 14152 net.cpp:84] Creating Layer cont_4_lstm2x_r1_r1_cont_slice_3_split
I0102 16:58:45.408035 14152 net.cpp:406] cont_4_lstm2x_r1_r1_cont_slice_3_split <- cont_4
I0102 16:58:45.408041 14152 net.cpp:380] cont_4_lstm2x_r1_r1_cont_slice_3_split -> cont_4_lstm2x_r1_r1_cont_slice_3_split_0
I0102 16:58:45.408047 14152 net.cpp:380] cont_4_lstm2x_r1_r1_cont_slice_3_split -> cont_4_lstm2x_r1_r1_cont_slice_3_split_1
I0102 16:58:45.408074 14152 net.cpp:122] Setting up cont_4_lstm2x_r1_r1_cont_slice_3_split
I0102 16:58:45.408079 14152 net.cpp:129] Top shape: 1 40 (40)
I0102 16:58:45.408083 14152 net.cpp:129] Top shape: 1 40 (40)
I0102 16:58:45.408087 14152 net.cpp:137] Memory required for data: 34458880
I0102 16:58:45.408089 14152 layer_factory.hpp:77] Creating layer cont_5_lstm2x_r1_r1_cont_slice_4_split
I0102 16:58:45.408093 14152 net.cpp:84] Creating Layer cont_5_lstm2x_r1_r1_cont_slice_4_split
I0102 16:58:45.408097 14152 net.cpp:406] cont_5_lstm2x_r1_r1_cont_slice_4_split <- cont_5
I0102 16:58:45.408102 14152 net.cpp:380] cont_5_lstm2x_r1_r1_cont_slice_4_split -> cont_5_lstm2x_r1_r1_cont_slice_4_split_0
I0102 16:58:45.408107 14152 net.cpp:380] cont_5_lstm2x_r1_r1_cont_slice_4_split -> cont_5_lstm2x_r1_r1_cont_slice_4_split_1
I0102 16:58:45.408136 14152 net.cpp:122] Setting up cont_5_lstm2x_r1_r1_cont_slice_4_split
I0102 16:58:45.408141 14152 net.cpp:129] Top shape: 1 40 (40)
I0102 16:58:45.408144 14152 net.cpp:129] Top shape: 1 40 (40)
I0102 16:58:45.408148 14152 net.cpp:137] Memory required for data: 34459200
I0102 16:58:45.408150 14152 layer_factory.hpp:77] Creating layer cont_6_lstm2x_r1_r1_cont_slice_5_split
I0102 16:58:45.408156 14152 net.cpp:84] Creating Layer cont_6_lstm2x_r1_r1_cont_slice_5_split
I0102 16:58:45.408160 14152 net.cpp:406] cont_6_lstm2x_r1_r1_cont_slice_5_split <- cont_6
I0102 16:58:45.408165 14152 net.cpp:380] cont_6_lstm2x_r1_r1_cont_slice_5_split -> cont_6_lstm2x_r1_r1_cont_slice_5_split_0
I0102 16:58:45.408171 14152 net.cpp:380] cont_6_lstm2x_r1_r1_cont_slice_5_split -> cont_6_lstm2x_r1_r1_cont_slice_5_split_1
I0102 16:58:45.408200 14152 net.cpp:122] Setting up cont_6_lstm2x_r1_r1_cont_slice_5_split
I0102 16:58:45.408205 14152 net.cpp:129] Top shape: 1 40 (40)
I0102 16:58:45.408207 14152 net.cpp:129] Top shape: 1 40 (40)
I0102 16:58:45.408210 14152 net.cpp:137] Memory required for data: 34459520
I0102 16:58:45.408213 14152 layer_factory.hpp:77] Creating layer cont_7_lstm2x_r1_r1_cont_slice_6_split
I0102 16:58:45.408218 14152 net.cpp:84] Creating Layer cont_7_lstm2x_r1_r1_cont_slice_6_split
I0102 16:58:45.408221 14152 net.cpp:406] cont_7_lstm2x_r1_r1_cont_slice_6_split <- cont_7
I0102 16:58:45.408226 14152 net.cpp:380] cont_7_lstm2x_r1_r1_cont_slice_6_split -> cont_7_lstm2x_r1_r1_cont_slice_6_split_0
I0102 16:58:45.408233 14152 net.cpp:380] cont_7_lstm2x_r1_r1_cont_slice_6_split -> cont_7_lstm2x_r1_r1_cont_slice_6_split_1
I0102 16:58:45.408259 14152 net.cpp:122] Setting up cont_7_lstm2x_r1_r1_cont_slice_6_split
I0102 16:58:45.408264 14152 net.cpp:129] Top shape: 1 40 (40)
I0102 16:58:45.408267 14152 net.cpp:129] Top shape: 1 40 (40)
I0102 16:58:45.408270 14152 net.cpp:137] Memory required for data: 34459840
I0102 16:58:45.408273 14152 layer_factory.hpp:77] Creating layer cont_8_lstm2x_r1_r1_cont_slice_7_split
I0102 16:58:45.408278 14152 net.cpp:84] Creating Layer cont_8_lstm2x_r1_r1_cont_slice_7_split
I0102 16:58:45.408282 14152 net.cpp:406] cont_8_lstm2x_r1_r1_cont_slice_7_split <- cont_8
I0102 16:58:45.408288 14152 net.cpp:380] cont_8_lstm2x_r1_r1_cont_slice_7_split -> cont_8_lstm2x_r1_r1_cont_slice_7_split_0
I0102 16:58:45.408293 14152 net.cpp:380] cont_8_lstm2x_r1_r1_cont_slice_7_split -> cont_8_lstm2x_r1_r1_cont_slice_7_split_1
I0102 16:58:45.408321 14152 net.cpp:122] Setting up cont_8_lstm2x_r1_r1_cont_slice_7_split
I0102 16:58:45.408325 14152 net.cpp:129] Top shape: 1 40 (40)
I0102 16:58:45.408334 14152 net.cpp:129] Top shape: 1 40 (40)
I0102 16:58:45.408339 14152 net.cpp:137] Memory required for data: 34460160
I0102 16:58:45.408340 14152 layer_factory.hpp:77] Creating layer cont_9_lstm2x_r1_r1_cont_slice_8_split
I0102 16:58:45.408344 14152 net.cpp:84] Creating Layer cont_9_lstm2x_r1_r1_cont_slice_8_split
I0102 16:58:45.408349 14152 net.cpp:406] cont_9_lstm2x_r1_r1_cont_slice_8_split <- cont_9
I0102 16:58:45.408355 14152 net.cpp:380] cont_9_lstm2x_r1_r1_cont_slice_8_split -> cont_9_lstm2x_r1_r1_cont_slice_8_split_0
I0102 16:58:45.408361 14152 net.cpp:380] cont_9_lstm2x_r1_r1_cont_slice_8_split -> cont_9_lstm2x_r1_r1_cont_slice_8_split_1
I0102 16:58:45.408387 14152 net.cpp:122] Setting up cont_9_lstm2x_r1_r1_cont_slice_8_split
I0102 16:58:45.408392 14152 net.cpp:129] Top shape: 1 40 (40)
I0102 16:58:45.408396 14152 net.cpp:129] Top shape: 1 40 (40)
I0102 16:58:45.408398 14152 net.cpp:137] Memory required for data: 34460480
I0102 16:58:45.408401 14152 layer_factory.hpp:77] Creating layer cont_10_lstm2x_r1_r1_cont_slice_9_split
I0102 16:58:45.408407 14152 net.cpp:84] Creating Layer cont_10_lstm2x_r1_r1_cont_slice_9_split
I0102 16:58:45.408411 14152 net.cpp:406] cont_10_lstm2x_r1_r1_cont_slice_9_split <- cont_10
I0102 16:58:45.408416 14152 net.cpp:380] cont_10_lstm2x_r1_r1_cont_slice_9_split -> cont_10_lstm2x_r1_r1_cont_slice_9_split_0
I0102 16:58:45.408422 14152 net.cpp:380] cont_10_lstm2x_r1_r1_cont_slice_9_split -> cont_10_lstm2x_r1_r1_cont_slice_9_split_1
I0102 16:58:45.408450 14152 net.cpp:122] Setting up cont_10_lstm2x_r1_r1_cont_slice_9_split
I0102 16:58:45.408454 14152 net.cpp:129] Top shape: 1 40 (40)
I0102 16:58:45.408458 14152 net.cpp:129] Top shape: 1 40 (40)
I0102 16:58:45.408460 14152 net.cpp:137] Memory required for data: 34460800
I0102 16:58:45.408464 14152 layer_factory.hpp:77] Creating layer cont_11_lstm2x_r1_r1_cont_slice_10_split
I0102 16:58:45.408468 14152 net.cpp:84] Creating Layer cont_11_lstm2x_r1_r1_cont_slice_10_split
I0102 16:58:45.408471 14152 net.cpp:406] cont_11_lstm2x_r1_r1_cont_slice_10_split <- cont_11
I0102 16:58:45.408476 14152 net.cpp:380] cont_11_lstm2x_r1_r1_cont_slice_10_split -> cont_11_lstm2x_r1_r1_cont_slice_10_split_0
I0102 16:58:45.408483 14152 net.cpp:380] cont_11_lstm2x_r1_r1_cont_slice_10_split -> cont_11_lstm2x_r1_r1_cont_slice_10_split_1
I0102 16:58:45.408511 14152 net.cpp:122] Setting up cont_11_lstm2x_r1_r1_cont_slice_10_split
I0102 16:58:45.408515 14152 net.cpp:129] Top shape: 1 40 (40)
I0102 16:58:45.408519 14152 net.cpp:129] Top shape: 1 40 (40)
I0102 16:58:45.408522 14152 net.cpp:137] Memory required for data: 34461120
I0102 16:58:45.408525 14152 layer_factory.hpp:77] Creating layer cont_12_lstm2x_r1_r1_cont_slice_11_split
I0102 16:58:45.408529 14152 net.cpp:84] Creating Layer cont_12_lstm2x_r1_r1_cont_slice_11_split
I0102 16:58:45.408532 14152 net.cpp:406] cont_12_lstm2x_r1_r1_cont_slice_11_split <- cont_12
I0102 16:58:45.408537 14152 net.cpp:380] cont_12_lstm2x_r1_r1_cont_slice_11_split -> cont_12_lstm2x_r1_r1_cont_slice_11_split_0
I0102 16:58:45.408543 14152 net.cpp:380] cont_12_lstm2x_r1_r1_cont_slice_11_split -> cont_12_lstm2x_r1_r1_cont_slice_11_split_1
I0102 16:58:45.408571 14152 net.cpp:122] Setting up cont_12_lstm2x_r1_r1_cont_slice_11_split
I0102 16:58:45.408574 14152 net.cpp:129] Top shape: 1 40 (40)
I0102 16:58:45.408578 14152 net.cpp:129] Top shape: 1 40 (40)
I0102 16:58:45.408581 14152 net.cpp:137] Memory required for data: 34461440
I0102 16:58:45.408584 14152 layer_factory.hpp:77] Creating layer cont_13_lstm2x_r1_r1_cont_slice_12_split
I0102 16:58:45.408588 14152 net.cpp:84] Creating Layer cont_13_lstm2x_r1_r1_cont_slice_12_split
I0102 16:58:45.408591 14152 net.cpp:406] cont_13_lstm2x_r1_r1_cont_slice_12_split <- cont_13
I0102 16:58:45.408598 14152 net.cpp:380] cont_13_lstm2x_r1_r1_cont_slice_12_split -> cont_13_lstm2x_r1_r1_cont_slice_12_split_0
I0102 16:58:45.408604 14152 net.cpp:380] cont_13_lstm2x_r1_r1_cont_slice_12_split -> cont_13_lstm2x_r1_r1_cont_slice_12_split_1
I0102 16:58:45.408632 14152 net.cpp:122] Setting up cont_13_lstm2x_r1_r1_cont_slice_12_split
I0102 16:58:45.408640 14152 net.cpp:129] Top shape: 1 40 (40)
I0102 16:58:45.408645 14152 net.cpp:129] Top shape: 1 40 (40)
I0102 16:58:45.408648 14152 net.cpp:137] Memory required for data: 34461760
I0102 16:58:45.408650 14152 layer_factory.hpp:77] Creating layer cont_14_lstm2x_r1_r1_cont_slice_13_split
I0102 16:58:45.408655 14152 net.cpp:84] Creating Layer cont_14_lstm2x_r1_r1_cont_slice_13_split
I0102 16:58:45.408659 14152 net.cpp:406] cont_14_lstm2x_r1_r1_cont_slice_13_split <- cont_14
I0102 16:58:45.408664 14152 net.cpp:380] cont_14_lstm2x_r1_r1_cont_slice_13_split -> cont_14_lstm2x_r1_r1_cont_slice_13_split_0
I0102 16:58:45.408673 14152 net.cpp:380] cont_14_lstm2x_r1_r1_cont_slice_13_split -> cont_14_lstm2x_r1_r1_cont_slice_13_split_1
I0102 16:58:45.408699 14152 net.cpp:122] Setting up cont_14_lstm2x_r1_r1_cont_slice_13_split
I0102 16:58:45.408704 14152 net.cpp:129] Top shape: 1 40 (40)
I0102 16:58:45.408707 14152 net.cpp:129] Top shape: 1 40 (40)
I0102 16:58:45.408710 14152 net.cpp:137] Memory required for data: 34462080
I0102 16:58:45.408712 14152 layer_factory.hpp:77] Creating layer cont_15_lstm2x_r1_r1_cont_slice_14_split
I0102 16:58:45.408718 14152 net.cpp:84] Creating Layer cont_15_lstm2x_r1_r1_cont_slice_14_split
I0102 16:58:45.408722 14152 net.cpp:406] cont_15_lstm2x_r1_r1_cont_slice_14_split <- cont_15
I0102 16:58:45.408726 14152 net.cpp:380] cont_15_lstm2x_r1_r1_cont_slice_14_split -> cont_15_lstm2x_r1_r1_cont_slice_14_split_0
I0102 16:58:45.408732 14152 net.cpp:380] cont_15_lstm2x_r1_r1_cont_slice_14_split -> cont_15_lstm2x_r1_r1_cont_slice_14_split_1
I0102 16:58:45.408759 14152 net.cpp:122] Setting up cont_15_lstm2x_r1_r1_cont_slice_14_split
I0102 16:58:45.408764 14152 net.cpp:129] Top shape: 1 40 (40)
I0102 16:58:45.408768 14152 net.cpp:129] Top shape: 1 40 (40)
I0102 16:58:45.408771 14152 net.cpp:137] Memory required for data: 34462400
I0102 16:58:45.408774 14152 layer_factory.hpp:77] Creating layer cont_16_lstm2x_r1_r1_cont_slice_15_split
I0102 16:58:45.408778 14152 net.cpp:84] Creating Layer cont_16_lstm2x_r1_r1_cont_slice_15_split
I0102 16:58:45.408782 14152 net.cpp:406] cont_16_lstm2x_r1_r1_cont_slice_15_split <- cont_16
I0102 16:58:45.408787 14152 net.cpp:380] cont_16_lstm2x_r1_r1_cont_slice_15_split -> cont_16_lstm2x_r1_r1_cont_slice_15_split_0
I0102 16:58:45.408793 14152 net.cpp:380] cont_16_lstm2x_r1_r1_cont_slice_15_split -> cont_16_lstm2x_r1_r1_cont_slice_15_split_1
I0102 16:58:45.408819 14152 net.cpp:122] Setting up cont_16_lstm2x_r1_r1_cont_slice_15_split
I0102 16:58:45.408823 14152 net.cpp:129] Top shape: 1 40 (40)
I0102 16:58:45.408828 14152 net.cpp:129] Top shape: 1 40 (40)
I0102 16:58:45.408830 14152 net.cpp:137] Memory required for data: 34462720
I0102 16:58:45.408833 14152 layer_factory.hpp:77] Creating layer cont_17_lstm2x_r1_r1_cont_slice_16_split
I0102 16:58:45.408838 14152 net.cpp:84] Creating Layer cont_17_lstm2x_r1_r1_cont_slice_16_split
I0102 16:58:45.408843 14152 net.cpp:406] cont_17_lstm2x_r1_r1_cont_slice_16_split <- cont_17
I0102 16:58:45.408848 14152 net.cpp:380] cont_17_lstm2x_r1_r1_cont_slice_16_split -> cont_17_lstm2x_r1_r1_cont_slice_16_split_0
I0102 16:58:45.408854 14152 net.cpp:380] cont_17_lstm2x_r1_r1_cont_slice_16_split -> cont_17_lstm2x_r1_r1_cont_slice_16_split_1
I0102 16:58:45.408880 14152 net.cpp:122] Setting up cont_17_lstm2x_r1_r1_cont_slice_16_split
I0102 16:58:45.408885 14152 net.cpp:129] Top shape: 1 40 (40)
I0102 16:58:45.408888 14152 net.cpp:129] Top shape: 1 40 (40)
I0102 16:58:45.408892 14152 net.cpp:137] Memory required for data: 34463040
…
I0102 16:58:45.629752 14152 net.cpp:380] h_58_lstm2x_r1_r1_unit_58_1_split -> h_58_lstm2x_r1_r1_unit_58_1_split_1
I0102 16:58:45.629771 14152 net.cpp:122] Setting up h_58_lstm2x_r1_r1_unit_58_1_split
I0102 16:58:45.629778 14152 net.cpp:129] Top shape: 1 8 100 (800)
I0102 16:58:45.629781 14152 net.cpp:129] Top shape: 1 8 100 (800)
I0102 16:58:45.629782 14152 net.cpp:137] Memory required for data: 10844160
I0102 16:58:45.629784 14152 layer_factory.hpp:77] Creating layer lstm2x_r1_r1_h_conted_58
I0102 16:58:45.629787 14152 net.cpp:84] Creating Layer lstm2x_r1_r1_h_conted_58
I0102 16:58:45.629791 14152 net.cpp:406] lstm2x_r1_r1_h_conted_58 <- h_58_lstm2x_r1_r1_unit_58_1_split_0
I0102 16:58:45.629793 14152 net.cpp:406] lstm2x_r1_r1_h_conted_58 <- cont_59_lstm2x_r1_r1_cont_slice_58_split_0
I0102 16:58:45.629796 14152 net.cpp:380] lstm2x_r1_r1_h_conted_58 -> h_conted_58
I0102 16:58:45.629832 14152 net.cpp:122] Setting up lstm2x_r1_r1_h_conted_58
I0102 16:58:45.629835 14152 net.cpp:129] Top shape: 1 8 100 (800)
I0102 16:58:45.629837 14152 net.cpp:137] Memory required for data: 10847360
I0102 16:58:45.629838 14152 layer_factory.hpp:77] Creating layer lstm2x_r1_r1_transform_59
I0102 16:58:45.629842 14152 net.cpp:84] Creating Layer lstm2x_r1_r1_transform_59
I0102 16:58:45.629843 14152 net.cpp:406] lstm2x_r1_r1_transform_59 <- h_conted_58
I0102 16:58:45.629847 14152 net.cpp:380] lstm2x_r1_r1_transform_59 -> W_hc_h_58
I0102 16:58:45.630020 14152 net.cpp:122] Setting up lstm2x_r1_r1_transform_59
I0102 16:58:45.630024 14152 net.cpp:129] Top shape: 1 8 400 (3200)
I0102 16:58:45.630025 14152 net.cpp:137] Memory required for data: 10860160
I0102 16:58:45.630028 14152 net.cpp:465] Sharing parameters 'W_hc' owned by layer 'lstm2x_r1_r1_transform_1', param index 0
I0102 16:58:45.630029 14152 layer_factory.hpp:77] Creating layer lstm2x_r1_r1_gate_input_59
I0102 16:58:45.630033 14152 net.cpp:84] Creating Layer lstm2x_r1_r1_gate_input_59
I0102 16:58:45.630034 14152 net.cpp:406] lstm2x_r1_r1_gate_input_59 <- W_hc_h_58
I0102 16:58:45.630038 14152 net.cpp:406] lstm2x_r1_r1_gate_input_59 <- W_xc_x_59
I0102 16:58:45.630040 14152 net.cpp:380] lstm2x_r1_r1_gate_input_59 -> gate_input_59
I0102 16:58:45.630053 14152 net.cpp:122] Setting up lstm2x_r1_r1_gate_input_59
I0102 16:58:45.630055 14152 net.cpp:129] Top shape: 1 8 400 (3200)
I0102 16:58:45.630058 14152 net.cpp:137] Memory required for data: 10872960
I0102 16:58:45.630059 14152 layer_factory.hpp:77] Creating layer lstm2x_r1_r1_unit_59
I0102 16:58:45.630062 14152 net.cpp:84] Creating Layer lstm2x_r1_r1_unit_59
I0102 16:58:45.630064 14152 net.cpp:406] lstm2x_r1_r1_unit_59 <- c_58
I0102 16:58:45.630067 14152 net.cpp:406] lstm2x_r1_r1_unit_59 <- gate_input_59
I0102 16:58:45.630069 14152 net.cpp:406] lstm2x_r1_r1_unit_59 <- cont_59_lstm2x_r1_r1_cont_slice_58_split_1
I0102 16:58:45.630072 14152 net.cpp:380] lstm2x_r1_r1_unit_59 -> c_59
I0102 16:58:45.630075 14152 net.cpp:380] lstm2x_r1_r1_unit_59 -> h_59
I0102 16:58:45.630103 14152 net.cpp:122] Setting up lstm2x_r1_r1_unit_59
I0102 16:58:45.630105 14152 net.cpp:129] Top shape: 1 8 100 (800)
I0102 16:58:45.630107 14152 net.cpp:129] Top shape: 1 8 100 (800)
I0102 16:58:45.630110 14152 net.cpp:137] Memory required for data: 10879360
I0102 16:58:45.630111 14152 layer_factory.hpp:77] Creating layer h_59_lstm2x_r1_r1_unit_59_1_split
I0102 16:58:45.630115 14152 net.cpp:84] Creating Layer h_59_lstm2x_r1_r1_unit_59_1_split
I0102 16:58:45.630116 14152 net.cpp:406] h_59_lstm2x_r1_r1_unit_59_1_split <- h_59
I0102 16:58:45.630120 14152 net.cpp:380] h_59_lstm2x_r1_r1_unit_59_1_split -> h_59_lstm2x_r1_r1_unit_59_1_split_0
I0102 16:58:45.630123 14152 net.cpp:380] h_59_lstm2x_r1_r1_unit_59_1_split -> h_59_lstm2x_r1_r1_unit_59_1_split_1
I0102 16:58:45.630142 14152 net.cpp:122] Setting up h_59_lstm2x_r1_r1_unit_59_1_split
I0102 16:58:45.630146 14152 net.cpp:129] Top shape: 1 8 100 (800)
I0102 16:58:45.630147 14152 net.cpp:129] Top shape: 1 8 100 (800)
I0102 16:58:45.630149 14152 net.cpp:137] Memory required for data: 10885760
I0102 16:58:45.630151 14152 layer_factory.hpp:77] Creating layer lstm2x_r1_r1_h_conted_59
I0102 16:58:45.630154 14152 net.cpp:84] Creating Layer lstm2x_r1_r1_h_conted_59
I0102 16:58:45.630156 14152 net.cpp:406] lstm2x_r1_r1_h_conted_59 <- h_59_lstm2x_r1_r1_unit_59_1_split_0
I0102 16:58:45.630164 14152 net.cpp:406] lstm2x_r1_r1_h_conted_59 <- cont_60_lstm2x_r1_r1_cont_slice_59_split_0
I0102 16:58:45.630167 14152 net.cpp:380] lstm2x_r1_r1_h_conted_59 -> h_conted_59
I0102 16:58:45.630203 14152 net.cpp:122] Setting up lstm2x_r1_r1_h_conted_59
I0102 16:58:45.630206 14152 net.cpp:129] Top shape: 1 8 100 (800)
I0102 16:58:45.630208 14152 net.cpp:137] Memory required for data: 10888960
I0102 16:58:45.630210 14152 layer_factory.hpp:77] Creating layer lstm2x_r1_r1_transform_60
I0102 16:58:45.630213 14152 net.cpp:84] Creating Layer lstm2x_r1_r1_transform_60
I0102 16:58:45.630214 14152 net.cpp:406] lstm2x_r1_r1_transform_60 <- h_conted_59
I0102 16:58:45.630218 14152 net.cpp:380] lstm2x_r1_r1_transform_60 -> W_hc_h_59
I0102 16:58:45.630393 14152 net.cpp:122] Setting up lstm2x_r1_r1_transform_60
I0102 16:58:45.630396 14152 net.cpp:129] Top shape: 1 8 400 (3200)
I0102 16:58:45.630398 14152 net.cpp:137] Memory required for data: 10901760
I0102 16:58:45.630400 14152 net.cpp:465] Sharing parameters 'W_hc' owned by layer 'lstm2x_r1_r1_transform_1', param index 0
I0102 16:58:45.630403 14152 layer_factory.hpp:77] Creating layer lstm2x_r1_r1_gate_input_60
I0102 16:58:45.630404 14152 net.cpp:84] Creating Layer lstm2x_r1_r1_gate_input_60
I0102 16:58:45.630406 14152 net.cpp:406] lstm2x_r1_r1_gate_input_60 <- W_hc_h_59
I0102 16:58:45.630409 14152 net.cpp:406] lstm2x_r1_r1_gate_input_60 <- W_xc_x_60
I0102 16:58:45.630414 14152 net.cpp:380] lstm2x_r1_r1_gate_input_60 -> gate_input_60
I0102 16:58:45.630426 14152 net.cpp:122] Setting up lstm2x_r1_r1_gate_input_60
I0102 16:58:45.630429 14152 net.cpp:129] Top shape: 1 8 400 (3200)
I0102 16:58:45.630430 14152 net.cpp:137] Memory required for data: 10914560
I0102 16:58:45.630432 14152 layer_factory.hpp:77] Creating layer lstm2x_r1_r1_unit_60
I0102 16:58:45.630434 14152 net.cpp:84] Creating Layer lstm2x_r1_r1_unit_60
I0102 16:58:45.630436 14152 net.cpp:406] lstm2x_r1_r1_unit_60 <- c_59
I0102 16:58:45.630439 14152 net.cpp:406] lstm2x_r1_r1_unit_60 <- gate_input_60
I0102 16:58:45.630441 14152 net.cpp:406] lstm2x_r1_r1_unit_60 <- cont_60_lstm2x_r1_r1_cont_slice_59_split_1
I0102 16:58:45.630445 14152 net.cpp:380] lstm2x_r1_r1_unit_60 -> c_60
I0102 16:58:45.630448 14152 net.cpp:380] lstm2x_r1_r1_unit_60 -> h_60
I0102 16:58:45.630477 14152 net.cpp:122] Setting up lstm2x_r1_r1_unit_60
I0102 16:58:45.630479 14152 net.cpp:129] Top shape: 1 8 100 (800)
I0102 16:58:45.630481 14152 net.cpp:129] Top shape: 1 8 100 (800)
I0102 16:58:45.630483 14152 net.cpp:137] Memory required for data: 10920960
I0102 16:58:45.630486 14152 layer_factory.hpp:77] Creating layer lstm2x_r1_r1_
I0102 16:58:45.630487 14152 net.cpp:84] Creating Layer lstm2x_r1_r1_
I0102 16:58:45.630489 14152 net.cpp:406] lstm2x_r1_r1_ <- c_60
I0102 16:58:45.630491 14152 net.cpp:380] lstm2x_r1_r1_ -> c_T
I0102 16:58:45.630506 14152 net.cpp:122] Setting up lstm2x_r1_r1_
I0102 16:58:45.630507 14152 net.cpp:129] Top shape: 1 8 100 (800)
I0102 16:58:45.630509 14152 net.cpp:137] Memory required for data: 10924160
I0102 16:58:45.630511 14152 layer_factory.hpp:77] Creating layer lstm2x_r1_r1_h_concat
I0102 16:58:45.630519 14152 net.cpp:84] Creating Layer lstm2x_r1_r1_h_concat
I0102 16:58:45.630522 14152 net.cpp:406] lstm2x_r1_r1_h_concat <- h_1_lstm2x_r1_r1_unit_1_1_split_1
I0102 16:58:45.630524 14152 net.cpp:406] lstm2x_r1_r1_h_concat <- h_2_lstm2x_r1_r1_unit_2_1_split_1
…
I0102 16:58:45.631690 14152 net.cpp:200] lstm2x_r1_r1_ does not need backward computation.
I0102 16:58:45.631691 14152 net.cpp:242] This network produces output c_T
I0102 16:58:45.631693 14152 net.cpp:242] This network produces output h_pseudoloss
I0102 16:58:45.633291 14152 net.cpp:255] Network initialization done.
I0102 16:58:45.633675 14152 recurrent_layer.cpp:150] Adding parameter 0: W_xc
I0102 16:58:45.633679 14152 recurrent_layer.cpp:150] Adding parameter 1: b_c
I0102 16:58:45.633682 14152 recurrent_layer.cpp:150] Adding parameter 2: W_hc
I0102 16:58:45.634013 14152 net.cpp:122] Setting up lstm2x_r1_r1
I0102 16:58:45.634018 14152 net.cpp:129] Top shape: 60 8 100 (48000)
I0102 16:58:45.634021 14152 net.cpp:137] Memory required for data: 768323328
I0102 16:58:45.634027 14152 layer_factory.hpp:77] Creating layer lstm-reverse2
I0102 16:58:45.634032 14152 net.cpp:84] Creating Layer lstm-reverse2
I0102 16:58:45.634034 14152 net.cpp:406] lstm-reverse2 <- lstm2x
I0102 16:58:45.634038 14152 net.cpp:380] lstm-reverse2 -> rlstmx
I0102 16:58:45.634073 14152 net.cpp:122] Setting up lstm-reverse2
I0102 16:58:45.634075 14152 net.cpp:129] Top shape: 60 8 100 (48000)
I0102 16:58:45.634076 14152 net.cpp:137] Memory required for data: 768515328
I0102 16:58:45.634079 14152 layer_factory.hpp:77] Creating layer lstm1x_r1_r1
I0102 16:58:45.634083 14152 net.cpp:84] Creating Layer lstm1x_r1_r1
I0102 16:58:45.634085 14152 net.cpp:406] lstm1x_r1_r1 <- permuted_data_permuted_data_0_split_1
I0102 16:58:45.634089 14152 net.cpp:406] lstm1x_r1_r1 <- indicator_indicator_0_split_1
I0102 16:58:45.634093 14152 net.cpp:380] lstm1x_r1_r1 -> lstm1x
I0102 16:58:45.634097 14152 recurrent_layer.cpp:20] Initializing recurrent layer: assuming input batch contains 60 timesteps of 8 independent streams.
I0102 16:58:45.635063 14152 net.cpp:51] Initializing net from parameters: 
layer {
  name: "lstm1x_r1_r1_"
  type: "Input"
  top: "x"
  top: "cont"
  input_param {
    shape {
      dim: 60
      dim: 8
      dim: 512
      dim: 7
    }
    shape {
      dim: 60
      dim: 8
    }
  }
}
layer {
  name: "lstm1x_r1_r1_"
  type: "Input"
  top: "c_0"
  top: "h_0"
  input_param {
    shape {
      dim: 1
      dim: 8
      dim: 100
    }
    shape {
      dim: 1
      dim: 8
      dim: 100
    }
  }
}
layer {
  name: "lstm1x_r1_r1_cont_slice"
  type: "Slice"
  bottom: "cont"
  top: "cont_1"
  top: "cont_2"
  top: "cont_3"
  top: "cont_4"
  top: "cont_5"
  top: "cont_6"
  top: "cont_7"
  top: "cont_8"
  top: "cont_9"
  top: "cont_10"
  top: "cont_11"
  top: "cont_12"
  top: "cont_13"
  top: "cont_14"
  top: "cont_15"
  top: "cont_16"
  top: "cont_17"
  top: "cont_18"
  top: "cont_19"
  top: "cont_20"
  top: "cont_21"
  top: "cont_22"
  top: "cont_23"
  top: "cont_24"
  top: "cont_25"
  top: "cont_26"
  top: "cont_27"
  top: "cont_28"
  top: "cont_29"
  top: "cont_30"
  top: "cont_31"
  top: "cont_32"
  top: "cont_33"
  top: "cont_34"
  top: "cont_35"
  top: "cont_36"
  top: "cont_37"
  top: "cont_38"
  top: "cont_39"
  top: "cont_40"
  top: "cont_41"
  top: "cont_42"
  top: "cont_43"
  top: "cont_44"
  top: "cont_45"
  top: "cont_46"
  top: "cont_47"
  top: "cont_48"
  top: "cont_49"
  top: "cont_50"
  top: "cont_51"
  top: "cont_52"
  top: "cont_53"
  top: "cont_54"
  top: "cont_55"
  top: "cont_56"
  top: "cont_57"
  top: "cont_58"
  top: "cont_59"
  top: "cont_60"
  slice_param {
    axis: 0
  }
}
layer {
  name: "lstm1x_r1_r1_x_transform"
  type: "InnerProduct"
  bottom: "x"
  top: "W_xc_x"
  param {
    name: "W_xc"
  }
  param {
    name: "b_c"
  }
  propagate_down: true
  inner_product_param {
    num_output: 400
    bias_term: true
    weight_filler {
      type: "xavier"
    }
    bias_filler {
      type: "constant"
      value: 0
    }
    axis: 2
  }
}
layer {
  name: "lstm1x_r1_r1_W_xc_x_slice"
  type: "Slice"
  bottom: "W_xc_x"
  top: "W_xc_x_1"
  top: "W_xc_x_2"
  top: "W_xc_x_3"
  top: "W_xc_x_4"
  top: "W_xc_x_5"
  top: "W_xc_x_6"
  top: "W_xc_x_7"
  top: "W_xc_x_8"
  top: "W_xc_x_9"
  top: "W_xc_x_10"
  top: "W_xc_x_11"
  top: "W_xc_x_12"
  top: "W_xc_x_13"
  top: "W_xc_x_14"
  top: "W_xc_x_15"
  top: "W_xc_x_16"
  top: "W_xc_x_17"
  top: "W_xc_x_18"
  top: "W_xc_x_19"
  top: "W_xc_x_20"
  top: "W_xc_x_21"
  top: "W_xc_x_22"
  top: "W_xc_x_23"
  top: "W_xc_x_24"
  top: "W_xc_x_25"
  top: "W_xc_x_26"
  top: "W_xc_x_27"
  top: "W_xc_x_28"
  top: "W_xc_x_29"
  top: "W_xc_x_30"
  top: "W_xc_x_31"
  top: "W_xc_x_32"
  top: "W_xc_x_33"
  top: "W_xc_x_34"
  top: "W_xc_x_35"
  top: "W_xc_x_36"
  top: "W_xc_x_37"
  top: "W_xc_x_38"
  top: "W_xc_x_39"
  top: "W_xc_x_40"
  top: "W_xc_x_41"
  top: "W_xc_x_42"
  top: "W_xc_x_43"
  top: "W_xc_x_44"
  top: "W_xc_x_45"
  top: "W_xc_x_46"
  top: "W_xc_x_47"
  top: "W_xc_x_48"
  top: "W_xc_x_49"
  top: "W_xc_x_50"
  top: "W_xc_x_51"
  top: "W_xc_x_52"
  top: "W_xc_x_53"
  top: "W_xc_x_54"
  top: "W_xc_x_55"
  top: "W_xc_x_56"
  top: "W_xc_x_57"
  top: "W_xc_x_58"
  top: "W_xc_x_59"
  top: "W_xc_x_60"
  slice_param {
    axis: 0
  }
}
layer {
  name: "lstm1x_r1_r1_h_conted_0"
  type: "Scale"
  bottom: "h_0"
  bottom: "cont_1"
  top: "h_conted_0"
  scale_param {
    axis: 0
  }
}
layer {
  name: "lstm1x_r1_r1_transform_1"
  type: "InnerProduct"
  bottom: "h_conted_0"
  top: "W_hc_h_0"
  param {
    name: "W_hc"
  }
  inner_product_param {
    num_output: 400
    bias_term: false
    weight_filler {
      type: "xavier"
    }
    axis: 2
  }
}
layer {
  name: "lstm1x_r1_r1_gate_input_1"
  type: "Eltwise"
  bottom: "W_hc_h_0"
  bottom: "W_xc_x_1"
  top: "gate_input_1"
  eltwise_param {
    operation: SUM
  }
}
layer {
  name: "lstm1x_r1_r1_unit_1"
  type: "LSTMUnit"
  bottom: "c_0"
  bottom: "gate_input_1"
  bottom: "cont_1"
  top: "c_1"
  top: "h_1"
}
layer {
  name: "lstm1x_r1_r1_h_conted_1"
  type: "Scale"
  bottom: "h_1"
  bottom: "cont_2"
  top: "h_conted_1"
  scale_param {
    axis: 0
  }
}
layer {
  name: "lstm1x_r1_r1_transform_2"
  type: "InnerProduct"
  bottom: "h_conted_1"
  top: "W_hc_h_1"
  param {
    name: "W_hc"
  }
  inner_product_param {
    num_output: 400
    bias_term: false
    weight_filler {
      type: "xavier"
    }
    axis: 2
  }
}
layer {
  name: "lstm1x_r1_r1_gate_input_2"
  type: "Eltwise"
  bottom: "W_hc_h_1"
  bottom: "W_xc_x_2"
  top: "gate_input_2"
  eltwise_param {
    operation: SUM
  }
}
layer {
  name: "lstm1x_r1_r1_unit_2"
  type: "LSTMUnit"
  bottom: "c_1"
  bottom: "gate_input_2"
  bottom: "cont_2"
  top: "c_2"
  top: "h_2"
}
layer {
  name: "lstm1x_r1_r1_h_conted_2"
  type: "Scale"
  bottom: "h_2"
  bottom: "cont_3"
  top: "h_conted_2"
  scale_param {
    axis: 0
  }
}
layer {
  name: "lstm1x_r1_r1_transform_3"
  type: "InnerProduct"
  bottom: "h_conted_2"
  top: "W_hc_h_2"
  param {
    name: "W_hc"
  }
  inner_product_param {
    num_output: 400
    bias_term: false
    weight_filler {
      type: "xavier"
    }
    axis: 2
  }
}
layer {
  name: "lstm1x_r1_r1_gate_input_3"
  type: "Eltwise"
  bottom: "W_hc_h_2"
  bottom: "W_xc_x_3"
  top: "gate_input_3"
  eltwise_param {
    operation: SUM
  }
}
layer {
  name: "lstm1x_r1_r1_unit_3"
  type: "LSTMUnit"
  bottom: "c_2"
  bottom: "gate_input_3"
  bottom: "cont_3"
  top: "c_3"
  top: "h_3"
}
layer {
  name: "lstm1x_r1_r1_h_conted_3"
  type: "Scale"
  bottom: "h_3"
  bottom: "cont_4"
  top: "h_conted_3"
  scale_param {
    axis: 0
  }
}
layer {
  name: "lstm1x_r1_r1_transform_4"
  type: "InnerProduct"
  bottom: "h_conted_3"
  top: "W_hc_h_3"
  param {
    name: "W_hc"
  }
  inner_product_param {
    num_output: 400
    bias_term: false
    weight_filler {
      type: "xavier"
    }
    axis: 2
  }
}
layer {
  name: "lstm1x_r1_r1_gate_input_4"
  type: "Eltwise"
  bottom: "W_hc_h_3"
  bottom: "W_xc_x_4"
  top: "gate_input_4"
  eltwise_param {
    operation: SUM
  }
}
layer {
  name: "lstm1x_r1_r1_unit_4"
  type: "LSTMUnit"
  bottom: "c_3"
  bottom: "gate_input_4"
  bottom: "cont_4"
  top: "c_4"
  top: "h_4"
}
layer {
  name: "lstm1x_r1_r1_h_conted_4"
  type: "Scale"
  bottom: "h_4"
  bottom: "cont_5"
  top: "h_conted_4"
  scale_param {
    axis: 0
  }
}
layer {
  name: "lstm1x_r1_r1_transform_5"
  type: "InnerProduct"
  bottom: "h_conted_4"
  top: "W_hc_h_4"
  param {
    name: "W_hc"
  }
  inner_product_param {
    num_output: 400
    bias_term: false
    weight_filler {
      type: "xavier"
    }
    axis: 2
  }
}
layer {
  name: "lstm1x_r1_r1_gate_input_5"
  type: "Eltwise"
  bottom: "W_hc_h_4"
  bottom: "W_xc_x_5"
  top: "gate_input_5"
  eltwise_param {
    operation: SUM
  }
}
layer {
  name: "lstm1x_r1_r1_unit_5"
  type: "LSTMUnit"
  bottom: "c_4"
  bottom: "gate_input_5"
  bottom: "cont_5"
  top: "c_5"
  top: "h_5"
}
layer {
  name: "lstm1x_r1_r1_h_conted_5"
  type: "Scale"
  bottom: "h_5"
  bottom: "cont_6"
  top: "h_conted_5"
  scale_param {
    axis: 0
  }
}
layer {
  name: "lstm1x_r1_r1_transform_6"
  type: "InnerProduct"
  bottom: "h_conted_5"
  top: "W_hc_h_5"
  param {
    name: "W_hc"
  }
  inner_product_param {
    num_output: 400
    bias_term: false
    weight_filler {
      type: "xavier"
    }
    axis: 2
  }
}
layer {
  name: "lstm1x_r1_r1_gate_input_6"
  type: "Eltwise"
  bottom: "W_hc_h_5"
  bottom: "W_xc_x_6"
  top: "gate_input_6"
  eltwise_param {
    operation: SUM
  }
}
layer {
  name: "lstm1x_r1_r1_unit_6"
  type: "LSTMUnit"
  bottom: "c_5"
  bottom: "gate_input_6"
  bottom: "cont_6"
  top: "c_6"
  top: "h_6"
}
layer {
  name: "lstm1x_r1_r1_h_conted_6"
  type: "Scale"
  bottom: "h_6"
  bottom: "cont_7"
  top: "h_conted_6"
  scale_param {
    axis: 0
  }
}
layer {
  name: "lstm1x_r1_r1_transform_7"
  type: "InnerProduct"
  bottom: "h_conted_6"
  top: "W_hc_h_6"
  param {
    name: "W_hc"
  }
  inner_product_param {
    num_output: 400
    bias_term: false
    weight_filler {
      type: "xavier"
    }
    axis: 2
  }
}
layer {
  name: "lstm1x_r1_r1_gate_input_7"
  type: "Eltwise"
  bottom: "W_hc_h_6"
  bottom: "W_xc_x_7"
  top: "gate_input_7"
  eltwise_param {
    operation: SUM
  }
}
layer {
  name: "lstm1x_r1_r1_unit_7"
  type: "LSTMUnit"
  bottom: "c_6"
  bottom: "gate_input_7"
  bottom: "cont_7"
  top: "c_7"
  top: "h_7"
}
layer {
  name: "lstm1x_r1_r1_h_conted_7"
  type: "Scale"
  bottom: "h_7"
  bottom: "cont_8"
  top: "h_conted_7"
  scale_param {
    axis: 0
  }
}
layer {
  name: "lstm1x_r1_r1_transform_8"
  type: "InnerProduct"
  bottom: "h_conted_7"
  top: "W_hc_h_7"
  param {
    name: "W_hc"
  }
  inner_product_param {
    num_output: 400
    bias_term: false
    weight_filler {
      type: "xavier"
    }
    axis: 2
  }
}
layer {
  name: "lstm1x_r1_r1_gate_input_8"
  type: "Eltwise"
  bottom: "W_hc_h_7"
  bottom: "W_xc_x_8"
  top: "gate_input_8"
  eltwise_param {
    operation: SUM
  }
}
layer {
  name: "lstm1x_r1_r1_unit_8"
  type: "LSTMUnit"
  bottom: "c_7"
  bottom: "gate_input_8"
  bottom: "cont_8"
  top: "c_8"
  top: "h_8"
}
layer {
  name: "lstm1x_r1_r1_h_conted_8"
  type: "Scale"
  bottom: "h_8"
  bottom: "cont_9"
  top: "h_conted_8"
  scale_param {
    axis: 0
  }
}
layer {
  name: "lstm1x_r1_r1_transform_9"
  type: "InnerProduct"
  bottom: "h_conted_8"
  top: "W_hc_h_8"
  param {
    name: "W_hc"
  }
  inner_product_param {
    num_output: 400
    bias_term: false
    weight_filler {
      type: "xavier"
    }
    axis: 2
  }
}
layer {
  name: "lstm1x_r1_r1_gate_input_9"
  type: "Eltwise"
  bottom: "W_hc_h_8"
  bottom: "W_xc_x_9"
  top: "gate_input_9"
  eltwise_param {
    operation: SUM
  }
}
layer {
  name: "lstm1x_r1_r1_unit_9"
  type: "LSTMUnit"
  bottom: "c_8"
  bottom: "gate_input_9"
  bottom: "cont_9"
  top: "c_9"
  top: "h_9"
}
layer {
  name: "lstm1x_r1_r1_h_conted_9"
  type: "Scale"
  bottom: "h_9"
  bottom: "cont_10"
  top: "h_conted_9"
  scale_param {
    axis: 0
  }
}
layer {
  name: "lstm1x_r1_r1_transform_10"
  type: "InnerProduct"
  bottom: "h_conted_9"
  top: "W_hc_h_9"
  param {
    name: "W_hc"
  }
  inner_product_param {
    num_output: 400
    bias_term: false
    weight_filler {
      type: "xavier"
    }
    axis: 2
  }
}
layer {
  name: "lstm1x_r1_r1_gate_input_10"
  type: "Eltwise"
  bottom: "W_hc_h_9"
  bottom: "W_xc_x_10"
  top: "gate_input_10"
  eltwise_param {
    operation: SUM
  }
}
layer {
  name: "lstm1x_r1_r1_unit_10"
  type: "LSTMUnit"
  bottom: "c_9"
  bottom: "gate_input_10"
  bottom: "cont_10"
  top: "c_10"
  top: "h_10"
}
layer {
  name: "lstm1x_r1_r1_h_conted_10"
  type: "Scale"
  bottom: "h_10"
  bottom: "cont_11"
  top: "h_conted_10"
  scale_param {
    axis: 0
  }
}
layer {
  name: "lstm1x_r1_r1_transform_11"
  type: "InnerProduct"
  bottom: "h_conted_10"
  top: "W_hc_h_10"
  param {
    name: "W_hc"
  }
  inner_product_param {
    num_output: 400
    bias_term: false
    weight_filler {
      type: "xavier"
    }
    axis: 2
  }
}
layer {
  name: "lstm1x_r1_r1_gate_input_11"
  type: "Eltwise"
  bottom: "W_hc_h_10"
  bottom: "W_xc_x_11"
  top: "gate_input_11"
  eltwise_param {
    operation: SUM
  }
}
layer {
  name: "lstm1x_r1_r1_unit_11"
  type: "LSTMUnit"
  bottom: "c_10"
  bottom: "gate_input_11"
  bottom: "cont_11"
  top: "c_11"
  top: "h_11"
}
layer {
  name: "lstm1x_r1_r1_h_conted_11"
  type: "Scale"
  bottom: "h_11"
  bottom: "cont_12"
  top: "h_conted_11"
  scale_param {
    axis: 0
  }
}
layer {
  name: "lstm1x_r1_r1_transform_12"
  type: "InnerProduct"
  bottom: "h_conted_11"
  top: "W_hc_h_11"
  param {
    name: "W_hc"
  }
  inner_product_param {
    num_output: 400
    bias_term: false
    weight_filler {
      type: "xavier"
    }
    axis: 2
  }
}
layer {
  name: "lstm1x_r1_r1_gate_input_12"
  type: "Eltwise"
  bottom: "W_hc_h_11"
  bottom: "W_xc_x_12"
  top: "gate_input_12"
  eltwise_param {
    operation: SUM
  }
}
layer {
  name: "lstm1x_r1_r1_unit_12"
  type: "LSTMUnit"
  bottom: "c_11"
  bottom: "gate_input_12"
  bottom: "cont_12"
  top: "c_12"
  top: "h_12"
}
layer {
  name: "lstm1x_r1_r1_h_conted_12"
  type: "Scale"
  bottom: "h_12"
  bottom: "cont_13"
  top: "h_conted_12"
  scale_param {
    axis: 0
  }
}
layer {
  name: "lstm1x_r1_r1_transform_13"
  type: "InnerProduct"
  bottom: "h_conted_12"
  top: "W_hc_h_12"
  param {
    name: "W_hc"
  }
  inner_product_param {
    num_output: 400
    bias_term: false
    weight_filler {
      type: "xavier"
    }
    axis: 2
  }
}
layer {
  name: "lstm1x_r1_r1_gate_input_13"
  type: "Eltwise"
  bottom: "W_hc_h_12"
  bottom: "W_xc_x_13"
  top: "gate_input_13"
  eltwise_param {
    operation: SUM
  }
}
layer {
  name: "lstm1x_r1_r1_unit_13"
  type: "LSTMUnit"
  bottom: "c_12"
  bottom: "gate_input_13"
  bottom: "cont_13"
  top: "c_13"
  top: "h_13"
}
layer {
  name: "lstm1x_r1_r1_h_conted_13"
  type: "Scale"
  bottom: "h_13"
  bottom: "cont_14"
  top: "h_conted_13"
  scale_param {
    axis: 0
  }
}
layer {
  name: "lstm1x_r1_r1_transform_14"
  type: "InnerProduct"
  bottom: "h_conted_13"
  top: "W_hc_h_13"
  param {
    name: "W_hc"
  }
  inner_product_param {
    num_output: 400
    bias_term: false
    weight_filler {
      type: "xavier"
    }
    axis: 2
  }
}
layer {
  name: "lstm1x_r1_r1_gate_input_14"
  type: "Eltwise"
  bottom: "W_hc_h_13"
  bottom: "W_xc_x_14"
  top: "gate_input_14"
  eltwise_param {
    operation: SUM
  }
}
layer {
  name: "lstm1x_r1_r1_unit_14"
  type: "LSTMUnit"
  bottom: "c_13"
  bottom: "gate_input_14"
  bottom: "cont_14"
  top: "c_14"
  top: "h_14"
}
layer {
  name: "lstm1x_r1_r1_h_conted_14"
  type: "Scale"
  bottom: "h_14"
  bottom: "cont_15"
  top: "h_conted_14"
  scale_param {
    axis: 0
  }
}
layer {
  name: "lstm1x_r1_r1_transform_15"
  type: "InnerProduct"
  bottom: "h_conted_14"
  top: "W_hc_h_14"
  param {
    name: "W_hc"
  }
  inner_product_param {
    num_output: 400
    bias_term: false
    weight_filler {
      type: "xavier"
    }
    axis: 2
  }
}
layer {
  name: "lstm1x_r1_r1_gate_input_15"
  type: "Eltwise"
  bottom: "W_hc_h_14"
  bottom: "W_xc_x_15"
  top: "gate_input_15"
  eltwise_param {
    operation: SUM
  }
}
layer {
  name: "lstm1x_r1_r1_unit_15"
  type: "LSTMUnit"
  bottom: "c_14"
  bottom: "gate_input_15"
  bottom: "cont_15"
  top: "c_15"
  top: "h_15"
}
layer {
  name: "lstm1x_r1_r1_h_conted_15"
  type: "Scale"
  bottom: "h_15"
  bottom: "cont_16"
  top: "h_conted_15"
  scale_param {
    axis: 0
  }
}
layer {
  name: "lstm1x_r1_r1_transform_16"
  type: "InnerProduct"
  bottom: "h_conted_15"
  top: "W_hc_h_15"
  param {
    name: "W_hc"
  }
  inner_product_param {
    num_output: 400
    bias_term: false
    weight_filler {
      type: "xavier"
    }
    axis: 2
  }
}
layer {
  name: "lstm1x_r1_r1_gate_input_16"
  type: "Eltwise"
  bottom: "W_hc_h_15"
  bottom: "W_xc_x_16"
  top: "gate_input_16"
  eltwise_param {
    operation: SUM
  }
}
layer {
  name: "lstm1x_r1_r1_unit_16"
  type: "LSTMUnit"
  bottom: "c_15"
  bottom: "gate_input_16"
  bottom: "cont_16"
  top: "c_16"
  top: "h_16"
}
layer {
  name: "lstm1x_r1_r1_h_conted_16"
  type: "Scale"
  bottom: "h_16"
  bottom: "cont_17"
  top: "h_conted_16"
  scale_param {
    axis: 0
  }
}
layer {
  name: "lstm1x_r1_r1_transform_17"
  type: "InnerProduct"
  bottom: "h_conted_16"
  top: "W_hc_h_16"
  param {
    name: "W_hc"
  }
  inner_product_param {
    num_output: 400
    bias_term: false
    weight_filler {
      type: "xavier"
    }
    axis: 2
  }
}
layer {
  name: "lstm1x_r1_r1_gate_input_17"
  type: "Eltwise"
  bottom: "W_hc_h_16"
  bottom: "W_xc_x_17"
  top: "gate_input_17"
  eltwise_param {
    operation: SUM
  }
}
layer {
  name: "lstm1x_r1_r1_unit_17"
  type: "LSTMUnit"
  bottom: "c_16"
  bottom: "gate_input_17"
  bottom: "cont_17"
  top: "c_17"
  top: "h_17"
}
layer {
  name: "lstm1x_r1_r1_h_conted_17"
  type: "Scale"
  bottom: "h_17"
  bottom: "cont_18"
  top: "h_conted_17"
  scale_param {
    axis: 0
  }
}
layer {
  name: "lstm1x_r1_r1_transform_18"
  type: "InnerProduct"
  bottom: "h_conted_17"
  top: "W_hc_h_17"
  param {
    name: "W_hc"
  }
  inner_product_param {
    num_output: 400
    bias_term: false
    weight_filler {
      type: "xavier"
    }
    axis: 2
  }
}
layer {
  name: "lstm1x_r1_r1_gate_input_18"
  type: "Eltwise"
  bottom: "W_hc_h_17"
  bottom: "W_xc_x_18"
  top: "gate_input_18"
  eltwise_param {
    operation: SUM
  }
}
layer {
  name: "lstm1x_r1_r1_unit_18"
  type: "LSTMUnit"
  bottom: "c_17"
  bottom: "gate_input_18"
  bottom: "cont_18"
  top: "c_18"
  top: "h_18"
}
layer {
  name: "lstm1x_r1_r1_h_conted_18"
  type: "Scale"
  bottom: "h_18"
  bottom: "cont_19"
  top: "h_conted_18"
  scale_param {
    axis: 0
  }
}
layer {
  name: "lstm1x_r1_r1_transform_19"
  type: "InnerProduct"
  bottom: "h_conted_18"
  top: "W_hc_h_18"
  param {
    name: "W_hc"
  }
  inner_product_param {
    num_output: 400
    bias_term: false
    weight_filler {
      type: "xavier"
    }
    axis: 2
  }
}
layer {
  name: "lstm1x_r1_r1_gate_input_19"
  type: "Eltwise"
  bottom: "W_hc_h_18"
  bottom: "W_xc_x_19"
  top: "gate_input_19"
  eltwise_param {
    operation: SUM
  }
}
layer {
  name: "lstm1x_r1_r1_unit_19"
  type: "LSTMUnit"
  bottom: "c_18"
  bottom: "gate_input_19"
  bottom: "cont_19"
  top: "c_19"
  top: "h_19"
}
layer {
  name: "lstm1x_r1_r1_h_conted_19"
  type: "Scale"
  bottom: "h_19"
  bottom: "cont_20"
  top: "h_conted_19"
  scale_param {
    axis: 0
  }
}
layer {
  name: "lstm1x_r1_r1_transform_20"
  type: "InnerProduct"
  bottom: "h_conted_19"
  top: "W_hc_h_19"
  param {
    name: "W_hc"
  }
  inner_product_param {
    num_output: 400
    bias_term: false
    weight_filler {
      type: "xavier"
    }
    axis: 2
  }
}
layer {
  name: "lstm1x_r1_r1_gate_input_20"
  type: "Eltwise"
  bottom: "W_hc_h_19"
  bottom: "W_xc_x_20"
  top: "gate_input_20"
  eltwise_param {
    operation: SUM
  }
}
layer {
  name: "lstm1x_r1_r1_unit_20"
  type: "LSTMUnit"
  bottom: "c_19"
  bottom: "gate_input_20"
  bottom: "cont_20"
  top: "c_20"
  top: "h_20"
}
layer {
  name: "lstm1x_r1_r1_h_conted_20"
  type: "Scale"
  bottom: "h_20"
  bottom: "cont_21"
  top: "h_conted_20"
  scale_param {
    axis: 0
  }
}
layer {
  name: "lstm1x_r1_r1_transform_21"
  type: "InnerProduct"
  bottom: "h_conted_20"
  top: "W_hc_h_20"
  param {
    name: "W_hc"
  }
  inner_product_param {
    num_output: 400
    bias_term: false
    weight_filler {
      type: "xavier"
    }
    axis: 2
  }
}
layer {
  name: "lstm1x_r1_r1_gate_input_21"
  type: "Eltwise"
  bottom: "W_hc_h_20"
  bottom: "W_xc_x_21"
  top: "gate_input_21"
  eltwise_param {
    operation: SUM
  }
}
layer {
  name: "lstm1x_r1_r1_unit_21"
  type: "LSTMUnit"
  bottom: "c_20"
  bottom: "gate_input_21"
  bottom: "cont_21"
  top: "c_21"
  top: "h_21"
}
layer {
  name: "lstm1x_r1_r1_h_conted_21"
  type: "Scale"
  bottom: "h_21"
  bottom: "cont_22"
  top: "h_conted_21"
  scale_param {
    axis: 0
  }
}
layer {
  name: "lstm1x_r1_r1_transform_22"
  type: "InnerProduct"
  bottom: "h_conted_21"
  top: "W_hc_h_21"
  param {
    name: "W_hc"
  }
  inner_product_param {
    num_output: 400
    bias_term: false
    weight_filler {
      type: "xavier"
    }
    axis: 2
  }
}
layer {
  name: "lstm1x_r1_r1_gate_input_22"
  type: "Eltwise"
  bottom: "W_hc_h_21"
  bottom: "W_xc_x_22"
  top: "gate_input_22"
  eltwise_param {
    operation: SUM
  }
}
layer {
  name: "lstm1x_r1_r1_unit_22"
  type: "LSTMUnit"
  bottom: "c_21"
  bottom: "gate_input_22"
  bottom: "cont_22"
  top: "c_22"
  top: "h_22"
}
layer {
  name: "lstm1x_r1_r1_h_conted_22"
  type: "Scale"
  bottom: "h_22"
  bottom: "cont_23"
  top: "h_conted_22"
  scale_param {
    axis: 0
  }
}
layer {
  name: "lstm1x_r1_r1_transform_23"
  type: "InnerProduct"
  bottom: "h_conted_22"
  top: "W_hc_h_22"
  param {
    name: "W_hc"
  }
  inner_product_param {
    num_output: 400
    bias_term: false
    weight_filler {
      type: "xavier"
    }
    axis: 2
  }
}
layer {
  name: "lstm1x_r1_r1_gate_input_23"
  type: "Eltwise"
  bottom: "W_hc_h_22"
  bottom: "W_xc_x_23"
  top: "gate_input_23"
  eltwise_param {
    operation: SUM
  }
}
layer {
  name: "lstm1x_r1_r1_unit_23"
  type: "LSTMUnit"
  bottom: "c_22"
  bottom: "gate_input_23"
  bottom: "cont_23"
  top: "c_23"
  top: "h_23"
}
layer {
  name: "lstm1x_r1_r1_h_conted_23"
  type: "Scale"
  bottom: "h_23"
  bottom: "cont_24"
  top: "h_conted_23"
  scale_param {
    axis: 0
  }
}
layer {
  name: "lstm1x_r1_r1_transform_24"
  type: "InnerProduct"
  bottom: "h_conted_23"
  top: "W_hc_h_23"
  param {
    name: "W_hc"
  }
  inner_product_param {
    num_output: 400
    bias_term: false
    weight_filler {
      type: "xavier"
    }
    axis: 2
  }
}
layer {
  name: "lstm1x_r1_r1_gate_input_24"
  type: "Eltwise"
  bottom: "W_hc_h_23"
  bottom: "W_xc_x_24"
  top: "gate_input_24"
  eltwise_param {
    operation: SUM
  }
}
layer {
  name: "lstm1x_r1_r1_unit_24"
  type: "LSTMUnit"
  bottom: "c_23"
  bottom: "gate_input_24"
  bottom: "cont_24"
  top: "c_24"
  top: "h_24"
}
layer {
  name: "lstm1x_r1_r1_h_conted_24"
  type: "Scale"
  bottom: "h_24"
  bottom: "cont_25"
  top: "h_conted_24"
  scale_param {
    axis: 0
  }
}
layer {
  name: "lstm1x_r1_r1_transform_25"
  type: "InnerProduct"
  bottom: "h_conted_24"
  top: "W_hc_h_24"
  param {
    name: "W_hc"
  }
  inner_product_param {
    num_output: 400
    bias_term: false
    weight_filler {
      type: "xavier"
    }
    axis: 2
  }
}
layer {
  name: "lstm1x_r1_r1_gate_input_25"
  type: "Eltwise"
  bottom: "W_hc_h_24"
  bottom: "W_xc_x_25"
  top: "gate_input_25"
  eltwise_param {
    operation: SUM
  }
}
layer {
  name: "lstm1x_r1_r1_unit_25"
  type: "LSTMUnit"
  bottom: "c_24"
  bottom: "gate_input_25"
  bottom: "cont_25"
  top: "c_25"
  top: "h_25"
}
layer {
  name: "lstm1x_r1_r1_h_conted_25"
  type: "Scale"
  bottom: "h_25"
  bottom: "cont_26"
  top: "h_conted_25"
  scale_param {
    axis: 0
  }
}
layer {
  name: "lstm1x_r1_r1_transform_26"
  type: "InnerProduct"
  bottom: "h_conted_25"
  top: "W_hc_h_25"
  param {
    name: "W_hc"
  }
  inner_product_param {
    num_output: 400
    bias_term: false
    weight_filler {
      type: "xavier"
    }
    axis: 2
  }
}
layer {
  name: "lstm1x_r1_r1_gate_input_26"
  type: "Eltwise"
  bottom: "W_hc_h_25"
  bottom: "W_xc_x_26"
  top: "gate_input_26"
  eltwise_param {
    operation: SUM
  }
}
layer {
  name: "lstm1x_r1_r1_unit_26"
  type: "LSTMUnit"
  bottom: "c_25"
  bottom: "gate_input_26"
  bottom: "cont_26"
  top: "c_26"
  top: "h_26"
}
layer {
  name: "lstm1x_r1_r1_h_conted_26"
  type: "Scale"
  bottom: "h_26"
  bottom: "cont_27"
  top: "h_conted_26"
  scale_param {
    axis: 0
  }
}
layer {
  name: "lstm1x_r1_r1_transform_27"
  type: "InnerProduct"
  bottom: "h_conted_26"
  top: "W_hc_h_26"
  param {
    name: "W_hc"
  }
  inner_product_param {
    num_output: 400
    bias_term: false
    weight_filler {
      type: "xavier"
    }
    axis: 2
  }
}
layer {
  name: "lstm1x_r1_r1_gate_input_27"
  type: "Eltwise"
  bottom: "W_hc_h_26"
  bottom: "W_xc_x_27"
  top: "gate_input_27"
  eltwise_param {
    operation: SUM
  }
}
layer {
  name: "lstm1x_r1_r1_unit_27"
  type: "LSTMUnit"
  bottom: "c_26"
  bottom: "gate_input_27"
  bottom: "cont_27"
  top: "c_27"
  top: "h_27"
}
layer {
  name: "lstm1x_r1_r1_h_conted_27"
  type: "Scale"
  bottom: "h_27"
  bottom: "cont_28"
  top: "h_conted_27"
  scale_param {
    axis: 0
  }
}
layer {
  name: "lstm1x_r1_r1_transform_28"
  type: "InnerProduct"
  bottom: "h_conted_27"
  top: "W_hc_h_27"
  param {
    name: "W_hc"
  }
  inner_product_param {
    num_output: 400
    bias_term: false
    weight_filler {
      type: "xavier"
    }
    axis: 2
  }
}
layer {
  name: "lstm1x_r1_r1_gate_input_28"
  type: "Eltwise"
  bottom: "W_hc_h_27"
  bottom: "W_xc_x_28"
  top: "gate_input_28"
  eltwise_param {
    operation: SUM
  }
}
layer {
  name: "lstm1x_r1_r1_unit_28"
  type: "LSTMUnit"
  bottom: "c_27"
  bottom: "gate_input_28"
  bottom: "cont_28"
  top: "c_28"
  top: "h_28"
}
layer {
  name: "lstm1x_r1_r1_h_conted_28"
  type: "Scale"
  bottom: "h_28"
  bottom: "cont_29"
  top: "h_conted_28"
  scale_param {
    axis: 0
  }
}
layer {
  name: "lstm1x_r1_r1_transform_29"
  type: "InnerProduct"
  bottom: "h_conted_28"
  top: "W_hc_h_28"
  param {
    name: "W_hc"
  }
  inner_product_param {
    num_output: 400
    bias_term: false
    weight_filler {
      type: "xavier"
    }
    axis: 2
  }
}
layer {
  name: "lstm1x_r1_r1_gate_input_29"
  type: "Eltwise"
  bottom: "W_hc_h_28"
  bottom: "W_xc_x_29"
  top: "gate_input_29"
  eltwise_param {
    operation: SUM
  }
}
layer {
  name: "lstm1x_r1_r1_unit_29"
  type: "LSTMUnit"
  bottom: "c_28"
  bottom: "gate_input_29"
  bottom: "cont_29"
  top: "c_29"
  top: "h_29"
}
layer {
  name: "lstm1x_r1_r1_h_conted_29"
  type: "Scale"
  bottom: "h_29"
  bottom: "cont_30"
  top: "h_conted_29"
  scale_param {
    axis: 0
  }
}
layer {
  name: "lstm1x_r1_r1_transform_30"
  type: "InnerProduct"
  bottom: "h_conted_29"
  top: "W_hc_h_29"
  param {
    name: "W_hc"
  }
  inner_product_param {
    num_output: 400
    bias_term: false
    weight_filler {
      type: "xavier"
    }
    axis: 2
  }
}
layer {
  name: "lstm1x_r1_r1_gate_input_30"
  type: "Eltwise"
  bottom: "W_hc_h_29"
  bottom: "W_xc_x_30"
  top: "gate_input_30"
  eltwise_param {
    operation: SUM
  }
}
layer {
  name: "lstm1x_r1_r1_unit_30"
  type: "LSTMUnit"
  bottom: "c_29"
  bottom: "gate_input_30"
  bottom: "cont_30"
  top: "c_30"
  top: "h_30"
}
layer {
  name: "lstm1x_r1_r1_h_conted_30"
  type: "Scale"
  bottom: "h_30"
  bottom: "cont_31"
  top: "h_conted_30"
  scale_param {
    axis: 0
  }
}
layer {
  name: "lstm1x_r1_r1_transform_31"
  type: "InnerProduct"
  bottom: "h_conted_30"
  top: "W_hc_h_30"
  param {
    name: "W_hc"
  }
  inner_product_param {
    num_output: 400
    bias_term: false
    weight_filler {
      type: "xavier"
    }
    axis: 2
  }
}
layer {
  name: "lstm1x_r1_r1_gate_input_31"
  type: "Eltwise"
  bottom: "W_hc_h_30"
  bottom: "W_xc_x_31"
  top: "gate_input_31"
  eltwise_param {
    operation: SUM
  }
}
layer {
  name: "lstm1x_r1_r1_unit_31"
  type: "LSTMUnit"
  bottom: "c_30"
  bottom: "gate_input_31"
  bottom: "cont_31"
  top: "c_31"
  top: "h_31"
}
layer {
  name: "lstm1x_r1_r1_h_conted_31"
  type: "Scale"
  bottom: "h_31"
  bottom: "cont_32"
  top: "h_conted_31"
  scale_param {
    axis: 0
  }
}
layer {
  name: "lstm1x_r1_r1_transform_32"
  type: "InnerProduct"
  bottom: "h_conted_31"
  top: "W_hc_h_31"
  param {
    name: "W_hc"
  }
  inner_product_param {
    num_output: 400
    bias_term: false
    weight_filler {
      type: "xavier"
    }
    axis: 2
  }
}
layer {
  name: "lstm1x_r1_r1_gate_input_32"
  type: "Eltwise"
  bottom: "W_hc_h_31"
  bottom: "W_xc_x_32"
  top: "gate_input_32"
  eltwise_param {
    operation: SUM
  }
}
layer {
  name: "lstm1x_r1_r1_unit_32"
  type: "LSTMUnit"
  bottom: "c_31"
  bottom: "gate_input_32"
  bottom: "cont_32"
  top: "c_32"
  top: "h_32"
}
layer {
  name: "lstm1x_r1_r1_h_conted_32"
  type: "Scale"
  bottom: "h_32"
  bottom: "cont_33"
  top: "h_conted_32"
  scale_param {
    axis: 0
  }
}
layer {
  name: "lstm1x_r1_r1_transform_33"
  type: "InnerProduct"
  bottom: "h_conted_32"
  top: "W_hc_h_32"
  param {
    name: "W_hc"
  }
  inner_product_param {
    num_output: 400
    bias_term: false
    weight_filler {
      type: "xavier"
    }
    axis: 2
  }
}
layer {
  name: "lstm1x_r1_r1_gate_input_33"
  type: "Eltwise"
  bottom: "W_hc_h_32"
  bottom: "W_xc_x_33"
  top: "gate_input_33"
  eltwise_param {
    operation: SUM
  }
}
layer {
  name: "lstm1x_r1_r1_unit_33"
  type: "LSTMUnit"
  bottom: "c_32"
  bottom: "gate_input_33"
  bottom: "cont_33"
  top: "c_33"
  top: "h_33"
}
layer {
  name: "lstm1x_r1_r1_h_conted_33"
  type: "Scale"
  bottom: "h_33"
  bottom: "cont_34"
  top: "h_conted_33"
  scale_param {
    axis: 0
  }
}
layer {
  name: "lstm1x_r1_r1_transform_34"
  type: "InnerProduct"
  bottom: "h_conted_33"
  top: "W_hc_h_33"
  param {
    name: "W_hc"
  }
  inner_product_param {
    num_output: 400
    bias_term: false
    weight_filler {
      type: "xavier"
    }
    axis: 2
  }
}
layer {
  name: "lstm1x_r1_r1_gate_input_34"
  type: "Eltwise"
  bottom: "W_hc_h_33"
  bottom: "W_xc_x_34"
  top: "gate_input_34"
  eltwise_param {
    operation: SUM
  }
}
layer {
  name: "lstm1x_r1_r1_unit_34"
  type: "LSTMUnit"
  bottom: "c_33"
  bottom: "gate_input_34"
  bottom: "cont_34"
  top: "c_34"
  top: "h_34"
}
layer {
  name: "lstm1x_r1_r1_h_conted_34"
  type: "Scale"
  bottom: "h_34"
  bottom: "cont_35"
  top: "h_conted_34"
  scale_param {
    axis: 0
  }
}
layer {
  name: "lstm1x_r1_r1_transform_35"
  type: "InnerProduct"
  bottom: "h_conted_34"
  top: "W_hc_h_34"
  param {
    name: "W_hc"
  }
  inner_product_param {
    num_output: 400
    bias_term: false
    weight_filler {
      type: "xavier"
    }
    axis: 2
  }
}
layer {
  name: "lstm1x_r1_r1_gate_input_35"
  type: "Eltwise"
  bottom: "W_hc_h_34"
  bottom: "W_xc_x_35"
  top: "gate_input_35"
  eltwise_param {
    operation: SUM
  }
}
layer {
  name: "lstm1x_r1_r1_unit_35"
  type: "LSTMUnit"
  bottom: "c_34"
  bottom: "gate_input_35"
  bottom: "cont_35"
  top: "c_35"
  top: "h_35"
}
layer {
  name: "lstm1x_r1_r1_h_conted_35"
  type: "Scale"
  bottom: "h_35"
  bottom: "cont_36"
  top: "h_conted_35"
  scale_param {
    axis: 0
  }
}
layer {
  name: "lstm1x_r1_r1_transform_36"
  type: "InnerProduct"
  bottom: "h_conted_35"
  top: "W_hc_h_35"
  param {
    name: "W_hc"
  }
  inner_product_param {
    num_output: 400
    bias_term: false
    weight_filler {
      type: "xavier"
    }
    axis: 2
  }
}
layer {
  name: "lstm1x_r1_r1_gate_input_36"
  type: "Eltwise"
  bottom: "W_hc_h_35"
  bottom: "W_xc_x_36"
  top: "gate_input_36"
  eltwise_param {
    operation: SUM
  }
}
layer {
  name: "lstm1x_r1_r1_unit_36"
  type: "LSTMUnit"
  bottom: "c_35"
  bottom: "gate_input_36"
  bottom: "cont_36"
  top: "c_36"
  top: "h_36"
}
layer {
  name: "lstm1x_r1_r1_h_conted_36"
  type: "Scale"
  bott
I0102 16:58:45.639425 14152 layer_factory.hpp:77] Creating layer lstm1x_r1_r1_
I0102 16:58:45.639438 14152 net.cpp:84] Creating Layer lstm1x_r1_r1_
I0102 16:58:45.639442 14152 net.cpp:380] lstm1x_r1_r1_ -> x
I0102 16:58:45.639451 14152 net.cpp:380] lstm1x_r1_r1_ -> cont
I0102 16:58:45.639511 14152 net.cpp:122] Setting up lstm1x_r1_r1_
I0102 16:58:45.639518 14152 net.cpp:129] Top shape: 60 8 512 7 (1720320)
I0102 16:58:45.639521 14152 net.cpp:129] Top shape: 60 8 (480)
I0102 16:58:45.639523 14152 net.cpp:137] Memory required for data: 6883200
I0102 16:58:45.639526 14152 layer_factory.hpp:77] Creating layer lstm1x_r1_r1_
I0102 16:58:45.639531 14152 net.cpp:84] Creating Layer lstm1x_r1_r1_
I0102 16:58:45.639535 14152 net.cpp:380] lstm1x_r1_r1_ -> c_0
I0102 16:58:45.639540 14152 net.cpp:380] lstm1x_r1_r1_ -> h_0
I0102 16:58:45.639616 14152 net.cpp:122] Setting up lstm1x_r1_r1_
I0102 16:58:45.639622 14152 net.cpp:129] Top shape: 1 8 100 (800)
I0102 16:58:45.639626 14152 net.cpp:129] Top shape: 1 8 100 (800)
I0102 16:58:45.639627 14152 net.cpp:137] Memory required for data: 6889600
I0102 16:58:45.639631 14152 layer_factory.hpp:77] Creating layer lstm1x_r1_r1_cont_slice
I0102 16:58:45.639638 14152 net.cpp:84] Creating Layer lstm1x_r1_r1_cont_slice
I0102 16:58:45.639642 14152 net.cpp:406] lstm1x_r1_r1_cont_slice <- cont
I0102 16:58:45.639649 14152 net.cpp:380] lstm1x_r1_r1_cont_slice -> cont_1
…
I0102 16:58:45.689631 14152 net.cpp:200] lstm1x_r1_r1_ does not need backward computation.
I0102 16:58:45.689635 14152 net.cpp:242] This network produces output c_T
I0102 16:58:45.689638 14152 net.cpp:242] This network produces output h_pseudoloss
I0102 16:58:45.691038 14152 net.cpp:255] Network initialization done.
I0102 16:58:45.691438 14152 recurrent_layer.cpp:150] Adding parameter 0: W_xc
I0102 16:58:45.691443 14152 recurrent_layer.cpp:150] Adding parameter 1: b_c
I0102 16:58:45.691447 14152 recurrent_layer.cpp:150] Adding parameter 2: W_hc
I0102 16:58:45.691859 14152 net.cpp:122] Setting up lstm1x_r1_r1
I0102 16:58:45.691867 14152 net.cpp:129] Top shape: 60 8 100 (48000)
I0102 16:58:45.691870 14152 net.cpp:137] Memory required for data: 768707328
I0102 16:58:45.691896 14152 layer_factory.hpp:77] Creating layer merge_lstm_rlstmx
I0102 16:58:45.691903 14152 net.cpp:84] Creating Layer merge_lstm_rlstmx
I0102 16:58:45.691908 14152 net.cpp:406] merge_lstm_rlstmx <- lstm1x
I0102 16:58:45.691913 14152 net.cpp:406] merge_lstm_rlstmx <- rlstmx
I0102 16:58:45.691932 14152 net.cpp:380] merge_lstm_rlstmx -> merge_lstm_rlstmx
I0102 16:58:45.691968 14152 net.cpp:122] Setting up merge_lstm_rlstmx
I0102 16:58:45.691973 14152 net.cpp:129] Top shape: 60 8 200 (96000)
I0102 16:58:45.691983 14152 net.cpp:137] Memory required for data: 769091328
I0102 16:58:45.691987 14152 layer_factory.hpp:77] Creating layer fc_all_1
I0102 16:58:45.691995 14152 net.cpp:84] Creating Layer fc_all_1
I0102 16:58:45.691998 14152 net.cpp:406] fc_all_1 <- merge_lstm_rlstmx
I0102 16:58:45.692018 14152 net.cpp:380] fc_all_1 -> fc_all_1
I0102 16:58:45.692190 14152 net.cpp:122] Setting up fc_all_1
I0102 16:58:45.692196 14152 net.cpp:129] Top shape: 60 8 69 (33120)
I0102 16:58:45.692199 14152 net.cpp:137] Memory required for data: 769223808
I0102 16:58:45.692220 14152 layer_factory.hpp:77] Creating layer fc_all_1_fc_all_1_0_split
I0102 16:58:45.692225 14152 net.cpp:84] Creating Layer fc_all_1_fc_all_1_0_split
I0102 16:58:45.692230 14152 net.cpp:406] fc_all_1_fc_all_1_0_split <- fc_all_1
I0102 16:58:45.692235 14152 net.cpp:380] fc_all_1_fc_all_1_0_split -> fc_all_1_fc_all_1_0_split_0
I0102 16:58:45.692242 14152 net.cpp:380] fc_all_1_fc_all_1_0_split -> fc_all_1_fc_all_1_0_split_1
I0102 16:58:45.692270 14152 net.cpp:122] Setting up fc_all_1_fc_all_1_0_split
I0102 16:58:45.692288 14152 net.cpp:129] Top shape: 60 8 69 (33120)
I0102 16:58:45.692291 14152 net.cpp:129] Top shape: 60 8 69 (33120)
I0102 16:58:45.692294 14152 net.cpp:137] Memory required for data: 769488768
I0102 16:58:45.692311 14152 layer_factory.hpp:77] Creating layer ctc_loss
I0102 16:58:45.692317 14152 net.cpp:84] Creating Layer ctc_loss
I0102 16:58:45.692320 14152 net.cpp:406] ctc_loss <- fc_all_1_fc_all_1_0_split_0
I0102 16:58:45.692324 14152 net.cpp:406] ctc_loss <- label1_slicer_label_0_split_0
I0102 16:58:45.692330 14152 net.cpp:380] ctc_loss -> ctc_loss
I0102 16:58:45.692340 14152 net.cpp:122] Setting up ctc_loss
I0102 16:58:45.692344 14152 net.cpp:129] Top shape: (1)
I0102 16:58:45.692348 14152 net.cpp:137] Memory required for data: 769488772
I0102 16:58:45.692350 14152 layer_factory.hpp:77] Creating layer pool_color_1
I0102 16:58:45.692356 14152 net.cpp:84] Creating Layer pool_color_1
I0102 16:58:45.692360 14152 net.cpp:406] pool_color_1 <- layer_128_1_sum_layer_128_1_sum_0_split_2
I0102 16:58:45.692365 14152 net.cpp:380] pool_color_1 -> pool_color_1
I0102 16:58:45.692400 14152 net.cpp:122] Setting up pool_color_1
I0102 16:58:45.692405 14152 net.cpp:129] Top shape: 8 512 7 15 (430080)
I0102 16:58:45.692409 14152 net.cpp:137] Memory required for data: 771209092
I0102 16:58:45.692411 14152 layer_factory.hpp:77] Creating layer conv_color1_1
I0102 16:58:45.692420 14152 net.cpp:84] Creating Layer conv_color1_1
I0102 16:58:45.692423 14152 net.cpp:406] conv_color1_1 <- pool_color_1
I0102 16:58:45.692430 14152 net.cpp:380] conv_color1_1 -> conv_color1_1
I0102 16:58:45.702152 14152 net.cpp:122] Setting up conv_color1_1
I0102 16:58:45.702167 14152 net.cpp:129] Top shape: 8 256 7 15 (215040)
I0102 16:58:45.702169 14152 net.cpp:137] Memory required for data: 772069252
I0102 16:58:45.702178 14152 layer_factory.hpp:77] Creating layer bn_color_1
I0102 16:58:45.702188 14152 net.cpp:84] Creating Layer bn_color_1
I0102 16:58:45.702193 14152 net.cpp:406] bn_color_1 <- conv_color1_1
I0102 16:58:45.702199 14152 net.cpp:367] bn_color_1 -> conv_color1_1 (in-place)
I0102 16:58:45.702354 14152 net.cpp:122] Setting up bn_color_1
I0102 16:58:45.702360 14152 net.cpp:129] Top shape: 8 256 7 15 (215040)
I0102 16:58:45.702363 14152 net.cpp:137] Memory required for data: 772929412
I0102 16:58:45.702385 14152 layer_factory.hpp:77] Creating layer scale_color_1
I0102 16:58:45.702396 14152 net.cpp:84] Creating Layer scale_color_1
I0102 16:58:45.702400 14152 net.cpp:406] scale_color_1 <- conv_color1_1
I0102 16:58:45.702405 14152 net.cpp:367] scale_color_1 -> conv_color1_1 (in-place)
I0102 16:58:45.702451 14152 layer_factory.hpp:77] Creating layer scale_color_1
I0102 16:58:45.702551 14152 net.cpp:122] Setting up scale_color_1
I0102 16:58:45.702558 14152 net.cpp:129] Top shape: 8 256 7 15 (215040)
I0102 16:58:45.702560 14152 net.cpp:137] Memory required for data: 773789572
I0102 16:58:45.702579 14152 layer_factory.hpp:77] Creating layer relu_color_1
I0102 16:58:45.702595 14152 net.cpp:84] Creating Layer relu_color_1
I0102 16:58:45.702600 14152 net.cpp:406] relu_color_1 <- conv_color1_1
I0102 16:58:45.702605 14152 net.cpp:367] relu_color_1 -> conv_color1_1 (in-place)
I0102 16:58:45.703022 14152 net.cpp:122] Setting up relu_color_1
I0102 16:58:45.703029 14152 net.cpp:129] Top shape: 8 256 7 15 (215040)
I0102 16:58:45.703033 14152 net.cpp:137] Memory required for data: 774649732
I0102 16:58:45.703037 14152 layer_factory.hpp:77] Creating layer pool_color_2
I0102 16:58:45.703043 14152 net.cpp:84] Creating Layer pool_color_2
I0102 16:58:45.703048 14152 net.cpp:406] pool_color_2 <- conv_color1_1
I0102 16:58:45.703054 14152 net.cpp:380] pool_color_2 -> pool_color_2
I0102 16:58:45.703198 14152 net.cpp:122] Setting up pool_color_2
I0102 16:58:45.703205 14152 net.cpp:129] Top shape: 8 256 1 1 (2048)
I0102 16:58:45.703208 14152 net.cpp:137] Memory required for data: 774657924
I0102 16:58:45.703212 14152 layer_factory.hpp:77] Creating layer fc_color_1
I0102 16:58:45.703218 14152 net.cpp:84] Creating Layer fc_color_1
I0102 16:58:45.703222 14152 net.cpp:406] fc_color_1 <- pool_color_2
I0102 16:58:45.703228 14152 net.cpp:380] fc_color_1 -> fc_color_1
I0102 16:58:45.703327 14152 net.cpp:122] Setting up fc_color_1
I0102 16:58:45.703335 14152 net.cpp:129] Top shape: 8 5 (40)
I0102 16:58:45.703336 14152 net.cpp:137] Memory required for data: 774658084
I0102 16:58:45.703342 14152 layer_factory.hpp:77] Creating layer fc_color_1_fc_color_1_0_split
I0102 16:58:45.703348 14152 net.cpp:84] Creating Layer fc_color_1_fc_color_1_0_split
I0102 16:58:45.703353 14152 net.cpp:406] fc_color_1_fc_color_1_0_split <- fc_color_1
I0102 16:58:45.703358 14152 net.cpp:380] fc_color_1_fc_color_1_0_split -> fc_color_1_fc_color_1_0_split_0
I0102 16:58:45.703366 14152 net.cpp:380] fc_color_1_fc_color_1_0_split -> fc_color_1_fc_color_1_0_split_1
I0102 16:58:45.703395 14152 net.cpp:122] Setting up fc_color_1_fc_color_1_0_split
I0102 16:58:45.703400 14152 net.cpp:129] Top shape: 8 5 (40)
I0102 16:58:45.703404 14152 net.cpp:129] Top shape: 8 5 (40)
I0102 16:58:45.703408 14152 net.cpp:137] Memory required for data: 774658404
I0102 16:58:45.703409 14152 layer_factory.hpp:77] Creating layer softmax_loss
I0102 16:58:45.703415 14152 net.cpp:84] Creating Layer softmax_loss
I0102 16:58:45.703419 14152 net.cpp:406] softmax_loss <- fc_color_1_fc_color_1_0_split_0
I0102 16:58:45.703424 14152 net.cpp:406] softmax_loss <- label2_slicer_label_1_split_0
I0102 16:58:45.703429 14152 net.cpp:380] softmax_loss -> softmax_loss
I0102 16:58:45.703438 14152 layer_factory.hpp:77] Creating layer softmax_loss
I0102 16:58:45.703656 14152 net.cpp:122] Setting up softmax_loss
I0102 16:58:45.703663 14152 net.cpp:129] Top shape: (1)
I0102 16:58:45.703666 14152 net.cpp:132]     with loss weight 1
I0102 16:58:45.703678 14152 net.cpp:137] Memory required for data: 774658408
I0102 16:58:45.703681 14152 layer_factory.hpp:77] Creating layer permute_fc
I0102 16:58:45.703689 14152 net.cpp:84] Creating Layer permute_fc
I0102 16:58:45.703692 14152 net.cpp:406] permute_fc <- fc_all_1_fc_all_1_0_split_1
I0102 16:58:45.703699 14152 net.cpp:380] permute_fc -> premuted_fc
I0102 16:58:45.703799 14152 net.cpp:122] Setting up permute_fc
I0102 16:58:45.703804 14152 net.cpp:129] Top shape: 8 60 69 (33120)
I0102 16:58:45.703807 14152 net.cpp:137] Memory required for data: 774790888
I0102 16:58:45.703810 14152 layer_factory.hpp:77] Creating layer accuracy
I0102 16:58:45.703816 14152 net.cpp:84] Creating Layer accuracy
I0102 16:58:45.703820 14152 net.cpp:406] accuracy <- premuted_fc
I0102 16:58:45.703824 14152 net.cpp:406] accuracy <- label1_slicer_label_0_split_1
I0102 16:58:45.703845 14152 net.cpp:380] accuracy -> accuracy
…
