…
I1229 17:57:32.213768 12106 net.cpp:294] The NetState phase (0) differed from the phase (1) specified by a rule in layer accuracy_color
I1229 17:57:32.214217 12106 net.cpp:51] Initializing net from parameters: 
name: "resnet-blstm-ctc-ocr"
state {
  phase: TRAIN
  level: 0
  stage: ""
}
layer {
  name: "data"
  type: "ImageData"
  top: "data"
  top: "label"
  include {
    phase: TRAIN
  }
  image_data_param {
    source: "train.txt"
    batch_size: 38
    shuffle: true
    new_height: 112
    new_width: 240
    is_color: true
    num_of_labels: 21
  }
}
layer {
  name: "slicer_label"
  type: "Slice"
  bottom: "label"
  top: "label1"
  top: "label2"
  slice_param {
    slice_point: 20
    axis: 1
  }
}
layer {
  name: "indicator"
  type: "ContinuationIndicator"
  top: "indicator"
  include {
    phase: TRAIN
  }
  continuation_indicator_param {
    time_step: 60
    batch_size: 38
  }
}
layer {
  name: "data_bn"
  type: "BatchNorm"
  bottom: "data"
  top: "data_bn"
  param {
    lr_mult: 0
    decay_mult: 0
  }
  param {
    lr_mult: 0
    decay_mult: 0
  }
  param {
    lr_mult: 0
    decay_mult: 0
  }
}
layer {
  name: "data_scale"
  type: "Scale"
  bottom: "data_bn"
  top: "data_bn"
  param {
    lr_mult: 1
    decay_mult: 1
  }
  param {
    lr_mult: 2
    decay_mult: 1
  }
  scale_param {
    bias_term: true
  }
}
layer {
  name: "conv1"
  type: "Convolution"
  bottom: "data_bn"
  top: "conv1"
  param {
    lr_mult: 1
    decay_mult: 1
  }
  param {
    lr_mult: 2
    decay_mult: 1
  }
  convolution_param {
    num_output: 64
    pad: 3
    kernel_size: 7
    stride: 2
    weight_filler {
      type: "msra"
      variance_norm: FAN_OUT
    }
    bias_filler {
      type: "constant"
      value: 0
    }
  }
}
layer {
  name: "conv1_bn"
  type: "BatchNorm"
  bottom: "conv1"
  top: "conv1"
  param {
    lr_mult: 0
    decay_mult: 0
  }
  param {
    lr_mult: 0
    decay_mult: 0
  }
  param {
    lr_mult: 0
    decay_mult: 0
  }
}
layer {
  name: "conv1_scale"
  type: "Scale"
  bottom: "conv1"
  top: "conv1"
  param {
    lr_mult: 1
    decay_mult: 1
  }
  param {
    lr_mult: 2
    decay_mult: 1
  }
  scale_param {
    bias_term: true
  }
}
layer {
  name: "conv1_relu"
  type: "ReLU"
  bottom: "conv1"
  top: "conv1"
}
layer {
  name: "conv1_pool"
  type: "Pooling"
  bottom: "conv1"
  top: "conv1_pool"
  pooling_param {
    kernel_size: 3
    stride: 2
  }
}
layer {
  name: "layer_64_1_conv1"
  type: "Convolution"
  bottom: "conv1_pool"
  top: "layer_64_1_conv1"
  param {
    lr_mult: 1
    decay_mult: 1
  }
  convolution_param {
    num_output: 64
    bias_term: false
    pad: 0
    kernel_size: 1
    stride: 1
    weight_filler {
      type: "msra"
    }
    bias_filler {
      type: "constant"
      value: 0
    }
  }
}
layer {
  name: "layer_64_1_bn2"
  type: "BatchNorm"
  bottom: "layer_64_1_conv1"
  top: "layer_64_1_conv1"
  param {
    lr_mult: 0
    decay_mult: 0
  }
  param {
    lr_mult: 0
    decay_mult: 0
  }
  param {
    lr_mult: 0
    decay_mult: 0
  }
}
layer {
  name: "layer_64_1_scale2"
  type: "Scale"
  bottom: "layer_64_1_conv1"
  top: "layer_64_1_conv1"
  param {
    lr_mult: 1
    decay_mult: 1
  }
  param {
    lr_mult: 2
    decay_mult: 1
  }
  scale_param {
    bias_term: true
  }
}
layer {
  name: "layer_64_1_relu2"
  type: "ReLU"
  bottom: "layer_64_1_conv1"
  top: "layer_64_1_conv1"
}
layer {
  name: "layer_64_1_conv2"
  type: "Convolution"
  bottom: "layer_64_1_conv1"
  top: "layer_64_1_conv2"
  param {
    lr_mult: 1
    decay_mult: 1
  }
  convolution_param {
    num_output: 64
    bias_term: false
    pad: 1
    kernel_size: 3
    stride: 1
    weight_filler {
      type: "msra"
    }
    bias_filler {
      type: "constant"
      value: 0
    }
  }
}
layer {
  name: "layer_64_1_bn3"
  type: "BatchNorm"
  bottom: "layer_64_1_conv2"
  top: "layer_64_1_conv2"
  param {
    lr_mult: 0
    decay_mult: 0
  }
  param {
    lr_mult: 0
    decay_mult: 0
  }
  param {
    lr_mult: 0
    decay_mult: 0
  }
}
layer {
  name: "layer_64_1_scale3"
  type: "Scale"
  bottom: "layer_64_1_conv2"
  top: "layer_64_1_conv2"
  param {
    lr_mult: 1
    decay_mult: 1
  }
  param {
    lr_mult: 2
    decay_mult: 1
  }
  scale_param {
    bias_term: true
  }
}
layer {
  name: "layer_64_1_relu3"
  type: "ReLU"
  bottom: "layer_64_1_conv2"
  top: "layer_64_1_conv2"
}
layer {
  name: "layer_64_1_conv3"
  type: "Convolution"
  bottom: "layer_64_1_conv2"
  top: "layer_64_1_conv3"
  param {
    lr_mult: 1
    decay_mult: 1
  }
  convolution_param {
    num_output: 256
    bias_term: false
    pad: 0
    kernel_size: 1
    stride: 1
    weight_filler {
      type: "msra"
    }
    bias_filler {
      type: "constant"
      value: 0
    }
  }
}
layer {
  name: "layer_64_1_conv_expand"
  type: "Convolution"
  bottom: "layer_64_1_conv1"
  top: "layer_64_1_conv_expand"
  param {
    lr_mult: 1
    decay_mult: 1
  }
  convolution_param {
    num_output: 256
    bias_term: false
    pad: 0
    kernel_size: 1
    stride: 1
    weight_filler {
      type: "msra"
    }
    bias_filler {
      type: "constant"
      value: 0
    }
  }
}
layer {
  name: "layer_64_1_sum"
  type: "Eltwise"
  bottom: "layer_64_1_conv3"
  bottom: "layer_64_1_conv_expand"
  top: "layer_64_1_sum"
}
layer {
  name: "layer_64_2_bn1"
  type: "BatchNorm"
  bottom: "layer_64_1_sum"
  top: "layer_64_2_bn1"
  param {
    lr_mult: 0
    decay_mult: 0
  }
  param {
    lr_mult: 0
    decay_mult: 0
  }
  param {
    lr_mult: 0
    decay_mult: 0
  }
}
layer {
  name: "layer_64_2_scale1"
  type: "Scale"
  bottom: "layer_64_2_bn1"
  top: "layer_64_2_bn1"
  param {
    lr_mult: 1
    decay_mult: 1
  }
  param {
    lr_mult: 2
    decay_mult: 1
  }
  scale_param {
    bias_term: true
  }
}
layer {
  name: "layer_64_2_relu1"
  type: "ReLU"
  bottom: "layer_64_2_bn1"
  top: "layer_64_2_bn1"
}
layer {
  name: "layer_64_2_conv1"
  type: "Convolution"
  bottom: "layer_64_2_bn1"
  top: "layer_64_2_conv1"
  param {
    lr_mult: 1
    decay_mult: 1
  }
  convolution_param {
    num_output: 64
    bias_term: false
    pad: 0
    kernel_size: 1
    stride: 1
    weight_filler {
      type: "msra"
    }
    bias_filler {
      type: "constant"
      value: 0
    }
  }
}
layer {
  name: "layer_64_2_bn2"
  type: "BatchNorm"
  bottom: "layer_64_2_conv1"
  top: "layer_64_2_conv1"
  param {
    lr_mult: 0
    decay_mult: 0
  }
  param {
    lr_mult: 0
    decay_mult: 0
  }
  param {
    lr_mult: 0
    decay_mult: 0
  }
}
layer {
  name: "layer_64_2_scale2"
  type: "Scale"
  bottom: "layer_64_2_conv1"
  top: "layer_64_2_conv1"
  param {
    lr_mult: 1
    decay_mult: 1
  }
  param {
    lr_mult: 2
    decay_mult: 1
  }
  scale_param {
    bias_term: true
  }
}
layer {
  name: "layer_64_2_relu2"
  type: "ReLU"
  bottom: "layer_64_2_conv1"
  top: "layer_64_2_conv1"
}
layer {
  name: "layer_64_2_conv2"
  type: "Convolution"
  bottom: "layer_64_2_conv1"
  top: "layer_64_2_conv2"
  param {
    lr_mult: 1
    decay_mult: 1
  }
  convolution_param {
    num_output: 64
    bias_term: false
    pad: 1
    kernel_size: 3
    stride: 1
    weight_filler {
      type: "msra"
    }
    bias_filler {
      type: "constant"
      value: 0
    }
  }
}
layer {
  name: "layer_64_2_bn3"
  type: "BatchNorm"
  bottom: "layer_64_2_conv2"
  top: "layer_64_2_conv2"
  param {
    lr_mult: 0
    decay_mult: 0
  }
  param {
    lr_mult: 0
    decay_mult: 0
  }
  param {
    lr_mult: 0
    decay_mult: 0
  }
}
layer {
  name: "layer_64_2_scale3"
  type: "Scale"
  bottom: "layer_64_2_conv2"
  top: "layer_64_2_conv2"
  param {
    lr_mult: 1
    decay_mult: 1
  }
  param {
    lr_mult: 2
    decay_mult: 1
  }
  scale_param {
    bias_term: true
  }
}
layer {
  name: "layer_64_2_relu3"
  type: "ReLU"
  bottom: "layer_64_2_conv2"
  top: "layer_64_2_conv2"
}
layer {
  name: "layer_64_2_conv3"
  type: "Convolution"
  bottom: "layer_64_2_conv2"
  top: "layer_64_2_conv3"
  param {
    lr_mult: 1
    decay_mult: 1
  }
  convolution_param {
    num_output: 256
    bias_term: false
    pad: 0
    kernel_size: 1
    stride: 1
    weight_filler {
      type: "msra"
    }
    bias_filler {
      type: "constant"
      value: 0
    }
  }
}
layer {
  name: "layer_64_2_sum"
  type: "Eltwise"
  bottom: "layer_64_2_conv3"
  bottom: "layer_64_1_sum"
  top: "layer_64_2_sum"
}
layer {
  name: "layer_64_3_bn1"
  type: "BatchNorm"
  bottom: "layer_64_2_sum"
  top: "layer_64_3_bn1"
  param {
    lr_mult: 0
    decay_mult: 0
  }
  param {
    lr_mult: 0
    decay_mult: 0
  }
  param {
    lr_mult: 0
    decay_mult: 0
  }
}
layer {
  name: "layer_64_3_scale1"
  type: "Scale"
  bottom: "layer_64_3_bn1"
  top: "layer_64_3_bn1"
  param {
    lr_mult: 1
    decay_mult: 1
  }
  param {
    lr_mult: 2
    decay_mult: 1
  }
  scale_param {
    bias_term: true
  }
}
layer {
  name: "layer_64_3_relu1"
  type: "ReLU"
  bottom: "layer_64_3_bn1"
  top: "layer_64_3_bn1"
}
layer {
  name: "layer_64_3_conv1"
  type: "Convolution"
  bottom: "layer_64_3_bn1"
  top: "layer_64_3_conv1"
  param {
    lr_mult: 1
    decay_mult: 1
  }
  convolution_param {
    num_output: 64
    bias_term: false
    pad: 0
    kernel_size: 1
    stride: 1
    weight_filler {
      type: "msra"
    }
    bias_filler {
      type: "constant"
      value: 0
    }
  }
}
layer {
  name: "layer_64_3_bn2"
  type: "BatchNorm"
  bottom: "layer_64_3_conv1"
  top: "layer_64_3_conv1"
  param {
    lr_mult: 0
    decay_mult: 0
  }
  param {
    lr_mult: 0
    decay_mult: 0
  }
  param {
    lr_mult: 0
    decay_mult: 0
  }
}
layer {
  name: "layer_64_3_scale2"
  type: "Scale"
  bottom: "layer_64_3_conv1"
  top: "layer_64_3_conv1"
  param {
    lr_mult: 1
    decay_mult: 1
  }
  param {
    lr_mult: 2
    decay_mult: 1
  }
  scale_param {
    bias_term: true
  }
}
layer {
  name: "layer_64_3_relu2"
  type: "ReLU"
  bottom: "layer_64_3_conv1"
  top: "layer_64_3_conv1"
}
layer {
  name: "layer_64_3_conv2"
  type: "Convolution"
  bottom: "layer_64_3_conv1"
  top: "layer_64_3_conv2"
  param {
    lr_mult: 1
    decay_mult: 1
  }
  convolution_param {
    num_output: 64
    bias_term: false
    pad: 1
    kernel_size: 3
    stride: 1
    weight_filler {
      type: "msra"
    }
    bias_filler {
      type: "constant"
      value: 0
    }
  }
}
layer {
  name: "layer_64_3_bn3"
  type: "BatchNorm"
  bottom: "layer_64_3_conv2"
  top: "layer_64_3_conv2"
  param {
    lr_mult: 0
    decay_mult: 0
  }
  param {
    lr_mult: 0
    decay_mult: 0
  }
  param {
    lr_mult: 0
    decay_mult: 0
  }
}
layer {
  name: "layer_64_3_scale3"
  type: "Scale"
  bottom: "layer_64_3_conv2"
  top: "layer_64_3_conv2"
  param {
    lr_mult: 1
    decay_mult: 1
  }
  param {
    lr_mult: 2
    decay_mult: 1
  }
  scale_param {
    bias_term: true
  }
}
layer {
  name: "layer_64_3_relu3"
  type: "ReLU"
  bottom: "layer_64_3_conv2"
  top: "layer_64_3_conv2"
}
layer {
  name: "layer_64_3_conv3"
  type: "Convolution"
  bottom: "layer_64_3_conv2"
  top: "layer_64_3_conv3"
  param {
    lr_mult: 1
    decay_mult: 1
  }
  convolution_param {
    num_output: 256
    bias_term: false
    pad: 0
    kernel_size: 1
    stride: 1
    weight_filler {
      type: "msra"
    }
    bias_filler {
      type: "constant"
      value: 0
    }
  }
}
layer {
  name: "layer_64_3_sum"
  type: "Eltwise"
  bottom: "layer_64_3_conv3"
  bottom: "layer_64_2_sum"
  top: "layer_64_3_sum"
}
layer {
  name: "layer_128_1_bn1"
  type: "BatchNorm"
  bottom: "layer_64_3_sum"
  top: "layer_128_1_bn1"
  param {
    lr_mult: 0
    decay_mult: 0
  }
  param {
    lr_mult: 0
    decay_mult: 0
  }
  param {
    lr_mult: 0
    decay_mult: 0
  }
}
layer {
  name: "layer_128_1_scale1"
  type: "Scale"
  bottom: "layer_128_1_bn1"
  top: "layer_128_1_bn1"
  param {
    lr_mult: 1
    decay_mult: 1
  }
  param {
    lr_mult: 2
    decay_mult: 1
  }
  scale_param {
    bias_term: true
  }
}
layer {
  name: "layer_128_1_relu1"
  type: "ReLU"
  bottom: "layer_128_1_bn1"
  top: "layer_128_1_bn1"
}
layer {
  name: "layer_128_1_conv1"
  type: "Convolution"
  bottom: "layer_128_1_bn1"
  top: "layer_128_1_conv1"
  param {
    lr_mult: 1
    decay_mult: 1
  }
  convolution_param {
    num_output: 128
    bias_term: false
    pad: 0
    kernel_size: 1
    stride: 1
    weight_filler {
      type: "msra"
    }
    bias_filler {
      type: "constant"
      value: 0
    }
  }
}
layer {
  name: "layer_128_1_bn2"
  type: "BatchNorm"
  bottom: "layer_128_1_conv1"
  top: "layer_128_1_conv1"
  param {
    lr_mult: 0
    decay_mult: 0
  }
  param {
    lr_mult: 0
    decay_mult: 0
  }
  param {
    lr_mult: 0
    decay_mult: 0
  }
}
layer {
  name: "layer_128_1_scale2"
  type: "Scale"
  bottom: "layer_128_1_conv1"
  top: "layer_128_1_conv1"
  param {
    lr_mult: 1
    decay_mult: 1
  }
  param {
    lr_mult: 2
    decay_mult: 1
  }
  scale_param {
    bias_term: true
  }
}
layer {
  name: "layer_128_1_relu2"
  type: "ReLU"
  bottom: "layer_128_1_conv1"
  top: "layer_128_1_conv1"
}
layer {
  name: "layer_128_1_conv2"
  type: "Convolution"
  bottom: "layer_128_1_conv1"
  top: "layer_128_1_conv2"
  param {
    lr_mult: 1
    decay_mult: 1
  }
  convolution_param {
    num_output: 128
    bias_term: false
    pad: 1
    kernel_size: 3
    stride: 2
    weight_filler {
      type: "msra"
    }
    bias_filler {
      type: "constant"
      value: 0
    }
  }
}
layer {
  name: "layer_128_1_bn3"
  type: "BatchNorm"
  bottom: "layer_128_1_conv2"
  top: "layer_128_1_conv2"
  param {
    lr_mult: 0
    decay_mult: 0
  }
  param {
    lr_mult: 0
    decay_mult: 0
  }
  param {
    lr_mult: 0
    decay_mult: 0
  }
}
layer {
  name: "layer_128_1_scale3"
  type: "Scale"
  bottom: "layer_128_1_conv2"
  top: "layer_128_1_conv2"
  param {
    lr_mult: 1
    decay_mult: 1
  }
  param {
    lr_mult: 2
    decay_mult: 1
  }
  scale_param {
    bias_term: true
  }
}
layer {
  name: "layer_128_1_relu3"
  type: "ReLU"
  bottom: "layer_128_1_conv2"
  top: "layer_128_1_conv2"
}
layer {
  name: "layer_128_1_conv3"
  type: "Convolution"
  bottom: "layer_128_1_conv2"
  top: "layer_128_1_conv3"
  param {
    lr_mult: 1
    decay_mult: 1
  }
  convolution_param {
    num_output: 512
    bias_term: false
    pad: 0
    kernel_size: 1
    stride: 1
    weight_filler {
      type: "msra"
    }
    bias_filler {
      type: "constant"
      value: 0
    }
  }
}
layer {
  name: "layer_128_1_conv_expand"
  type: "Convolution"
  bottom: "layer_128_1_bn1"
  top: "layer_128_1_conv_expand"
  param {
    lr_mult: 1
    decay_mult: 1
  }
  convolution_param {
    num_output: 512
    bias_term: false
    pad: 0
    kernel_size: 1
    stride: 2
    weight_filler {
      type: "msra"
    }
    bias_filler {
      type: "constant"
      value: 0
    }
  }
}
layer {
  name: "layer_128_1_sum"
  type: "Eltwise"
  bottom: "layer_128_1_conv3"
  bottom: "layer_128_1_conv_expand"
  top: "layer_128_1_sum"
}
layer {
  name: "layer_128_2_bn1"
  type: "BatchNorm"
  bottom: "layer_128_1_sum"
  top: "layer_128_2_bn1"
  param {
    lr_mult: 0
    decay_mult: 0
  }
  param {
    lr_mult: 0
    decay_mult: 0
  }
  param {
    lr_mult: 0
    decay_mult: 0
  }
}
layer {
  name: "layer_128_2_scale1"
  type: "Scale"
  bottom: "layer_128_2_bn1"
  top: "layer_128_2_bn1"
  param {
    lr_mult: 1
    decay_mult: 1
  }
  param {
    lr_mult: 2
    decay_mult: 1
  }
  scale_param {
    bias_term: true
  }
}
layer {
  name: "layer_128_2_relu1"
  type: "ReLU"
  bottom: "layer_128_2_bn1"
  top: "layer_128_2_bn1"
}
layer {
  name: "layer_128_2_conv1"
  type: "Convolution"
  bottom: "layer_128_2_bn1"
  top: "layer_128_2_conv1"
  param {
    lr_mult: 1
    decay_mult: 1
  }
  convolution_param {
    num_output: 128
    bias_term: false
    pad: 0
    kernel_size: 1
    stride: 1
    weight_filler {
      type: "msra"
    }
    bias_filler {
      type: "constant"
      value: 0
    }
  }
}
layer {
  name: "layer_128_2_bn2"
  type: "BatchNorm"
  bottom: "layer_128_2_conv1"
  top: "layer_128_2_conv1"
  param {
    lr_mult: 0
    decay_mult: 0
  }
  param {
    lr_mult: 0
    decay_mult: 0
  }
  param {
    lr_mult: 0
    decay_mult: 0
  }
}
layer {
  name: "layer_128_2_scale2"
  type: "Scale"
  bottom: "layer_128_2_conv1"
  top: "layer_128_2_conv1"
  param {
    lr_mult: 1
    decay_mult: 1
  }
  param {
    lr_mult: 2
    decay_mult: 1
  }
  scale_param {
    bias_term: true
  }
}
layer {
  name: "layer_128_2_relu2"
  type: "ReLU"
  bottom: "layer_128_2_conv1"
  top: "layer_128_2_conv1"
}
layer {
  name: "layer_128_2_conv2"
  type: "Convolution"
  bottom: "layer_128_2_conv1"
  top: "layer_128_2_conv2"
  param {
    lr_mult: 1
    decay_mult: 1
  }
  convolution_param {
    num_output: 128
    bias_term: false
    pad: 1
    kernel_size: 3
    stride: 1
    weight_filler {
      type: "msra"
    }
    bias_filler {
      type: "constant"
      value: 0
    }
  }
}
layer {
  name: "layer_128_2_bn3"
  type: "BatchNorm"
  bottom: "layer_128_2_conv2"
  top: "layer_128_2_conv2"
  param {
    lr_mult: 0
    decay_mult: 0
  }
  param {
    lr_mult: 0
    decay_mult: 0
  }
  param {
    lr_mult: 0
    decay_mult: 0
  }
}
layer {
  name: "layer_128_2_scale3"
  type: "Scale"
  bottom: "layer_128_2_conv2"
  top: "layer_128_2_conv2"
  param {
    lr_mult: 1
    decay_mult: 1
  }
  param {
    lr_mult: 2
    decay_mult: 1
  }
  scale_param {
    bias_term: true
  }
}
layer {
  name: "layer_128_2_relu3"
  type: "ReLU"
  bottom: "layer_128_2_conv2"
  top: "layer_128_2_conv2"
}
layer {
  name: "layer_128_2_conv3"
  type: "Convolution"
  bottom: "layer_128_2_conv2"
  top: "layer_128_2_conv3"
  param {
    lr_mult: 1
    decay_mult: 1
  }
  convolution_param {
    num_output: 512
    bias_term: false
    pad: 0
    kernel_size: 1
    stride: 1
    weight_filler {
      type: "msra"
    }
    bias_filler {
      type: "constant"
      value: 0
    }
  }
}
layer {
  name: "layer_128_2_sum"
  type: "Eltwise"
  bottom: "layer_128_2_conv3"
  bottom: "layer_128_1_sum"
  top: "layer_128_2_sum"
}
layer {
  name: "layer_128_3_bn1"
  type: "BatchNorm"
  bottom: "layer_128_2_sum"
  top: "layer_128_3_bn1"
  param {
    lr_mult: 0
    decay_mult: 0
  }
  param {
    lr_mult: 0
    decay_mult: 0
  }
  param {
    lr_mult: 0
    decay_mult: 0
  }
}
layer {
  name: "layer_128_3_scale1"
  type: "Scale"
  bottom: "layer_128_3_bn1"
  top: "layer_128_3_bn1"
  param {
    lr_mult: 1
    decay_mult: 1
  }
  param {
    lr_mult: 2
    decay_mult: 1
  }
  scale_param {
    bias_term: true
  }
}
layer {
  name: "layer_128_3_relu1"
  type: "ReLU"
  bottom: "layer_128_3_bn1"
  top: "layer_128_3_bn1"
}
layer {
  name: "layer_128_3_conv1"
  type: "Convolution"
  bottom: "layer_128_3_bn1"
  top: "layer_128_3_conv1"
  param {
    lr_mult: 1
    decay_mult: 1
  }
  convolution_param {
    num_output: 128
    bias_term: false
    pad: 0
    kernel_size: 1
    stride: 1
    weight_filler {
      type: "msra"
    }
    bias_filler {
      type: "constant"
      value: 0
    }
  }
}
layer {
  name: "layer_128_3_bn2"
  type: "BatchNorm"
  bottom: "layer_128_3_conv1"
  top: "layer_128_3_conv1"
  param {
    lr_mult: 0
    decay_mult: 0
  }
  param {
    lr_mult: 0
    decay_mult: 0
  }
  param {
    lr_mult: 0
    decay_mult: 0
  }
}
layer {
  name: "layer_128_3_scale2"
  type: "Scale"
  bottom: "layer_128_3_conv1"
  top: "layer_128_3_conv1"
  param {
    lr_mult: 1
    decay_mult: 1
  }
  param {
    lr_mult: 2
    decay_mult: 1
  }
  scale_param {
    bias_term: true
  }
}
layer {
  name: "layer_128_3_relu2"
  type: "ReLU"
  bottom: "layer_128_3_conv1"
  top: "layer_128_3_conv1"
}
layer {
  name: "layer_128_3_conv2"
  type: "Convolution"
  bottom: "layer_128_3_conv1"
  top: "layer_128_3_conv2"
  param {
    lr_mult: 1
    decay_mult: 1
  }
  convolution_param {
    num_output: 128
    bias_term: false
    pad: 1
    kernel_size: 3
    stride: 1
    weight_filler {
      type: "msra"
    }
    bias_filler {
      type: "constant"
      value: 0
    }
  }
}
layer {
  name: "layer_128_3_bn3"
  type: "BatchNorm"
  bottom: "layer_128_3_conv2"
  top: "layer_128_3_conv2"
  param {
    lr_mult: 0
    decay_mult: 0
  }
  param {
    lr_mult: 0
    decay_mult: 0
  }
  param {
    lr_mult: 0
    decay_mult: 0
  }
}
layer {
  name: "layer_128_3_scale3"
  type: "Scale"
  bottom: "layer_128_3_conv2"
  top: "layer_128_3_conv2"
  param {
    lr_mult: 1
    decay_mult: 1
  }
  param {
    lr_mult: 2
    decay_mult: 1
  }
  scale_param {
    bias_term: true
  }
}
layer {
  name: "layer_128_3_relu3"
  type: "ReLU"
  bottom: "layer_128_3_conv2"
  top: "layer_128_3_conv2"
}
layer {
  name: "layer_128_3_conv3"
  type: "Convolution"
  bottom: "layer_128_3_conv2"
  top: "layer_128_3_conv3"
  param {
    lr_mult: 1
    decay_mult: 1
  }
  convolution_param {
    num_output: 512
    bias_term: false
    pad: 0
    kernel_size: 1
    stride: 1
    weight_filler {
      type: "msra"
    }
    bias_filler {
      type: "constant"
      value: 0
    }
  }
}
layer {
  name: "layer_128_3_sum"
  type: "Eltwise"
  bottom: "layer_128_3_conv3"
  bottom: "layer_128_2_sum"
  top: "layer_128_3_sum"
}
layer {
  name: "layer_128_4_bn1"
  type: "BatchNorm"
  bottom: "layer_128_3_sum"
  top: "layer_128_4_bn1"
  param {
    lr_mult: 0
    decay_mult: 0
  }
  param {
    lr_mult: 0
    decay_mult: 0
  }
  param {
    lr_mult: 0
    decay_mult: 0
  }
}
layer {
  name: "layer_128_4_scale1"
  type: "Scale"
  bottom: "layer_128_4_bn1"
  top: "layer_128_4_bn1"
  param {
    lr_mult: 1
    decay_mult: 1
  }
  param {
    lr_mult: 2
    decay_mult: 1
  }
  scale_param {
    bias_term: true
  }
}
layer {
  name: "layer_128_4_relu1"
  type: "ReLU"
  bottom: "layer_128_4_bn1"
  top: "layer_128_4_bn1"
}
layer {
  name: "layer_128_4_conv1"
  type: "Convolution"
  bottom: "layer_128_4_bn1"
  top: "layer_128_4_conv1"
  param {
    lr_mult: 1
    decay_mult: 1
  }
  convolution_param {
    num_output: 128
    bias_term: false
    pad: 0
    kernel_size: 1
    stride: 1
    weight_filler {
      type: "msra"
    }
    bias_filler {
      type: "constant"
      value: 0
    }
  }
}
layer {
  name: "layer_128_4_bn2"
  type: "BatchNorm"
  bottom: "layer_128_4_conv1"
  top: "layer_128_4_conv1"
  param {
    lr_mult: 0
    decay_mult: 0
  }
  param {
    lr_mult: 0
    decay_mult: 0
  }
  param {
    lr_mult: 0
    decay_mult: 0
  }
}
layer {
  name: "layer_128_4_scale2"
  type: "Scale"
  bottom: "layer_128_4_conv1"
  top: "layer_128_4_conv1"
  param {
    lr_mult: 1
    decay_mult: 1
  }
  param {
    lr_mult: 2
    decay_mult: 1
  }
  scale_param {
    bias_term: true
  }
}
layer {
  name: "layer_128_4_relu2"
  type: "ReLU"
  bottom: "layer_128_4_conv1"
  top: "layer_128_4_conv1"
}
layer {
  name: "layer_128_4_conv2"
  type: "Convolution"
  bottom: "layer_128_4_conv1"
  top: "layer_128_4_conv2"
  param {
    lr_mult: 1
    decay_mult: 1
  }
  convolution_param {
    num_output: 128
    bias_term: false
    pad: 1
    kernel_size: 3
    stride: 1
    weight_filler {
      type: "msra"
    }
    bias_filler {
      type: "constant"
      value: 0
    }
  }
}
layer {
  name: "layer_128_4_bn3"
  type: "BatchNorm"
  bottom: "layer_128_4_conv2"
  top: "layer_128_4_conv2"
  param {
    lr_mult: 0
    decay_mult: 0
  }
  param {
    lr_mult: 0
    decay_mult: 0
  }
  param {
    lr_mult: 0
    decay_mult: 0
  }
}
layer {
  name: "layer_128_4_scale3"
  type: "Scale"
  bottom: "layer_128_4_conv2"
  top: "layer_128_4_conv2"
  param {
    lr_mult: 1
    decay_mult: 1
  }
  param {
    lr_mult: 2
    decay_mult: 1
  }
  scale_param {
    bias_term: true
  }
}
layer {
  name: "layer_128_4_relu3"
  type: "ReLU"
  bottom: "layer_128_4_conv2"
  top: "layer_128_4_conv2"
}
layer {
  name: "layer_128_4_conv3"
  type: "Convolution"
  bottom: "layer_128_4_conv2"
  top: "layer_128_4_conv3"
  param {
    lr_mult: 1
    decay_mult: 1
  }
  convolution_param {
    num_output: 512
    bias_term: false
    pad: 0
    kernel_size: 1
    stride: 1
    weight_filler {
      type: "msra"
    }
    bias_filler {
      type: "constant"
      value: 0
    }
  }
}
layer {
  name: "layer_128_4_sum"
  type: "Eltwise"
  bottom: "layer_128_4_conv3"
  bottom: "layer_128_3_sum"
  top: "layer_128_4_sum"
}
layer {
  name: "last_bn"
  type: "BatchNorm"
  bottom: "layer_128_4_sum"
  top: "layer_128_4_sum"
  param {
    lr_mult: 0
    decay_mult: 0
  }
  param {
    lr_mult: 0
    decay_mult: 0
  }
  param {
    lr_mult: 0
    decay_mult: 0
  }
}
layer {
  name: "last_scale"
  type: "Scale"
  bottom: "layer_128_4_sum"
  top: "layer_128_4_sum"
  param {
    lr_mult: 1
    decay_mult: 1
  }
  param {
    lr_mult: 2
    decay_mult: 1
  }
  scale_param {
    bias_term: true
  }
}
layer {
  name: "last_relu"
  type: "ReLU"
  bottom: "layer_128_4_sum"
  top: "layer_128_4_sum"
}
layer {
  name: "slicer_feature_map"
  type: "Slice"
  bottom: "layer_128_4_sum"
  top: "slice_up"
  top: "slice_down"
  slice_param {
    slice_point: 7
    axis: 2
  }
}
layer {
  name: "concat_feature"
  type: "Concat"
  bottom: "slice_up"
  bottom: "slice_down"
  top: "concat_feature"
  concat_param {
    axis: 3
  }
}
layer {
  name: "permuted_data"
  type: "Permute"
  bottom: "concat_feature"
  top: "permuted_data"
  permute_param {
    order: 3
    order: 0
    order: 1
    order: 2
  }
}
layer {
  name: "lstm-reverse1"
  type: "Reverse"
  bottom: "permuted_data"
  top: "rlstm_input"
  reverse_param {
    axis: 0
  }
}
layer {
  name: "lstm2x_r1_r1"
  type: "LSTM"
  bottom: "rlstm_input"
  bottom: "indicator"
  top: "lstm2x"
  recurrent_param {
    num_output: 100
    weight_filler {
      type: "xavier"
    }
    bias_filler {
      type: "constant"
      value: 0
    }
  }
}
layer {
  name: "lstm-reverse2"
  type: "Reverse"
  bottom: "lstm2x"
  top: "rlstmx"
  reverse_param {
    axis: 0
  }
}
layer {
  name: "lstm1x_r1_r1"
  type: "LSTM"
  bottom: "permuted_data"
  bottom: "indicator"
  top: "lstm1x"
  recurrent_param {
    num_output: 100
    weight_filler {
      type: "xavier"
    }
    bias_filler {
      type: "constant"
      value: 0
    }
  }
}
layer {
  name: "merge_lstm_rlstmx"
  type: "Concat"
  bottom: "lstm1x"
  bottom: "rlstmx"
  top: "merge_lstm_rlstmx"
  concat_param {
    axis: 2
  }
}
layer {
  name: "fc_all_1"
  type: "InnerProduct"
  bottom: "merge_lstm_rlstmx"
  top: "fc_all_1"
  param {
    lr_mult: 1
    decay_mult: 1
  }
  param {
    lr_mult: 2
    decay_mult: 0
  }
  inner_product_param {
    num_output: 69
    weight_filler {
      type: "xavier"
    }
    bias_filler {
      type: "constant"
      value: 0
    }
    axis: 2
  }
}
layer {
  name: "ctc_loss"
  type: "CtcLoss"
  bottom: "fc_all_1"
  bottom: "label1"
  top: "ctc_loss"
  loss_weight: 1
  ctc_loss_param {
    alphabet_size: 69
    time_step: 60
    blank_label: 68
  }
}
layer {
  name: "pool_color_1"
  type: "Pooling"
  bottom: "layer_128_1_sum"
  top: "pool_color_1"
  pooling_param {
    pool: MAX
    kernel_size: 2
    stride: 2
  }
}
layer {
  name: "conv_color1_1"
  type: "Convolution"
  bottom: "pool_color_1"
  top: "conv_color1_1"
  param {
    lr_mult: 0
    decay_mult: 1
  }
  convolution_param {
    num_output: 256
    bias_term: false
    pad: 1
    kernel_size: 3
    stride: 1
    weight_filler {
      type: "msra"
    }
    bias_filler {
      type: "constant"
      value: 0
    }
  }
}
layer {
  name: "bn_color_1"
  type: "BatchNorm"
  bottom: "conv_color1_1"
  top: "conv_color1_1"
  param {
    lr_mult: 0
    decay_mult: 0
  }
  param {
    lr_mult: 0
    decay_mult: 0
  }
  param {
    lr_mult: 0
    decay_mult: 0
  }
  batch_norm_param {
    use_global_stats: true
  }
}
layer {
  name: "scale_color_1"
  type: "Scale"
  bottom: "conv_color1_1"
  top: "conv_color1_1"
  param {
    lr_mult: 0
    decay_mult: 1
  }
  param {
    lr_mult: 0
    decay_mult: 1
  }
  scale_param {
    bias_term: true
  }
}
layer {
  name: "relu_color_1"
  type: "ReLU"
  bottom: "conv_color1_1"
  top: "conv_color1_1"
}
layer {
  name: "pool_color_2"
  type: "Pooling"
  bottom: "conv_color1_1"
  top: "pool_color_2"
  pooling_param {
    pool: AVE
    global_pooling: true
  }
}
layer {
  name: "fc_color_1"
  type: "InnerProduct"
  bottom: "pool_color_2"
  top: "fc_color_1"
  param {
    lr_mult: 0
    decay_mult: 1
  }
  param {
    lr_mult: 0
    decay_mult: 0
  }
  propagate_down: false
  inner_product_param {
    num_output: 5
    weight_filler {
      type: "xavier"
    }
    bias_filler {
      type: "constant"
      value: 0
    }
  }
}
layer {
  name: "softmax_loss"
  type: "SoftmaxWithLoss"
  bottom: "fc_color_1"
  bottom: "label2"
  top: "softmax_loss"
  loss_weight: 0
}
layer {
  name: "permute_fc_1"
  type: "Permute"
  bottom: "fc_all_1"
  top: "premuted_fc_1"
  include {
    phase: TRAIN
  }
  permute_param {
    order: 1
    order: 0
    order: 2
  }
}
layer {
  name: "accuracy"
  type: "LabelsequenceAccuracy"
  bottom: "premuted_fc_1"
  bottom: "label1"
  top: "accuracy"
  include {
    phase: TRAIN
  }
  labelsequence_accuracy_param {
    blank_label: 68
  }
}
I1229 17:57:32.214627 12106 layer_factory.hpp:77] Creating layer data
I1229 17:57:32.214651 12106 net.cpp:84] Creating Layer data
I1229 17:57:32.214656 12106 net.cpp:380] data -> data
I1229 17:57:32.214671 12106 net.cpp:380] data -> label
I1229 17:57:32.214685 12106 image_data_layer.cpp:41] Opening file train.txt
The0label:54----
The1label:14----
The2label:68----
The3label:68----
The4label:68----
The5label:68----
The6label:68----
The7label:68----
The8label:68----
The9label:68----
The10label:68----
The11label:68----
The12label:68----
The13label:68----
The14label:68----
The15label:5----
The16label:11----
The17label:7----
The18label:1----
The19label:9----
The20label:4----
I1229 17:57:32.271977 12106 image_data_layer.cpp:64] Shuffling data
I1229 17:57:32.272603 12106 image_data_layer.cpp:74] A total of 42240 images.
I1229 17:57:32.357147 12106 image_data_layer.cpp:101] output data size: 38,3,112,240
I1229 17:57:32.375283 12106 net.cpp:122] Setting up data
I1229 17:57:32.375303 12106 net.cpp:129] Top shape: 38 3 112 240 (3064320)
I1229 17:57:32.375305 12106 net.cpp:129] Top shape: 38 21 1 1 (798)
I1229 17:57:32.375308 12106 net.cpp:137] Memory required for data: 12260472
I1229 17:57:32.375313 12106 layer_factory.hpp:77] Creating layer slicer_label
I1229 17:57:32.375321 12106 net.cpp:84] Creating Layer slicer_label
I1229 17:57:32.375325 12106 net.cpp:406] slicer_label <- label
I1229 17:57:32.375334 12106 net.cpp:380] slicer_label -> label1
I1229 17:57:32.375341 12106 net.cpp:380] slicer_label -> label2
I1229 17:57:32.375389 12106 net.cpp:122] Setting up slicer_label
I1229 17:57:32.375406 12106 net.cpp:129] Top shape: 38 20 1 1 (760)
I1229 17:57:32.375408 12106 net.cpp:129] Top shape: 38 1 1 1 (38)
I1229 17:57:32.375409 12106 net.cpp:137] Memory required for data: 12263664
I1229 17:57:32.375411 12106 layer_factory.hpp:77] Creating layer label1_slicer_label_0_split
I1229 17:57:32.375414 12106 net.cpp:84] Creating Layer label1_slicer_label_0_split
I1229 17:57:32.375416 12106 net.cpp:406] label1_slicer_label_0_split <- label1
I1229 17:57:32.375419 12106 net.cpp:380] label1_slicer_label_0_split -> label1_slicer_label_0_split_0
I1229 17:57:32.375424 12106 net.cpp:380] label1_slicer_label_0_split -> label1_slicer_label_0_split_1
I1229 17:57:32.375483 12106 net.cpp:122] Setting up label1_slicer_label_0_split
I1229 17:57:32.375488 12106 net.cpp:129] Top shape: 38 20 1 1 (760)
I1229 17:57:32.375489 12106 net.cpp:129] Top shape: 38 20 1 1 (760)
I1229 17:57:32.375500 12106 net.cpp:137] Memory required for data: 12269744
I1229 17:57:32.375502 12106 layer_factory.hpp:77] Creating layer indicator
I1229 17:57:32.375506 12106 net.cpp:84] Creating Layer indicator
I1229 17:57:32.375509 12106 net.cpp:380] indicator -> indicator
I1229 17:57:32.375525 12106 net.cpp:122] Setting up indicator
I1229 17:57:32.375543 12106 net.cpp:129] Top shape: 60 38 (2280)
I1229 17:57:32.375545 12106 net.cpp:137] Memory required for data: 12278864
I1229 17:57:32.375546 12106 layer_factory.hpp:77] Creating layer indicator_indicator_0_split
I1229 17:57:32.375551 12106 net.cpp:84] Creating Layer indicator_indicator_0_split
I1229 17:57:32.375555 12106 net.cpp:406] indicator_indicator_0_split <- indicator
I1229 17:57:32.375558 12106 net.cpp:380] indicator_indicator_0_split -> indicator_indicator_0_split_0
I1229 17:57:32.375562 12106 net.cpp:380] indicator_indicator_0_split -> indicator_indicator_0_split_1
I1229 17:57:32.375586 12106 net.cpp:122] Setting up indicator_indicator_0_split
I1229 17:57:32.375591 12106 net.cpp:129] Top shape: 60 38 (2280)
I1229 17:57:32.375605 12106 net.cpp:129] Top shape: 60 38 (2280)
I1229 17:57:32.375607 12106 net.cpp:137] Memory required for data: 12297104
I1229 17:57:32.375608 12106 layer_factory.hpp:77] Creating layer data_bn
I1229 17:57:32.375612 12106 net.cpp:84] Creating Layer data_bn
I1229 17:57:32.375629 12106 net.cpp:406] data_bn <- data
I1229 17:57:32.375632 12106 net.cpp:380] data_bn -> data_bn
I1229 17:57:32.376364 12106 net.cpp:122] Setting up data_bn
I1229 17:57:32.376372 12106 net.cpp:129] Top shape: 38 3 112 240 (3064320)
I1229 17:57:32.376389 12106 net.cpp:137] Memory required for data: 24554384
I1229 17:57:32.376420 12106 layer_factory.hpp:77] Creating layer data_scale
I1229 17:57:32.376428 12106 net.cpp:84] Creating Layer data_scale
I1229 17:57:32.376432 12106 net.cpp:406] data_scale <- data_bn
I1229 17:57:32.376436 12106 net.cpp:367] data_scale -> data_bn (in-place)
I1229 17:57:32.376468 12106 layer_factory.hpp:77] Creating layer data_scale
I1229 17:57:32.376550 12106 net.cpp:122] Setting up data_scale
I1229 17:57:32.376555 12106 net.cpp:129] Top shape: 38 3 112 240 (3064320)
I1229 17:57:32.376556 12106 net.cpp:137] Memory required for data: 36811664
I1229 17:57:32.376562 12106 layer_factory.hpp:77] Creating layer conv1
I1229 17:57:32.376574 12106 net.cpp:84] Creating Layer conv1
I1229 17:57:32.376577 12106 net.cpp:406] conv1 <- data_bn
I1229 17:57:32.376581 12106 net.cpp:380] conv1 -> conv1
I1229 17:57:32.538030 12106 net.cpp:122] Setting up conv1
I1229 17:57:32.538053 12106 net.cpp:129] Top shape: 38 64 56 120 (16343040)
I1229 17:57:32.538055 12106 net.cpp:137] Memory required for data: 102183824
I1229 17:57:32.538067 12106 layer_factory.hpp:77] Creating layer conv1_bn
I1229 17:57:32.538084 12106 net.cpp:84] Creating Layer conv1_bn
I1229 17:57:32.538089 12106 net.cpp:406] conv1_bn <- conv1
I1229 17:57:32.538096 12106 net.cpp:367] conv1_bn -> conv1 (in-place)
I1229 17:57:32.538275 12106 net.cpp:122] Setting up conv1_bn
I1229 17:57:32.538280 12106 net.cpp:129] Top shape: 38 64 56 120 (16343040)
I1229 17:57:32.538295 12106 net.cpp:137] Memory required for data: 167555984
I1229 17:57:32.538302 12106 layer_factory.hpp:77] Creating layer conv1_scale
I1229 17:57:32.538309 12106 net.cpp:84] Creating Layer conv1_scale
I1229 17:57:32.538313 12106 net.cpp:406] conv1_scale <- conv1
I1229 17:57:32.538317 12106 net.cpp:367] conv1_scale -> conv1 (in-place)
I1229 17:57:32.538347 12106 layer_factory.hpp:77] Creating layer conv1_scale
I1229 17:57:32.538452 12106 net.cpp:122] Setting up conv1_scale
I1229 17:57:32.538456 12106 net.cpp:129] Top shape: 38 64 56 120 (16343040)
I1229 17:57:32.538460 12106 net.cpp:137] Memory required for data: 232928144
I1229 17:57:32.538462 12106 layer_factory.hpp:77] Creating layer conv1_relu
I1229 17:57:32.538465 12106 net.cpp:84] Creating Layer conv1_relu
I1229 17:57:32.538467 12106 net.cpp:406] conv1_relu <- conv1
I1229 17:57:32.538470 12106 net.cpp:367] conv1_relu -> conv1 (in-place)
I1229 17:57:32.538642 12106 net.cpp:122] Setting up conv1_relu
I1229 17:57:32.538656 12106 net.cpp:129] Top shape: 38 64 56 120 (16343040)
I1229 17:57:32.538672 12106 net.cpp:137] Memory required for data: 298300304
I1229 17:57:32.538676 12106 layer_factory.hpp:77] Creating layer conv1_pool
I1229 17:57:32.538679 12106 net.cpp:84] Creating Layer conv1_pool
I1229 17:57:32.538681 12106 net.cpp:406] conv1_pool <- conv1
I1229 17:57:32.538683 12106 net.cpp:380] conv1_pool -> conv1_pool
I1229 17:57:32.538715 12106 net.cpp:122] Setting up conv1_pool
I1229 17:57:32.538718 12106 net.cpp:129] Top shape: 38 64 28 60 (4085760)
I1229 17:57:32.538720 12106 net.cpp:137] Memory required for data: 314643344
I1229 17:57:32.538722 12106 layer_factory.hpp:77] Creating layer layer_64_1_conv1
I1229 17:57:32.538728 12106 net.cpp:84] Creating Layer layer_64_1_conv1
I1229 17:57:32.538730 12106 net.cpp:406] layer_64_1_conv1 <- conv1_pool
I1229 17:57:32.538734 12106 net.cpp:380] layer_64_1_conv1 -> layer_64_1_conv1
I1229 17:57:32.540019 12106 net.cpp:122] Setting up layer_64_1_conv1
I1229 17:57:32.540029 12106 net.cpp:129] Top shape: 38 64 28 60 (4085760)
I1229 17:57:32.540045 12106 net.cpp:137] Memory required for data: 330986384
I1229 17:57:32.540048 12106 layer_factory.hpp:77] Creating layer layer_64_1_bn2
I1229 17:57:32.540052 12106 net.cpp:84] Creating Layer layer_64_1_bn2
I1229 17:57:32.540055 12106 net.cpp:406] layer_64_1_bn2 <- layer_64_1_conv1
I1229 17:57:32.540058 12106 net.cpp:367] layer_64_1_bn2 -> layer_64_1_conv1 (in-place)
I1229 17:57:32.540186 12106 net.cpp:122] Setting up layer_64_1_bn2
I1229 17:57:32.540190 12106 net.cpp:129] Top shape: 38 64 28 60 (4085760)
I1229 17:57:32.540206 12106 net.cpp:137] Memory required for data: 347329424
I1229 17:57:32.540211 12106 layer_factory.hpp:77] Creating layer layer_64_1_scale2
I1229 17:57:32.540215 12106 net.cpp:84] Creating Layer layer_64_1_scale2
I1229 17:57:32.540216 12106 net.cpp:406] layer_64_1_scale2 <- layer_64_1_conv1
I1229 17:57:32.540220 12106 net.cpp:367] layer_64_1_scale2 -> layer_64_1_conv1 (in-place)
I1229 17:57:32.540243 12106 layer_factory.hpp:77] Creating layer layer_64_1_scale2
I1229 17:57:32.540349 12106 net.cpp:122] Setting up layer_64_1_scale2
I1229 17:57:32.540365 12106 net.cpp:129] Top shape: 38 64 28 60 (4085760)
I1229 17:57:32.540369 12106 net.cpp:137] Memory required for data: 363672464
I1229 17:57:32.540372 12106 layer_factory.hpp:77] Creating layer layer_64_1_relu2
I1229 17:57:32.540390 12106 net.cpp:84] Creating Layer layer_64_1_relu2
I1229 17:57:32.540392 12106 net.cpp:406] layer_64_1_relu2 <- layer_64_1_conv1
I1229 17:57:32.540395 12106 net.cpp:367] layer_64_1_relu2 -> layer_64_1_conv1 (in-place)
I1229 17:57:32.540527 12106 net.cpp:122] Setting up layer_64_1_relu2
I1229 17:57:32.540531 12106 net.cpp:129] Top shape: 38 64 28 60 (4085760)
I1229 17:57:32.540534 12106 net.cpp:137] Memory required for data: 380015504
I1229 17:57:32.540535 12106 layer_factory.hpp:77] Creating layer layer_64_1_conv1_layer_64_1_relu2_0_split
I1229 17:57:32.540555 12106 net.cpp:84] Creating Layer layer_64_1_conv1_layer_64_1_relu2_0_split
I1229 17:57:32.540558 12106 net.cpp:406] layer_64_1_conv1_layer_64_1_relu2_0_split <- layer_64_1_conv1
I1229 17:57:32.540563 12106 net.cpp:380] layer_64_1_conv1_layer_64_1_relu2_0_split -> layer_64_1_conv1_layer_64_1_relu2_0_split_0
I1229 17:57:32.540582 12106 net.cpp:380] layer_64_1_conv1_layer_64_1_relu2_0_split -> layer_64_1_conv1_layer_64_1_relu2_0_split_1
I1229 17:57:32.540621 12106 net.cpp:122] Setting up layer_64_1_conv1_layer_64_1_relu2_0_split
I1229 17:57:32.540624 12106 net.cpp:129] Top shape: 38 64 28 60 (4085760)
I1229 17:57:32.540642 12106 net.cpp:129] Top shape: 38 64 28 60 (4085760)
I1229 17:57:32.540643 12106 net.cpp:137] Memory required for data: 412701584
I1229 17:57:32.540645 12106 layer_factory.hpp:77] Creating layer layer_64_1_conv2
I1229 17:57:32.540652 12106 net.cpp:84] Creating Layer layer_64_1_conv2
I1229 17:57:32.540654 12106 net.cpp:406] layer_64_1_conv2 <- layer_64_1_conv1_layer_64_1_relu2_0_split_0
I1229 17:57:32.540658 12106 net.cpp:380] layer_64_1_conv2 -> layer_64_1_conv2
I1229 17:57:32.541769 12106 net.cpp:122] Setting up layer_64_1_conv2
I1229 17:57:32.541777 12106 net.cpp:129] Top shape: 38 64 28 60 (4085760)
I1229 17:57:32.541780 12106 net.cpp:137] Memory required for data: 429044624
I1229 17:57:32.541787 12106 layer_factory.hpp:77] Creating layer layer_64_1_bn3
I1229 17:57:32.541793 12106 net.cpp:84] Creating Layer layer_64_1_bn3
I1229 17:57:32.541797 12106 net.cpp:406] layer_64_1_bn3 <- layer_64_1_conv2
I1229 17:57:32.541802 12106 net.cpp:367] layer_64_1_bn3 -> layer_64_1_conv2 (in-place)
I1229 17:57:32.541920 12106 net.cpp:122] Setting up layer_64_1_bn3
I1229 17:57:32.541924 12106 net.cpp:129] Top shape: 38 64 28 60 (4085760)
I1229 17:57:32.541926 12106 net.cpp:137] Memory required for data: 445387664
I1229 17:57:32.541934 12106 layer_factory.hpp:77] Creating layer layer_64_1_scale3
I1229 17:57:32.541939 12106 net.cpp:84] Creating Layer layer_64_1_scale3
I1229 17:57:32.541960 12106 net.cpp:406] layer_64_1_scale3 <- layer_64_1_conv2
I1229 17:57:32.541965 12106 net.cpp:367] layer_64_1_scale3 -> layer_64_1_conv2 (in-place)
I1229 17:57:32.542003 12106 layer_factory.hpp:77] Creating layer layer_64_1_scale3
I1229 17:57:32.542073 12106 net.cpp:122] Setting up layer_64_1_scale3
I1229 17:57:32.542078 12106 net.cpp:129] Top shape: 38 64 28 60 (4085760)
I1229 17:57:32.542081 12106 net.cpp:137] Memory required for data: 461730704
I1229 17:57:32.542088 12106 layer_factory.hpp:77] Creating layer layer_64_1_relu3
I1229 17:57:32.542105 12106 net.cpp:84] Creating Layer layer_64_1_relu3
I1229 17:57:32.542109 12106 net.cpp:406] layer_64_1_relu3 <- layer_64_1_conv2
I1229 17:57:32.542111 12106 net.cpp:367] layer_64_1_relu3 -> layer_64_1_conv2 (in-place)
I1229 17:57:32.542227 12106 net.cpp:122] Setting up layer_64_1_relu3
I1229 17:57:32.542232 12106 net.cpp:129] Top shape: 38 64 28 60 (4085760)
I1229 17:57:32.542233 12106 net.cpp:137] Memory required for data: 478073744
I1229 17:57:32.542234 12106 layer_factory.hpp:77] Creating layer layer_64_1_conv3
I1229 17:57:32.542255 12106 net.cpp:84] Creating Layer layer_64_1_conv3
I1229 17:57:32.542258 12106 net.cpp:406] layer_64_1_conv3 <- layer_64_1_conv2
I1229 17:57:32.542261 12106 net.cpp:380] layer_64_1_conv3 -> layer_64_1_conv3
I1229 17:57:32.543027 12106 net.cpp:122] Setting up layer_64_1_conv3
I1229 17:57:32.543035 12106 net.cpp:129] Top shape: 38 256 28 60 (16343040)
I1229 17:57:32.543040 12106 net.cpp:137] Memory required for data: 543445904
I1229 17:57:32.543045 12106 layer_factory.hpp:77] Creating layer layer_64_1_conv_expand
I1229 17:57:32.543051 12106 net.cpp:84] Creating Layer layer_64_1_conv_expand
I1229 17:57:32.543069 12106 net.cpp:406] layer_64_1_conv_expand <- layer_64_1_conv1_layer_64_1_relu2_0_split_1
I1229 17:57:32.543074 12106 net.cpp:380] layer_64_1_conv_expand -> layer_64_1_conv_expand
I1229 17:57:32.543833 12106 net.cpp:122] Setting up layer_64_1_conv_expand
I1229 17:57:32.543840 12106 net.cpp:129] Top shape: 38 256 28 60 (16343040)
I1229 17:57:32.543844 12106 net.cpp:137] Memory required for data: 608818064
I1229 17:57:32.543849 12106 layer_factory.hpp:77] Creating layer layer_64_1_sum
I1229 17:57:32.543854 12106 net.cpp:84] Creating Layer layer_64_1_sum
I1229 17:57:32.543872 12106 net.cpp:406] layer_64_1_sum <- layer_64_1_conv3
I1229 17:57:32.543876 12106 net.cpp:406] layer_64_1_sum <- layer_64_1_conv_expand
I1229 17:57:32.543881 12106 net.cpp:380] layer_64_1_sum -> layer_64_1_sum
I1229 17:57:32.543913 12106 net.cpp:122] Setting up layer_64_1_sum
I1229 17:57:32.543917 12106 net.cpp:129] Top shape: 38 256 28 60 (16343040)
I1229 17:57:32.543920 12106 net.cpp:137] Memory required for data: 674190224
I1229 17:57:32.543937 12106 layer_factory.hpp:77] Creating layer layer_64_1_sum_layer_64_1_sum_0_split
I1229 17:57:32.543941 12106 net.cpp:84] Creating Layer layer_64_1_sum_layer_64_1_sum_0_split
I1229 17:57:32.543944 12106 net.cpp:406] layer_64_1_sum_layer_64_1_sum_0_split <- layer_64_1_sum
I1229 17:57:32.543948 12106 net.cpp:380] layer_64_1_sum_layer_64_1_sum_0_split -> layer_64_1_sum_layer_64_1_sum_0_split_0
I1229 17:57:32.543954 12106 net.cpp:380] layer_64_1_sum_layer_64_1_sum_0_split -> layer_64_1_sum_layer_64_1_sum_0_split_1
I1229 17:57:32.544028 12106 net.cpp:122] Setting up layer_64_1_sum_layer_64_1_sum_0_split
I1229 17:57:32.544031 12106 net.cpp:129] Top shape: 38 256 28 60 (16343040)
I1229 17:57:32.544034 12106 net.cpp:129] Top shape: 38 256 28 60 (16343040)
I1229 17:57:32.544051 12106 net.cpp:137] Memory required for data: 804934544
I1229 17:57:32.544054 12106 layer_factory.hpp:77] Creating layer layer_64_2_bn1
I1229 17:57:32.544057 12106 net.cpp:84] Creating Layer layer_64_2_bn1
I1229 17:57:32.544060 12106 net.cpp:406] layer_64_2_bn1 <- layer_64_1_sum_layer_64_1_sum_0_split_0
I1229 17:57:32.544064 12106 net.cpp:380] layer_64_2_bn1 -> layer_64_2_bn1
I1229 17:57:32.544190 12106 net.cpp:122] Setting up layer_64_2_bn1
I1229 17:57:32.544194 12106 net.cpp:129] Top shape: 38 256 28 60 (16343040)
I1229 17:57:32.544196 12106 net.cpp:137] Memory required for data: 870306704
I1229 17:57:32.544219 12106 layer_factory.hpp:77] Creating layer layer_64_2_scale1
I1229 17:57:32.544224 12106 net.cpp:84] Creating Layer layer_64_2_scale1
I1229 17:57:32.544227 12106 net.cpp:406] layer_64_2_scale1 <- layer_64_2_bn1
I1229 17:57:32.544230 12106 net.cpp:367] layer_64_2_scale1 -> layer_64_2_bn1 (in-place)
I1229 17:57:32.544270 12106 layer_factory.hpp:77] Creating layer layer_64_2_scale1
I1229 17:57:32.544334 12106 net.cpp:122] Setting up layer_64_2_scale1
I1229 17:57:32.544338 12106 net.cpp:129] Top shape: 38 256 28 60 (16343040)
I1229 17:57:32.544342 12106 net.cpp:137] Memory required for data: 935678864
I1229 17:57:32.544348 12106 layer_factory.hpp:77] Creating layer layer_64_2_relu1
I1229 17:57:32.544368 12106 net.cpp:84] Creating Layer layer_64_2_relu1
I1229 17:57:32.544369 12106 net.cpp:406] layer_64_2_relu1 <- layer_64_2_bn1
I1229 17:57:32.544373 12106 net.cpp:367] layer_64_2_relu1 -> layer_64_2_bn1 (in-place)
I1229 17:57:32.544482 12106 net.cpp:122] Setting up layer_64_2_relu1
I1229 17:57:32.544487 12106 net.cpp:129] Top shape: 38 256 28 60 (16343040)
I1229 17:57:32.544489 12106 net.cpp:137] Memory required for data: 1001051024
I1229 17:57:32.544492 12106 layer_factory.hpp:77] Creating layer layer_64_2_conv1
I1229 17:57:32.544497 12106 net.cpp:84] Creating Layer layer_64_2_conv1
I1229 17:57:32.544500 12106 net.cpp:406] layer_64_2_conv1 <- layer_64_2_bn1
I1229 17:57:32.544505 12106 net.cpp:380] layer_64_2_conv1 -> layer_64_2_conv1
I1229 17:57:32.545300 12106 net.cpp:122] Setting up layer_64_2_conv1
I1229 17:57:32.545307 12106 net.cpp:129] Top shape: 38 64 28 60 (4085760)
I1229 17:57:32.545310 12106 net.cpp:137] Memory required for data: 1017394064
I1229 17:57:32.545328 12106 layer_factory.hpp:77] Creating layer layer_64_2_bn2
I1229 17:57:32.545333 12106 net.cpp:84] Creating Layer layer_64_2_bn2
I1229 17:57:32.545337 12106 net.cpp:406] layer_64_2_bn2 <- layer_64_2_conv1
I1229 17:57:32.545343 12106 net.cpp:367] layer_64_2_bn2 -> layer_64_2_conv1 (in-place)
I1229 17:57:32.545506 12106 net.cpp:122] Setting up layer_64_2_bn2
I1229 17:57:32.545511 12106 net.cpp:129] Top shape: 38 64 28 60 (4085760)
I1229 17:57:32.545512 12106 net.cpp:137] Memory required for data: 1033737104
I1229 17:57:32.545533 12106 layer_factory.hpp:77] Creating layer layer_64_2_scale2
I1229 17:57:32.545537 12106 net.cpp:84] Creating Layer layer_64_2_scale2
I1229 17:57:32.545541 12106 net.cpp:406] layer_64_2_scale2 <- layer_64_2_conv1
I1229 17:57:32.545544 12106 net.cpp:367] layer_64_2_scale2 -> layer_64_2_conv1 (in-place)
I1229 17:57:32.545584 12106 layer_factory.hpp:77] Creating layer layer_64_2_scale2
I1229 17:57:32.545656 12106 net.cpp:122] Setting up layer_64_2_scale2
I1229 17:57:32.545661 12106 net.cpp:129] Top shape: 38 64 28 60 (4085760)
I1229 17:57:32.545665 12106 net.cpp:137] Memory required for data: 1050080144
I1229 17:57:32.545670 12106 layer_factory.hpp:77] Creating layer layer_64_2_relu2
I1229 17:57:32.545675 12106 net.cpp:84] Creating Layer layer_64_2_relu2
I1229 17:57:32.545680 12106 net.cpp:406] layer_64_2_relu2 <- layer_64_2_conv1
I1229 17:57:32.545684 12106 net.cpp:367] layer_64_2_relu2 -> layer_64_2_conv1 (in-place)
I1229 17:57:32.545800 12106 net.cpp:122] Setting up layer_64_2_relu2
I1229 17:57:32.545805 12106 net.cpp:129] Top shape: 38 64 28 60 (4085760)
I1229 17:57:32.545809 12106 net.cpp:137] Memory required for data: 1066423184
I1229 17:57:32.545814 12106 layer_factory.hpp:77] Creating layer layer_64_2_conv2
I1229 17:57:32.545823 12106 net.cpp:84] Creating Layer layer_64_2_conv2
I1229 17:57:32.545826 12106 net.cpp:406] layer_64_2_conv2 <- layer_64_2_conv1
I1229 17:57:32.545830 12106 net.cpp:380] layer_64_2_conv2 -> layer_64_2_conv2
I1229 17:57:32.546741 12106 net.cpp:122] Setting up layer_64_2_conv2
I1229 17:57:32.546748 12106 net.cpp:129] Top shape: 38 64 28 60 (4085760)
I1229 17:57:32.546751 12106 net.cpp:137] Memory required for data: 1082766224
I1229 17:57:32.546771 12106 layer_factory.hpp:77] Creating layer layer_64_2_bn3
I1229 17:57:32.546775 12106 net.cpp:84] Creating Layer layer_64_2_bn3
I1229 17:57:32.546778 12106 net.cpp:406] layer_64_2_bn3 <- layer_64_2_conv2
I1229 17:57:32.546782 12106 net.cpp:367] layer_64_2_bn3 -> layer_64_2_conv2 (in-place)
I1229 17:57:32.546911 12106 net.cpp:122] Setting up layer_64_2_bn3
I1229 17:57:32.546916 12106 net.cpp:129] Top shape: 38 64 28 60 (4085760)
I1229 17:57:32.546917 12106 net.cpp:137] Memory required for data: 1099109264
I1229 17:57:32.546936 12106 layer_factory.hpp:77] Creating layer layer_64_2_scale3
I1229 17:57:32.546941 12106 net.cpp:84] Creating Layer layer_64_2_scale3
I1229 17:57:32.546944 12106 net.cpp:406] layer_64_2_scale3 <- layer_64_2_conv2
I1229 17:57:32.546949 12106 net.cpp:367] layer_64_2_scale3 -> layer_64_2_conv2 (in-place)
I1229 17:57:32.547003 12106 layer_factory.hpp:77] Creating layer layer_64_2_scale3
I1229 17:57:32.547113 12106 net.cpp:122] Setting up layer_64_2_scale3
I1229 17:57:32.547118 12106 net.cpp:129] Top shape: 38 64 28 60 (4085760)
I1229 17:57:32.547119 12106 net.cpp:137] Memory required for data: 1115452304
I1229 17:57:32.547122 12106 layer_factory.hpp:77] Creating layer layer_64_2_relu3
I1229 17:57:32.547127 12106 net.cpp:84] Creating Layer layer_64_2_relu3
I1229 17:57:32.547129 12106 net.cpp:406] layer_64_2_relu3 <- layer_64_2_conv2
I1229 17:57:32.547132 12106 net.cpp:367] layer_64_2_relu3 -> layer_64_2_conv2 (in-place)
I1229 17:57:32.547490 12106 net.cpp:122] Setting up layer_64_2_relu3
I1229 17:57:32.547497 12106 net.cpp:129] Top shape: 38 64 28 60 (4085760)
I1229 17:57:32.547500 12106 net.cpp:137] Memory required for data: 1131795344
I1229 17:57:32.547514 12106 layer_factory.hpp:77] Creating layer layer_64_2_conv3
I1229 17:57:32.547523 12106 net.cpp:84] Creating Layer layer_64_2_conv3
I1229 17:57:32.547526 12106 net.cpp:406] layer_64_2_conv3 <- layer_64_2_conv2
I1229 17:57:32.547531 12106 net.cpp:380] layer_64_2_conv3 -> layer_64_2_conv3
I1229 17:57:32.548316 12106 net.cpp:122] Setting up layer_64_2_conv3
I1229 17:57:32.548324 12106 net.cpp:129] Top shape: 38 256 28 60 (16343040)
I1229 17:57:32.548327 12106 net.cpp:137] Memory required for data: 1197167504
I1229 17:57:32.548333 12106 layer_factory.hpp:77] Creating layer layer_64_2_sum
I1229 17:57:32.548337 12106 net.cpp:84] Creating Layer layer_64_2_sum
I1229 17:57:32.548341 12106 net.cpp:406] layer_64_2_sum <- layer_64_2_conv3
I1229 17:57:32.548346 12106 net.cpp:406] layer_64_2_sum <- layer_64_1_sum_layer_64_1_sum_0_split_1
I1229 17:57:32.548351 12106 net.cpp:380] layer_64_2_sum -> layer_64_2_sum
I1229 17:57:32.548369 12106 net.cpp:122] Setting up layer_64_2_sum
I1229 17:57:32.548373 12106 net.cpp:129] Top shape: 38 256 28 60 (16343040)
I1229 17:57:32.548375 12106 net.cpp:137] Memory required for data: 1262539664
I1229 17:57:32.548380 12106 layer_factory.hpp:77] Creating layer layer_64_2_sum_layer_64_2_sum_0_split
I1229 17:57:32.548383 12106 net.cpp:84] Creating Layer layer_64_2_sum_layer_64_2_sum_0_split
I1229 17:57:32.548387 12106 net.cpp:406] layer_64_2_sum_layer_64_2_sum_0_split <- layer_64_2_sum
I1229 17:57:32.548391 12106 net.cpp:380] layer_64_2_sum_layer_64_2_sum_0_split -> layer_64_2_sum_layer_64_2_sum_0_split_0
I1229 17:57:32.548398 12106 net.cpp:380] layer_64_2_sum_layer_64_2_sum_0_split -> layer_64_2_sum_layer_64_2_sum_0_split_1
I1229 17:57:32.548430 12106 net.cpp:122] Setting up layer_64_2_sum_layer_64_2_sum_0_split
I1229 17:57:32.548434 12106 net.cpp:129] Top shape: 38 256 28 60 (16343040)
I1229 17:57:32.548439 12106 net.cpp:129] Top shape: 38 256 28 60 (16343040)
I1229 17:57:32.548442 12106 net.cpp:137] Memory required for data: 1393283984
I1229 17:57:32.548445 12106 layer_factory.hpp:77] Creating layer layer_64_3_bn1
I1229 17:57:32.548450 12106 net.cpp:84] Creating Layer layer_64_3_bn1
I1229 17:57:32.548454 12106 net.cpp:406] layer_64_3_bn1 <- layer_64_2_sum_layer_64_2_sum_0_split_0
I1229 17:57:32.548458 12106 net.cpp:380] layer_64_3_bn1 -> layer_64_3_bn1
I1229 17:57:32.548583 12106 net.cpp:122] Setting up layer_64_3_bn1
I1229 17:57:32.548586 12106 net.cpp:129] Top shape: 38 256 28 60 (16343040)
I1229 17:57:32.548589 12106 net.cpp:137] Memory required for data: 1458656144
I1229 17:57:32.548596 12106 layer_factory.hpp:77] Creating layer layer_64_3_scale1
I1229 17:57:32.548602 12106 net.cpp:84] Creating Layer layer_64_3_scale1
I1229 17:57:32.548606 12106 net.cpp:406] layer_64_3_scale1 <- layer_64_3_bn1
I1229 17:57:32.548609 12106 net.cpp:367] layer_64_3_scale1 -> layer_64_3_bn1 (in-place)
I1229 17:57:32.548637 12106 layer_factory.hpp:77] Creating layer layer_64_3_scale1
I1229 17:57:32.548707 12106 net.cpp:122] Setting up layer_64_3_scale1
I1229 17:57:32.548712 12106 net.cpp:129] Top shape: 38 256 28 60 (16343040)
I1229 17:57:32.548714 12106 net.cpp:137] Memory required for data: 1524028304
I1229 17:57:32.548720 12106 layer_factory.hpp:77] Creating layer layer_64_3_relu1
I1229 17:57:32.548724 12106 net.cpp:84] Creating Layer layer_64_3_relu1
I1229 17:57:32.548728 12106 net.cpp:406] layer_64_3_relu1 <- layer_64_3_bn1
I1229 17:57:32.548732 12106 net.cpp:367] layer_64_3_relu1 -> layer_64_3_bn1 (in-place)
I1229 17:57:32.548843 12106 net.cpp:122] Setting up layer_64_3_relu1
I1229 17:57:32.548849 12106 net.cpp:129] Top shape: 38 256 28 60 (16343040)
I1229 17:57:32.548852 12106 net.cpp:137] Memory required for data: 1589400464
I1229 17:57:32.548856 12106 layer_factory.hpp:77] Creating layer layer_64_3_conv1
I1229 17:57:32.548863 12106 net.cpp:84] Creating Layer layer_64_3_conv1
I1229 17:57:32.548866 12106 net.cpp:406] layer_64_3_conv1 <- layer_64_3_bn1
I1229 17:57:32.548871 12106 net.cpp:380] layer_64_3_conv1 -> layer_64_3_conv1
I1229 17:57:32.549688 12106 net.cpp:122] Setting up layer_64_3_conv1
I1229 17:57:32.549697 12106 net.cpp:129] Top shape: 38 64 28 60 (4085760)
I1229 17:57:32.549700 12106 net.cpp:137] Memory required for data: 1605743504
I1229 17:57:32.549705 12106 layer_factory.hpp:77] Creating layer layer_64_3_bn2
I1229 17:57:32.549711 12106 net.cpp:84] Creating Layer layer_64_3_bn2
I1229 17:57:32.549715 12106 net.cpp:406] layer_64_3_bn2 <- layer_64_3_conv1
I1229 17:57:32.549721 12106 net.cpp:367] layer_64_3_bn2 -> layer_64_3_conv1 (in-place)
I1229 17:57:32.549885 12106 net.cpp:122] Setting up layer_64_3_bn2
I1229 17:57:32.549892 12106 net.cpp:129] Top shape: 38 64 28 60 (4085760)
I1229 17:57:32.549896 12106 net.cpp:137] Memory required for data: 1622086544
I1229 17:57:32.549903 12106 layer_factory.hpp:77] Creating layer layer_64_3_scale2
I1229 17:57:32.549911 12106 net.cpp:84] Creating Layer layer_64_3_scale2
I1229 17:57:32.549914 12106 net.cpp:406] layer_64_3_scale2 <- layer_64_3_conv1
I1229 17:57:32.549921 12106 net.cpp:367] layer_64_3_scale2 -> layer_64_3_conv1 (in-place)
I1229 17:57:32.549979 12106 layer_factory.hpp:77] Creating layer layer_64_3_scale2
I1229 17:57:32.550093 12106 net.cpp:122] Setting up layer_64_3_scale2
I1229 17:57:32.550098 12106 net.cpp:129] Top shape: 38 64 28 60 (4085760)
I1229 17:57:32.550101 12106 net.cpp:137] Memory required for data: 1638429584
I1229 17:57:32.550103 12106 layer_factory.hpp:77] Creating layer layer_64_3_relu2
I1229 17:57:32.550122 12106 net.cpp:84] Creating Layer layer_64_3_relu2
I1229 17:57:32.550123 12106 net.cpp:406] layer_64_3_relu2 <- layer_64_3_conv1
I1229 17:57:32.550127 12106 net.cpp:367] layer_64_3_relu2 -> layer_64_3_conv1 (in-place)
I1229 17:57:32.550249 12106 net.cpp:122] Setting up layer_64_3_relu2
I1229 17:57:32.550254 12106 net.cpp:129] Top shape: 38 64 28 60 (4085760)
I1229 17:57:32.550256 12106 net.cpp:137] Memory required for data: 1654772624
I1229 17:57:32.550258 12106 layer_factory.hpp:77] Creating layer layer_64_3_conv2
I1229 17:57:32.550263 12106 net.cpp:84] Creating Layer layer_64_3_conv2
I1229 17:57:32.550266 12106 net.cpp:406] layer_64_3_conv2 <- layer_64_3_conv1
I1229 17:57:32.550269 12106 net.cpp:380] layer_64_3_conv2 -> layer_64_3_conv2
I1229 17:57:32.551455 12106 net.cpp:122] Setting up layer_64_3_conv2
I1229 17:57:32.551461 12106 net.cpp:129] Top shape: 38 64 28 60 (4085760)
I1229 17:57:32.551463 12106 net.cpp:137] Memory required for data: 1671115664
I1229 17:57:32.551467 12106 layer_factory.hpp:77] Creating layer layer_64_3_bn3
I1229 17:57:32.551472 12106 net.cpp:84] Creating Layer layer_64_3_bn3
I1229 17:57:32.551476 12106 net.cpp:406] layer_64_3_bn3 <- layer_64_3_conv2
I1229 17:57:32.551478 12106 net.cpp:367] layer_64_3_bn3 -> layer_64_3_conv2 (in-place)
I1229 17:57:32.551616 12106 net.cpp:122] Setting up layer_64_3_bn3
I1229 17:57:32.551620 12106 net.cpp:129] Top shape: 38 64 28 60 (4085760)
I1229 17:57:32.551622 12106 net.cpp:137] Memory required for data: 1687458704
I1229 17:57:32.551641 12106 layer_factory.hpp:77] Creating layer layer_64_3_scale3
I1229 17:57:32.551645 12106 net.cpp:84] Creating Layer layer_64_3_scale3
I1229 17:57:32.551647 12106 net.cpp:406] layer_64_3_scale3 <- layer_64_3_conv2
I1229 17:57:32.551651 12106 net.cpp:367] layer_64_3_scale3 -> layer_64_3_conv2 (in-place)
I1229 17:57:32.551674 12106 layer_factory.hpp:77] Creating layer layer_64_3_scale3
I1229 17:57:32.551784 12106 net.cpp:122] Setting up layer_64_3_scale3
I1229 17:57:32.551787 12106 net.cpp:129] Top shape: 38 64 28 60 (4085760)
I1229 17:57:32.551789 12106 net.cpp:137] Memory required for data: 1703801744
I1229 17:57:32.551792 12106 layer_factory.hpp:77] Creating layer layer_64_3_relu3
I1229 17:57:32.551795 12106 net.cpp:84] Creating Layer layer_64_3_relu3
I1229 17:57:32.551797 12106 net.cpp:406] layer_64_3_relu3 <- layer_64_3_conv2
I1229 17:57:32.551800 12106 net.cpp:367] layer_64_3_relu3 -> layer_64_3_conv2 (in-place)
I1229 17:57:32.551939 12106 net.cpp:122] Setting up layer_64_3_relu3
I1229 17:57:32.551942 12106 net.cpp:129] Top shape: 38 64 28 60 (4085760)
I1229 17:57:32.551945 12106 net.cpp:137] Memory required for data: 1720144784
I1229 17:57:32.551947 12106 layer_factory.hpp:77] Creating layer layer_64_3_conv3
I1229 17:57:32.551967 12106 net.cpp:84] Creating Layer layer_64_3_conv3
I1229 17:57:32.551970 12106 net.cpp:406] layer_64_3_conv3 <- layer_64_3_conv2
I1229 17:57:32.551975 12106 net.cpp:380] layer_64_3_conv3 -> layer_64_3_conv3
I1229 17:57:32.552772 12106 net.cpp:122] Setting up layer_64_3_conv3
I1229 17:57:32.552778 12106 net.cpp:129] Top shape: 38 256 28 60 (16343040)
I1229 17:57:32.552780 12106 net.cpp:137] Memory required for data: 1785516944
I1229 17:57:32.552784 12106 layer_factory.hpp:77] Creating layer layer_64_3_sum
I1229 17:57:32.552788 12106 net.cpp:84] Creating Layer layer_64_3_sum
I1229 17:57:32.552790 12106 net.cpp:406] layer_64_3_sum <- layer_64_3_conv3
I1229 17:57:32.552793 12106 net.cpp:406] layer_64_3_sum <- layer_64_2_sum_layer_64_2_sum_0_split_1
I1229 17:57:32.552796 12106 net.cpp:380] layer_64_3_sum -> layer_64_3_sum
I1229 17:57:32.552814 12106 net.cpp:122] Setting up layer_64_3_sum
I1229 17:57:32.552817 12106 net.cpp:129] Top shape: 38 256 28 60 (16343040)
I1229 17:57:32.552834 12106 net.cpp:137] Memory required for data: 1850889104
I1229 17:57:32.552835 12106 layer_factory.hpp:77] Creating layer layer_128_1_bn1
I1229 17:57:32.552839 12106 net.cpp:84] Creating Layer layer_128_1_bn1
I1229 17:57:32.552841 12106 net.cpp:406] layer_128_1_bn1 <- layer_64_3_sum
I1229 17:57:32.552845 12106 net.cpp:380] layer_128_1_bn1 -> layer_128_1_bn1
I1229 17:57:32.552979 12106 net.cpp:122] Setting up layer_128_1_bn1
I1229 17:57:32.552983 12106 net.cpp:129] Top shape: 38 256 28 60 (16343040)
I1229 17:57:32.553009 12106 net.cpp:137] Memory required for data: 1916261264
I1229 17:57:32.553016 12106 layer_factory.hpp:77] Creating layer layer_128_1_scale1
I1229 17:57:32.553022 12106 net.cpp:84] Creating Layer layer_128_1_scale1
I1229 17:57:32.553025 12106 net.cpp:406] layer_128_1_scale1 <- layer_128_1_bn1
I1229 17:57:32.553030 12106 net.cpp:367] layer_128_1_scale1 -> layer_128_1_bn1 (in-place)
I1229 17:57:32.553109 12106 layer_factory.hpp:77] Creating layer layer_128_1_scale1
I1229 17:57:32.553194 12106 net.cpp:122] Setting up layer_128_1_scale1
I1229 17:57:32.553200 12106 net.cpp:129] Top shape: 38 256 28 60 (16343040)
I1229 17:57:32.553202 12106 net.cpp:137] Memory required for data: 1981633424
I1229 17:57:32.553205 12106 layer_factory.hpp:77] Creating layer layer_128_1_relu1
I1229 17:57:32.553210 12106 net.cpp:84] Creating Layer layer_128_1_relu1
I1229 17:57:32.553212 12106 net.cpp:406] layer_128_1_relu1 <- layer_128_1_bn1
I1229 17:57:32.553215 12106 net.cpp:367] layer_128_1_relu1 -> layer_128_1_bn1 (in-place)
I1229 17:57:32.553326 12106 net.cpp:122] Setting up layer_128_1_relu1
I1229 17:57:32.553331 12106 net.cpp:129] Top shape: 38 256 28 60 (16343040)
I1229 17:57:32.553333 12106 net.cpp:137] Memory required for data: 2047005584
I1229 17:57:32.553334 12106 layer_factory.hpp:77] Creating layer layer_128_1_bn1_layer_128_1_relu1_0_split
I1229 17:57:32.553339 12106 net.cpp:84] Creating Layer layer_128_1_bn1_layer_128_1_relu1_0_split
I1229 17:57:32.553341 12106 net.cpp:406] layer_128_1_bn1_layer_128_1_relu1_0_split <- layer_128_1_bn1
I1229 17:57:32.553344 12106 net.cpp:380] layer_128_1_bn1_layer_128_1_relu1_0_split -> layer_128_1_bn1_layer_128_1_relu1_0_split_0
I1229 17:57:32.553349 12106 net.cpp:380] layer_128_1_bn1_layer_128_1_relu1_0_split -> layer_128_1_bn1_layer_128_1_relu1_0_split_1
I1229 17:57:32.553372 12106 net.cpp:122] Setting up layer_128_1_bn1_layer_128_1_relu1_0_split
I1229 17:57:32.553376 12106 net.cpp:129] Top shape: 38 256 28 60 (16343040)
I1229 17:57:32.553380 12106 net.cpp:129] Top shape: 38 256 28 60 (16343040)
I1229 17:57:32.553380 12106 net.cpp:137] Memory required for data: 2177749904
I1229 17:57:32.553382 12106 layer_factory.hpp:77] Creating layer layer_128_1_conv1
I1229 17:57:32.553387 12106 net.cpp:84] Creating Layer layer_128_1_conv1
I1229 17:57:32.553390 12106 net.cpp:406] layer_128_1_conv1 <- layer_128_1_bn1_layer_128_1_relu1_0_split_0
I1229 17:57:32.553393 12106 net.cpp:380] layer_128_1_conv1 -> layer_128_1_conv1
I1229 17:57:32.554307 12106 net.cpp:122] Setting up layer_128_1_conv1
I1229 17:57:32.554316 12106 net.cpp:129] Top shape: 38 128 28 60 (8171520)
I1229 17:57:32.554317 12106 net.cpp:137] Memory required for data: 2210435984
I1229 17:57:32.554321 12106 layer_factory.hpp:77] Creating layer layer_128_1_bn2
I1229 17:57:32.554325 12106 net.cpp:84] Creating Layer layer_128_1_bn2
I1229 17:57:32.554328 12106 net.cpp:406] layer_128_1_bn2 <- layer_128_1_conv1
I1229 17:57:32.554332 12106 net.cpp:367] layer_128_1_bn2 -> layer_128_1_conv1 (in-place)
I1229 17:57:32.554451 12106 net.cpp:122] Setting up layer_128_1_bn2
I1229 17:57:32.554455 12106 net.cpp:129] Top shape: 38 128 28 60 (8171520)
I1229 17:57:32.554458 12106 net.cpp:137] Memory required for data: 2243122064
I1229 17:57:32.554462 12106 layer_factory.hpp:77] Creating layer layer_128_1_scale2
I1229 17:57:32.554467 12106 net.cpp:84] Creating Layer layer_128_1_scale2
I1229 17:57:32.554469 12106 net.cpp:406] layer_128_1_scale2 <- layer_128_1_conv1
I1229 17:57:32.554472 12106 net.cpp:367] layer_128_1_scale2 -> layer_128_1_conv1 (in-place)
I1229 17:57:32.554497 12106 layer_factory.hpp:77] Creating layer layer_128_1_scale2
I1229 17:57:32.554563 12106 net.cpp:122] Setting up layer_128_1_scale2
I1229 17:57:32.554567 12106 net.cpp:129] Top shape: 38 128 28 60 (8171520)
I1229 17:57:32.554569 12106 net.cpp:137] Memory required for data: 2275808144
I1229 17:57:32.554572 12106 layer_factory.hpp:77] Creating layer layer_128_1_relu2
I1229 17:57:32.554575 12106 net.cpp:84] Creating Layer layer_128_1_relu2
I1229 17:57:32.554579 12106 net.cpp:406] layer_128_1_relu2 <- layer_128_1_conv1
I1229 17:57:32.554589 12106 net.cpp:367] layer_128_1_relu2 -> layer_128_1_conv1 (in-place)
I1229 17:57:32.554699 12106 net.cpp:122] Setting up layer_128_1_relu2
I1229 17:57:32.554704 12106 net.cpp:129] Top shape: 38 128 28 60 (8171520)
I1229 17:57:32.554707 12106 net.cpp:137] Memory required for data: 2308494224
I1229 17:57:32.554708 12106 layer_factory.hpp:77] Creating layer layer_128_1_conv2
I1229 17:57:32.554713 12106 net.cpp:84] Creating Layer layer_128_1_conv2
I1229 17:57:32.554716 12106 net.cpp:406] layer_128_1_conv2 <- layer_128_1_conv1
I1229 17:57:32.554719 12106 net.cpp:380] layer_128_1_conv2 -> layer_128_1_conv2
I1229 17:57:32.557128 12106 net.cpp:122] Setting up layer_128_1_conv2
I1229 17:57:32.557137 12106 net.cpp:129] Top shape: 38 128 14 30 (2042880)
I1229 17:57:32.557139 12106 net.cpp:137] Memory required for data: 2316665744
I1229 17:57:32.557143 12106 layer_factory.hpp:77] Creating layer layer_128_1_bn3
I1229 17:57:32.557148 12106 net.cpp:84] Creating Layer layer_128_1_bn3
I1229 17:57:32.557152 12106 net.cpp:406] layer_128_1_bn3 <- layer_128_1_conv2
I1229 17:57:32.557154 12106 net.cpp:367] layer_128_1_bn3 -> layer_128_1_conv2 (in-place)
I1229 17:57:32.557279 12106 net.cpp:122] Setting up layer_128_1_bn3
I1229 17:57:32.557284 12106 net.cpp:129] Top shape: 38 128 14 30 (2042880)
I1229 17:57:32.557286 12106 net.cpp:137] Memory required for data: 2324837264
I1229 17:57:32.557291 12106 layer_factory.hpp:77] Creating layer layer_128_1_scale3
I1229 17:57:32.557294 12106 net.cpp:84] Creating Layer layer_128_1_scale3
I1229 17:57:32.557297 12106 net.cpp:406] layer_128_1_scale3 <- layer_128_1_conv2
I1229 17:57:32.557301 12106 net.cpp:367] layer_128_1_scale3 -> layer_128_1_conv2 (in-place)
I1229 17:57:32.557324 12106 layer_factory.hpp:77] Creating layer layer_128_1_scale3
I1229 17:57:32.557391 12106 net.cpp:122] Setting up layer_128_1_scale3
I1229 17:57:32.557395 12106 net.cpp:129] Top shape: 38 128 14 30 (2042880)
I1229 17:57:32.557397 12106 net.cpp:137] Memory required for data: 2333008784
I1229 17:57:32.557400 12106 layer_factory.hpp:77] Creating layer layer_128_1_relu3
I1229 17:57:32.557410 12106 net.cpp:84] Creating Layer layer_128_1_relu3
I1229 17:57:32.557412 12106 net.cpp:406] layer_128_1_relu3 <- layer_128_1_conv2
I1229 17:57:32.557415 12106 net.cpp:367] layer_128_1_relu3 -> layer_128_1_conv2 (in-place)
I1229 17:57:32.557760 12106 net.cpp:122] Setting up layer_128_1_relu3
I1229 17:57:32.557766 12106 net.cpp:129] Top shape: 38 128 14 30 (2042880)
I1229 17:57:32.557768 12106 net.cpp:137] Memory required for data: 2341180304
I1229 17:57:32.557770 12106 layer_factory.hpp:77] Creating layer layer_128_1_conv3
I1229 17:57:32.557778 12106 net.cpp:84] Creating Layer layer_128_1_conv3
I1229 17:57:32.557780 12106 net.cpp:406] layer_128_1_conv3 <- layer_128_1_conv2
I1229 17:57:32.557785 12106 net.cpp:380] layer_128_1_conv3 -> layer_128_1_conv3
I1229 17:57:32.559098 12106 net.cpp:122] Setting up layer_128_1_conv3
I1229 17:57:32.559105 12106 net.cpp:129] Top shape: 38 512 14 30 (8171520)
I1229 17:57:32.559123 12106 net.cpp:137] Memory required for data: 2373866384
I1229 17:57:32.559126 12106 layer_factory.hpp:77] Creating layer layer_128_1_conv_expand
I1229 17:57:32.559131 12106 net.cpp:84] Creating Layer layer_128_1_conv_expand
I1229 17:57:32.559134 12106 net.cpp:406] layer_128_1_conv_expand <- layer_128_1_bn1_layer_128_1_relu1_0_split_1
I1229 17:57:32.559139 12106 net.cpp:380] layer_128_1_conv_expand -> layer_128_1_conv_expand
I1229 17:57:32.560410 12106 net.cpp:122] Setting up layer_128_1_conv_expand
I1229 17:57:32.560416 12106 net.cpp:129] Top shape: 38 512 14 30 (8171520)
I1229 17:57:32.560418 12106 net.cpp:137] Memory required for data: 2406552464
I1229 17:57:32.560436 12106 layer_factory.hpp:77] Creating layer layer_128_1_sum
I1229 17:57:32.560439 12106 net.cpp:84] Creating Layer layer_128_1_sum
I1229 17:57:32.560441 12106 net.cpp:406] layer_128_1_sum <- layer_128_1_conv3
I1229 17:57:32.560444 12106 net.cpp:406] layer_128_1_sum <- layer_128_1_conv_expand
I1229 17:57:32.560447 12106 net.cpp:380] layer_128_1_sum -> layer_128_1_sum
I1229 17:57:32.560472 12106 net.cpp:122] Setting up layer_128_1_sum
I1229 17:57:32.560477 12106 net.cpp:129] Top shape: 38 512 14 30 (8171520)
I1229 17:57:32.560478 12106 net.cpp:137] Memory required for data: 2439238544
I1229 17:57:32.560479 12106 layer_factory.hpp:77] Creating layer layer_128_1_sum_layer_128_1_sum_0_split
I1229 17:57:32.560483 12106 net.cpp:84] Creating Layer layer_128_1_sum_layer_128_1_sum_0_split
I1229 17:57:32.560498 12106 net.cpp:406] layer_128_1_sum_layer_128_1_sum_0_split <- layer_128_1_sum
I1229 17:57:32.560501 12106 net.cpp:380] layer_128_1_sum_layer_128_1_sum_0_split -> layer_128_1_sum_layer_128_1_sum_0_split_0
I1229 17:57:32.560504 12106 net.cpp:380] layer_128_1_sum_layer_128_1_sum_0_split -> layer_128_1_sum_layer_128_1_sum_0_split_1
I1229 17:57:32.560521 12106 net.cpp:380] layer_128_1_sum_layer_128_1_sum_0_split -> layer_128_1_sum_layer_128_1_sum_0_split_2
I1229 17:57:32.560551 12106 net.cpp:122] Setting up layer_128_1_sum_layer_128_1_sum_0_split
I1229 17:57:32.560555 12106 net.cpp:129] Top shape: 38 512 14 30 (8171520)
I1229 17:57:32.560557 12106 net.cpp:129] Top shape: 38 512 14 30 (8171520)
I1229 17:57:32.560560 12106 net.cpp:129] Top shape: 38 512 14 30 (8171520)
I1229 17:57:32.560561 12106 net.cpp:137] Memory required for data: 2537296784
I1229 17:57:32.560564 12106 layer_factory.hpp:77] Creating layer layer_128_2_bn1
I1229 17:57:32.560566 12106 net.cpp:84] Creating Layer layer_128_2_bn1
I1229 17:57:32.560570 12106 net.cpp:406] layer_128_2_bn1 <- layer_128_1_sum_layer_128_1_sum_0_split_0
I1229 17:57:32.560572 12106 net.cpp:380] layer_128_2_bn1 -> layer_128_2_bn1
I1229 17:57:32.560699 12106 net.cpp:122] Setting up layer_128_2_bn1
I1229 17:57:32.560703 12106 net.cpp:129] Top shape: 38 512 14 30 (8171520)
I1229 17:57:32.560705 12106 net.cpp:137] Memory required for data: 2569982864
I1229 17:57:32.560709 12106 layer_factory.hpp:77] Creating layer layer_128_2_scale1
I1229 17:57:32.560714 12106 net.cpp:84] Creating Layer layer_128_2_scale1
I1229 17:57:32.560716 12106 net.cpp:406] layer_128_2_scale1 <- layer_128_2_bn1
I1229 17:57:32.560719 12106 net.cpp:367] layer_128_2_scale1 -> layer_128_2_bn1 (in-place)
I1229 17:57:32.560744 12106 layer_factory.hpp:77] Creating layer layer_128_2_scale1
I1229 17:57:32.560811 12106 net.cpp:122] Setting up layer_128_2_scale1
I1229 17:57:32.560814 12106 net.cpp:129] Top shape: 38 512 14 30 (8171520)
I1229 17:57:32.560817 12106 net.cpp:137] Memory required for data: 2602668944
I1229 17:57:32.560820 12106 layer_factory.hpp:77] Creating layer layer_128_2_relu1
I1229 17:57:32.560823 12106 net.cpp:84] Creating Layer layer_128_2_relu1
I1229 17:57:32.560825 12106 net.cpp:406] layer_128_2_relu1 <- layer_128_2_bn1
I1229 17:57:32.560828 12106 net.cpp:367] layer_128_2_relu1 -> layer_128_2_bn1 (in-place)
I1229 17:57:32.561178 12106 net.cpp:122] Setting up layer_128_2_relu1
I1229 17:57:32.561185 12106 net.cpp:129] Top shape: 38 512 14 30 (8171520)
I1229 17:57:32.561187 12106 net.cpp:137] Memory required for data: 2635355024
I1229 17:57:32.561189 12106 layer_factory.hpp:77] Creating layer layer_128_2_conv1
I1229 17:57:32.561195 12106 net.cpp:84] Creating Layer layer_128_2_conv1
I1229 17:57:32.561197 12106 net.cpp:406] layer_128_2_conv1 <- layer_128_2_bn1
I1229 17:57:32.561202 12106 net.cpp:380] layer_128_2_conv1 -> layer_128_2_conv1
I1229 17:57:32.562324 12106 net.cpp:122] Setting up layer_128_2_conv1
I1229 17:57:32.562330 12106 net.cpp:129] Top shape: 38 128 14 30 (2042880)
I1229 17:57:32.562347 12106 net.cpp:137] Memory required for data: 2643526544
I1229 17:57:32.562350 12106 layer_factory.hpp:77] Creating layer layer_128_2_bn2
I1229 17:57:32.562355 12106 net.cpp:84] Creating Layer layer_128_2_bn2
I1229 17:57:32.562357 12106 net.cpp:406] layer_128_2_bn2 <- layer_128_2_conv1
I1229 17:57:32.562361 12106 net.cpp:367] layer_128_2_bn2 -> layer_128_2_conv1 (in-place)
I1229 17:57:32.562500 12106 net.cpp:122] Setting up layer_128_2_bn2
I1229 17:57:32.562505 12106 net.cpp:129] Top shape: 38 128 14 30 (2042880)
I1229 17:57:32.562505 12106 net.cpp:137] Memory required for data: 2651698064
I1229 17:57:32.562532 12106 layer_factory.hpp:77] Creating layer layer_128_2_scale2
I1229 17:57:32.562536 12106 net.cpp:84] Creating Layer layer_128_2_scale2
I1229 17:57:32.562539 12106 net.cpp:406] layer_128_2_scale2 <- layer_128_2_conv1
I1229 17:57:32.562541 12106 net.cpp:367] layer_128_2_scale2 -> layer_128_2_conv1 (in-place)
I1229 17:57:32.562580 12106 layer_factory.hpp:77] Creating layer layer_128_2_scale2
I1229 17:57:32.562680 12106 net.cpp:122] Setting up layer_128_2_scale2
I1229 17:57:32.562685 12106 net.cpp:129] Top shape: 38 128 14 30 (2042880)
I1229 17:57:32.562701 12106 net.cpp:137] Memory required for data: 2659869584
I1229 17:57:32.562705 12106 layer_factory.hpp:77] Creating layer layer_128_2_relu2
I1229 17:57:32.562707 12106 net.cpp:84] Creating Layer layer_128_2_relu2
I1229 17:57:32.562711 12106 net.cpp:406] layer_128_2_relu2 <- layer_128_2_conv1
I1229 17:57:32.562712 12106 net.cpp:367] layer_128_2_relu2 -> layer_128_2_conv1 (in-place)
I1229 17:57:32.562839 12106 net.cpp:122] Setting up layer_128_2_relu2
I1229 17:57:32.562844 12106 net.cpp:129] Top shape: 38 128 14 30 (2042880)
I1229 17:57:32.562845 12106 net.cpp:137] Memory required for data: 2668041104
I1229 17:57:32.562847 12106 layer_factory.hpp:77] Creating layer layer_128_2_conv2
I1229 17:57:32.562868 12106 net.cpp:84] Creating Layer layer_128_2_conv2
I1229 17:57:32.562870 12106 net.cpp:406] layer_128_2_conv2 <- layer_128_2_conv1
I1229 17:57:32.562875 12106 net.cpp:380] layer_128_2_conv2 -> layer_128_2_conv2
I1229 17:57:32.564713 12106 net.cpp:122] Setting up layer_128_2_conv2
I1229 17:57:32.564720 12106 net.cpp:129] Top shape: 38 128 14 30 (2042880)
I1229 17:57:32.564723 12106 net.cpp:137] Memory required for data: 2676212624
I1229 17:57:32.564726 12106 layer_factory.hpp:77] Creating layer layer_128_2_bn3
I1229 17:57:32.564730 12106 net.cpp:84] Creating Layer layer_128_2_bn3
I1229 17:57:32.564733 12106 net.cpp:406] layer_128_2_bn3 <- layer_128_2_conv2
I1229 17:57:32.564735 12106 net.cpp:367] layer_128_2_bn3 -> layer_128_2_conv2 (in-place)
I1229 17:57:32.564891 12106 net.cpp:122] Setting up layer_128_2_bn3
I1229 17:57:32.564895 12106 net.cpp:129] Top shape: 38 128 14 30 (2042880)
I1229 17:57:32.564898 12106 net.cpp:137] Memory required for data: 2684384144
I1229 17:57:32.564901 12106 layer_factory.hpp:77] Creating layer layer_128_2_scale3
I1229 17:57:32.564904 12106 net.cpp:84] Creating Layer layer_128_2_scale3
I1229 17:57:32.564906 12106 net.cpp:406] layer_128_2_scale3 <- layer_128_2_conv2
I1229 17:57:32.564909 12106 net.cpp:367] layer_128_2_scale3 -> layer_128_2_conv2 (in-place)
I1229 17:57:32.564947 12106 layer_factory.hpp:77] Creating layer layer_128_2_scale3
I1229 17:57:32.565019 12106 net.cpp:122] Setting up layer_128_2_scale3
I1229 17:57:32.565023 12106 net.cpp:129] Top shape: 38 128 14 30 (2042880)
I1229 17:57:32.565026 12106 net.cpp:137] Memory required for data: 2692555664
I1229 17:57:32.565028 12106 layer_factory.hpp:77] Creating layer layer_128_2_relu3
I1229 17:57:32.565033 12106 net.cpp:84] Creating Layer layer_128_2_relu3
I1229 17:57:32.565035 12106 net.cpp:406] layer_128_2_relu3 <- layer_128_2_conv2
I1229 17:57:32.565038 12106 net.cpp:367] layer_128_2_relu3 -> layer_128_2_conv2 (in-place)
I1229 17:57:32.565155 12106 net.cpp:122] Setting up layer_128_2_relu3
I1229 17:57:32.565160 12106 net.cpp:129] Top shape: 38 128 14 30 (2042880)
I1229 17:57:32.565162 12106 net.cpp:137] Memory required for data: 2700727184
I1229 17:57:32.565163 12106 layer_factory.hpp:77] Creating layer layer_128_2_conv3
I1229 17:57:32.565170 12106 net.cpp:84] Creating Layer layer_128_2_conv3
I1229 17:57:32.565172 12106 net.cpp:406] layer_128_2_conv3 <- layer_128_2_conv2
I1229 17:57:32.565176 12106 net.cpp:380] layer_128_2_conv3 -> layer_128_2_conv3
I1229 17:57:32.567273 12106 net.cpp:122] Setting up layer_128_2_conv3
I1229 17:57:32.567282 12106 net.cpp:129] Top shape: 38 512 14 30 (8171520)
I1229 17:57:32.567286 12106 net.cpp:137] Memory required for data: 2733413264
I1229 17:57:32.567288 12106 layer_factory.hpp:77] Creating layer layer_128_2_sum
I1229 17:57:32.567301 12106 net.cpp:84] Creating Layer layer_128_2_sum
I1229 17:57:32.567304 12106 net.cpp:406] layer_128_2_sum <- layer_128_2_conv3
I1229 17:57:32.567307 12106 net.cpp:406] layer_128_2_sum <- layer_128_1_sum_layer_128_1_sum_0_split_1
I1229 17:57:32.567312 12106 net.cpp:380] layer_128_2_sum -> layer_128_2_sum
I1229 17:57:32.567345 12106 net.cpp:122] Setting up layer_128_2_sum
I1229 17:57:32.567349 12106 net.cpp:129] Top shape: 38 512 14 30 (8171520)
I1229 17:57:32.567351 12106 net.cpp:137] Memory required for data: 2766099344
I1229 17:57:32.567353 12106 layer_factory.hpp:77] Creating layer layer_128_2_sum_layer_128_2_sum_0_split
I1229 17:57:32.567355 12106 net.cpp:84] Creating Layer layer_128_2_sum_layer_128_2_sum_0_split
I1229 17:57:32.567370 12106 net.cpp:406] layer_128_2_sum_layer_128_2_sum_0_split <- layer_128_2_sum
I1229 17:57:32.567374 12106 net.cpp:380] layer_128_2_sum_layer_128_2_sum_0_split -> layer_128_2_sum_layer_128_2_sum_0_split_0
I1229 17:57:32.567378 12106 net.cpp:380] layer_128_2_sum_layer_128_2_sum_0_split -> layer_128_2_sum_layer_128_2_sum_0_split_1
I1229 17:57:32.567401 12106 net.cpp:122] Setting up layer_128_2_sum_layer_128_2_sum_0_split
I1229 17:57:32.567404 12106 net.cpp:129] Top shape: 38 512 14 30 (8171520)
I1229 17:57:32.567407 12106 net.cpp:129] Top shape: 38 512 14 30 (8171520)
I1229 17:57:32.567409 12106 net.cpp:137] Memory required for data: 2831471504
I1229 17:57:32.567410 12106 layer_factory.hpp:77] Creating layer layer_128_3_bn1
I1229 17:57:32.567414 12106 net.cpp:84] Creating Layer layer_128_3_bn1
I1229 17:57:32.567417 12106 net.cpp:406] layer_128_3_bn1 <- layer_128_2_sum_layer_128_2_sum_0_split_0
I1229 17:57:32.567420 12106 net.cpp:380] layer_128_3_bn1 -> layer_128_3_bn1
I1229 17:57:32.567551 12106 net.cpp:122] Setting up layer_128_3_bn1
I1229 17:57:32.567554 12106 net.cpp:129] Top shape: 38 512 14 30 (8171520)
I1229 17:57:32.567556 12106 net.cpp:137] Memory required for data: 2864157584
I1229 17:57:32.567561 12106 layer_factory.hpp:77] Creating layer layer_128_3_scale1
I1229 17:57:32.567564 12106 net.cpp:84] Creating Layer layer_128_3_scale1
I1229 17:57:32.567566 12106 net.cpp:406] layer_128_3_scale1 <- layer_128_3_bn1
I1229 17:57:32.567570 12106 net.cpp:367] layer_128_3_scale1 -> layer_128_3_bn1 (in-place)
I1229 17:57:32.567596 12106 layer_factory.hpp:77] Creating layer layer_128_3_scale1
I1229 17:57:32.567668 12106 net.cpp:122] Setting up layer_128_3_scale1
I1229 17:57:32.567672 12106 net.cpp:129] Top shape: 38 512 14 30 (8171520)
I1229 17:57:32.567674 12106 net.cpp:137] Memory required for data: 2896843664
I1229 17:57:32.567677 12106 layer_factory.hpp:77] Creating layer layer_128_3_relu1
I1229 17:57:32.567680 12106 net.cpp:84] Creating Layer layer_128_3_relu1
I1229 17:57:32.567682 12106 net.cpp:406] layer_128_3_relu1 <- layer_128_3_bn1
I1229 17:57:32.567685 12106 net.cpp:367] layer_128_3_relu1 -> layer_128_3_bn1 (in-place)
I1229 17:57:32.567795 12106 net.cpp:122] Setting up layer_128_3_relu1
I1229 17:57:32.567800 12106 net.cpp:129] Top shape: 38 512 14 30 (8171520)
I1229 17:57:32.567800 12106 net.cpp:137] Memory required for data: 2929529744
I1229 17:57:32.567803 12106 layer_factory.hpp:77] Creating layer layer_128_3_conv1
I1229 17:57:32.567808 12106 net.cpp:84] Creating Layer layer_128_3_conv1
I1229 17:57:32.567811 12106 net.cpp:406] layer_128_3_conv1 <- layer_128_3_bn1
I1229 17:57:32.567814 12106 net.cpp:380] layer_128_3_conv1 -> layer_128_3_conv1
I1229 17:57:32.569021 12106 net.cpp:122] Setting up layer_128_3_conv1
I1229 17:57:32.569030 12106 net.cpp:129] Top shape: 38 128 14 30 (2042880)
I1229 17:57:32.569031 12106 net.cpp:137] Memory required for data: 2937701264
I1229 17:57:32.569036 12106 layer_factory.hpp:77] Creating layer layer_128_3_bn2
I1229 17:57:32.569041 12106 net.cpp:84] Creating Layer layer_128_3_bn2
I1229 17:57:32.569042 12106 net.cpp:406] layer_128_3_bn2 <- layer_128_3_conv1
I1229 17:57:32.569046 12106 net.cpp:367] layer_128_3_bn2 -> layer_128_3_conv1 (in-place)
I1229 17:57:32.569177 12106 net.cpp:122] Setting up layer_128_3_bn2
I1229 17:57:32.569188 12106 net.cpp:129] Top shape: 38 128 14 30 (2042880)
I1229 17:57:32.569190 12106 net.cpp:137] Memory required for data: 2945872784
I1229 17:57:32.569195 12106 layer_factory.hpp:77] Creating layer layer_128_3_scale2
I1229 17:57:32.569200 12106 net.cpp:84] Creating Layer layer_128_3_scale2
I1229 17:57:32.569202 12106 net.cpp:406] layer_128_3_scale2 <- layer_128_3_conv1
I1229 17:57:32.569205 12106 net.cpp:367] layer_128_3_scale2 -> layer_128_3_conv1 (in-place)
I1229 17:57:32.569234 12106 layer_factory.hpp:77] Creating layer layer_128_3_scale2
I1229 17:57:32.569310 12106 net.cpp:122] Setting up layer_128_3_scale2
I1229 17:57:32.569314 12106 net.cpp:129] Top shape: 38 128 14 30 (2042880)
I1229 17:57:32.569316 12106 net.cpp:137] Memory required for data: 2954044304
I1229 17:57:32.569319 12106 layer_factory.hpp:77] Creating layer layer_128_3_relu2
I1229 17:57:32.569324 12106 net.cpp:84] Creating Layer layer_128_3_relu2
I1229 17:57:32.569326 12106 net.cpp:406] layer_128_3_relu2 <- layer_128_3_conv1
I1229 17:57:32.569330 12106 net.cpp:367] layer_128_3_relu2 -> layer_128_3_conv1 (in-place)
I1229 17:57:32.569453 12106 net.cpp:122] Setting up layer_128_3_relu2
I1229 17:57:32.569458 12106 net.cpp:129] Top shape: 38 128 14 30 (2042880)
I1229 17:57:32.569460 12106 net.cpp:137] Memory required for data: 2962215824
I1229 17:57:32.569463 12106 layer_factory.hpp:77] Creating layer layer_128_3_conv2
I1229 17:57:32.569468 12106 net.cpp:84] Creating Layer layer_128_3_conv2
I1229 17:57:32.569471 12106 net.cpp:406] layer_128_3_conv2 <- layer_128_3_conv1
I1229 17:57:32.569478 12106 net.cpp:380] layer_128_3_conv2 -> layer_128_3_conv2
I1229 17:57:32.572023 12106 net.cpp:122] Setting up layer_128_3_conv2
I1229 17:57:32.572033 12106 net.cpp:129] Top shape: 38 128 14 30 (2042880)
I1229 17:57:32.572036 12106 net.cpp:137] Memory required for data: 2970387344
I1229 17:57:32.572054 12106 layer_factory.hpp:77] Creating layer layer_128_3_bn3
I1229 17:57:32.572059 12106 net.cpp:84] Creating Layer layer_128_3_bn3
I1229 17:57:32.572062 12106 net.cpp:406] layer_128_3_bn3 <- layer_128_3_conv2
I1229 17:57:32.572067 12106 net.cpp:367] layer_128_3_bn3 -> layer_128_3_conv2 (in-place)
I1229 17:57:32.572218 12106 net.cpp:122] Setting up layer_128_3_bn3
I1229 17:57:32.572222 12106 net.cpp:129] Top shape: 38 128 14 30 (2042880)
I1229 17:57:32.572223 12106 net.cpp:137] Memory required for data: 2978558864
I1229 17:57:32.572242 12106 layer_factory.hpp:77] Creating layer layer_128_3_scale3
I1229 17:57:32.572248 12106 net.cpp:84] Creating Layer layer_128_3_scale3
I1229 17:57:32.572250 12106 net.cpp:406] layer_128_3_scale3 <- layer_128_3_conv2
I1229 17:57:32.572254 12106 net.cpp:367] layer_128_3_scale3 -> layer_128_3_conv2 (in-place)
I1229 17:57:32.572306 12106 layer_factory.hpp:77] Creating layer layer_128_3_scale3
I1229 17:57:32.572409 12106 net.cpp:122] Setting up layer_128_3_scale3
I1229 17:57:32.572413 12106 net.cpp:129] Top shape: 38 128 14 30 (2042880)
I1229 17:57:32.572415 12106 net.cpp:137] Memory required for data: 2986730384
I1229 17:57:32.572418 12106 layer_factory.hpp:77] Creating layer layer_128_3_relu3
I1229 17:57:32.572422 12106 net.cpp:84] Creating Layer layer_128_3_relu3
I1229 17:57:32.572425 12106 net.cpp:406] layer_128_3_relu3 <- layer_128_3_conv2
I1229 17:57:32.572428 12106 net.cpp:367] layer_128_3_relu3 -> layer_128_3_conv2 (in-place)
I1229 17:57:32.572788 12106 net.cpp:122] Setting up layer_128_3_relu3
I1229 17:57:32.572795 12106 net.cpp:129] Top shape: 38 128 14 30 (2042880)
I1229 17:57:32.572798 12106 net.cpp:137] Memory required for data: 2994901904
I1229 17:57:32.572799 12106 layer_factory.hpp:77] Creating layer layer_128_3_conv3
I1229 17:57:32.572805 12106 net.cpp:84] Creating Layer layer_128_3_conv3
I1229 17:57:32.572808 12106 net.cpp:406] layer_128_3_conv3 <- layer_128_3_conv2
I1229 17:57:32.572813 12106 net.cpp:380] layer_128_3_conv3 -> layer_128_3_conv3
I1229 17:57:32.574303 12106 net.cpp:122] Setting up layer_128_3_conv3
I1229 17:57:32.574311 12106 net.cpp:129] Top shape: 38 512 14 30 (8171520)
I1229 17:57:32.574313 12106 net.cpp:137] Memory required for data: 3027587984
I1229 17:57:32.574326 12106 layer_factory.hpp:77] Creating layer layer_128_3_sum
I1229 17:57:32.574331 12106 net.cpp:84] Creating Layer layer_128_3_sum
I1229 17:57:32.574332 12106 net.cpp:406] layer_128_3_sum <- layer_128_3_conv3
I1229 17:57:32.574335 12106 net.cpp:406] layer_128_3_sum <- layer_128_2_sum_layer_128_2_sum_0_split_1
I1229 17:57:32.574339 12106 net.cpp:380] layer_128_3_sum -> layer_128_3_sum
I1229 17:57:32.574371 12106 net.cpp:122] Setting up layer_128_3_sum
I1229 17:57:32.574376 12106 net.cpp:129] Top shape: 38 512 14 30 (8171520)
I1229 17:57:32.574379 12106 net.cpp:137] Memory required for data: 3060274064
I1229 17:57:32.574380 12106 layer_factory.hpp:77] Creating layer layer_128_3_sum_layer_128_3_sum_0_split
I1229 17:57:32.574383 12106 net.cpp:84] Creating Layer layer_128_3_sum_layer_128_3_sum_0_split
I1229 17:57:32.574386 12106 net.cpp:406] layer_128_3_sum_layer_128_3_sum_0_split <- layer_128_3_sum
I1229 17:57:32.574403 12106 net.cpp:380] layer_128_3_sum_layer_128_3_sum_0_split -> layer_128_3_sum_layer_128_3_sum_0_split_0
I1229 17:57:32.574407 12106 net.cpp:380] layer_128_3_sum_layer_128_3_sum_0_split -> layer_128_3_sum_layer_128_3_sum_0_split_1
I1229 17:57:32.574447 12106 net.cpp:122] Setting up layer_128_3_sum_layer_128_3_sum_0_split
I1229 17:57:32.574463 12106 net.cpp:129] Top shape: 38 512 14 30 (8171520)
I1229 17:57:32.574465 12106 net.cpp:129] Top shape: 38 512 14 30 (8171520)
I1229 17:57:32.574467 12106 net.cpp:137] Memory required for data: 3125646224
I1229 17:57:32.574468 12106 layer_factory.hpp:77] Creating layer layer_128_4_bn1
I1229 17:57:32.574472 12106 net.cpp:84] Creating Layer layer_128_4_bn1
I1229 17:57:32.574475 12106 net.cpp:406] layer_128_4_bn1 <- layer_128_3_sum_layer_128_3_sum_0_split_0
I1229 17:57:32.574477 12106 net.cpp:380] layer_128_4_bn1 -> layer_128_4_bn1
I1229 17:57:32.574641 12106 net.cpp:122] Setting up layer_128_4_bn1
I1229 17:57:32.574645 12106 net.cpp:129] Top shape: 38 512 14 30 (8171520)
I1229 17:57:32.574647 12106 net.cpp:137] Memory required for data: 3158332304
I1229 17:57:32.574651 12106 layer_factory.hpp:77] Creating layer layer_128_4_scale1
I1229 17:57:32.574654 12106 net.cpp:84] Creating Layer layer_128_4_scale1
I1229 17:57:32.574656 12106 net.cpp:406] layer_128_4_scale1 <- layer_128_4_bn1
I1229 17:57:32.574661 12106 net.cpp:367] layer_128_4_scale1 -> layer_128_4_bn1 (in-place)
I1229 17:57:32.574702 12106 layer_factory.hpp:77] Creating layer layer_128_4_scale1
I1229 17:57:32.574816 12106 net.cpp:122] Setting up layer_128_4_scale1
I1229 17:57:32.574820 12106 net.cpp:129] Top shape: 38 512 14 30 (8171520)
I1229 17:57:32.574822 12106 net.cpp:137] Memory required for data: 3191018384
I1229 17:57:32.574826 12106 layer_factory.hpp:77] Creating layer layer_128_4_relu1
I1229 17:57:32.574828 12106 net.cpp:84] Creating Layer layer_128_4_relu1
I1229 17:57:32.574831 12106 net.cpp:406] layer_128_4_relu1 <- layer_128_4_bn1
I1229 17:57:32.574833 12106 net.cpp:367] layer_128_4_relu1 -> layer_128_4_bn1 (in-place)
I1229 17:57:32.575213 12106 net.cpp:122] Setting up layer_128_4_relu1
I1229 17:57:32.575220 12106 net.cpp:129] Top shape: 38 512 14 30 (8171520)
I1229 17:57:32.575222 12106 net.cpp:137] Memory required for data: 3223704464
I1229 17:57:32.575224 12106 layer_factory.hpp:77] Creating layer layer_128_4_conv1
I1229 17:57:32.575230 12106 net.cpp:84] Creating Layer layer_128_4_conv1
I1229 17:57:32.575232 12106 net.cpp:406] layer_128_4_conv1 <- layer_128_4_bn1
I1229 17:57:32.575237 12106 net.cpp:380] layer_128_4_conv1 -> layer_128_4_conv1
I1229 17:57:32.576390 12106 net.cpp:122] Setting up layer_128_4_conv1
I1229 17:57:32.576397 12106 net.cpp:129] Top shape: 38 128 14 30 (2042880)
I1229 17:57:32.576400 12106 net.cpp:137] Memory required for data: 3231875984
I1229 17:57:32.576402 12106 layer_factory.hpp:77] Creating layer layer_128_4_bn2
I1229 17:57:32.576406 12106 net.cpp:84] Creating Layer layer_128_4_bn2
I1229 17:57:32.576408 12106 net.cpp:406] layer_128_4_bn2 <- layer_128_4_conv1
I1229 17:57:32.576412 12106 net.cpp:367] layer_128_4_bn2 -> layer_128_4_conv1 (in-place)
I1229 17:57:32.576550 12106 net.cpp:122] Setting up layer_128_4_bn2
I1229 17:57:32.576555 12106 net.cpp:129] Top shape: 38 128 14 30 (2042880)
I1229 17:57:32.576556 12106 net.cpp:137] Memory required for data: 3240047504
I1229 17:57:32.576561 12106 layer_factory.hpp:77] Creating layer layer_128_4_scale2
I1229 17:57:32.576565 12106 net.cpp:84] Creating Layer layer_128_4_scale2
I1229 17:57:32.576566 12106 net.cpp:406] layer_128_4_scale2 <- layer_128_4_conv1
I1229 17:57:32.576570 12106 net.cpp:367] layer_128_4_scale2 -> layer_128_4_conv1 (in-place)
I1229 17:57:32.576594 12106 layer_factory.hpp:77] Creating layer layer_128_4_scale2
I1229 17:57:32.576701 12106 net.cpp:122] Setting up layer_128_4_scale2
I1229 17:57:32.576706 12106 net.cpp:129] Top shape: 38 128 14 30 (2042880)
I1229 17:57:32.576709 12106 net.cpp:137] Memory required for data: 3248219024
I1229 17:57:32.576711 12106 layer_factory.hpp:77] Creating layer layer_128_4_relu2
I1229 17:57:32.576714 12106 net.cpp:84] Creating Layer layer_128_4_relu2
I1229 17:57:32.576716 12106 net.cpp:406] layer_128_4_relu2 <- layer_128_4_conv1
I1229 17:57:32.576719 12106 net.cpp:367] layer_128_4_relu2 -> layer_128_4_conv1 (in-place)
I1229 17:57:32.576829 12106 net.cpp:122] Setting up layer_128_4_relu2
I1229 17:57:32.576833 12106 net.cpp:129] Top shape: 38 128 14 30 (2042880)
I1229 17:57:32.576835 12106 net.cpp:137] Memory required for data: 3256390544
I1229 17:57:32.576838 12106 layer_factory.hpp:77] Creating layer layer_128_4_conv2
I1229 17:57:32.576844 12106 net.cpp:84] Creating Layer layer_128_4_conv2
I1229 17:57:32.576846 12106 net.cpp:406] layer_128_4_conv2 <- layer_128_4_conv1
I1229 17:57:32.576850 12106 net.cpp:380] layer_128_4_conv2 -> layer_128_4_conv2
I1229 17:57:32.578745 12106 net.cpp:122] Setting up layer_128_4_conv2
I1229 17:57:32.578752 12106 net.cpp:129] Top shape: 38 128 14 30 (2042880)
I1229 17:57:32.578754 12106 net.cpp:137] Memory required for data: 3264562064
I1229 17:57:32.578765 12106 layer_factory.hpp:77] Creating layer layer_128_4_bn3
I1229 17:57:32.578771 12106 net.cpp:84] Creating Layer layer_128_4_bn3
I1229 17:57:32.578773 12106 net.cpp:406] layer_128_4_bn3 <- layer_128_4_conv2
I1229 17:57:32.578776 12106 net.cpp:367] layer_128_4_bn3 -> layer_128_4_conv2 (in-place)
I1229 17:57:32.578945 12106 net.cpp:122] Setting up layer_128_4_bn3
I1229 17:57:32.578949 12106 net.cpp:129] Top shape: 38 128 14 30 (2042880)
I1229 17:57:32.578951 12106 net.cpp:137] Memory required for data: 3272733584
I1229 17:57:32.578955 12106 layer_factory.hpp:77] Creating layer layer_128_4_scale3
I1229 17:57:32.578959 12106 net.cpp:84] Creating Layer layer_128_4_scale3
I1229 17:57:32.578961 12106 net.cpp:406] layer_128_4_scale3 <- layer_128_4_conv2
I1229 17:57:32.578964 12106 net.cpp:367] layer_128_4_scale3 -> layer_128_4_conv2 (in-place)
I1229 17:57:32.578989 12106 layer_factory.hpp:77] Creating layer layer_128_4_scale3
I1229 17:57:32.579090 12106 net.cpp:122] Setting up layer_128_4_scale3
I1229 17:57:32.579094 12106 net.cpp:129] Top shape: 38 128 14 30 (2042880)
I1229 17:57:32.579095 12106 net.cpp:137] Memory required for data: 3280905104
I1229 17:57:32.579099 12106 layer_factory.hpp:77] Creating layer layer_128_4_relu3
I1229 17:57:32.579103 12106 net.cpp:84] Creating Layer layer_128_4_relu3
I1229 17:57:32.579105 12106 net.cpp:406] layer_128_4_relu3 <- layer_128_4_conv2
I1229 17:57:32.579108 12106 net.cpp:367] layer_128_4_relu3 -> layer_128_4_conv2 (in-place)
I1229 17:57:32.579239 12106 net.cpp:122] Setting up layer_128_4_relu3
I1229 17:57:32.579244 12106 net.cpp:129] Top shape: 38 128 14 30 (2042880)
I1229 17:57:32.579246 12106 net.cpp:137] Memory required for data: 3289076624
I1229 17:57:32.579247 12106 layer_factory.hpp:77] Creating layer layer_128_4_conv3
I1229 17:57:32.579268 12106 net.cpp:84] Creating Layer layer_128_4_conv3
I1229 17:57:32.579270 12106 net.cpp:406] layer_128_4_conv3 <- layer_128_4_conv2
I1229 17:57:32.579275 12106 net.cpp:380] layer_128_4_conv3 -> layer_128_4_conv3
I1229 17:57:32.580425 12106 net.cpp:122] Setting up layer_128_4_conv3
I1229 17:57:32.580437 12106 net.cpp:129] Top shape: 38 512 14 30 (8171520)
I1229 17:57:32.580440 12106 net.cpp:137] Memory required for data: 3321762704
I1229 17:57:32.580443 12106 layer_factory.hpp:77] Creating layer layer_128_4_sum
I1229 17:57:32.580446 12106 net.cpp:84] Creating Layer layer_128_4_sum
I1229 17:57:32.580449 12106 net.cpp:406] layer_128_4_sum <- layer_128_4_conv3
I1229 17:57:32.580452 12106 net.cpp:406] layer_128_4_sum <- layer_128_3_sum_layer_128_3_sum_0_split_1
I1229 17:57:32.580456 12106 net.cpp:380] layer_128_4_sum -> layer_128_4_sum
I1229 17:57:32.580487 12106 net.cpp:122] Setting up layer_128_4_sum
I1229 17:57:32.580490 12106 net.cpp:129] Top shape: 38 512 14 30 (8171520)
I1229 17:57:32.580492 12106 net.cpp:137] Memory required for data: 3354448784
I1229 17:57:32.580494 12106 layer_factory.hpp:77] Creating layer last_bn
I1229 17:57:32.580497 12106 net.cpp:84] Creating Layer last_bn
I1229 17:57:32.580499 12106 net.cpp:406] last_bn <- layer_128_4_sum
I1229 17:57:32.580502 12106 net.cpp:367] last_bn -> layer_128_4_sum (in-place)
I1229 17:57:32.580646 12106 net.cpp:122] Setting up last_bn
I1229 17:57:32.580649 12106 net.cpp:129] Top shape: 38 512 14 30 (8171520)
I1229 17:57:32.580651 12106 net.cpp:137] Memory required for data: 3387134864
I1229 17:57:32.580655 12106 layer_factory.hpp:77] Creating layer last_scale
I1229 17:57:32.580659 12106 net.cpp:84] Creating Layer last_scale
I1229 17:57:32.580662 12106 net.cpp:406] last_scale <- layer_128_4_sum
I1229 17:57:32.580663 12106 net.cpp:367] last_scale -> layer_128_4_sum (in-place)
I1229 17:57:32.580705 12106 layer_factory.hpp:77] Creating layer last_scale
I1229 17:57:32.580848 12106 net.cpp:122] Setting up last_scale
I1229 17:57:32.580852 12106 net.cpp:129] Top shape: 38 512 14 30 (8171520)
I1229 17:57:32.580853 12106 net.cpp:137] Memory required for data: 3419820944
I1229 17:57:32.580857 12106 layer_factory.hpp:77] Creating layer last_relu
I1229 17:57:32.580859 12106 net.cpp:84] Creating Layer last_relu
I1229 17:57:32.580862 12106 net.cpp:406] last_relu <- layer_128_4_sum
I1229 17:57:32.580864 12106 net.cpp:367] last_relu -> layer_128_4_sum (in-place)
I1229 17:57:32.581006 12106 net.cpp:122] Setting up last_relu
I1229 17:57:32.581009 12106 net.cpp:129] Top shape: 38 512 14 30 (8171520)
I1229 17:57:32.581012 12106 net.cpp:137] Memory required for data: 3452507024
I1229 17:57:32.581012 12106 layer_factory.hpp:77] Creating layer slicer_feature_map
I1229 17:57:32.581017 12106 net.cpp:84] Creating Layer slicer_feature_map
I1229 17:57:32.581018 12106 net.cpp:406] slicer_feature_map <- layer_128_4_sum
I1229 17:57:32.581022 12106 net.cpp:380] slicer_feature_map -> slice_up
I1229 17:57:32.581025 12106 net.cpp:380] slicer_feature_map -> slice_down
I1229 17:57:32.581071 12106 net.cpp:122] Setting up slicer_feature_map
I1229 17:57:32.581074 12106 net.cpp:129] Top shape: 38 512 7 30 (4085760)
I1229 17:57:32.581077 12106 net.cpp:129] Top shape: 38 512 7 30 (4085760)
I1229 17:57:32.581079 12106 net.cpp:137] Memory required for data: 3485193104
I1229 17:57:32.581080 12106 layer_factory.hpp:77] Creating layer concat_feature
I1229 17:57:32.581099 12106 net.cpp:84] Creating Layer concat_feature
I1229 17:57:32.581100 12106 net.cpp:406] concat_feature <- slice_up
I1229 17:57:32.581102 12106 net.cpp:406] concat_feature <- slice_down
I1229 17:57:32.581121 12106 net.cpp:380] concat_feature -> concat_feature
I1229 17:57:32.581167 12106 net.cpp:122] Setting up concat_feature
I1229 17:57:32.581171 12106 net.cpp:129] Top shape: 38 512 7 60 (8171520)
I1229 17:57:32.581172 12106 net.cpp:137] Memory required for data: 3517879184
I1229 17:57:32.581174 12106 layer_factory.hpp:77] Creating layer permuted_data
I1229 17:57:32.581177 12106 net.cpp:84] Creating Layer permuted_data
I1229 17:57:32.581179 12106 net.cpp:406] permuted_data <- concat_feature
I1229 17:57:32.581182 12106 net.cpp:380] permuted_data -> permuted_data
I1229 17:57:32.581305 12106 net.cpp:122] Setting up permuted_data
I1229 17:57:32.581308 12106 net.cpp:129] Top shape: 60 38 512 7 (8171520)
I1229 17:57:32.581316 12106 net.cpp:137] Memory required for data: 3550565264
I1229 17:57:32.581317 12106 layer_factory.hpp:77] Creating layer permuted_data_permuted_data_0_split
I1229 17:57:32.581322 12106 net.cpp:84] Creating Layer permuted_data_permuted_data_0_split
I1229 17:57:32.581324 12106 net.cpp:406] permuted_data_permuted_data_0_split <- permuted_data
I1229 17:57:32.581326 12106 net.cpp:380] permuted_data_permuted_data_0_split -> permuted_data_permuted_data_0_split_0
I1229 17:57:32.581331 12106 net.cpp:380] permuted_data_permuted_data_0_split -> permuted_data_permuted_data_0_split_1
I1229 17:57:32.581356 12106 net.cpp:122] Setting up permuted_data_permuted_data_0_split
I1229 17:57:32.581359 12106 net.cpp:129] Top shape: 60 38 512 7 (8171520)
I1229 17:57:32.581362 12106 net.cpp:129] Top shape: 60 38 512 7 (8171520)
I1229 17:57:32.581363 12106 net.cpp:137] Memory required for data: 3615937424
I1229 17:57:32.581365 12106 layer_factory.hpp:77] Creating layer lstm-reverse1
I1229 17:57:32.581368 12106 net.cpp:84] Creating Layer lstm-reverse1
I1229 17:57:32.581370 12106 net.cpp:406] lstm-reverse1 <- permuted_data_permuted_data_0_split_0
I1229 17:57:32.581373 12106 net.cpp:380] lstm-reverse1 -> rlstm_input
I1229 17:57:32.581415 12106 net.cpp:122] Setting up lstm-reverse1
I1229 17:57:32.581419 12106 net.cpp:129] Top shape: 60 38 512 7 (8171520)
I1229 17:57:32.581421 12106 net.cpp:137] Memory required for data: 3648623504
I1229 17:57:32.581423 12106 layer_factory.hpp:77] Creating layer lstm2x_r1_r1
I1229 17:57:32.581426 12106 net.cpp:84] Creating Layer lstm2x_r1_r1
I1229 17:57:32.581429 12106 net.cpp:406] lstm2x_r1_r1 <- rlstm_input
I1229 17:57:32.581431 12106 net.cpp:406] lstm2x_r1_r1 <- indicator_indicator_0_split_0
I1229 17:57:32.581434 12106 net.cpp:380] lstm2x_r1_r1 -> lstm2x
I1229 17:57:32.581441 12106 recurrent_layer.cpp:20] Initializing recurrent layer: assuming input batch contains 60 timesteps of 38 independent streams.
I1229 17:57:32.582516 12106 net.cpp:51] Initializing net from parameters: 
layer {
  name: "lstm2x_r1_r1_"
  type: "Input"
  top: "x"
  top: "cont"
  input_param {
    shape {
      dim: 60
      dim: 38
      dim: 512
      dim: 7
    }
    shape {
      dim: 60
      dim: 38
    }
  }
}
layer {
  name: "lstm2x_r1_r1_"
  type: "Input"
  top: "c_0"
  top: "h_0"
  input_param {
    shape {
      dim: 1
      dim: 38
      dim: 100
    }
    shape {
      dim: 1
      dim: 38
      dim: 100
    }
  }
}
layer {
  name: "lstm2x_r1_r1_cont_slice"
  type: "Slice"
  bottom: "cont"
  top: "cont_1"
  top: "cont_2"
  top: "cont_3"
  top: "cont_4"
  top: "cont_5"
  top: "cont_6"
  top: "cont_7"
  top: "cont_8"
  top: "cont_9"
  top: "cont_10"
  top: "cont_11"
  top: "cont_12"
  top: "cont_13"
  top: "cont_14"
  top: "cont_15"
  top: "cont_16"
  top: "cont_17"
  top: "cont_18"
  top: "cont_19"
  top: "cont_20"
  top: "cont_21"
  top: "cont_22"
  top: "cont_23"
  top: "cont_24"
  top: "cont_25"
  top: "cont_26"
  top: "cont_27"
  top: "cont_28"
  top: "cont_29"
  top: "cont_30"
  top: "cont_31"
  top: "cont_32"
  top: "cont_33"
  top: "cont_34"
  top: "cont_35"
  top: "cont_36"
  top: "cont_37"
  top: "cont_38"
  top: "cont_39"
  top: "cont_40"
  top: "cont_41"
  top: "cont_42"
  top: "cont_43"
  top: "cont_44"
  top: "cont_45"
  top: "cont_46"
  top: "cont_47"
  top: "cont_48"
  top: "cont_49"
  top: "cont_50"
  top: "cont_51"
  top: "cont_52"
  top: "cont_53"
  top: "cont_54"
  top: "cont_55"
  top: "cont_56"
  top: "cont_57"
  top: "cont_58"
  top: "cont_59"
  top: "cont_60"
  slice_param {
    axis: 0
  }
}
layer {
  name: "lstm2x_r1_r1_x_transform"
  type: "InnerProduct"
  bottom: "x"
  top: "W_xc_x"
  param {
    name: "W_xc"
  }
  param {
    name: "b_c"
  }
  propagate_down: true
  inner_product_param {
    num_output: 400
    bias_term: true
    weight_filler {
      type: "xavier"
    }
    bias_filler {
      type: "constant"
      value: 0
    }
    axis: 2
  }
}
layer {
  name: "lstm2x_r1_r1_W_xc_x_slice"
  type: "Slice"
  bottom: "W_xc_x"
  top: "W_xc_x_1"
  top: "W_xc_x_2"
  top: "W_xc_x_3"
  top: "W_xc_x_4"
  top: "W_xc_x_5"
  top: "W_xc_x_6"
  top: "W_xc_x_7"
  top: "W_xc_x_8"
  top: "W_xc_x_9"
  top: "W_xc_x_10"
  top: "W_xc_x_11"
  top: "W_xc_x_12"
  top: "W_xc_x_13"
  top: "W_xc_x_14"
  top: "W_xc_x_15"
  top: "W_xc_x_16"
  top: "W_xc_x_17"
  top: "W_xc_x_18"
  top: "W_xc_x_19"
  top: "W_xc_x_20"
  top: "W_xc_x_21"
  top: "W_xc_x_22"
  top: "W_xc_x_23"
  top: "W_xc_x_24"
  top: "W_xc_x_25"
  top: "W_xc_x_26"
  top: "W_xc_x_27"
  top: "W_xc_x_28"
  top: "W_xc_x_29"
  top: "W_xc_x_30"
  top: "W_xc_x_31"
  top: "W_xc_x_32"
  top: "W_xc_x_33"
  top: "W_xc_x_34"
  top: "W_xc_x_35"
  top: "W_xc_x_36"
  top: "W_xc_x_37"
  top: "W_xc_x_38"
  top: "W_xc_x_39"
  top: "W_xc_x_40"
  top: "W_xc_x_41"
  top: "W_xc_x_42"
  top: "W_xc_x_43"
  top: "W_xc_x_44"
  top: "W_xc_x_45"
  top: "W_xc_x_46"
  top: "W_xc_x_47"
  top: "W_xc_x_48"
  top: "W_xc_x_49"
  top: "W_xc_x_50"
  top: "W_xc_x_51"
  top: "W_xc_x_52"
  top: "W_xc_x_53"
  top: "W_xc_x_54"
  top: "W_xc_x_55"
  top: "W_xc_x_56"
  top: "W_xc_x_57"
  top: "W_xc_x_58"
  top: "W_xc_x_59"
  top: "W_xc_x_60"
  slice_param {
    axis: 0
  }
}
layer {
  name: "lstm2x_r1_r1_h_conted_0"
  type: "Scale"
  bottom: "h_0"
  bottom: "cont_1"
  top: "h_conted_0"
  scale_param {
    axis: 0
  }
}
layer {
  name: "lstm2x_r1_r1_transform_1"
  type: "InnerProduct"
  bottom: "h_conted_0"
  top: "W_hc_h_0"
  param {
    name: "W_hc"
  }
  inner_product_param {
    num_output: 400
    bias_term: false
    weight_filler {
      type: "xavier"
    }
    axis: 2
  }
}
layer {
  name: "lstm2x_r1_r1_gate_input_1"
  type: "Eltwise"
  bottom: "W_hc_h_0"
  bottom: "W_xc_x_1"
  top: "gate_input_1"
  eltwise_param {
    operation: SUM
  }
}
layer {
  name: "lstm2x_r1_r1_unit_1"
  type: "LSTMUnit"
  bottom: "c_0"
  bottom: "gate_input_1"
  bottom: "cont_1"
  top: "c_1"
  top: "h_1"
}
layer {
  name: "lstm2x_r1_r1_h_conted_1"
  type: "Scale"
  bottom: "h_1"
  bottom: "cont_2"
  top: "h_conted_1"
  scale_param {
    axis: 0
  }
}
layer {
  name: "lstm2x_r1_r1_transform_2"
  type: "InnerProduct"
  bottom: "h_conted_1"
  top: "W_hc_h_1"
  param {
    name: "W_hc"
  }
  inner_product_param {
    num_output: 400
    bias_term: false
    weight_filler {
      type: "xavier"
    }
    axis: 2
  }
}
layer {
  name: "lstm2x_r1_r1_gate_input_2"
  type: "Eltwise"
  bottom: "W_hc_h_1"
  bottom: "W_xc_x_2"
  top: "gate_input_2"
  eltwise_param {
    operation: SUM
  }
}
layer {
  name: "lstm2x_r1_r1_unit_2"
  type: "LSTMUnit"
  bottom: "c_1"
  bottom: "gate_input_2"
  bottom: "cont_2"
  top: "c_2"
  top: "h_2"
}
layer {
  name: "lstm2x_r1_r1_h_conted_2"
  type: "Scale"
  bottom: "h_2"
  bottom: "cont_3"
  top: "h_conted_2"
  scale_param {
    axis: 0
  }
}
layer {
  name: "lstm2x_r1_r1_transform_3"
  type: "InnerProduct"
  bottom: "h_conted_2"
  top: "W_hc_h_2"
  param {
    name: "W_hc"
  }
  inner_product_param {
    num_output: 400
    bias_term: false
    weight_filler {
      type: "xavier"
    }
    axis: 2
  }
}
layer {
  name: "lstm2x_r1_r1_gate_input_3"
  type: "Eltwise"
  bottom: "W_hc_h_2"
  bottom: "W_xc_x_3"
  top: "gate_input_3"
  eltwise_param {
    operation: SUM
  }
}
layer {
  name: "lstm2x_r1_r1_unit_3"
  type: "LSTMUnit"
  bottom: "c_2"
  bottom: "gate_input_3"
  bottom: "cont_3"
  top: "c_3"
  top: "h_3"
}
layer {
  name: "lstm2x_r1_r1_h_conted_3"
  type: "Scale"
  bottom: "h_3"
  bottom: "cont_4"
  top: "h_conted_3"
  scale_param {
    axis: 0
  }
}
layer {
  name: "lstm2x_r1_r1_transform_4"
  type: "InnerProduct"
  bottom: "h_conted_3"
  top: "W_hc_h_3"
  param {
    name: "W_hc"
  }
  inner_product_param {
    num_output: 400
    bias_term: false
    weight_filler {
      type: "xavier"
    }
    axis: 2
  }
}
layer {
  name: "lstm2x_r1_r1_gate_input_4"
  type: "Eltwise"
  bottom: "W_hc_h_3"
  bottom: "W_xc_x_4"
  top: "gate_input_4"
  eltwise_param {
    operation: SUM
  }
}
layer {
  name: "lstm2x_r1_r1_unit_4"
  type: "LSTMUnit"
  bottom: "c_3"
  bottom: "gate_input_4"
  bottom: "cont_4"
  top: "c_4"
  top: "h_4"
}
layer {
  name: "lstm2x_r1_r1_h_conted_4"
  type: "Scale"
  bottom: "h_4"
  bottom: "cont_5"
  top: "h_conted_4"
  scale_param {
    axis: 0
  }
}
layer {
  name: "lstm2x_r1_r1_transform_5"
  type: "InnerProduct"
  bottom: "h_conted_4"
  top: "W_hc_h_4"
  param {
    name: "W_hc"
  }
  inner_product_param {
    num_output: 400
    bias_term: false
    weight_filler {
      type: "xavier"
    }
    axis: 2
  }
}
layer {
  name: "lstm2x_r1_r1_gate_input_5"
  type: "Eltwise"
  bottom: "W_hc_h_4"
  bottom: "W_xc_x_5"
  top: "gate_input_5"
  eltwise_param {
    operation: SUM
  }
}
layer {
  name: "lstm2x_r1_r1_unit_5"
  type: "LSTMUnit"
  bottom: "c_4"
  bottom: "gate_input_5"
  bottom: "cont_5"
  top: "c_5"
  top: "h_5"
}
layer {
  name: "lstm2x_r1_r1_h_conted_5"
  type: "Scale"
  bottom: "h_5"
  bottom: "cont_6"
  top: "h_conted_5"
  scale_param {
    axis: 0
  }
}
layer {
  name: "lstm2x_r1_r1_transform_6"
  type: "InnerProduct"
  bottom: "h_conted_5"
  top: "W_hc_h_5"
  param {
    name: "W_hc"
  }
  inner_product_param {
    num_output: 400
    bias_term: false
    weight_filler {
      type: "xavier"
    }
    axis: 2
  }
}
layer {
  name: "lstm2x_r1_r1_gate_input_6"
  type: "Eltwise"
  bottom: "W_hc_h_5"
  bottom: "W_xc_x_6"
  top: "gate_input_6"
  eltwise_param {
    operation: SUM
  }
}
layer {
  name: "lstm2x_r1_r1_unit_6"
  type: "LSTMUnit"
  bottom: "c_5"
  bottom: "gate_input_6"
  bottom: "cont_6"
  top: "c_6"
  top: "h_6"
}
layer {
  name: "lstm2x_r1_r1_h_conted_6"
  type: "Scale"
  bottom: "h_6"
  bottom: "cont_7"
  top: "h_conted_6"
  scale_param {
    axis: 0
  }
}
layer {
  name: "lstm2x_r1_r1_transform_7"
  type: "InnerProduct"
  bottom: "h_conted_6"
  top: "W_hc_h_6"
  param {
    name: "W_hc"
  }
  inner_product_param {
    num_output: 400
    bias_term: false
    weight_filler {
      type: "xavier"
    }
    axis: 2
  }
}
layer {
  name: "lstm2x_r1_r1_gate_input_7"
  type: "Eltwise"
  bottom: "W_hc_h_6"
  bottom: "W_xc_x_7"
  top: "gate_input_7"
  eltwise_param {
    operation: SUM
  }
}
layer {
  name: "lstm2x_r1_r1_unit_7"
  type: "LSTMUnit"
  bottom: "c_6"
  bottom: "gate_input_7"
  bottom: "cont_7"
  top: "c_7"
  top: "h_7"
}
layer {
  name: "lstm2x_r1_r1_h_conted_7"
  type: "Scale"
  bottom: "h_7"
  bottom: "cont_8"
  top: "h_conted_7"
  scale_param {
    axis: 0
  }
}
layer {
  name: "lstm2x_r1_r1_transform_8"
  type: "InnerProduct"
  bottom: "h_conted_7"
  top: "W_hc_h_7"
  param {
    name: "W_hc"
  }
  inner_product_param {
    num_output: 400
    bias_term: false
    weight_filler {
      type: "xavier"
    }
    axis: 2
  }
}
layer {
  name: "lstm2x_r1_r1_gate_input_8"
  type: "Eltwise"
  bottom: "W_hc_h_7"
  bottom: "W_xc_x_8"
  top: "gate_input_8"
  eltwise_param {
    operation: SUM
  }
}
layer {
  name: "lstm2x_r1_r1_unit_8"
  type: "LSTMUnit"
  bottom: "c_7"
  bottom: "gate_input_8"
  bottom: "cont_8"
  top: "c_8"
  top: "h_8"
}
layer {
  name: "lstm2x_r1_r1_h_conted_8"
  type: "Scale"
  bottom: "h_8"
  bottom: "cont_9"
  top: "h_conted_8"
  scale_param {
    axis: 0
  }
}
layer {
  name: "lstm2x_r1_r1_transform_9"
  type: "InnerProduct"
  bottom: "h_conted_8"
  top: "W_hc_h_8"
  param {
    name: "W_hc"
  }
  inner_product_param {
    num_output: 400
    bias_term: false
    weight_filler {
      type: "xavier"
    }
    axis: 2
  }
}
layer {
  name: "lstm2x_r1_r1_gate_input_9"
  type: "Eltwise"
  bottom: "W_hc_h_8"
  bottom: "W_xc_x_9"
  top: "gate_input_9"
  eltwise_param {
    operation: SUM
  }
}
layer {
  name: "lstm2x_r1_r1_unit_9"
  type: "LSTMUnit"
  bottom: "c_8"
  bottom: "gate_input_9"
  bottom: "cont_9"
  top: "c_9"
  top: "h_9"
}
layer {
  name: "lstm2x_r1_r1_h_conted_9"
  type: "Scale"
  bottom: "h_9"
  bottom: "cont_10"
  top: "h_conted_9"
  scale_param {
    axis: 0
  }
}
layer {
  name: "lstm2x_r1_r1_transform_10"
  type: "InnerProduct"
  bottom: "h_conted_9"
  top: "W_hc_h_9"
  param {
    name: "W_hc"
  }
  inner_product_param {
    num_output: 400
    bias_term: false
    weight_filler {
      type: "xavier"
    }
    axis: 2
  }
}
layer {
  name: "lstm2x_r1_r1_gate_input_10"
  type: "Eltwise"
  bottom: "W_hc_h_9"
  bottom: "W_xc_x_10"
  top: "gate_input_10"
  eltwise_param {
    operation: SUM
  }
}
layer {
  name: "lstm2x_r1_r1_unit_10"
  type: "LSTMUnit"
  bottom: "c_9"
  bottom: "gate_input_10"
  bottom: "cont_10"
  top: "c_10"
  top: "h_10"
}
layer {
  name: "lstm2x_r1_r1_h_conted_10"
  type: "Scale"
  bottom: "h_10"
  bottom: "cont_11"
  top: "h_conted_10"
  scale_param {
    axis: 0
  }
}
layer {
  name: "lstm2x_r1_r1_transform_11"
  type: "InnerProduct"
  bottom: "h_conted_10"
  top: "W_hc_h_10"
  param {
    name: "W_hc"
  }
  inner_product_param {
    num_output: 400
    bias_term: false
    weight_filler {
      type: "xavier"
    }
    axis: 2
  }
}
layer {
  name: "lstm2x_r1_r1_gate_input_11"
  type: "Eltwise"
  bottom: "W_hc_h_10"
  bottom: "W_xc_x_11"
  top: "gate_input_11"
  eltwise_param {
    operation: SUM
  }
}
layer {
  name: "lstm2x_r1_r1_unit_11"
  type: "LSTMUnit"
  bottom: "c_10"
  bottom: "gate_input_11"
  bottom: "cont_11"
  top: "c_11"
  top: "h_11"
}
layer {
  name: "lstm2x_r1_r1_h_conted_11"
  type: "Scale"
  bottom: "h_11"
  bottom: "cont_12"
  top: "h_conted_11"
  scale_param {
    axis: 0
  }
}
layer {
  name: "lstm2x_r1_r1_transform_12"
  type: "InnerProduct"
  bottom: "h_conted_11"
  top: "W_hc_h_11"
  param {
    name: "W_hc"
  }
  inner_product_param {
    num_output: 400
    bias_term: false
    weight_filler {
      type: "xavier"
    }
    axis: 2
  }
}
layer {
  name: "lstm2x_r1_r1_gate_input_12"
  type: "Eltwise"
  bottom: "W_hc_h_11"
  bottom: "W_xc_x_12"
  top: "gate_input_12"
  eltwise_param {
    operation: SUM
  }
}
layer {
  name: "lstm2x_r1_r1_unit_12"
  type: "LSTMUnit"
  bottom: "c_11"
  bottom: "gate_input_12"
  bottom: "cont_12"
  top: "c_12"
  top: "h_12"
}
layer {
  name: "lstm2x_r1_r1_h_conted_12"
  type: "Scale"
  bottom: "h_12"
  bottom: "cont_13"
  top: "h_conted_12"
  scale_param {
    axis: 0
  }
}
layer {
  name: "lstm2x_r1_r1_transform_13"
  type: "InnerProduct"
  bottom: "h_conted_12"
  top: "W_hc_h_12"
  param {
    name: "W_hc"
  }
  inner_product_param {
    num_output: 400
    bias_term: false
    weight_filler {
      type: "xavier"
    }
    axis: 2
  }
}
layer {
  name: "lstm2x_r1_r1_gate_input_13"
  type: "Eltwise"
  bottom: "W_hc_h_12"
  bottom: "W_xc_x_13"
  top: "gate_input_13"
  eltwise_param {
    operation: SUM
  }
}
layer {
  name: "lstm2x_r1_r1_unit_13"
  type: "LSTMUnit"
  bottom: "c_12"
  bottom: "gate_input_13"
  bottom: "cont_13"
  top: "c_13"
  top: "h_13"
}
layer {
  name: "lstm2x_r1_r1_h_conted_13"
  type: "Scale"
  bottom: "h_13"
  bottom: "cont_14"
  top: "h_conted_13"
  scale_param {
    axis: 0
  }
}
layer {
  name: "lstm2x_r1_r1_transform_14"
  type: "InnerProduct"
  bottom: "h_conted_13"
  top: "W_hc_h_13"
  param {
    name: "W_hc"
  }
  inner_product_param {
    num_output: 400
    bias_term: false
    weight_filler {
      type: "xavier"
    }
    axis: 2
  }
}
layer {
  name: "lstm2x_r1_r1_gate_input_14"
  type: "Eltwise"
  bottom: "W_hc_h_13"
  bottom: "W_xc_x_14"
  top: "gate_input_14"
  eltwise_param {
    operation: SUM
  }
}
layer {
  name: "lstm2x_r1_r1_unit_14"
  type: "LSTMUnit"
  bottom: "c_13"
  bottom: "gate_input_14"
  bottom: "cont_14"
  top: "c_14"
  top: "h_14"
}
layer {
  name: "lstm2x_r1_r1_h_conted_14"
  type: "Scale"
  bottom: "h_14"
  bottom: "cont_15"
  top: "h_conted_14"
  scale_param {
    axis: 0
  }
}
layer {
  name: "lstm2x_r1_r1_transform_15"
  type: "InnerProduct"
  bottom: "h_conted_14"
  top: "W_hc_h_14"
  param {
    name: "W_hc"
  }
  inner_product_param {
    num_output: 400
    bias_term: false
    weight_filler {
      type: "xavier"
    }
    axis: 2
  }
}
layer {
  name: "lstm2x_r1_r1_gate_input_15"
  type: "Eltwise"
  bottom: "W_hc_h_14"
  bottom: "W_xc_x_15"
  top: "gate_input_15"
  eltwise_param {
    operation: SUM
  }
}
layer {
  name: "lstm2x_r1_r1_unit_15"
  type: "LSTMUnit"
  bottom: "c_14"
  bottom: "gate_input_15"
  bottom: "cont_15"
  top: "c_15"
  top: "h_15"
}
layer {
  name: "lstm2x_r1_r1_h_conted_15"
  type: "Scale"
  bottom: "h_15"
  bottom: "cont_16"
  top: "h_conted_15"
  scale_param {
    axis: 0
  }
}
layer {
  name: "lstm2x_r1_r1_transform_16"
  type: "InnerProduct"
  bottom: "h_conted_15"
  top: "W_hc_h_15"
  param {
    name: "W_hc"
  }
  inner_product_param {
    num_output: 400
    bias_term: false
    weight_filler {
      type: "xavier"
    }
    axis: 2
  }
}
layer {
  name: "lstm2x_r1_r1_gate_input_16"
  type: "Eltwise"
  bottom: "W_hc_h_15"
  bottom: "W_xc_x_16"
  top: "gate_input_16"
  eltwise_param {
    operation: SUM
  }
}
layer {
  name: "lstm2x_r1_r1_unit_16"
  type: "LSTMUnit"
  bottom: "c_15"
  bottom: "gate_input_16"
  bottom: "cont_16"
  top: "c_16"
  top: "h_16"
}
layer {
  name: "lstm2x_r1_r1_h_conted_16"
  type: "Scale"
  bottom: "h_16"
  bottom: "cont_17"
  top: "h_conted_16"
  scale_param {
    axis: 0
  }
}
layer {
  name: "lstm2x_r1_r1_transform_17"
  type: "InnerProduct"
  bottom: "h_conted_16"
  top: "W_hc_h_16"
  param {
    name: "W_hc"
  }
  inner_product_param {
    num_output: 400
    bias_term: false
    weight_filler {
      type: "xavier"
    }
    axis: 2
  }
}
layer {
  name: "lstm2x_r1_r1_gate_input_17"
  type: "Eltwise"
  bottom: "W_hc_h_16"
  bottom: "W_xc_x_17"
  top: "gate_input_17"
  eltwise_param {
    operation: SUM
  }
}
layer {
  name: "lstm2x_r1_r1_unit_17"
  type: "LSTMUnit"
  bottom: "c_16"
  bottom: "gate_input_17"
  bottom: "cont_17"
  top: "c_17"
  top: "h_17"
}
layer {
  name: "lstm2x_r1_r1_h_conted_17"
  type: "Scale"
  bottom: "h_17"
  bottom: "cont_18"
  top: "h_conted_17"
  scale_param {
    axis: 0
  }
}
layer {
  name: "lstm2x_r1_r1_transform_18"
  type: "InnerProduct"
  bottom: "h_conted_17"
  top: "W_hc_h_17"
  param {
    name: "W_hc"
  }
  inner_product_param {
    num_output: 400
    bias_term: false
    weight_filler {
      type: "xavier"
    }
    axis: 2
  }
}
layer {
  name: "lstm2x_r1_r1_gate_input_18"
  type: "Eltwise"
  bottom: "W_hc_h_17"
  bottom: "W_xc_x_18"
  top: "gate_input_18"
  eltwise_param {
    operation: SUM
  }
}
layer {
  name: "lstm2x_r1_r1_unit_18"
  type: "LSTMUnit"
  bottom: "c_17"
  bottom: "gate_input_18"
  bottom: "cont_18"
  top: "c_18"
  top: "h_18"
}
layer {
  name: "lstm2x_r1_r1_h_conted_18"
  type: "Scale"
  bottom: "h_18"
  bottom: "cont_19"
  top: "h_conted_18"
  scale_param {
    axis: 0
  }
}
layer {
  name: "lstm2x_r1_r1_transform_19"
  type: "InnerProduct"
  bottom: "h_conted_18"
  top: "W_hc_h_18"
  param {
    name: "W_hc"
  }
  inner_product_param {
    num_output: 400
    bias_term: false
    weight_filler {
      type: "xavier"
    }
    axis: 2
  }
}
layer {
  name: "lstm2x_r1_r1_gate_input_19"
  type: "Eltwise"
  bottom: "W_hc_h_18"
  bottom: "W_xc_x_19"
  top: "gate_input_19"
  eltwise_param {
    operation: SUM
  }
}
layer {
  name: "lstm2x_r1_r1_unit_19"
  type: "LSTMUnit"
  bottom: "c_18"
  bottom: "gate_input_19"
  bottom: "cont_19"
  top: "c_19"
  top: "h_19"
}
layer {
  name: "lstm2x_r1_r1_h_conted_19"
  type: "Scale"
  bottom: "h_19"
  bottom: "cont_20"
  top: "h_conted_19"
  scale_param {
    axis: 0
  }
}
layer {
  name: "lstm2x_r1_r1_transform_20"
  type: "InnerProduct"
  bottom: "h_conted_19"
  top: "W_hc_h_19"
  param {
    name: "W_hc"
  }
  inner_product_param {
    num_output: 400
    bias_term: false
    weight_filler {
      type: "xavier"
    }
    axis: 2
  }
}
layer {
  name: "lstm2x_r1_r1_gate_input_20"
  type: "Eltwise"
  bottom: "W_hc_h_19"
  bottom: "W_xc_x_20"
  top: "gate_input_20"
  eltwise_param {
    operation: SUM
  }
}
layer {
  name: "lstm2x_r1_r1_unit_20"
  type: "LSTMUnit"
  bottom: "c_19"
  bottom: "gate_input_20"
  bottom: "cont_20"
  top: "c_20"
  top: "h_20"
}
layer {
  name: "lstm2x_r1_r1_h_conted_20"
  type: "Scale"
  bottom: "h_20"
  bottom: "cont_21"
  top: "h_conted_20"
  scale_param {
    axis: 0
  }
}
layer {
  name: "lstm2x_r1_r1_transform_21"
  type: "InnerProduct"
  bottom: "h_conted_20"
  top: "W_hc_h_20"
  param {
    name: "W_hc"
  }
  inner_product_param {
    num_output: 400
    bias_term: false
    weight_filler {
      type: "xavier"
    }
    axis: 2
  }
}
layer {
  name: "lstm2x_r1_r1_gate_input_21"
  type: "Eltwise"
  bottom: "W_hc_h_20"
  bottom: "W_xc_x_21"
  top: "gate_input_21"
  eltwise_param {
    operation: SUM
  }
}
layer {
  name: "lstm2x_r1_r1_unit_21"
  type: "LSTMUnit"
  bottom: "c_20"
  bottom: "gate_input_21"
  bottom: "cont_21"
  top: "c_21"
  top: "h_21"
}
layer {
  name: "lstm2x_r1_r1_h_conted_21"
  type: "Scale"
  bottom: "h_21"
  bottom: "cont_22"
  top: "h_conted_21"
  scale_param {
    axis: 0
  }
}
layer {
  name: "lstm2x_r1_r1_transform_22"
  type: "InnerProduct"
  bottom: "h_conted_21"
  top: "W_hc_h_21"
  param {
    name: "W_hc"
  }
  inner_product_param {
    num_output: 400
    bias_term: false
    weight_filler {
      type: "xavier"
    }
    axis: 2
  }
}
layer {
  name: "lstm2x_r1_r1_gate_input_22"
  type: "Eltwise"
  bottom: "W_hc_h_21"
  bottom: "W_xc_x_22"
  top: "gate_input_22"
  eltwise_param {
    operation: SUM
  }
}
layer {
  name: "lstm2x_r1_r1_unit_22"
  type: "LSTMUnit"
  bottom: "c_21"
  bottom: "gate_input_22"
  bottom: "cont_22"
  top: "c_22"
  top: "h_22"
}
layer {
  name: "lstm2x_r1_r1_h_conted_22"
  type: "Scale"
  bottom: "h_22"
  bottom: "cont_23"
  top: "h_conted_22"
  scale_param {
    axis: 0
  }
}
layer {
  name: "lstm2x_r1_r1_transform_23"
  type: "InnerProduct"
  bottom: "h_conted_22"
  top: "W_hc_h_22"
  param {
    name: "W_hc"
  }
  inner_product_param {
    num_output: 400
    bias_term: false
    weight_filler {
      type: "xavier"
    }
    axis: 2
  }
}
layer {
  name: "lstm2x_r1_r1_gate_input_23"
  type: "Eltwise"
  bottom: "W_hc_h_22"
  bottom: "W_xc_x_23"
  top: "gate_input_23"
  eltwise_param {
    operation: SUM
  }
}
layer {
  name: "lstm2x_r1_r1_unit_23"
  type: "LSTMUnit"
  bottom: "c_22"
  bottom: "gate_input_23"
  bottom: "cont_23"
  top: "c_23"
  top: "h_23"
}
layer {
  name: "lstm2x_r1_r1_h_conted_23"
  type: "Scale"
  bottom: "h_23"
  bottom: "cont_24"
  top: "h_conted_23"
  scale_param {
    axis: 0
  }
}
layer {
  name: "lstm2x_r1_r1_transform_24"
  type: "InnerProduct"
  bottom: "h_conted_23"
  top: "W_hc_h_23"
  param {
    name: "W_hc"
  }
  inner_product_param {
    num_output: 400
    bias_term: false
    weight_filler {
      type: "xavier"
    }
    axis: 2
  }
}
layer {
  name: "lstm2x_r1_r1_gate_input_24"
  type: "Eltwise"
  bottom: "W_hc_h_23"
  bottom: "W_xc_x_24"
  top: "gate_input_24"
  eltwise_param {
    operation: SUM
  }
}
layer {
  name: "lstm2x_r1_r1_unit_24"
  type: "LSTMUnit"
  bottom: "c_23"
  bottom: "gate_input_24"
  bottom: "cont_24"
  top: "c_24"
  top: "h_24"
}
layer {
  name: "lstm2x_r1_r1_h_conted_24"
  type: "Scale"
  bottom: "h_24"
  bottom: "cont_25"
  top: "h_conted_24"
  scale_param {
    axis: 0
  }
}
layer {
  name: "lstm2x_r1_r1_transform_25"
  type: "InnerProduct"
  bottom: "h_conted_24"
  top: "W_hc_h_24"
  param {
    name: "W_hc"
  }
  inner_product_param {
    num_output: 400
    bias_term: false
    weight_filler {
      type: "xavier"
    }
    axis: 2
  }
}
layer {
  name: "lstm2x_r1_r1_gate_input_25"
  type: "Eltwise"
  bottom: "W_hc_h_24"
  bottom: "W_xc_x_25"
  top: "gate_input_25"
  eltwise_param {
    operation: SUM
  }
}
layer {
  name: "lstm2x_r1_r1_unit_25"
  type: "LSTMUnit"
  bottom: "c_24"
  bottom: "gate_input_25"
  bottom: "cont_25"
  top: "c_25"
  top: "h_25"
}
layer {
  name: "lstm2x_r1_r1_h_conted_25"
  type: "Scale"
  bottom: "h_25"
  bottom: "cont_26"
  top: "h_conted_25"
  scale_param {
    axis: 0
  }
}
layer {
  name: "lstm2x_r1_r1_transform_26"
  type: "InnerProduct"
  bottom: "h_conted_25"
  top: "W_hc_h_25"
  param {
    name: "W_hc"
  }
  inner_product_param {
    num_output: 400
    bias_term: false
    weight_filler {
      type: "xavier"
    }
    axis: 2
  }
}
layer {
  name: "lstm2x_r1_r1_gate_input_26"
  type: "Eltwise"
  bottom: "W_hc_h_25"
  bottom: "W_xc_x_26"
  top: "gate_input_26"
  eltwise_param {
    operation: SUM
  }
}
layer {
  name: "lstm2x_r1_r1_unit_26"
  type: "LSTMUnit"
  bottom: "c_25"
  bottom: "gate_input_26"
  bottom: "cont_26"
  top: "c_26"
  top: "h_26"
}
layer {
  name: "lstm2x_r1_r1_h_conted_26"
  type: "Scale"
  bottom: "h_26"
  bottom: "cont_27"
  top: "h_conted_26"
  scale_param {
    axis: 0
  }
}
layer {
  name: "lstm2x_r1_r1_transform_27"
  type: "InnerProduct"
  bottom: "h_conted_26"
  top: "W_hc_h_26"
  param {
    name: "W_hc"
  }
  inner_product_param {
    num_output: 400
    bias_term: false
    weight_filler {
      type: "xavier"
    }
    axis: 2
  }
}
layer {
  name: "lstm2x_r1_r1_gate_input_27"
  type: "Eltwise"
  bottom: "W_hc_h_26"
  bottom: "W_xc_x_27"
  top: "gate_input_27"
  eltwise_param {
    operation: SUM
  }
}
layer {
  name: "lstm2x_r1_r1_unit_27"
  type: "LSTMUnit"
  bottom: "c_26"
  bottom: "gate_input_27"
  bottom: "cont_27"
  top: "c_27"
  top: "h_27"
}
layer {
  name: "lstm2x_r1_r1_h_conted_27"
  type: "Scale"
  bottom: "h_27"
  bottom: "cont_28"
  top: "h_conted_27"
  scale_param {
    axis: 0
  }
}
layer {
  name: "lstm2x_r1_r1_transform_28"
  type: "InnerProduct"
  bottom: "h_conted_27"
  top: "W_hc_h_27"
  param {
    name: "W_hc"
  }
  inner_product_param {
    num_output: 400
    bias_term: false
    weight_filler {
      type: "xavier"
    }
    axis: 2
  }
}
layer {
  name: "lstm2x_r1_r1_gate_input_28"
  type: "Eltwise"
  bottom: "W_hc_h_27"
  bottom: "W_xc_x_28"
  top: "gate_input_28"
  eltwise_param {
    operation: SUM
  }
}
layer {
  name: "lstm2x_r1_r1_unit_28"
  type: "LSTMUnit"
  bottom: "c_27"
  bottom: "gate_input_28"
  bottom: "cont_28"
  top: "c_28"
  top: "h_28"
}
layer {
  name: "lstm2x_r1_r1_h_conted_28"
  type: "Scale"
  bottom: "h_28"
  bottom: "cont_29"
  top: "h_conted_28"
  scale_param {
    axis: 0
  }
}
layer {
  name: "lstm2x_r1_r1_transform_29"
  type: "InnerProduct"
  bottom: "h_conted_28"
  top: "W_hc_h_28"
  param {
    name: "W_hc"
  }
  inner_product_param {
    num_output: 400
    bias_term: false
    weight_filler {
      type: "xavier"
    }
    axis: 2
  }
}
layer {
  name: "lstm2x_r1_r1_gate_input_29"
  type: "Eltwise"
  bottom: "W_hc_h_28"
  bottom: "W_xc_x_29"
  top: "gate_input_29"
  eltwise_param {
    operation: SUM
  }
}
layer {
  name: "lstm2x_r1_r1_unit_29"
  type: "LSTMUnit"
  bottom: "c_28"
  bottom: "gate_input_29"
  bottom: "cont_29"
  top: "c_29"
  top: "h_29"
}
layer {
  name: "lstm2x_r1_r1_h_conted_29"
  type: "Scale"
  bottom: "h_29"
  bottom: "cont_30"
  top: "h_conted_29"
  scale_param {
    axis: 0
  }
}
layer {
  name: "lstm2x_r1_r1_transform_30"
  type: "InnerProduct"
  bottom: "h_conted_29"
  top: "W_hc_h_29"
  param {
    name: "W_hc"
  }
  inner_product_param {
    num_output: 400
    bias_term: false
    weight_filler {
      type: "xavier"
    }
    axis: 2
  }
}
layer {
  name: "lstm2x_r1_r1_gate_input_30"
  type: "Eltwise"
  bottom: "W_hc_h_29"
  bottom: "W_xc_x_30"
  top: "gate_input_30"
  eltwise_param {
    operation: SUM
  }
}
layer {
  name: "lstm2x_r1_r1_unit_30"
  type: "LSTMUnit"
  bottom: "c_29"
  bottom: "gate_input_30"
  bottom: "cont_30"
  top: "c_30"
  top: "h_30"
}
layer {
  name: "lstm2x_r1_r1_h_conted_30"
  type: "Scale"
  bottom: "h_30"
  bottom: "cont_31"
  top: "h_conted_30"
  scale_param {
    axis: 0
  }
}
layer {
  name: "lstm2x_r1_r1_transform_31"
  type: "InnerProduct"
  bottom: "h_conted_30"
  top: "W_hc_h_30"
  param {
    name: "W_hc"
  }
  inner_product_param {
    num_output: 400
    bias_term: false
    weight_filler {
      type: "xavier"
    }
    axis: 2
  }
}
layer {
  name: "lstm2x_r1_r1_gate_input_31"
  type: "Eltwise"
  bottom: "W_hc_h_30"
  bottom: "W_xc_x_31"
  top: "gate_input_31"
  eltwise_param {
    operation: SUM
  }
}
layer {
  name: "lstm2x_r1_r1_unit_31"
  type: "LSTMUnit"
  bottom: "c_30"
  bottom: "gate_input_31"
  bottom: "cont_31"
  top: "c_31"
  top: "h_31"
}
layer {
  name: "lstm2x_r1_r1_h_conted_31"
  type: "Scale"
  bottom: "h_31"
  bottom: "cont_32"
  top: "h_conted_31"
  scale_param {
    axis: 0
  }
}
layer {
  name: "lstm2x_r1_r1_transform_32"
  type: "InnerProduct"
  bottom: "h_conted_31"
  top: "W_hc_h_31"
  param {
    name: "W_hc"
  }
  inner_product_param {
    num_output: 400
    bias_term: false
    weight_filler {
      type: "xavier"
    }
    axis: 2
  }
}
layer {
  name: "lstm2x_r1_r1_gate_input_32"
  type: "Eltwise"
  bottom: "W_hc_h_31"
  bottom: "W_xc_x_32"
  top: "gate_input_32"
  eltwise_param {
    operation: SUM
  }
}
layer {
  name: "lstm2x_r1_r1_unit_32"
  type: "LSTMUnit"
  bottom: "c_31"
  bottom: "gate_input_32"
  bottom: "cont_32"
  top: "c_32"
  top: "h_32"
}
layer {
  name: "lstm2x_r1_r1_h_conted_32"
  type: "Scale"
  bottom: "h_32"
  bottom: "cont_33"
  top: "h_conted_32"
  scale_param {
    axis: 0
  }
}
layer {
  name: "lstm2x_r1_r1_transform_33"
  type: "InnerProduct"
  bottom: "h_conted_32"
  top: "W_hc_h_32"
  param {
    name: "W_hc"
  }
  inner_product_param {
    num_output: 400
    bias_term: false
    weight_filler {
      type: "xavier"
    }
    axis: 2
  }
}
layer {
  name: "lstm2x_r1_r1_gate_input_33"
  type: "Eltwise"
  bottom: "W_hc_h_32"
  bottom: "W_xc_x_33"
  top: "gate_input_33"
  eltwise_param {
    operation: SUM
  }
}
layer {
  name: "lstm2x_r1_r1_unit_33"
  type: "LSTMUnit"
  bottom: "c_32"
  bottom: "gate_input_33"
  bottom: "cont_33"
  top: "c_33"
  top: "h_33"
}
layer {
  name: "lstm2x_r1_r1_h_conted_33"
  type: "Scale"
  bottom: "h_33"
  bottom: "cont_34"
  top: "h_conted_33"
  scale_param {
    axis: 0
  }
}
layer {
  name: "lstm2x_r1_r1_transform_34"
  type: "InnerProduct"
  bottom: "h_conted_33"
  top: "W_hc_h_33"
  param {
    name: "W_hc"
  }
  inner_product_param {
    num_output: 400
    bias_term: false
    weight_filler {
      type: "xavier"
    }
    axis: 2
  }
}
layer {
  name: "lstm2x_r1_r1_gate_input_34"
  type: "Eltwise"
  bottom: "W_hc_h_33"
  bottom: "W_xc_x_34"
  top: "gate_input_34"
  eltwise_param {
    operation: SUM
  }
}
layer {
  name: "lstm2x_r1_r1_unit_34"
  type: "LSTMUnit"
  bottom: "c_33"
  bottom: "gate_input_34"
  bottom: "cont_34"
  top: "c_34"
  top: "h_34"
}
layer {
  name: "lstm2x_r1_r1_h_conted_34"
  type: "Scale"
  bottom: "h_34"
  bottom: "cont_35"
  top: "h_conted_34"
  scale_param {
    axis: 0
  }
}
layer {
  name: "lstm2x_r1_r1_transform_35"
  type: "InnerProduct"
  bottom: "h_conted_34"
  top: "W_hc_h_34"
  param {
    name: "W_hc"
  }
  inner_product_param {
    num_output: 400
    bias_term: false
    weight_filler {
      type: "xavier"
    }
    axis: 2
  }
}
layer {
  name: "lstm2x_r1_r1_gate_input_35"
  type: "Eltwise"
  bottom: "W_hc_h_34"
  bottom: "W_xc_x_35"
  top: "gate_input_35"
  eltwise_param {
    operation: SUM
  }
}
layer {
  name: "lstm2x_r1_r1_unit_35"
  type: "LSTMUnit"
  bottom: "c_34"
  bottom: "gate_input_35"
  bottom: "cont_35"
  top: "c_35"
  top: "h_35"
}
layer {
  name: "lstm2x_r1_r1_h_conted_35"
  type: "Scale"
  bottom: "h_35"
  bottom: "cont_36"
  top: "h_conted_35"
  scale_param {
    axis: 0
  }
}
layer {
  name: "lstm2x_r1_r1_transform_36"
  type: "InnerProduct"
  bottom: "h_conted_35"
  top: "W_hc_h_35"
  param {
    name: "W_hc"
  }
  inner_product_param {
    num_output: 400
    bias_term: false
    weight_filler {
      type: "xavier"
    }
    axis: 2
  }
}
layer {
  name: "lstm2x_r1_r1_gate_input_36"
  type: "Eltwise"
  bottom: "W_hc_h_35"
  bottom: "W_xc_x_36"
  top: "gate_input_36"
  eltwise_param {
    operation: SUM
  }
}
layer {
  name: "lstm2x_r1_r1_unit_36"
  type: "LSTMUnit"
  bottom: "c_35"
  bottom: "gate_input_36"
  bottom: "cont_36"
  top: "c_36"
  top: "h_36"
}
layer {
  name: "lstm2x_r1_r1_h_conted_36"
  type: "Scale"
  
I1229 17:57:32.583566 12106 layer_factory.hpp:77] Creating layer lstm2x_r1_r1_
I1229 17:57:32.583573 12106 net.cpp:84] Creating Layer lstm2x_r1_r1_
I1229 17:57:32.583577 12106 net.cpp:380] lstm2x_r1_r1_ -> x
I1229 17:57:32.583583 12106 net.cpp:380] lstm2x_r1_r1_ -> cont
I1229 17:57:32.583617 12106 net.cpp:122] Setting up lstm2x_r1_r1_
I1229 17:57:32.583621 12106 net.cpp:129] Top shape: 60 38 512 7 (8171520)
I1229 17:57:32.583624 12106 net.cpp:129] Top shape: 60 38 (2280)
I1229 17:57:32.583626 12106 net.cpp:137] Memory required for data: 32695200
I1229 17:57:32.583627 12106 layer_factory.hpp:77] Creating layer lstm2x_r1_r1_
I1229 17:57:32.583631 12106 net.cpp:84] Creating Layer lstm2x_r1_r1_
I1229 17:57:32.583633 12106 net.cpp:380] lstm2x_r1_r1_ -> c_0
I1229 17:57:32.583637 12106 net.cpp:380] lstm2x_r1_r1_ -> h_0
I1229 17:57:32.583670 12106 net.cpp:122] Setting up lstm2x_r1_r1_
I1229 17:57:32.583674 12106 net.cpp:129] Top shape: 1 38 100 (3800)
I1229 17:57:32.583676 12106 net.cpp:129] Top shape: 1 38 100 (3800)
I1229 17:57:32.583678 12106 net.cpp:137] Memory required for data: 32725600
I1229 17:57:32.583679 12106 layer_factory.hpp:77] Creating layer lstm2x_r1_r1_cont_slice
I1229 17:57:32.583684 12106 net.cpp:84] Creating Layer lstm2x_r1_r1_cont_slice
I1229 17:57:32.583688 12106 net.cpp:406] lstm2x_r1_r1_cont_slice <- cont
I1229 17:57:32.583693 12106 net.cpp:380] lstm2x_r1_r1_cont_slice -> cont_1
…
I1229 17:57:32.584024 12106 net.cpp:380] lstm2x_r1_r1_cont_slice -> cont_54
I1229 17:57:32.584030 12106 net.cpp:380] lstm2x_r1_r1_cont_slice -> cont_55
I1229 17:57:32.584036 12106 net.cpp:380] lstm2x_r1_r1_cont_slice -> cont_56
I1229 17:57:32.584043 12106 net.cpp:380] lstm2x_r1_r1_cont_slice -> cont_57
I1229 17:57:32.584048 12106 net.cpp:380] lstm2x_r1_r1_cont_slice -> cont_58
I1229 17:57:32.584053 12106 net.cpp:380] lstm2x_r1_r1_cont_slice -> cont_59
I1229 17:57:32.584060 12106 net.cpp:380] lstm2x_r1_r1_cont_slice -> cont_60
I1229 17:57:32.584542 12106 net.cpp:122] Setting up lstm2x_r1_r1_cont_slice
I1229 17:57:32.584547 12106 net.cpp:129] Top shape: 1 38 (38)
I1229 17:57:32.584548 12106 net.cpp:129] Top shape: 1 38 (38)
I1229 17:57:32.584550 12106 net.cpp:129] Top shape: 1 38 (38)
I1229 17:57:32.584553 12106 net.cpp:129] Top shape: 1 38 (38)
I1229 17:57:32.584554 12106 net.cpp:129] Top shape: 1 38 (38)
I1229 17:57:32.584556 12106 net.cpp:129] Top shape: 1 38 (38)
I1229 17:57:32.584558 12106 net.cpp:129] Top shape: 1 38 (38)
I1229 17:57:32.584560 12106 net.cpp:129] Top shape: 1 38 (38)
I1229 17:57:32.584563 12106 net.cpp:129] Top shape: 1 38 (38)
I1229 17:57:32.584563 12106 net.cpp:129] Top shape: 1 38 (38)
I1229 17:57:32.584566 12106 net.cpp:129] Top shape: 1 38 (38)
I1229 17:57:32.584568 12106 net.cpp:129] Top shape: 1 38 (38)
I1229 17:57:32.584569 12106 net.cpp:129] Top shape: 1 38 (38)
I1229 17:57:32.584571 12106 net.cpp:129] Top shape: 1 38 (38)
I1229 17:57:32.584573 12106 net.cpp:129] Top shape: 1 38 (38)
I1229 17:57:32.584576 12106 net.cpp:129] Top shape: 1 38 (38)
I1229 17:57:32.584578 12106 net.cpp:129] Top shape: 1 38 (38)
I1229 17:57:32.584579 12106 net.cpp:129] Top shape: 1 38 (38)
I1229 17:57:32.584581 12106 net.cpp:129] Top shape: 1 38 (38)
I1229 17:57:32.584583 12106 net.cpp:129] Top shape: 1 38 (38)
I1229 17:57:32.584585 12106 net.cpp:129] Top shape: 1 38 (38)
I1229 17:57:32.584587 12106 net.cpp:129] Top shape: 1 38 (38)
I1229 17:57:32.584589 12106 net.cpp:129] Top shape: 1 38 (38)
I1229 17:57:32.584591 12106 net.cpp:129] Top shape: 1 38 (38)
I1229 17:57:32.584592 12106 net.cpp:129] Top shape: 1 38 (38)
I1229 17:57:32.584594 12106 net.cpp:129] Top shape: 1 38 (38)
I1229 17:57:32.584597 12106 net.cpp:129] Top shape: 1 38 (38)
I1229 17:57:32.584599 12106 net.cpp:129] Top shape: 1 38 (38)
I1229 17:57:32.584600 12106 net.cpp:129] Top shape: 1 38 (38)
I1229 17:57:32.584602 12106 net.cpp:129] Top shape: 1 38 (38)
I1229 17:57:32.584604 12106 net.cpp:129] Top shape: 1 38 (38)
I1229 17:57:32.584606 12106 net.cpp:129] Top shape: 1 38 (38)
I1229 17:57:32.584609 12106 net.cpp:129] Top shape: 1 38 (38)
I1229 17:57:32.584610 12106 net.cpp:129] Top shape: 1 38 (38)
I1229 17:57:32.584612 12106 net.cpp:129] Top shape: 1 38 (38)
I1229 17:57:32.584614 12106 net.cpp:129] Top shape: 1 38 (38)
I1229 17:57:32.584615 12106 net.cpp:129] Top shape: 1 38 (38)
I1229 17:57:32.584617 12106 net.cpp:129] Top shape: 1 38 (38)
I1229 17:57:32.584619 12106 net.cpp:129] Top shape: 1 38 (38)
I1229 17:57:32.584621 12106 net.cpp:129] Top shape: 1 38 (38)
I1229 17:57:32.584623 12106 net.cpp:129] Top shape: 1 38 (38)
I1229 17:57:32.584625 12106 net.cpp:129] Top shape: 1 38 (38)
I1229 17:57:32.584627 12106 net.cpp:129] Top shape: 1 38 (38)
I1229 17:57:32.584630 12106 net.cpp:129] Top shape: 1 38 (38)
I1229 17:57:32.584630 12106 net.cpp:129] Top shape: 1 38 (38)
I1229 17:57:32.584632 12106 net.cpp:129] Top shape: 1 38 (38)
I1229 17:57:32.584635 12106 net.cpp:129] Top shape: 1 38 (38)
I1229 17:57:32.584636 12106 net.cpp:129] Top shape: 1 38 (38)
I1229 17:57:32.584638 12106 net.cpp:129] Top shape: 1 38 (38)
I1229 17:57:32.584645 12106 net.cpp:129] Top shape: 1 38 (38)
I1229 17:57:32.584647 12106 net.cpp:129] Top shape: 1 38 (38)
I1229 17:57:32.584650 12106 net.cpp:129] Top shape: 1 38 (38)
I1229 17:57:32.584651 12106 net.cpp:129] Top shape: 1 38 (38)
I1229 17:57:32.584652 12106 net.cpp:129] Top shape: 1 38 (38)
I1229 17:57:32.584656 12106 net.cpp:129] Top shape: 1 38 (38)
I1229 17:57:32.584656 12106 net.cpp:129] Top shape: 1 38 (38)
I1229 17:57:32.584658 12106 net.cpp:129] Top shape: 1 38 (38)
I1229 17:57:32.584661 12106 net.cpp:129] Top shape: 1 38 (38)
I1229 17:57:32.584662 12106 net.cpp:129] Top shape: 1 38 (38)
I1229 17:57:32.584664 12106 net.cpp:129] Top shape: 1 38 (38)
I1229 17:57:32.584666 12106 net.cpp:137] Memory required for data: 32734720
I1229 17:57:32.584667 12106 layer_factory.hpp:77] Creating layer cont_1_lstm2x_r1_r1_cont_slice_0_split
I1229 17:57:32.584671 12106 net.cpp:84] Creating Layer cont_1_lstm2x_r1_r1_cont_slice_0_split
I1229 17:57:32.584672 12106 net.cpp:406] cont_1_lstm2x_r1_r1_cont_slice_0_split <- cont_1
I1229 17:57:32.584676 12106 net.cpp:380] cont_1_lstm2x_r1_r1_cont_slice_0_split -> cont_1_lstm2x_r1_r1_cont_slice_0_split_0
I1229 17:57:32.584683 12106 net.cpp:380] cont_1_lstm2x_r1_r1_cont_slice_0_split -> cont_1_lstm2x_r1_r1_cont_slice_0_split_1
I1229 17:57:32.584708 12106 net.cpp:122] Setting up cont_1_lstm2x_r1_r1_cont_slice_0_split
I1229 17:57:32.584712 12106 net.cpp:129] Top shape: 1 38 (38)
I1229 17:57:32.584714 12106 net.cpp:129] Top shape: 1 38 (38)
I1229 17:57:32.584715 12106 net.cpp:137] Memory required for data: 32735024
I1229 17:57:32.584717 12106 layer_factory.hpp:77] Creating layer cont_2_lstm2x_r1_r1_cont_slice_1_split
I1229 17:57:32.584720 12106 net.cpp:84] Creating Layer cont_2_lstm2x_r1_r1_cont_slice_1_split
I1229 17:57:32.584722 12106 net.cpp:406] cont_2_lstm2x_r1_r1_cont_slice_1_split <- cont_2
I1229 17:57:32.584727 12106 net.cpp:380] cont_2_lstm2x_r1_r1_cont_slice_1_split -> cont_2_lstm2x_r1_r1_cont_slice_1_split_0
I1229 17:57:32.584731 12106 net.cpp:380] cont_2_lstm2x_r1_r1_cont_slice_1_split -> cont_2_lstm2x_r1_r1_cont_slice_1_split_1
I1229 17:57:32.584754 12106 net.cpp:122] Setting up cont_2_lstm2x_r1_r1_cont_slice_1_split
I1229 17:57:32.584758 12106 net.cpp:129] Top shape: 1 38 (38)
I1229 17:57:32.584759 12106 net.cpp:129] Top shape: 1 38 (38)
I1229 17:57:32.584761 12106 net.cpp:137] Memory required for data: 32735328
I1229 17:57:32.584764 12106 layer_factory.hpp:77] Creating layer cont_3_lstm2x_r1_r1_cont_slice_2_split
I1229 17:57:32.584765 12106 net.cpp:84] Creating Layer cont_3_lstm2x_r1_r1_cont_slice_2_split
I1229 17:57:32.584767 12106 net.cpp:406] cont_3_lstm2x_r1_r1_cont_slice_2_split <- cont_3
I1229 17:57:32.584771 12106 net.cpp:380] cont_3_lstm2x_r1_r1_cont_slice_2_split -> cont_3_lstm2x_r1_r1_cont_slice_2_split_0
I1229 17:57:32.584775 12106 net.cpp:380] cont_3_lstm2x_r1_r1_cont_slice_2_split -> cont_3_lstm2x_r1_r1_cont_slice_2_split_1
I1229 17:57:32.584797 12106 net.cpp:122] Setting up cont_3_lstm2x_r1_r1_cont_slice_2_split
I1229 17:57:32.584800 12106 net.cpp:129] Top shape: 1 38 (38)
I1229 17:57:32.584802 12106 net.cpp:129] Top shape: 1 38 (38)
I1229 17:57:32.584805 12106 net.cpp:137] Memory required for data: 32735632
I1229 17:57:32.584805 12106 layer_factory.hpp:77] Creating layer cont_4_lstm2x_r1_r1_cont_slice_3_split
I1229 17:57:32.584807 12106 net.cpp:84] Creating Layer cont_4_lstm2x_r1_r1_cont_slice_3_split
I1229 17:57:32.584810 12106 net.cpp:406] cont_4_lstm2x_r1_r1_cont_slice_3_split <- cont_4
I1229 17:57:32.584813 12106 net.cpp:380] cont_4_lstm2x_r1_r1_cont_slice_3_split -> cont_4_lstm2x_r1_r1_cont_slice_3_split_0
I1229 17:57:32.584816 12106 net.cpp:380] cont_4_lstm2x_r1_r1_cont_slice_3_split -> cont_4_lstm2x_r1_r1_cont_slice_3_split_1
I1229 17:57:32.584839 12106 net.cpp:122] Setting up cont_4_lstm2x_r1_r1_cont_slice_3_split
I1229 17:57:32.584843 12106 net.cpp:129] Top shape: 1 38 (38)
I1229 17:57:32.584844 12106 net.cpp:129] Top shape: 1 38 (38)
I1229 17:57:32.584846 12106 net.cpp:137] Memory required for data: 32735936
I1229 17:57:32.584847 12106 layer_factory.hpp:77] Creating layer cont_5_lstm2x_r1_r1_cont_slice_4_split
I1229 17:57:32.584854 12106 net.cpp:84] Creating Layer cont_5_lstm2x_r1_r1_cont_slice_4_split
I1229 17:57:32.584856 12106 net.cpp:406] cont_5_lstm2x_r1_r1_cont_slice_4_split <- cont_5
I1229 17:57:32.584861 12106 net.cpp:380] cont_5_lstm2x_r1_r1_cont_slice_4_split -> cont_5_lstm2x_r1_r1_cont_slice_4_split_0
I1229 17:57:32.584864 12106 net.cpp:380] cont_5_lstm2x_r1_r1_cont_slice_4_split -> cont_5_lstm2x_r1_r1_cont_slice_4_split_1
I1229 17:57:32.584887 12106 net.cpp:122] Setting up cont_5_lstm2x_r1_r1_cont_slice_4_split
I1229 17:57:32.584890 12106 net.cpp:129] Top shape: 1 38 (38)
I1229 17:57:32.584892 12106 net.cpp:129] Top shape: 1 38 (38)
I1229 17:57:32.584894 12106 net.cpp:137] Memory required for data: 32736240
I1229 17:57:32.584897 12106 layer_factory.hpp:77] Creating layer cont_6_lstm2x_r1_r1_cont_slice_5_split
I1229 17:57:32.584898 12106 net.cpp:84] Creating Layer cont_6_lstm2x_r1_r1_cont_slice_5_split
I1229 17:57:32.584900 12106 net.cpp:406] cont_6_lstm2x_r1_r1_cont_slice_5_split <- cont_6
I1229 17:57:32.584903 12106 net.cpp:380] cont_6_lstm2x_r1_r1_cont_slice_5_split -> cont_6_lstm2x_r1_r1_cont_slice_5_split_0
I1229 17:57:32.584908 12106 net.cpp:380] cont_6_lstm2x_r1_r1_cont_slice_5_split -> cont_6_lstm2x_r1_r1_cont_slice_5_split_1
I1229 17:57:32.584929 12106 net.cpp:122] Setting up cont_6_lstm2x_r1_r1_cont_slice_5_split
I1229 17:57:32.584933 12106 net.cpp:129] Top shape: 1 38 (38)
I1229 17:57:32.584934 12106 net.cpp:129] Top shape: 1 38 (38)
I1229 17:57:32.584936 12106 net.cpp:137] Memory required for data: 32736544
I1229 17:57:32.584938 12106 layer_factory.hpp:77] Creating layer cont_7_lstm2x_r1_r1_cont_slice_6_split
I1229 17:57:32.584940 12106 net.cpp:84] Creating Layer cont_7_lstm2x_r1_r1_cont_slice_6_split
I1229 17:57:32.584942 12106 net.cpp:406] cont_7_lstm2x_r1_r1_cont_slice_6_split <- cont_7
I1229 17:57:32.584945 12106 net.cpp:380] cont_7_lstm2x_r1_r1_cont_slice_6_split -> cont_7_lstm2x_r1_r1_cont_slice_6_split_0
I1229 17:57:32.584949 12106 net.cpp:380] cont_7_lstm2x_r1_r1_cont_slice_6_split -> cont_7_lstm2x_r1_r1_cont_slice_6_split_1
I1229 17:57:32.584970 12106 net.cpp:122] Setting up cont_7_lstm2x_r1_r1_cont_slice_6_split
I1229 17:57:32.584974 12106 net.cpp:129] Top shape: 1 38 (38)
I1229 17:57:32.584976 12106 net.cpp:129] Top shape: 1 38 (38)
I1229 17:57:32.584977 12106 net.cpp:137] Memory required for data: 32736848
I1229 17:57:32.584980 12106 layer_factory.hpp:77] Creating layer cont_8_lstm2x_r1_r1_cont_slice_7_split
I1229 17:57:32.584981 12106 net.cpp:84] Creating Layer cont_8_lstm2x_r1_r1_cont_slice_7_split
I1229 17:57:32.584983 12106 net.cpp:406] cont_8_lstm2x_r1_r1_cont_slice_7_split <- cont_8
I1229 17:57:32.584986 12106 net.cpp:380] cont_8_lstm2x_r1_r1_cont_slice_7_split -> cont_8_lstm2x_r1_r1_cont_slice_7_split_0
I1229 17:57:32.584990 12106 net.cpp:380] cont_8_lstm2x_r1_r1_cont_slice_7_split -> cont_8_lstm2x_r1_r1_cont_slice_7_split_1
I1229 17:57:32.585011 12106 net.cpp:122] Setting up cont_8_lstm2x_r1_r1_cont_slice_7_split
I1229 17:57:32.585016 12106 net.cpp:129] Top shape: 1 38 (38)
I1229 17:57:32.585017 12106 net.cpp:129] Top shape: 1 38 (38)
I1229 17:57:32.585018 12106 net.cpp:137] Memory required for data: 32737152
I1229 17:57:32.585019 12106 layer_factory.hpp:77] Creating layer cont_9_lstm2x_r1_r1_cont_slice_8_split
I1229 17:57:32.585023 12106 net.cpp:84] Creating Layer cont_9_lstm2x_r1_r1_cont_slice_8_split
I1229 17:57:32.585026 12106 net.cpp:406] cont_9_lstm2x_r1_r1_cont_slice_8_split <- cont_9
I1229 17:57:32.585028 12106 net.cpp:380] cont_9_lstm2x_r1_r1_cont_slice_8_split -> cont_9_lstm2x_r1_r1_cont_slice_8_split_0
I1229 17:57:32.585031 12106 net.cpp:380] cont_9_lstm2x_r1_r1_cont_slice_8_split -> cont_9_lstm2x_r1_r1_cont_slice_8_split_1
I1229 17:57:32.585052 12106 net.cpp:122] Setting up cont_9_lstm2x_r1_r1_cont_slice_8_split
I1229 17:57:32.585057 12106 net.cpp:129] Top shape: 1 38 (38)
I1229 17:57:32.585058 12106 net.cpp:129] Top shape: 1 38 (38)
I1229 17:57:32.585059 12106 net.cpp:137] Memory required for data: 32737456
I1229 17:57:32.585065 12106 layer_factory.hpp:77] Creating layer cont_10_lstm2x_r1_r1_cont_slice_9_split
I1229 17:57:32.585068 12106 net.cpp:84] Creating Layer cont_10_lstm2x_r1_r1_cont_slice_9_split
I1229 17:57:32.585070 12106 net.cpp:406] cont_10_lstm2x_r1_r1_cont_slice_9_split <- cont_10
I1229 17:57:32.585073 12106 net.cpp:380] cont_10_lstm2x_r1_r1_cont_slice_9_split -> cont_10_lstm2x_r1_r1_cont_slice_9_split_0
I1229 17:57:32.585078 12106 net.cpp:380] cont_10_lstm2x_r1_r1_cont_slice_9_split -> cont_10_lstm2x_r1_r1_cont_slice_9_split_1
I1229 17:57:32.585100 12106 net.cpp:122] Setting up cont_10_lstm2x_r1_r1_cont_slice_9_split
I1229 17:57:32.585104 12106 net.cpp:129] Top shape: 1 38 (38)
I1229 17:57:32.585106 12106 net.cpp:129] Top shape: 1 38 (38)
I1229 17:57:32.585108 12106 net.cpp:137] Memory required for data: 32737760
I1229 17:57:32.585109 12106 layer_factory.hpp:77] Creating layer cont_11_lstm2x_r1_r1_cont_slice_10_split
I1229 17:57:32.585113 12106 net.cpp:84] Creating Layer cont_11_lstm2x_r1_r1_cont_slice_10_split
I1229 17:57:32.585114 12106 net.cpp:406] cont_11_lstm2x_r1_r1_cont_slice_10_split <- cont_11
I1229 17:57:32.585117 12106 net.cpp:380] cont_11_lstm2x_r1_r1_cont_slice_10_split -> cont_11_lstm2x_r1_r1_cont_slice_10_split_0
I1229 17:57:32.585120 12106 net.cpp:380] cont_11_lstm2x_r1_r1_cont_slice_10_split -> cont_11_lstm2x_r1_r1_cont_slice_10_split_1
I1229 17:57:32.585141 12106 net.cpp:122] Setting up cont_11_lstm2x_r1_r1_cont_slice_10_split
I1229 17:57:32.585145 12106 net.cpp:129] Top shape: 1 38 (38)
I1229 17:57:32.585147 12106 net.cpp:129] Top shape: 1 38 (38)
I1229 17:57:32.585149 12106 net.cpp:137] Memory required for data: 32738064
I1229 17:57:32.585150 12106 layer_factory.hpp:77] Creating layer cont_12_lstm2x_r1_r1_cont_slice_11_split
I1229 17:57:32.585152 12106 net.cpp:84] Creating Layer cont_12_lstm2x_r1_r1_cont_slice_11_split
I1229 17:57:32.585155 12106 net.cpp:406] cont_12_lstm2x_r1_r1_cont_slice_11_split <- cont_12
I1229 17:57:32.585158 12106 net.cpp:380] cont_12_lstm2x_r1_r1_cont_slice_11_split -> cont_12_lstm2x_r1_r1_cont_slice_11_split_0
I1229 17:57:32.585162 12106 net.cpp:380] cont_12_lstm2x_r1_r1_cont_slice_11_split -> cont_12_lstm2x_r1_r1_cont_slice_11_split_1
I1229 17:57:32.585183 12106 net.cpp:122] Setting up cont_12_lstm2x_r1_r1_cont_slice_11_split
I1229 17:57:32.585187 12106 net.cpp:129] Top shape: 1 38 (38)
I1229 17:57:32.585189 12106 net.cpp:129] Top shape: 1 38 (38)
I1229 17:57:32.585191 12106 net.cpp:137] Memory required for data: 32738368
I1229 17:57:32.585191 12106 layer_factory.hpp:77] Creating layer cont_13_lstm2x_r1_r1_cont_slice_12_split
I1229 17:57:32.585196 12106 net.cpp:84] Creating Layer cont_13_lstm2x_r1_r1_cont_slice_12_split
I1229 17:57:32.585197 12106 net.cpp:406] cont_13_lstm2x_r1_r1_cont_slice_12_split <- cont_13
I1229 17:57:32.585201 12106 net.cpp:380] cont_13_lstm2x_r1_r1_cont_slice_12_split -> cont_13_lstm2x_r1_r1_cont_slice_12_split_0
I1229 17:57:32.585203 12106 net.cpp:380] cont_13_lstm2x_r1_r1_cont_slice_12_split -> cont_13_lstm2x_r1_r1_cont_slice_12_split_1
I1229 17:57:32.585225 12106 net.cpp:122] Setting up cont_13_lstm2x_r1_r1_cont_slice_12_split
I1229 17:57:32.585228 12106 net.cpp:129] Top shape: 1 38 (38)
I1229 17:57:32.585230 12106 net.cpp:129] Top shape: 1 38 (38)
I1229 17:57:32.585232 12106 net.cpp:137] Memory required for data: 32738672
I1229 17:57:32.585233 12106 layer_factory.hpp:77] Creating layer cont_14_lstm2x_r1_r1_cont_slice_13_split
I1229 17:57:32.585237 12106 net.cpp:84] Creating Layer cont_14_lstm2x_r1_r1_cont_slice_13_split
I1229 17:57:32.585239 12106 net.cpp:406] cont_14_lstm2x_r1_r1_cont_slice_13_split <- cont_14
I1229 17:57:32.585242 12106 net.cpp:380] cont_14_lstm2x_r1_r1_cont_slice_13_split -> cont_14_lstm2x_r1_r1_cont_slice_13_split_0
I1229 17:57:32.585247 12106 net.cpp:380] cont_14_lstm2x_r1_r1_cont_slice_13_split -> cont_14_lstm2x_r1_r1_cont_slice_13_split_1
I1229 17:57:32.585268 12106 net.cpp:122] Setting up cont_14_lstm2x_r1_r1_cont_slice_13_split
I1229 17:57:32.585270 12106 net.cpp:129] Top shape: 1 38 (38)
I1229 17:57:32.585276 12106 net.cpp:129] Top shape: 1 38 (38)
I1229 17:57:32.585278 12106 net.cpp:137] Memory required for data: 32738976
I1229 17:57:32.585280 12106 layer_factory.hpp:77] Creating layer cont_15_lstm2x_r1_r1_cont_slice_14_split
I1229 17:57:32.585283 12106 net.cpp:84] Creating Layer cont_15_lstm2x_r1_r1_cont_slice_14_split
I1229 17:57:32.585284 12106 net.cpp:406] cont_15_lstm2x_r1_r1_cont_slice_14_split <- cont_15
I1229 17:57:32.585288 12106 net.cpp:380] cont_15_lstm2x_r1_r1_cont_slice_14_split -> cont_15_lstm2x_r1_r1_cont_slice_14_split_0
I1229 17:57:32.585292 12106 net.cpp:380] cont_15_lstm2x_r1_r1_cont_slice_14_split -> cont_15_lstm2x_r1_r1_cont_slice_14_split_1
I1229 17:57:32.585314 12106 net.cpp:122] Setting up cont_15_lstm2x_r1_r1_cont_slice_14_split
I1229 17:57:32.585316 12106 net.cpp:129] Top shape: 1 38 (38)
I1229 17:57:32.585319 12106 net.cpp:129] Top shape: 1 38 (38)
I1229 17:57:32.585320 12106 net.cpp:137] Memory required for data: 32739280
I1229 17:57:32.585321 12106 layer_factory.hpp:77] Creating layer cont_16_lstm2x_r1_r1_cont_slice_15_split
I1229 17:57:32.585325 12106 net.cpp:84] Creating Layer cont_16_lstm2x_r1_r1_cont_slice_15_split
I1229 17:57:32.585326 12106 net.cpp:406] cont_16_lstm2x_r1_r1_cont_slice_15_split <- cont_16
I1229 17:57:32.585330 12106 net.cpp:380] cont_16_lstm2x_r1_r1_cont_slice_15_split -> cont_16_lstm2x_r1_r1_cont_slice_15_split_0
I1229 17:57:32.585332 12106 net.cpp:380] cont_16_lstm2x_r1_r1_cont_slice_15_split -> cont_16_lstm2x_r1_r1_cont_slice_15_split_1
I1229 17:57:32.585353 12106 net.cpp:122] Setting up cont_16_lstm2x_r1_r1_cont_slice_15_split
I1229 17:57:32.585357 12106 net.cpp:129] Top shape: 1 38 (38)
I1229 17:57:32.585360 12106 net.cpp:129] Top shape: 1 38 (38)
I1229 17:57:32.585361 12106 net.cpp:137] Memory required for data: 32739584
I1229 17:57:32.585362 12106 layer_factory.hpp:77] Creating layer cont_17_lstm2x_r1_r1_cont_slice_16_split
I1229 17:57:32.585364 12106 net.cpp:84] Creating Layer cont_17_lstm2x_r1_r1_cont_slice_16_split
I1229 17:57:32.585366 12106 net.cpp:406] cont_17_lstm2x_r1_r1_cont_slice_16_split <- cont_17
I1229 17:57:32.585369 12106 net.cpp:380] cont_17_lstm2x_r1_r1_cont_slice_16_split -> cont_17_lstm2x_r1_r1_cont_slice_16_split_0
I1229 17:57:32.585373 12106 net.cpp:380] cont_17_lstm2x_r1_r1_cont_slice_16_split -> cont_17_lstm2x_r1_r1_cont_slice_16_split_1
I1229 17:57:32.585393 12106 net.cpp:122] Setting up cont_17_lstm2x_r1_r1_cont_slice_16_split
I1229 17:57:32.585397 12106 net.cpp:129] Top shape: 1 38 (38)
I1229 17:57:32.585398 12106 net.cpp:129] Top shape: 1 38 (38)
I1229 17:57:32.585400 12106 net.cpp:137] Memory required for data: 32739888
I1229 17:57:32.585402 12106 layer_factory.hpp:77] Creating layer cont_18_lstm2x_r1_r1_cont_slice_17_split
I1229 17:57:32.585409 12106 net.cpp:84] Creating Layer cont_18_lstm2x_r1_r1_cont_slice_17_split
I1229 17:57:32.585412 12106 net.cpp:406] cont_18_lstm2x_r1_r1_cont_slice_17_split <- cont_18
I1229 17:57:32.585414 12106 net.cpp:380] cont_18_lstm2x_r1_r1_cont_slice_17_split -> cont_18_lstm2x_r1_r1_cont_slice_17_split_0
I1229 17:57:32.585418 12106 net.cpp:380] cont_18_lstm2x_r1_r1_cont_slice_17_split -> cont_18_lstm2x_r1_r1_cont_slice_17_split_1
I1229 17:57:32.585439 12106 net.cpp:122] Setting up cont_18_lstm2x_r1_r1_cont_slice_17_split
I1229 17:57:32.585443 12106 net.cpp:129] Top shape: 1 38 (38)
I1229 17:57:32.585444 12106 net.cpp:129] Top shape: 1 38 (38)
I1229 17:57:32.585446 12106 net.cpp:137] Memory required for data: 32740192
I1229 17:57:32.585448 12106 layer_factory.hpp:77] Creating layer cont_19_lstm2x_r1_r1_cont_slice_18_split
…
I1229 17:57:32.790314 12106 net.cpp:380] h_58_lstm2x_r1_r1_unit_58_1_split -> h_58_lstm2x_r1_r1_unit_58_1_split_1
I1229 17:57:32.790334 12106 net.cpp:122] Setting up h_58_lstm2x_r1_r1_unit_58_1_split
I1229 17:57:32.790338 12106 net.cpp:129] Top shape: 1 8 100 (800)
I1229 17:57:32.790339 12106 net.cpp:129] Top shape: 1 8 100 (800)
I1229 17:57:32.790341 12106 net.cpp:137] Memory required for data: 10844160
I1229 17:57:32.790343 12106 layer_factory.hpp:77] Creating layer lstm2x_r1_r1_h_conted_58
I1229 17:57:32.790346 12106 net.cpp:84] Creating Layer lstm2x_r1_r1_h_conted_58
I1229 17:57:32.790349 12106 net.cpp:406] lstm2x_r1_r1_h_conted_58 <- h_58_lstm2x_r1_r1_unit_58_1_split_0
I1229 17:57:32.790351 12106 net.cpp:406] lstm2x_r1_r1_h_conted_58 <- cont_59_lstm2x_r1_r1_cont_slice_58_split_0
I1229 17:57:32.790354 12106 net.cpp:380] lstm2x_r1_r1_h_conted_58 -> h_conted_58
I1229 17:57:32.790391 12106 net.cpp:122] Setting up lstm2x_r1_r1_h_conted_58
I1229 17:57:32.790395 12106 net.cpp:129] Top shape: 1 8 100 (800)
I1229 17:57:32.790397 12106 net.cpp:137] Memory required for data: 10847360
I1229 17:57:32.790398 12106 layer_factory.hpp:77] Creating layer lstm2x_r1_r1_transform_59
I1229 17:57:32.790401 12106 net.cpp:84] Creating Layer lstm2x_r1_r1_transform_59
I1229 17:57:32.790403 12106 net.cpp:406] lstm2x_r1_r1_transform_59 <- h_conted_58
I1229 17:57:32.790407 12106 net.cpp:380] lstm2x_r1_r1_transform_59 -> W_hc_h_58
I1229 17:57:32.790581 12106 net.cpp:122] Setting up lstm2x_r1_r1_transform_59
I1229 17:57:32.790585 12106 net.cpp:129] Top shape: 1 8 400 (3200)
I1229 17:57:32.790587 12106 net.cpp:137] Memory required for data: 10860160
I1229 17:57:32.790590 12106 net.cpp:465] Sharing parameters 'W_hc' owned by layer 'lstm2x_r1_r1_transform_1', param index 0
I1229 17:57:32.790591 12106 layer_factory.hpp:77] Creating layer lstm2x_r1_r1_gate_input_59
I1229 17:57:32.790593 12106 net.cpp:84] Creating Layer lstm2x_r1_r1_gate_input_59
I1229 17:57:32.790596 12106 net.cpp:406] lstm2x_r1_r1_gate_input_59 <- W_hc_h_58
I1229 17:57:32.790598 12106 net.cpp:406] lstm2x_r1_r1_gate_input_59 <- W_xc_x_59
I1229 17:57:32.790601 12106 net.cpp:380] lstm2x_r1_r1_gate_input_59 -> gate_input_59
I1229 17:57:32.790616 12106 net.cpp:122] Setting up lstm2x_r1_r1_gate_input_59
I1229 17:57:32.790619 12106 net.cpp:129] Top shape: 1 8 400 (3200)
I1229 17:57:32.790621 12106 net.cpp:137] Memory required for data: 10872960
I1229 17:57:32.790623 12106 layer_factory.hpp:77] Creating layer lstm2x_r1_r1_unit_59
I1229 17:57:32.790630 12106 net.cpp:84] Creating Layer lstm2x_r1_r1_unit_59
I1229 17:57:32.790632 12106 net.cpp:406] lstm2x_r1_r1_unit_59 <- c_58
I1229 17:57:32.790637 12106 net.cpp:406] lstm2x_r1_r1_unit_59 <- gate_input_59
I1229 17:57:32.790638 12106 net.cpp:406] lstm2x_r1_r1_unit_59 <- cont_59_lstm2x_r1_r1_cont_slice_58_split_1
I1229 17:57:32.790642 12106 net.cpp:380] lstm2x_r1_r1_unit_59 -> c_59
I1229 17:57:32.790645 12106 net.cpp:380] lstm2x_r1_r1_unit_59 -> h_59
I1229 17:57:32.790675 12106 net.cpp:122] Setting up lstm2x_r1_r1_unit_59
I1229 17:57:32.790678 12106 net.cpp:129] Top shape: 1 8 100 (800)
I1229 17:57:32.790680 12106 net.cpp:129] Top shape: 1 8 100 (800)
I1229 17:57:32.790683 12106 net.cpp:137] Memory required for data: 10879360
I1229 17:57:32.790684 12106 layer_factory.hpp:77] Creating layer h_59_lstm2x_r1_r1_unit_59_1_split
I1229 17:57:32.790688 12106 net.cpp:84] Creating Layer h_59_lstm2x_r1_r1_unit_59_1_split
I1229 17:57:32.790689 12106 net.cpp:406] h_59_lstm2x_r1_r1_unit_59_1_split <- h_59
I1229 17:57:32.790691 12106 net.cpp:380] h_59_lstm2x_r1_r1_unit_59_1_split -> h_59_lstm2x_r1_r1_unit_59_1_split_0
I1229 17:57:32.790696 12106 net.cpp:380] h_59_lstm2x_r1_r1_unit_59_1_split -> h_59_lstm2x_r1_r1_unit_59_1_split_1
I1229 17:57:32.790717 12106 net.cpp:122] Setting up h_59_lstm2x_r1_r1_unit_59_1_split
I1229 17:57:32.790720 12106 net.cpp:129] Top shape: 1 8 100 (800)
I1229 17:57:32.790722 12106 net.cpp:129] Top shape: 1 8 100 (800)
I1229 17:57:32.790724 12106 net.cpp:137] Memory required for data: 10885760
I1229 17:57:32.790725 12106 layer_factory.hpp:77] Creating layer lstm2x_r1_r1_h_conted_59
I1229 17:57:32.790729 12106 net.cpp:84] Creating Layer lstm2x_r1_r1_h_conted_59
I1229 17:57:32.790732 12106 net.cpp:406] lstm2x_r1_r1_h_conted_59 <- h_59_lstm2x_r1_r1_unit_59_1_split_0
I1229 17:57:32.790735 12106 net.cpp:406] lstm2x_r1_r1_h_conted_59 <- cont_60_lstm2x_r1_r1_cont_slice_59_split_0
I1229 17:57:32.790738 12106 net.cpp:380] lstm2x_r1_r1_h_conted_59 -> h_conted_59
I1229 17:57:32.790776 12106 net.cpp:122] Setting up lstm2x_r1_r1_h_conted_59
I1229 17:57:32.790778 12106 net.cpp:129] Top shape: 1 8 100 (800)
I1229 17:57:32.790781 12106 net.cpp:137] Memory required for data: 10888960
I1229 17:57:32.790781 12106 layer_factory.hpp:77] Creating layer lstm2x_r1_r1_transform_60
I1229 17:57:32.790786 12106 net.cpp:84] Creating Layer lstm2x_r1_r1_transform_60
I1229 17:57:32.790787 12106 net.cpp:406] lstm2x_r1_r1_transform_60 <- h_conted_59
I1229 17:57:32.790791 12106 net.cpp:380] lstm2x_r1_r1_transform_60 -> W_hc_h_59
I1229 17:57:32.790963 12106 net.cpp:122] Setting up lstm2x_r1_r1_transform_60
I1229 17:57:32.790967 12106 net.cpp:129] Top shape: 1 8 400 (3200)
I1229 17:57:32.790969 12106 net.cpp:137] Memory required for data: 10901760
I1229 17:57:32.790971 12106 net.cpp:465] Sharing parameters 'W_hc' owned by layer 'lstm2x_r1_r1_transform_1', param index 0
I1229 17:57:32.790973 12106 layer_factory.hpp:77] Creating layer lstm2x_r1_r1_gate_input_60
I1229 17:57:32.790982 12106 net.cpp:84] Creating Layer lstm2x_r1_r1_gate_input_60
I1229 17:57:32.790985 12106 net.cpp:406] lstm2x_r1_r1_gate_input_60 <- W_hc_h_59
I1229 17:57:32.790988 12106 net.cpp:406] lstm2x_r1_r1_gate_input_60 <- W_xc_x_60
I1229 17:57:32.790992 12106 net.cpp:380] lstm2x_r1_r1_gate_input_60 -> gate_input_60
I1229 17:57:32.791007 12106 net.cpp:122] Setting up lstm2x_r1_r1_gate_input_60
I1229 17:57:32.791009 12106 net.cpp:129] Top shape: 1 8 400 (3200)
I1229 17:57:32.791012 12106 net.cpp:137] Memory required for data: 10914560
I1229 17:57:32.791013 12106 layer_factory.hpp:77] Creating layer lstm2x_r1_r1_unit_60
I1229 17:57:32.791015 12106 net.cpp:84] Creating Layer lstm2x_r1_r1_unit_60
I1229 17:57:32.791018 12106 net.cpp:406] lstm2x_r1_r1_unit_60 <- c_59
I1229 17:57:32.791020 12106 net.cpp:406] lstm2x_r1_r1_unit_60 <- gate_input_60
I1229 17:57:32.791023 12106 net.cpp:406] lstm2x_r1_r1_unit_60 <- cont_60_lstm2x_r1_r1_cont_slice_59_split_1
I1229 17:57:32.791025 12106 net.cpp:380] lstm2x_r1_r1_unit_60 -> c_60
I1229 17:57:32.791029 12106 net.cpp:380] lstm2x_r1_r1_unit_60 -> h_60
I1229 17:57:32.791062 12106 net.cpp:122] Setting up lstm2x_r1_r1_unit_60
I1229 17:57:32.791065 12106 net.cpp:129] Top shape: 1 8 100 (800)
I1229 17:57:32.791069 12106 net.cpp:129] Top shape: 1 8 100 (800)
I1229 17:57:32.791069 12106 net.cpp:137] Memory required for data: 10920960
I1229 17:57:32.791071 12106 layer_factory.hpp:77] Creating layer lstm2x_r1_r1_
I1229 17:57:32.791074 12106 net.cpp:84] Creating Layer lstm2x_r1_r1_
I1229 17:57:32.791075 12106 net.cpp:406] lstm2x_r1_r1_ <- c_60
I1229 17:57:32.791079 12106 net.cpp:380] lstm2x_r1_r1_ -> c_T
I1229 17:57:32.791091 12106 net.cpp:122] Setting up lstm2x_r1_r1_
I1229 17:57:32.791095 12106 net.cpp:129] Top shape: 1 8 100 (800)
I1229 17:57:32.791096 12106 net.cpp:137] Memory required for data: 10924160
I1229 17:57:32.791097 12106 layer_factory.hpp:77] Creating layer lstm2x_r1_r1_h_concat
I1229 17:57:32.791105 12106 net.cpp:84] Creating Layer lstm2x_r1_r1_h_concat
I1229 17:57:32.791107 12106 net.cpp:406] lstm2x_r1_r1_h_concat <- h_1_lstm2x_r1_r1_unit_1_1_split_1
I1229 17:57:32.791110 12106 net.cpp:406] lstm2x_r1_r1_h_concat <- h_2_lstm2x_r1_r1_unit_2_1_split_1
…
I1229 17:57:32.792294 12106 net.cpp:200] lstm2x_r1_r1_ does not need backward computation.
I1229 17:57:32.792295 12106 net.cpp:242] This network produces output c_T
I1229 17:57:32.792297 12106 net.cpp:242] This network produces output h_pseudoloss
I1229 17:57:32.793895 12106 net.cpp:255] Network initialization done.
I1229 17:57:32.794279 12106 recurrent_layer.cpp:150] Adding parameter 0: W_xc
I1229 17:57:32.794284 12106 recurrent_layer.cpp:150] Adding parameter 1: b_c
I1229 17:57:32.794286 12106 recurrent_layer.cpp:150] Adding parameter 2: W_hc
I1229 17:57:32.794613 12106 net.cpp:122] Setting up lstm2x_r1_r1
I1229 17:57:32.794620 12106 net.cpp:129] Top shape: 60 8 100 (48000)
I1229 17:57:32.794622 12106 net.cpp:137] Memory required for data: 768323328
I1229 17:57:32.794630 12106 layer_factory.hpp:77] Creating layer lstm-reverse2
I1229 17:57:32.794633 12106 net.cpp:84] Creating Layer lstm-reverse2
I1229 17:57:32.794636 12106 net.cpp:406] lstm-reverse2 <- lstm2x
I1229 17:57:32.794647 12106 net.cpp:380] lstm-reverse2 -> rlstmx
I1229 17:57:32.794693 12106 net.cpp:122] Setting up lstm-reverse2
I1229 17:57:32.794697 12106 net.cpp:129] Top shape: 60 8 100 (48000)
I1229 17:57:32.794699 12106 net.cpp:137] Memory required for data: 768515328
I1229 17:57:32.794701 12106 layer_factory.hpp:77] Creating layer lstm1x_r1_r1
I1229 17:57:32.794704 12106 net.cpp:84] Creating Layer lstm1x_r1_r1
I1229 17:57:32.794706 12106 net.cpp:406] lstm1x_r1_r1 <- permuted_data_permuted_data_0_split_1
I1229 17:57:32.794709 12106 net.cpp:406] lstm1x_r1_r1 <- indicator_indicator_0_split_1
I1229 17:57:32.794713 12106 net.cpp:380] lstm1x_r1_r1 -> lstm1x
I1229 17:57:32.794718 12106 recurrent_layer.cpp:20] Initializing recurrent layer: assuming input batch contains 60 timesteps of 8 independent streams.
I1229 17:57:32.795686 12106 net.cpp:51] Initializing net from parameters: 
layer {
  name: "lstm1x_r1_r1_"
  type: "Input"
  top: "x"
  top: "cont"
  input_param {
    shape {
      dim: 60
      dim: 8
      dim: 512
      dim: 7
    }
    shape {
      dim: 60
      dim: 8
    }
  }
}
layer {
  name: "lstm1x_r1_r1_"
  type: "Input"
  top: "c_0"
  top: "h_0"
  input_param {
    shape {
      dim: 1
      dim: 8
      dim: 100
    }
    shape {
      dim: 1
      dim: 8
      dim: 100
    }
  }
}
layer {
  name: "lstm1x_r1_r1_cont_slice"
  type: "Slice"
  bottom: "cont"
  top: "cont_1"
  top: "cont_2"
  top: "cont_3"
  top: "cont_4"
  top: "cont_5"
  top: "cont_6"
  top: "cont_7"
  top: "cont_8"
  top: "cont_9"
  top: "cont_10"
  top: "cont_11"
  top: "cont_12"
  top: "cont_13"
  top: "cont_14"
  top: "cont_15"
  top: "cont_16"
  top: "cont_17"
  top: "cont_18"
  top: "cont_19"
  top: "cont_20"
  top: "cont_21"
  top: "cont_22"
  top: "cont_23"
  top: "cont_24"
  top: "cont_25"
  top: "cont_26"
  top: "cont_27"
  top: "cont_28"
  top: "cont_29"
  top: "cont_30"
  top: "cont_31"
  top: "cont_32"
  top: "cont_33"
  top: "cont_34"
  top: "cont_35"
  top: "cont_36"
  top: "cont_37"
  top: "cont_38"
  top: "cont_39"
  top: "cont_40"
  top: "cont_41"
  top: "cont_42"
  top: "cont_43"
  top: "cont_44"
  top: "cont_45"
  top: "cont_46"
  top: "cont_47"
  top: "cont_48"
  top: "cont_49"
  top: "cont_50"
  top: "cont_51"
  top: "cont_52"
  top: "cont_53"
  top: "cont_54"
  top: "cont_55"
  top: "cont_56"
  top: "cont_57"
  top: "cont_58"
  top: "cont_59"
  top: "cont_60"
  slice_param {
    axis: 0
  }
}
layer {
  name: "lstm1x_r1_r1_x_transform"
  type: "InnerProduct"
  bottom: "x"
  top: "W_xc_x"
  param {
    name: "W_xc"
  }
  param {
    name: "b_c"
  }
  propagate_down: true
  inner_product_param {
    num_output: 400
    bias_term: true
    weight_filler {
      type: "xavier"
    }
    bias_filler {
      type: "constant"
      value: 0
    }
    axis: 2
  }
}
layer {
  name: "lstm1x_r1_r1_W_xc_x_slice"
  type: "Slice"
  bottom: "W_xc_x"
  top: "W_xc_x_1"
  top: "W_xc_x_2"
  top: "W_xc_x_3"
  top: "W_xc_x_4"
  top: "W_xc_x_5"
  top: "W_xc_x_6"
  top: "W_xc_x_7"
  top: "W_xc_x_8"
  top: "W_xc_x_9"
  top: "W_xc_x_10"
  top: "W_xc_x_11"
  top: "W_xc_x_12"
  top: "W_xc_x_13"
  top: "W_xc_x_14"
  top: "W_xc_x_15"
  top: "W_xc_x_16"
  top: "W_xc_x_17"
  top: "W_xc_x_18"
  top: "W_xc_x_19"
  top: "W_xc_x_20"
  top: "W_xc_x_21"
  top: "W_xc_x_22"
  top: "W_xc_x_23"
  top: "W_xc_x_24"
  top: "W_xc_x_25"
  top: "W_xc_x_26"
  top: "W_xc_x_27"
  top: "W_xc_x_28"
  top: "W_xc_x_29"
  top: "W_xc_x_30"
  top: "W_xc_x_31"
  top: "W_xc_x_32"
  top: "W_xc_x_33"
  top: "W_xc_x_34"
  top: "W_xc_x_35"
  top: "W_xc_x_36"
  top: "W_xc_x_37"
  top: "W_xc_x_38"
  top: "W_xc_x_39"
  top: "W_xc_x_40"
  top: "W_xc_x_41"
  top: "W_xc_x_42"
  top: "W_xc_x_43"
  top: "W_xc_x_44"
  top: "W_xc_x_45"
  top: "W_xc_x_46"
  top: "W_xc_x_47"
  top: "W_xc_x_48"
  top: "W_xc_x_49"
  top: "W_xc_x_50"
  top: "W_xc_x_51"
  top: "W_xc_x_52"
  top: "W_xc_x_53"
  top: "W_xc_x_54"
  top: "W_xc_x_55"
  top: "W_xc_x_56"
  top: "W_xc_x_57"
  top: "W_xc_x_58"
  top: "W_xc_x_59"
  top: "W_xc_x_60"
  slice_param {
    axis: 0
  }
}
layer {
  name: "lstm1x_r1_r1_h_conted_0"
  type: "Scale"
  bottom: "h_0"
  bottom: "cont_1"
  top: "h_conted_0"
  scale_param {
    axis: 0
  }
}
layer {
  name: "lstm1x_r1_r1_transform_1"
  type: "InnerProduct"
  bottom: "h_conted_0"
  top: "W_hc_h_0"
  param {
    name: "W_hc"
  }
  inner_product_param {
    num_output: 400
    bias_term: false
    weight_filler {
      type: "xavier"
    }
    axis: 2
  }
}
layer {
  name: "lstm1x_r1_r1_gate_input_1"
  type: "Eltwise"
  bottom: "W_hc_h_0"
  bottom: "W_xc_x_1"
  top: "gate_input_1"
  eltwise_param {
    operation: SUM
  }
}
layer {
  name: "lstm1x_r1_r1_unit_1"
  type: "LSTMUnit"
  bottom: "c_0"
  bottom: "gate_input_1"
  bottom: "cont_1"
  top: "c_1"
  top: "h_1"
}
layer {
  name: "lstm1x_r1_r1_h_conted_1"
  type: "Scale"
  bottom: "h_1"
  bottom: "cont_2"
  top: "h_conted_1"
  scale_param {
    axis: 0
  }
}
layer {
  name: "lstm1x_r1_r1_transform_2"
  type: "InnerProduct"
  bottom: "h_conted_1"
  top: "W_hc_h_1"
  param {
    name: "W_hc"
  }
  inner_product_param {
    num_output: 400
    bias_term: false
    weight_filler {
      type: "xavier"
    }
    axis: 2
  }
}
layer {
  name: "lstm1x_r1_r1_gate_input_2"
  type: "Eltwise"
  bottom: "W_hc_h_1"
  bottom: "W_xc_x_2"
  top: "gate_input_2"
  eltwise_param {
    operation: SUM
  }
}
layer {
  name: "lstm1x_r1_r1_unit_2"
  type: "LSTMUnit"
  bottom: "c_1"
  bottom: "gate_input_2"
  bottom: "cont_2"
  top: "c_2"
  top: "h_2"
}
layer {
  name: "lstm1x_r1_r1_h_conted_2"
  type: "Scale"
  bottom: "h_2"
  bottom: "cont_3"
  top: "h_conted_2"
  scale_param {
    axis: 0
  }
}
layer {
  name: "lstm1x_r1_r1_transform_3"
  type: "InnerProduct"
  bottom: "h_conted_2"
  top: "W_hc_h_2"
  param {
    name: "W_hc"
  }
  inner_product_param {
    num_output: 400
    bias_term: false
    weight_filler {
      type: "xavier"
    }
    axis: 2
  }
}
layer {
  name: "lstm1x_r1_r1_gate_input_3"
  type: "Eltwise"
  bottom: "W_hc_h_2"
  bottom: "W_xc_x_3"
  top: "gate_input_3"
  eltwise_param {
    operation: SUM
  }
}
layer {
  name: "lstm1x_r1_r1_unit_3"
  type: "LSTMUnit"
  bottom: "c_2"
  bottom: "gate_input_3"
  bottom: "cont_3"
  top: "c_3"
  top: "h_3"
}
layer {
  name: "lstm1x_r1_r1_h_conted_3"
  type: "Scale"
  bottom: "h_3"
  bottom: "cont_4"
  top: "h_conted_3"
  scale_param {
    axis: 0
  }
}
layer {
  name: "lstm1x_r1_r1_transform_4"
  type: "InnerProduct"
  bottom: "h_conted_3"
  top: "W_hc_h_3"
  param {
    name: "W_hc"
  }
  inner_product_param {
    num_output: 400
    bias_term: false
    weight_filler {
      type: "xavier"
    }
    axis: 2
  }
}
layer {
  name: "lstm1x_r1_r1_gate_input_4"
  type: "Eltwise"
  bottom: "W_hc_h_3"
  bottom: "W_xc_x_4"
  top: "gate_input_4"
  eltwise_param {
    operation: SUM
  }
}
layer {
  name: "lstm1x_r1_r1_unit_4"
  type: "LSTMUnit"
  bottom: "c_3"
  bottom: "gate_input_4"
  bottom: "cont_4"
  top: "c_4"
  top: "h_4"
}
layer {
  name: "lstm1x_r1_r1_h_conted_4"
  type: "Scale"
  bottom: "h_4"
  bottom: "cont_5"
  top: "h_conted_4"
  scale_param {
    axis: 0
  }
}
layer {
  name: "lstm1x_r1_r1_transform_5"
  type: "InnerProduct"
  bottom: "h_conted_4"
  top: "W_hc_h_4"
  param {
    name: "W_hc"
  }
  inner_product_param {
    num_output: 400
    bias_term: false
    weight_filler {
      type: "xavier"
    }
    axis: 2
  }
}
layer {
  name: "lstm1x_r1_r1_gate_input_5"
  type: "Eltwise"
  bottom: "W_hc_h_4"
  bottom: "W_xc_x_5"
  top: "gate_input_5"
  eltwise_param {
    operation: SUM
  }
}
layer {
  name: "lstm1x_r1_r1_unit_5"
  type: "LSTMUnit"
  bottom: "c_4"
  bottom: "gate_input_5"
  bottom: "cont_5"
  top: "c_5"
  top: "h_5"
}
layer {
  name: "lstm1x_r1_r1_h_conted_5"
  type: "Scale"
  bottom: "h_5"
  bottom: "cont_6"
  top: "h_conted_5"
  scale_param {
    axis: 0
  }
}
layer {
  name: "lstm1x_r1_r1_transform_6"
  type: "InnerProduct"
  bottom: "h_conted_5"
  top: "W_hc_h_5"
  param {
    name: "W_hc"
  }
  inner_product_param {
    num_output: 400
    bias_term: false
    weight_filler {
      type: "xavier"
    }
    axis: 2
  }
}
layer {
  name: "lstm1x_r1_r1_gate_input_6"
  type: "Eltwise"
  bottom: "W_hc_h_5"
  bottom: "W_xc_x_6"
  top: "gate_input_6"
  eltwise_param {
    operation: SUM
  }
}
layer {
  name: "lstm1x_r1_r1_unit_6"
  type: "LSTMUnit"
  bottom: "c_5"
  bottom: "gate_input_6"
  bottom: "cont_6"
  top: "c_6"
  top: "h_6"
}
layer {
  name: "lstm1x_r1_r1_h_conted_6"
  type: "Scale"
  bottom: "h_6"
  bottom: "cont_7"
  top: "h_conted_6"
  scale_param {
    axis: 0
  }
}
layer {
  name: "lstm1x_r1_r1_transform_7"
  type: "InnerProduct"
  bottom: "h_conted_6"
  top: "W_hc_h_6"
  param {
    name: "W_hc"
  }
  inner_product_param {
    num_output: 400
    bias_term: false
    weight_filler {
      type: "xavier"
    }
    axis: 2
  }
}
layer {
  name: "lstm1x_r1_r1_gate_input_7"
  type: "Eltwise"
  bottom: "W_hc_h_6"
  bottom: "W_xc_x_7"
  top: "gate_input_7"
  eltwise_param {
    operation: SUM
  }
}
layer {
  name: "lstm1x_r1_r1_unit_7"
  type: "LSTMUnit"
  bottom: "c_6"
  bottom: "gate_input_7"
  bottom: "cont_7"
  top: "c_7"
  top: "h_7"
}
layer {
  name: "lstm1x_r1_r1_h_conted_7"
  type: "Scale"
  bottom: "h_7"
  bottom: "cont_8"
  top: "h_conted_7"
  scale_param {
    axis: 0
  }
}
layer {
  name: "lstm1x_r1_r1_transform_8"
  type: "InnerProduct"
  bottom: "h_conted_7"
  top: "W_hc_h_7"
  param {
    name: "W_hc"
  }
  inner_product_param {
    num_output: 400
    bias_term: false
    weight_filler {
      type: "xavier"
    }
    axis: 2
  }
}
layer {
  name: "lstm1x_r1_r1_gate_input_8"
  type: "Eltwise"
  bottom: "W_hc_h_7"
  bottom: "W_xc_x_8"
  top: "gate_input_8"
  eltwise_param {
    operation: SUM
  }
}
layer {
  name: "lstm1x_r1_r1_unit_8"
  type: "LSTMUnit"
  bottom: "c_7"
  bottom: "gate_input_8"
  bottom: "cont_8"
  top: "c_8"
  top: "h_8"
}
layer {
  name: "lstm1x_r1_r1_h_conted_8"
  type: "Scale"
  bottom: "h_8"
  bottom: "cont_9"
  top: "h_conted_8"
  scale_param {
    axis: 0
  }
}
layer {
  name: "lstm1x_r1_r1_transform_9"
  type: "InnerProduct"
  bottom: "h_conted_8"
  top: "W_hc_h_8"
  param {
    name: "W_hc"
  }
  inner_product_param {
    num_output: 400
    bias_term: false
    weight_filler {
      type: "xavier"
    }
    axis: 2
  }
}
layer {
  name: "lstm1x_r1_r1_gate_input_9"
  type: "Eltwise"
  bottom: "W_hc_h_8"
  bottom: "W_xc_x_9"
  top: "gate_input_9"
  eltwise_param {
    operation: SUM
  }
}
layer {
  name: "lstm1x_r1_r1_unit_9"
  type: "LSTMUnit"
  bottom: "c_8"
  bottom: "gate_input_9"
  bottom: "cont_9"
  top: "c_9"
  top: "h_9"
}
layer {
  name: "lstm1x_r1_r1_h_conted_9"
  type: "Scale"
  bottom: "h_9"
  bottom: "cont_10"
  top: "h_conted_9"
  scale_param {
    axis: 0
  }
}
layer {
  name: "lstm1x_r1_r1_transform_10"
  type: "InnerProduct"
  bottom: "h_conted_9"
  top: "W_hc_h_9"
  param {
    name: "W_hc"
  }
  inner_product_param {
    num_output: 400
    bias_term: false
    weight_filler {
      type: "xavier"
    }
    axis: 2
  }
}
layer {
  name: "lstm1x_r1_r1_gate_input_10"
  type: "Eltwise"
  bottom: "W_hc_h_9"
  bottom: "W_xc_x_10"
  top: "gate_input_10"
  eltwise_param {
    operation: SUM
  }
}
layer {
  name: "lstm1x_r1_r1_unit_10"
  type: "LSTMUnit"
  bottom: "c_9"
  bottom: "gate_input_10"
  bottom: "cont_10"
  top: "c_10"
  top: "h_10"
}
layer {
  name: "lstm1x_r1_r1_h_conted_10"
  type: "Scale"
  bottom: "h_10"
  bottom: "cont_11"
  top: "h_conted_10"
  scale_param {
    axis: 0
  }
}
layer {
  name: "lstm1x_r1_r1_transform_11"
  type: "InnerProduct"
  bottom: "h_conted_10"
  top: "W_hc_h_10"
  param {
    name: "W_hc"
  }
  inner_product_param {
    num_output: 400
    bias_term: false
    weight_filler {
      type: "xavier"
    }
    axis: 2
  }
}
layer {
  name: "lstm1x_r1_r1_gate_input_11"
  type: "Eltwise"
  bottom: "W_hc_h_10"
  bottom: "W_xc_x_11"
  top: "gate_input_11"
  eltwise_param {
    operation: SUM
  }
}
layer {
  name: "lstm1x_r1_r1_unit_11"
  type: "LSTMUnit"
  bottom: "c_10"
  bottom: "gate_input_11"
  bottom: "cont_11"
  top: "c_11"
  top: "h_11"
}
layer {
  name: "lstm1x_r1_r1_h_conted_11"
  type: "Scale"
  bottom: "h_11"
  bottom: "cont_12"
  top: "h_conted_11"
  scale_param {
    axis: 0
  }
}
layer {
  name: "lstm1x_r1_r1_transform_12"
  type: "InnerProduct"
  bottom: "h_conted_11"
  top: "W_hc_h_11"
  param {
    name: "W_hc"
  }
  inner_product_param {
    num_output: 400
    bias_term: false
    weight_filler {
      type: "xavier"
    }
    axis: 2
  }
}
layer {
  name: "lstm1x_r1_r1_gate_input_12"
  type: "Eltwise"
  bottom: "W_hc_h_11"
  bottom: "W_xc_x_12"
  top: "gate_input_12"
  eltwise_param {
    operation: SUM
  }
}
layer {
  name: "lstm1x_r1_r1_unit_12"
  type: "LSTMUnit"
  bottom: "c_11"
  bottom: "gate_input_12"
  bottom: "cont_12"
  top: "c_12"
  top: "h_12"
}
layer {
  name: "lstm1x_r1_r1_h_conted_12"
  type: "Scale"
  bottom: "h_12"
  bottom: "cont_13"
  top: "h_conted_12"
  scale_param {
    axis: 0
  }
}
layer {
  name: "lstm1x_r1_r1_transform_13"
  type: "InnerProduct"
  bottom: "h_conted_12"
  top: "W_hc_h_12"
  param {
    name: "W_hc"
  }
  inner_product_param {
    num_output: 400
    bias_term: false
    weight_filler {
      type: "xavier"
    }
    axis: 2
  }
}
layer {
  name: "lstm1x_r1_r1_gate_input_13"
  type: "Eltwise"
  bottom: "W_hc_h_12"
  bottom: "W_xc_x_13"
  top: "gate_input_13"
  eltwise_param {
    operation: SUM
  }
}
layer {
  name: "lstm1x_r1_r1_unit_13"
  type: "LSTMUnit"
  bottom: "c_12"
  bottom: "gate_input_13"
  bottom: "cont_13"
  top: "c_13"
  top: "h_13"
}
layer {
  name: "lstm1x_r1_r1_h_conted_13"
  type: "Scale"
  bottom: "h_13"
  bottom: "cont_14"
  top: "h_conted_13"
  scale_param {
    axis: 0
  }
}
layer {
  name: "lstm1x_r1_r1_transform_14"
  type: "InnerProduct"
  bottom: "h_conted_13"
  top: "W_hc_h_13"
  param {
    name: "W_hc"
  }
  inner_product_param {
    num_output: 400
    bias_term: false
    weight_filler {
      type: "xavier"
    }
    axis: 2
  }
}
layer {
  name: "lstm1x_r1_r1_gate_input_14"
  type: "Eltwise"
  bottom: "W_hc_h_13"
  bottom: "W_xc_x_14"
  top: "gate_input_14"
  eltwise_param {
    operation: SUM
  }
}
layer {
  name: "lstm1x_r1_r1_unit_14"
  type: "LSTMUnit"
  bottom: "c_13"
  bottom: "gate_input_14"
  bottom: "cont_14"
  top: "c_14"
  top: "h_14"
}
layer {
  name: "lstm1x_r1_r1_h_conted_14"
  type: "Scale"
  bottom: "h_14"
  bottom: "cont_15"
  top: "h_conted_14"
  scale_param {
    axis: 0
  }
}
layer {
  name: "lstm1x_r1_r1_transform_15"
  type: "InnerProduct"
  bottom: "h_conted_14"
  top: "W_hc_h_14"
  param {
    name: "W_hc"
  }
  inner_product_param {
    num_output: 400
    bias_term: false
    weight_filler {
      type: "xavier"
    }
    axis: 2
  }
}
layer {
  name: "lstm1x_r1_r1_gate_input_15"
  type: "Eltwise"
  bottom: "W_hc_h_14"
  bottom: "W_xc_x_15"
  top: "gate_input_15"
  eltwise_param {
    operation: SUM
  }
}
layer {
  name: "lstm1x_r1_r1_unit_15"
  type: "LSTMUnit"
  bottom: "c_14"
  bottom: "gate_input_15"
  bottom: "cont_15"
  top: "c_15"
  top: "h_15"
}
layer {
  name: "lstm1x_r1_r1_h_conted_15"
  type: "Scale"
  bottom: "h_15"
  bottom: "cont_16"
  top: "h_conted_15"
  scale_param {
    axis: 0
  }
}
layer {
  name: "lstm1x_r1_r1_transform_16"
  type: "InnerProduct"
  bottom: "h_conted_15"
  top: "W_hc_h_15"
  param {
    name: "W_hc"
  }
  inner_product_param {
    num_output: 400
    bias_term: false
    weight_filler {
      type: "xavier"
    }
    axis: 2
  }
}
layer {
  name: "lstm1x_r1_r1_gate_input_16"
  type: "Eltwise"
  bottom: "W_hc_h_15"
  bottom: "W_xc_x_16"
  top: "gate_input_16"
  eltwise_param {
    operation: SUM
  }
}
layer {
  name: "lstm1x_r1_r1_unit_16"
  type: "LSTMUnit"
  bottom: "c_15"
  bottom: "gate_input_16"
  bottom: "cont_16"
  top: "c_16"
  top: "h_16"
}
layer {
  name: "lstm1x_r1_r1_h_conted_16"
  type: "Scale"
  bottom: "h_16"
  bottom: "cont_17"
  top: "h_conted_16"
  scale_param {
    axis: 0
  }
}
layer {
  name: "lstm1x_r1_r1_transform_17"
  type: "InnerProduct"
  bottom: "h_conted_16"
  top: "W_hc_h_16"
  param {
    name: "W_hc"
  }
  inner_product_param {
    num_output: 400
    bias_term: false
    weight_filler {
      type: "xavier"
    }
    axis: 2
  }
}
layer {
  name: "lstm1x_r1_r1_gate_input_17"
  type: "Eltwise"
  bottom: "W_hc_h_16"
  bottom: "W_xc_x_17"
  top: "gate_input_17"
  eltwise_param {
    operation: SUM
  }
}
layer {
  name: "lstm1x_r1_r1_unit_17"
  type: "LSTMUnit"
  bottom: "c_16"
  bottom: "gate_input_17"
  bottom: "cont_17"
  top: "c_17"
  top: "h_17"
}
layer {
  name: "lstm1x_r1_r1_h_conted_17"
  type: "Scale"
  bottom: "h_17"
  bottom: "cont_18"
  top: "h_conted_17"
  scale_param {
    axis: 0
  }
}
layer {
  name: "lstm1x_r1_r1_transform_18"
  type: "InnerProduct"
  bottom: "h_conted_17"
  top: "W_hc_h_17"
  param {
    name: "W_hc"
  }
  inner_product_param {
    num_output: 400
    bias_term: false
    weight_filler {
      type: "xavier"
    }
    axis: 2
  }
}
layer {
  name: "lstm1x_r1_r1_gate_input_18"
  type: "Eltwise"
  bottom: "W_hc_h_17"
  bottom: "W_xc_x_18"
  top: "gate_input_18"
  eltwise_param {
    operation: SUM
  }
}
layer {
  name: "lstm1x_r1_r1_unit_18"
  type: "LSTMUnit"
  bottom: "c_17"
  bottom: "gate_input_18"
  bottom: "cont_18"
  top: "c_18"
  top: "h_18"
}
layer {
  name: "lstm1x_r1_r1_h_conted_18"
  type: "Scale"
  bottom: "h_18"
  bottom: "cont_19"
  top: "h_conted_18"
  scale_param {
    axis: 0
  }
}
layer {
  name: "lstm1x_r1_r1_transform_19"
  type: "InnerProduct"
  bottom: "h_conted_18"
  top: "W_hc_h_18"
  param {
    name: "W_hc"
  }
  inner_product_param {
    num_output: 400
    bias_term: false
    weight_filler {
      type: "xavier"
    }
    axis: 2
  }
}
layer {
  name: "lstm1x_r1_r1_gate_input_19"
  type: "Eltwise"
  bottom: "W_hc_h_18"
  bottom: "W_xc_x_19"
  top: "gate_input_19"
  eltwise_param {
    operation: SUM
  }
}
layer {
  name: "lstm1x_r1_r1_unit_19"
  type: "LSTMUnit"
  bottom: "c_18"
  bottom: "gate_input_19"
  bottom: "cont_19"
  top: "c_19"
  top: "h_19"
}
layer {
  name: "lstm1x_r1_r1_h_conted_19"
  type: "Scale"
  bottom: "h_19"
  bottom: "cont_20"
  top: "h_conted_19"
  scale_param {
    axis: 0
  }
}
layer {
  name: "lstm1x_r1_r1_transform_20"
  type: "InnerProduct"
  bottom: "h_conted_19"
  top: "W_hc_h_19"
  param {
    name: "W_hc"
  }
  inner_product_param {
    num_output: 400
    bias_term: false
    weight_filler {
      type: "xavier"
    }
    axis: 2
  }
}
layer {
  name: "lstm1x_r1_r1_gate_input_20"
  type: "Eltwise"
  bottom: "W_hc_h_19"
  bottom: "W_xc_x_20"
  top: "gate_input_20"
  eltwise_param {
    operation: SUM
  }
}
layer {
  name: "lstm1x_r1_r1_unit_20"
  type: "LSTMUnit"
  bottom: "c_19"
  bottom: "gate_input_20"
  bottom: "cont_20"
  top: "c_20"
  top: "h_20"
}
layer {
  name: "lstm1x_r1_r1_h_conted_20"
  type: "Scale"
  bottom: "h_20"
  bottom: "cont_21"
  top: "h_conted_20"
  scale_param {
    axis: 0
  }
}
layer {
  name: "lstm1x_r1_r1_transform_21"
  type: "InnerProduct"
  bottom: "h_conted_20"
  top: "W_hc_h_20"
  param {
    name: "W_hc"
  }
  inner_product_param {
    num_output: 400
    bias_term: false
    weight_filler {
      type: "xavier"
    }
    axis: 2
  }
}
layer {
  name: "lstm1x_r1_r1_gate_input_21"
  type: "Eltwise"
  bottom: "W_hc_h_20"
  bottom: "W_xc_x_21"
  top: "gate_input_21"
  eltwise_param {
    operation: SUM
  }
}
layer {
  name: "lstm1x_r1_r1_unit_21"
  type: "LSTMUnit"
  bottom: "c_20"
  bottom: "gate_input_21"
  bottom: "cont_21"
  top: "c_21"
  top: "h_21"
}
layer {
  name: "lstm1x_r1_r1_h_conted_21"
  type: "Scale"
  bottom: "h_21"
  bottom: "cont_22"
  top: "h_conted_21"
  scale_param {
    axis: 0
  }
}
layer {
  name: "lstm1x_r1_r1_transform_22"
  type: "InnerProduct"
  bottom: "h_conted_21"
  top: "W_hc_h_21"
  param {
    name: "W_hc"
  }
  inner_product_param {
    num_output: 400
    bias_term: false
    weight_filler {
      type: "xavier"
    }
    axis: 2
  }
}
layer {
  name: "lstm1x_r1_r1_gate_input_22"
  type: "Eltwise"
  bottom: "W_hc_h_21"
  bottom: "W_xc_x_22"
  top: "gate_input_22"
  eltwise_param {
    operation: SUM
  }
}
layer {
  name: "lstm1x_r1_r1_unit_22"
  type: "LSTMUnit"
  bottom: "c_21"
  bottom: "gate_input_22"
  bottom: "cont_22"
  top: "c_22"
  top: "h_22"
}
layer {
  name: "lstm1x_r1_r1_h_conted_22"
  type: "Scale"
  bottom: "h_22"
  bottom: "cont_23"
  top: "h_conted_22"
  scale_param {
    axis: 0
  }
}
layer {
  name: "lstm1x_r1_r1_transform_23"
  type: "InnerProduct"
  bottom: "h_conted_22"
  top: "W_hc_h_22"
  param {
    name: "W_hc"
  }
  inner_product_param {
    num_output: 400
    bias_term: false
    weight_filler {
      type: "xavier"
    }
    axis: 2
  }
}
layer {
  name: "lstm1x_r1_r1_gate_input_23"
  type: "Eltwise"
  bottom: "W_hc_h_22"
  bottom: "W_xc_x_23"
  top: "gate_input_23"
  eltwise_param {
    operation: SUM
  }
}
layer {
  name: "lstm1x_r1_r1_unit_23"
  type: "LSTMUnit"
  bottom: "c_22"
  bottom: "gate_input_23"
  bottom: "cont_23"
  top: "c_23"
  top: "h_23"
}
layer {
  name: "lstm1x_r1_r1_h_conted_23"
  type: "Scale"
  bottom: "h_23"
  bottom: "cont_24"
  top: "h_conted_23"
  scale_param {
    axis: 0
  }
}
layer {
  name: "lstm1x_r1_r1_transform_24"
  type: "InnerProduct"
  bottom: "h_conted_23"
  top: "W_hc_h_23"
  param {
    name: "W_hc"
  }
  inner_product_param {
    num_output: 400
    bias_term: false
    weight_filler {
      type: "xavier"
    }
    axis: 2
  }
}
layer {
  name: "lstm1x_r1_r1_gate_input_24"
  type: "Eltwise"
  bottom: "W_hc_h_23"
  bottom: "W_xc_x_24"
  top: "gate_input_24"
  eltwise_param {
    operation: SUM
  }
}
layer {
  name: "lstm1x_r1_r1_unit_24"
  type: "LSTMUnit"
  bottom: "c_23"
  bottom: "gate_input_24"
  bottom: "cont_24"
  top: "c_24"
  top: "h_24"
}
layer {
  name: "lstm1x_r1_r1_h_conted_24"
  type: "Scale"
  bottom: "h_24"
  bottom: "cont_25"
  top: "h_conted_24"
  scale_param {
    axis: 0
  }
}
layer {
  name: "lstm1x_r1_r1_transform_25"
  type: "InnerProduct"
  bottom: "h_conted_24"
  top: "W_hc_h_24"
  param {
    name: "W_hc"
  }
  inner_product_param {
    num_output: 400
    bias_term: false
    weight_filler {
      type: "xavier"
    }
    axis: 2
  }
}
layer {
  name: "lstm1x_r1_r1_gate_input_25"
  type: "Eltwise"
  bottom: "W_hc_h_24"
  bottom: "W_xc_x_25"
  top: "gate_input_25"
  eltwise_param {
    operation: SUM
  }
}
layer {
  name: "lstm1x_r1_r1_unit_25"
  type: "LSTMUnit"
  bottom: "c_24"
  bottom: "gate_input_25"
  bottom: "cont_25"
  top: "c_25"
  top: "h_25"
}
layer {
  name: "lstm1x_r1_r1_h_conted_25"
  type: "Scale"
  bottom: "h_25"
  bottom: "cont_26"
  top: "h_conted_25"
  scale_param {
    axis: 0
  }
}
layer {
  name: "lstm1x_r1_r1_transform_26"
  type: "InnerProduct"
  bottom: "h_conted_25"
  top: "W_hc_h_25"
  param {
    name: "W_hc"
  }
  inner_product_param {
    num_output: 400
    bias_term: false
    weight_filler {
      type: "xavier"
    }
    axis: 2
  }
}
layer {
  name: "lstm1x_r1_r1_gate_input_26"
  type: "Eltwise"
  bottom: "W_hc_h_25"
  bottom: "W_xc_x_26"
  top: "gate_input_26"
  eltwise_param {
    operation: SUM
  }
}
layer {
  name: "lstm1x_r1_r1_unit_26"
  type: "LSTMUnit"
  bottom: "c_25"
  bottom: "gate_input_26"
  bottom: "cont_26"
  top: "c_26"
  top: "h_26"
}
layer {
  name: "lstm1x_r1_r1_h_conted_26"
  type: "Scale"
  bottom: "h_26"
  bottom: "cont_27"
  top: "h_conted_26"
  scale_param {
    axis: 0
  }
}
layer {
  name: "lstm1x_r1_r1_transform_27"
  type: "InnerProduct"
  bottom: "h_conted_26"
  top: "W_hc_h_26"
  param {
    name: "W_hc"
  }
  inner_product_param {
    num_output: 400
    bias_term: false
    weight_filler {
      type: "xavier"
    }
    axis: 2
  }
}
layer {
  name: "lstm1x_r1_r1_gate_input_27"
  type: "Eltwise"
  bottom: "W_hc_h_26"
  bottom: "W_xc_x_27"
  top: "gate_input_27"
  eltwise_param {
    operation: SUM
  }
}
layer {
  name: "lstm1x_r1_r1_unit_27"
  type: "LSTMUnit"
  bottom: "c_26"
  bottom: "gate_input_27"
  bottom: "cont_27"
  top: "c_27"
  top: "h_27"
}
layer {
  name: "lstm1x_r1_r1_h_conted_27"
  type: "Scale"
  bottom: "h_27"
  bottom: "cont_28"
  top: "h_conted_27"
  scale_param {
    axis: 0
  }
}
layer {
  name: "lstm1x_r1_r1_transform_28"
  type: "InnerProduct"
  bottom: "h_conted_27"
  top: "W_hc_h_27"
  param {
    name: "W_hc"
  }
  inner_product_param {
    num_output: 400
    bias_term: false
    weight_filler {
      type: "xavier"
    }
    axis: 2
  }
}
layer {
  name: "lstm1x_r1_r1_gate_input_28"
  type: "Eltwise"
  bottom: "W_hc_h_27"
  bottom: "W_xc_x_28"
  top: "gate_input_28"
  eltwise_param {
    operation: SUM
  }
}
layer {
  name: "lstm1x_r1_r1_unit_28"
  type: "LSTMUnit"
  bottom: "c_27"
  bottom: "gate_input_28"
  bottom: "cont_28"
  top: "c_28"
  top: "h_28"
}
layer {
  name: "lstm1x_r1_r1_h_conted_28"
  type: "Scale"
  bottom: "h_28"
  bottom: "cont_29"
  top: "h_conted_28"
  scale_param {
    axis: 0
  }
}
layer {
  name: "lstm1x_r1_r1_transform_29"
  type: "InnerProduct"
  bottom: "h_conted_28"
  top: "W_hc_h_28"
  param {
    name: "W_hc"
  }
  inner_product_param {
    num_output: 400
    bias_term: false
    weight_filler {
      type: "xavier"
    }
    axis: 2
  }
}
layer {
  name: "lstm1x_r1_r1_gate_input_29"
  type: "Eltwise"
  bottom: "W_hc_h_28"
  bottom: "W_xc_x_29"
  top: "gate_input_29"
  eltwise_param {
    operation: SUM
  }
}
layer {
  name: "lstm1x_r1_r1_unit_29"
  type: "LSTMUnit"
  bottom: "c_28"
  bottom: "gate_input_29"
  bottom: "cont_29"
  top: "c_29"
  top: "h_29"
}
layer {
  name: "lstm1x_r1_r1_h_conted_29"
  type: "Scale"
  bottom: "h_29"
  bottom: "cont_30"
  top: "h_conted_29"
  scale_param {
    axis: 0
  }
}
layer {
  name: "lstm1x_r1_r1_transform_30"
  type: "InnerProduct"
  bottom: "h_conted_29"
  top: "W_hc_h_29"
  param {
    name: "W_hc"
  }
  inner_product_param {
    num_output: 400
    bias_term: false
    weight_filler {
      type: "xavier"
    }
    axis: 2
  }
}
layer {
  name: "lstm1x_r1_r1_gate_input_30"
  type: "Eltwise"
  bottom: "W_hc_h_29"
  bottom: "W_xc_x_30"
  top: "gate_input_30"
  eltwise_param {
    operation: SUM
  }
}
layer {
  name: "lstm1x_r1_r1_unit_30"
  type: "LSTMUnit"
  bottom: "c_29"
  bottom: "gate_input_30"
  bottom: "cont_30"
  top: "c_30"
  top: "h_30"
}
layer {
  name: "lstm1x_r1_r1_h_conted_30"
  type: "Scale"
  bottom: "h_30"
  bottom: "cont_31"
  top: "h_conted_30"
  scale_param {
    axis: 0
  }
}
layer {
  name: "lstm1x_r1_r1_transform_31"
  type: "InnerProduct"
  bottom: "h_conted_30"
  top: "W_hc_h_30"
  param {
    name: "W_hc"
  }
  inner_product_param {
    num_output: 400
    bias_term: false
    weight_filler {
      type: "xavier"
    }
    axis: 2
  }
}
layer {
  name: "lstm1x_r1_r1_gate_input_31"
  type: "Eltwise"
  bottom: "W_hc_h_30"
  bottom: "W_xc_x_31"
  top: "gate_input_31"
  eltwise_param {
    operation: SUM
  }
}
layer {
  name: "lstm1x_r1_r1_unit_31"
  type: "LSTMUnit"
  bottom: "c_30"
  bottom: "gate_input_31"
  bottom: "cont_31"
  top: "c_31"
  top: "h_31"
}
layer {
  name: "lstm1x_r1_r1_h_conted_31"
  type: "Scale"
  bottom: "h_31"
  bottom: "cont_32"
  top: "h_conted_31"
  scale_param {
    axis: 0
  }
}
layer {
  name: "lstm1x_r1_r1_transform_32"
  type: "InnerProduct"
  bottom: "h_conted_31"
  top: "W_hc_h_31"
  param {
    name: "W_hc"
  }
  inner_product_param {
    num_output: 400
    bias_term: false
    weight_filler {
      type: "xavier"
    }
    axis: 2
  }
}
layer {
  name: "lstm1x_r1_r1_gate_input_32"
  type: "Eltwise"
  bottom: "W_hc_h_31"
  bottom: "W_xc_x_32"
  top: "gate_input_32"
  eltwise_param {
    operation: SUM
  }
}
layer {
  name: "lstm1x_r1_r1_unit_32"
  type: "LSTMUnit"
  bottom: "c_31"
  bottom: "gate_input_32"
  bottom: "cont_32"
  top: "c_32"
  top: "h_32"
}
layer {
  name: "lstm1x_r1_r1_h_conted_32"
  type: "Scale"
  bottom: "h_32"
  bottom: "cont_33"
  top: "h_conted_32"
  scale_param {
    axis: 0
  }
}
layer {
  name: "lstm1x_r1_r1_transform_33"
  type: "InnerProduct"
  bottom: "h_conted_32"
  top: "W_hc_h_32"
  param {
    name: "W_hc"
  }
  inner_product_param {
    num_output: 400
    bias_term: false
    weight_filler {
      type: "xavier"
    }
    axis: 2
  }
}
layer {
  name: "lstm1x_r1_r1_gate_input_33"
  type: "Eltwise"
  bottom: "W_hc_h_32"
  bottom: "W_xc_x_33"
  top: "gate_input_33"
  eltwise_param {
    operation: SUM
  }
}
layer {
  name: "lstm1x_r1_r1_unit_33"
  type: "LSTMUnit"
  bottom: "c_32"
  bottom: "gate_input_33"
  bottom: "cont_33"
  top: "c_33"
  top: "h_33"
}
layer {
  name: "lstm1x_r1_r1_h_conted_33"
  type: "Scale"
  bottom: "h_33"
  bottom: "cont_34"
  top: "h_conted_33"
  scale_param {
    axis: 0
  }
}
layer {
  name: "lstm1x_r1_r1_transform_34"
  type: "InnerProduct"
  bottom: "h_conted_33"
  top: "W_hc_h_33"
  param {
    name: "W_hc"
  }
  inner_product_param {
    num_output: 400
    bias_term: false
    weight_filler {
      type: "xavier"
    }
    axis: 2
  }
}
layer {
  name: "lstm1x_r1_r1_gate_input_34"
  type: "Eltwise"
  bottom: "W_hc_h_33"
  bottom: "W_xc_x_34"
  top: "gate_input_34"
  eltwise_param {
    operation: SUM
  }
}
layer {
  name: "lstm1x_r1_r1_unit_34"
  type: "LSTMUnit"
  bottom: "c_33"
  bottom: "gate_input_34"
  bottom: "cont_34"
  top: "c_34"
  top: "h_34"
}
layer {
  name: "lstm1x_r1_r1_h_conted_34"
  type: "Scale"
  bottom: "h_34"
  bottom: "cont_35"
  top: "h_conted_34"
  scale_param {
    axis: 0
  }
}
layer {
  name: "lstm1x_r1_r1_transform_35"
  type: "InnerProduct"
  bottom: "h_conted_34"
  top: "W_hc_h_34"
  param {
    name: "W_hc"
  }
  inner_product_param {
    num_output: 400
    bias_term: false
    weight_filler {
      type: "xavier"
    }
    axis: 2
  }
}
layer {
  name: "lstm1x_r1_r1_gate_input_35"
  type: "Eltwise"
  bottom: "W_hc_h_34"
  bottom: "W_xc_x_35"
  top: "gate_input_35"
  eltwise_param {
    operation: SUM
  }
}
layer {
  name: "lstm1x_r1_r1_unit_35"
  type: "LSTMUnit"
  bottom: "c_34"
  bottom: "gate_input_35"
  bottom: "cont_35"
  top: "c_35"
  top: "h_35"
}
layer {
  name: "lstm1x_r1_r1_h_conted_35"
  type: "Scale"
  bottom: "h_35"
  bottom: "cont_36"
  top: "h_conted_35"
  scale_param {
    axis: 0
  }
}
layer {
  name: "lstm1x_r1_r1_transform_36"
  type: "InnerProduct"
  bottom: "h_conted_35"
  top: "W_hc_h_35"
  param {
    name: "W_hc"
  }
  inner_product_param {
    num_output: 400
    bias_term: false
    weight_filler {
      type: "xavier"
    }
    axis: 2
  }
}
layer {
  name: "lstm1x_r1_r1_gate_input_36"
  type: "Eltwise"
  bottom: "W_hc_h_35"
  bottom: "W_xc_x_36"
  top: "gate_input_36"
  eltwise_param {
    operation: SUM
  }
}
layer {
  name: "lstm1x_r1_r1_unit_36"
  type: "LSTMUnit"
  bottom: "c_35"
  bottom: "gate_input_36"
  bottom: "cont_36"
  top: "c_36"
  top: "h_36"
}
layer {
  name: "lstm1x_r1_r1_h_conted_36"
  type: "Scale"
  bott
I1229 17:57:32.796715 12106 layer_factory.hpp:77] Creating layer lstm1x_r1_r1_
I1229 17:57:32.796722 12106 net.cpp:84] Creating Layer lstm1x_r1_r1_
I1229 17:57:32.796739 12106 net.cpp:380] lstm1x_r1_r1_ -> x
I1229 17:57:32.796744 12106 net.cpp:380] lstm1x_r1_r1_ -> cont
I1229 17:57:32.796790 12106 net.cpp:122] Setting up lstm1x_r1_r1_
I1229 17:57:32.796794 12106 net.cpp:129] Top shape: 60 8 512 7 (1720320)
I1229 17:57:32.796811 12106 net.cpp:129] Top shape: 60 8 (480)
I1229 17:57:32.796813 12106 net.cpp:137] Memory required for data: 6883200
I1229 17:57:32.796814 12106 layer_factory.hpp:77] Creating layer lstm1x_r1_r1_
I1229 17:57:32.796818 12106 net.cpp:84] Creating Layer lstm1x_r1_r1_
I1229 17:57:32.796820 12106 net.cpp:380] lstm1x_r1_r1_ -> c_0
I1229 17:57:32.796824 12106 net.cpp:380] lstm1x_r1_r1_ -> h_0
I1229 17:57:32.796860 12106 net.cpp:122] Setting up lstm1x_r1_r1_
I1229 17:57:32.796864 12106 net.cpp:129] Top shape: 1 8 100 (800)
I1229 17:57:32.796866 12106 net.cpp:129] Top shape: 1 8 100 (800)
I1229 17:57:32.796869 12106 net.cpp:137] Memory required for data: 6889600
I1229 17:57:32.796885 12106 layer_factory.hpp:77] Creating layer lstm1x_r1_r1_cont_slice
I1229 17:57:32.796890 12106 net.cpp:84] Creating Layer lstm1x_r1_r1_cont_slice
I1229 17:57:32.796891 12106 net.cpp:406] lstm1x_r1_r1_cont_slice <- cont
I1229 17:57:32.796896 12106 net.cpp:380] lstm1x_r1_r1_cont_slice -> cont_1
…
I1229 17:57:32.845312 12106 net.cpp:200] lstm1x_r1_r1_ does not need backward computation.
I1229 17:57:32.845314 12106 net.cpp:242] This network produces output c_T
I1229 17:57:32.845317 12106 net.cpp:242] This network produces output h_pseudoloss
I1229 17:57:32.846709 12106 net.cpp:255] Network initialization done.
I1229 17:57:32.847137 12106 recurrent_layer.cpp:150] Adding parameter 0: W_xc
I1229 17:57:32.847141 12106 recurrent_layer.cpp:150] Adding parameter 1: b_c
I1229 17:57:32.847143 12106 recurrent_layer.cpp:150] Adding parameter 2: W_hc
I1229 17:57:32.847544 12106 net.cpp:122] Setting up lstm1x_r1_r1
I1229 17:57:32.847550 12106 net.cpp:129] Top shape: 60 8 100 (48000)
I1229 17:57:32.847553 12106 net.cpp:137] Memory required for data: 768707328
I1229 17:57:32.847558 12106 layer_factory.hpp:77] Creating layer merge_lstm_rlstmx
I1229 17:57:32.847578 12106 net.cpp:84] Creating Layer merge_lstm_rlstmx
I1229 17:57:32.847580 12106 net.cpp:406] merge_lstm_rlstmx <- lstm1x
I1229 17:57:32.847584 12106 net.cpp:406] merge_lstm_rlstmx <- rlstmx
I1229 17:57:32.847599 12106 net.cpp:380] merge_lstm_rlstmx -> merge_lstm_rlstmx
I1229 17:57:32.847643 12106 net.cpp:122] Setting up merge_lstm_rlstmx
I1229 17:57:32.847647 12106 net.cpp:129] Top shape: 60 8 200 (96000)
I1229 17:57:32.847649 12106 net.cpp:137] Memory required for data: 769091328
I1229 17:57:32.847651 12106 layer_factory.hpp:77] Creating layer fc_all_1
I1229 17:57:32.847654 12106 net.cpp:84] Creating Layer fc_all_1
I1229 17:57:32.847656 12106 net.cpp:406] fc_all_1 <- merge_lstm_rlstmx
I1229 17:57:32.847661 12106 net.cpp:380] fc_all_1 -> fc_all_1
I1229 17:57:32.847798 12106 net.cpp:122] Setting up fc_all_1
I1229 17:57:32.847802 12106 net.cpp:129] Top shape: 60 8 69 (33120)
I1229 17:57:32.847805 12106 net.cpp:137] Memory required for data: 769223808
I1229 17:57:32.847808 12106 layer_factory.hpp:77] Creating layer fc_all_1_fc_all_1_0_split
I1229 17:57:32.847810 12106 net.cpp:84] Creating Layer fc_all_1_fc_all_1_0_split
I1229 17:57:32.847812 12106 net.cpp:406] fc_all_1_fc_all_1_0_split <- fc_all_1
I1229 17:57:32.847815 12106 net.cpp:380] fc_all_1_fc_all_1_0_split -> fc_all_1_fc_all_1_0_split_0
I1229 17:57:32.847820 12106 net.cpp:380] fc_all_1_fc_all_1_0_split -> fc_all_1_fc_all_1_0_split_1
I1229 17:57:32.847856 12106 net.cpp:122] Setting up fc_all_1_fc_all_1_0_split
I1229 17:57:32.847858 12106 net.cpp:129] Top shape: 60 8 69 (33120)
I1229 17:57:32.847862 12106 net.cpp:129] Top shape: 60 8 69 (33120)
I1229 17:57:32.847862 12106 net.cpp:137] Memory required for data: 769488768
I1229 17:57:32.847864 12106 layer_factory.hpp:77] Creating layer ctc_loss
I1229 17:57:32.847880 12106 net.cpp:84] Creating Layer ctc_loss
I1229 17:57:32.847882 12106 net.cpp:406] ctc_loss <- fc_all_1_fc_all_1_0_split_0
I1229 17:57:32.847885 12106 net.cpp:406] ctc_loss <- label1_slicer_label_0_split_0
I1229 17:57:32.847888 12106 net.cpp:380] ctc_loss -> ctc_loss
I1229 17:57:32.847918 12106 net.cpp:122] Setting up ctc_loss
I1229 17:57:32.847920 12106 net.cpp:129] Top shape: (1)
I1229 17:57:32.847923 12106 net.cpp:132]     with loss weight 1
I1229 17:57:32.847925 12106 net.cpp:137] Memory required for data: 769488772
I1229 17:57:32.847928 12106 layer_factory.hpp:77] Creating layer pool_color_1
I1229 17:57:32.847931 12106 net.cpp:84] Creating Layer pool_color_1
I1229 17:57:32.847946 12106 net.cpp:406] pool_color_1 <- layer_128_1_sum_layer_128_1_sum_0_split_2
I1229 17:57:32.847949 12106 net.cpp:380] pool_color_1 -> pool_color_1
I1229 17:57:32.848004 12106 net.cpp:122] Setting up pool_color_1
I1229 17:57:32.848014 12106 net.cpp:129] Top shape: 8 512 7 15 (430080)
I1229 17:57:32.848029 12106 net.cpp:137] Memory required for data: 771209092
I1229 17:57:32.848031 12106 layer_factory.hpp:77] Creating layer conv_color1_1
I1229 17:57:32.848037 12106 net.cpp:84] Creating Layer conv_color1_1
I1229 17:57:32.848039 12106 net.cpp:406] conv_color1_1 <- pool_color_1
I1229 17:57:32.848042 12106 net.cpp:380] conv_color1_1 -> conv_color1_1
I1229 17:57:32.857636 12106 net.cpp:122] Setting up conv_color1_1
I1229 17:57:32.857651 12106 net.cpp:129] Top shape: 8 256 7 15 (215040)
I1229 17:57:32.857653 12106 net.cpp:137] Memory required for data: 772069252
I1229 17:57:32.857661 12106 layer_factory.hpp:77] Creating layer bn_color_1
I1229 17:57:32.857668 12106 net.cpp:84] Creating Layer bn_color_1
I1229 17:57:32.857672 12106 net.cpp:406] bn_color_1 <- conv_color1_1
I1229 17:57:32.857678 12106 net.cpp:367] bn_color_1 -> conv_color1_1 (in-place)
I1229 17:57:32.857820 12106 net.cpp:122] Setting up bn_color_1
I1229 17:57:32.857823 12106 net.cpp:129] Top shape: 8 256 7 15 (215040)
I1229 17:57:32.857825 12106 net.cpp:137] Memory required for data: 772929412
I1229 17:57:32.857831 12106 layer_factory.hpp:77] Creating layer scale_color_1
I1229 17:57:32.857839 12106 net.cpp:84] Creating Layer scale_color_1
I1229 17:57:32.857841 12106 net.cpp:406] scale_color_1 <- conv_color1_1
I1229 17:57:32.857844 12106 net.cpp:367] scale_color_1 -> conv_color1_1 (in-place)
I1229 17:57:32.857875 12106 layer_factory.hpp:77] Creating layer scale_color_1
I1229 17:57:32.857946 12106 net.cpp:122] Setting up scale_color_1
I1229 17:57:32.857950 12106 net.cpp:129] Top shape: 8 256 7 15 (215040)
I1229 17:57:32.857952 12106 net.cpp:137] Memory required for data: 773789572
I1229 17:57:32.857956 12106 layer_factory.hpp:77] Creating layer relu_color_1
I1229 17:57:32.857960 12106 net.cpp:84] Creating Layer relu_color_1
I1229 17:57:32.857962 12106 net.cpp:406] relu_color_1 <- conv_color1_1
I1229 17:57:32.857965 12106 net.cpp:367] relu_color_1 -> conv_color1_1 (in-place)
I1229 17:57:32.858386 12106 net.cpp:122] Setting up relu_color_1
I1229 17:57:32.858392 12106 net.cpp:129] Top shape: 8 256 7 15 (215040)
I1229 17:57:32.858395 12106 net.cpp:137] Memory required for data: 774649732
I1229 17:57:32.858397 12106 layer_factory.hpp:77] Creating layer pool_color_2
I1229 17:57:32.858402 12106 net.cpp:84] Creating Layer pool_color_2
I1229 17:57:32.858403 12106 net.cpp:406] pool_color_2 <- conv_color1_1
I1229 17:57:32.858409 12106 net.cpp:380] pool_color_2 -> pool_color_2
I1229 17:57:32.858547 12106 net.cpp:122] Setting up pool_color_2
I1229 17:57:32.858553 12106 net.cpp:129] Top shape: 8 256 1 1 (2048)
I1229 17:57:32.858554 12106 net.cpp:137] Memory required for data: 774657924
I1229 17:57:32.858556 12106 layer_factory.hpp:77] Creating layer fc_color_1
I1229 17:57:32.858562 12106 net.cpp:84] Creating Layer fc_color_1
I1229 17:57:32.858566 12106 net.cpp:406] fc_color_1 <- pool_color_2
I1229 17:57:32.858569 12106 net.cpp:380] fc_color_1 -> fc_color_1
I1229 17:57:32.858677 12106 net.cpp:122] Setting up fc_color_1
I1229 17:57:32.858681 12106 net.cpp:129] Top shape: 8 5 (40)
I1229 17:57:32.858683 12106 net.cpp:137] Memory required for data: 774658084
I1229 17:57:32.858701 12106 layer_factory.hpp:77] Creating layer fc_color_1_fc_color_1_0_split
I1229 17:57:32.858705 12106 net.cpp:84] Creating Layer fc_color_1_fc_color_1_0_split
I1229 17:57:32.858707 12106 net.cpp:406] fc_color_1_fc_color_1_0_split <- fc_color_1
I1229 17:57:32.858711 12106 net.cpp:380] fc_color_1_fc_color_1_0_split -> fc_color_1_fc_color_1_0_split_0
I1229 17:57:32.858716 12106 net.cpp:380] fc_color_1_fc_color_1_0_split -> fc_color_1_fc_color_1_0_split_1
I1229 17:57:32.858738 12106 net.cpp:122] Setting up fc_color_1_fc_color_1_0_split
I1229 17:57:32.858742 12106 net.cpp:129] Top shape: 8 5 (40)
I1229 17:57:32.858757 12106 net.cpp:129] Top shape: 8 5 (40)
I1229 17:57:32.858758 12106 net.cpp:137] Memory required for data: 774658404
I1229 17:57:32.858760 12106 layer_factory.hpp:77] Creating layer softmax_loss
I1229 17:57:32.858788 12106 net.cpp:84] Creating Layer softmax_loss
I1229 17:57:32.858790 12106 net.cpp:406] softmax_loss <- fc_color_1_fc_color_1_0_split_0
I1229 17:57:32.858793 12106 net.cpp:406] softmax_loss <- label2_slicer_label_1_split_0
I1229 17:57:32.858796 12106 net.cpp:380] softmax_loss -> softmax_loss
I1229 17:57:32.858803 12106 layer_factory.hpp:77] Creating layer softmax_loss
I1229 17:57:32.858978 12106 net.cpp:122] Setting up softmax_loss
I1229 17:57:32.858983 12106 net.cpp:129] Top shape: (1)
I1229 17:57:32.858999 12106 net.cpp:137] Memory required for data: 774658408
I1229 17:57:32.859001 12106 layer_factory.hpp:77] Creating layer permute_fc
I1229 17:57:32.859006 12106 net.cpp:84] Creating Layer permute_fc
I1229 17:57:32.859009 12106 net.cpp:406] permute_fc <- fc_all_1_fc_all_1_0_split_1
I1229 17:57:32.859012 12106 net.cpp:380] permute_fc -> premuted_fc
I1229 17:57:32.859094 12106 net.cpp:122] Setting up permute_fc
I1229 17:57:32.859099 12106 net.cpp:129] Top shape: 8 60 69 (33120)
I1229 17:57:32.859100 12106 net.cpp:137] Memory required for data: 774790888
I1229 17:57:32.859117 12106 layer_factory.hpp:77] Creating layer accuracy
I1229 17:57:32.859120 12106 net.cpp:84] Creating Layer accuracy
I1229 17:57:32.859123 12106 net.cpp:406] accuracy <- premuted_fc
I1229 17:57:32.859127 12106 net.cpp:406] accuracy <- label1_slicer_label_0_split_1
I1229 17:57:32.859130 12106 net.cpp:380] accuracy -> accuracy
…
