…
I0417 17:05:43.357899 25260 net.cpp:294] The NetState phase (0) differed from the phase (1) specified by a rule in layer accuracy_color
I0417 17:05:43.358455 25260 net.cpp:51] Initializing net from parameters: 
name: "resnet-blstm-ctc-ocr"
state {
  phase: TRAIN
  level: 0
  stage: ""
}
layer {
  name: "data"
  type: "ImageData"
  top: "data"
  top: "label"
  include {
    phase: TRAIN
  }
  image_data_param {
    source: "train.txt"
    batch_size: 38
    shuffle: true
    new_height: 112
    new_width: 240
    is_color: true
    num_of_labels: 21
  }
}
layer {
  name: "slicer_label"
  type: "Slice"
  bottom: "label"
  top: "label1"
  top: "label2"
  slice_param {
    slice_point: 20
    axis: 1
  }
}
layer {
  name: "indicator"
  type: "ContinuationIndicator"
  top: "indicator"
  include {
    phase: TRAIN
  }
  continuation_indicator_param {
    time_step: 60
    batch_size: 38
  }
}
layer {
  name: "data_bn"
  type: "BatchNorm"
  bottom: "data"
  top: "data_bn"
  param {
    lr_mult: 0
    decay_mult: 0
  }
  param {
    lr_mult: 0
    decay_mult: 0
  }
  param {
    lr_mult: 0
    decay_mult: 0
  }
}
layer {
  name: "data_scale"
  type: "Scale"
  bottom: "data_bn"
  top: "data_bn"
  param {
    lr_mult: 1
    decay_mult: 1
  }
  param {
    lr_mult: 2
    decay_mult: 1
  }
  scale_param {
    bias_term: true
  }
}
layer {
  name: "conv1"
  type: "Convolution"
  bottom: "data_bn"
  top: "conv1"
  param {
    lr_mult: 1
    decay_mult: 1
  }
  param {
    lr_mult: 2
    decay_mult: 1
  }
  convolution_param {
    num_output: 64
    pad: 3
    kernel_size: 7
    stride: 2
    weight_filler {
      type: "msra"
      variance_norm: FAN_OUT
    }
    bias_filler {
      type: "constant"
      value: 0
    }
  }
}
layer {
  name: "conv1_bn"
  type: "BatchNorm"
  bottom: "conv1"
  top: "conv1"
  param {
    lr_mult: 0
    decay_mult: 0
  }
  param {
    lr_mult: 0
    decay_mult: 0
  }
  param {
    lr_mult: 0
    decay_mult: 0
  }
}
layer {
  name: "conv1_scale"
  type: "Scale"
  bottom: "conv1"
  top: "conv1"
  param {
    lr_mult: 1
    decay_mult: 1
  }
  param {
    lr_mult: 2
    decay_mult: 1
  }
  scale_param {
    bias_term: true
  }
}
layer {
  name: "conv1_relu"
  type: "ReLU"
  bottom: "conv1"
  top: "conv1"
}
layer {
  name: "conv1_pool"
  type: "Pooling"
  bottom: "conv1"
  top: "conv1_pool"
  pooling_param {
    kernel_size: 3
    stride: 2
  }
}
layer {
  name: "layer_64_1_conv1"
  type: "Convolution"
  bottom: "conv1_pool"
  top: "layer_64_1_conv1"
  param {
    lr_mult: 1
    decay_mult: 1
  }
  convolution_param {
    num_output: 64
    bias_term: false
    pad: 0
    kernel_size: 1
    stride: 1
    weight_filler {
      type: "msra"
    }
    bias_filler {
      type: "constant"
      value: 0
    }
  }
}
layer {
  name: "layer_64_1_bn2"
  type: "BatchNorm"
  bottom: "layer_64_1_conv1"
  top: "layer_64_1_conv1"
  param {
    lr_mult: 0
    decay_mult: 0
  }
  param {
    lr_mult: 0
    decay_mult: 0
  }
  param {
    lr_mult: 0
    decay_mult: 0
  }
}
layer {
  name: "layer_64_1_scale2"
  type: "Scale"
  bottom: "layer_64_1_conv1"
  top: "layer_64_1_conv1"
  param {
    lr_mult: 1
    decay_mult: 1
  }
  param {
    lr_mult: 2
    decay_mult: 1
  }
  scale_param {
    bias_term: true
  }
}
layer {
  name: "layer_64_1_relu2"
  type: "ReLU"
  bottom: "layer_64_1_conv1"
  top: "layer_64_1_conv1"
}
layer {
  name: "layer_64_1_conv2"
  type: "Convolution"
  bottom: "layer_64_1_conv1"
  top: "layer_64_1_conv2"
  param {
    lr_mult: 1
    decay_mult: 1
  }
  convolution_param {
    num_output: 64
    bias_term: false
    pad: 1
    kernel_size: 3
    stride: 1
    weight_filler {
      type: "msra"
    }
    bias_filler {
      type: "constant"
      value: 0
    }
  }
}
layer {
  name: "layer_64_1_bn3"
  type: "BatchNorm"
  bottom: "layer_64_1_conv2"
  top: "layer_64_1_conv2"
  param {
    lr_mult: 0
    decay_mult: 0
  }
  param {
    lr_mult: 0
    decay_mult: 0
  }
  param {
    lr_mult: 0
    decay_mult: 0
  }
}
layer {
  name: "layer_64_1_scale3"
  type: "Scale"
  bottom: "layer_64_1_conv2"
  top: "layer_64_1_conv2"
  param {
    lr_mult: 1
    decay_mult: 1
  }
  param {
    lr_mult: 2
    decay_mult: 1
  }
  scale_param {
    bias_term: true
  }
}
layer {
  name: "layer_64_1_relu3"
  type: "ReLU"
  bottom: "layer_64_1_conv2"
  top: "layer_64_1_conv2"
}
layer {
  name: "layer_64_1_conv3"
  type: "Convolution"
  bottom: "layer_64_1_conv2"
  top: "layer_64_1_conv3"
  param {
    lr_mult: 1
    decay_mult: 1
  }
  convolution_param {
    num_output: 256
    bias_term: false
    pad: 0
    kernel_size: 1
    stride: 1
    weight_filler {
      type: "msra"
    }
    bias_filler {
      type: "constant"
      value: 0
    }
  }
}
layer {
  name: "layer_64_1_conv_expand"
  type: "Convolution"
  bottom: "layer_64_1_conv1"
  top: "layer_64_1_conv_expand"
  param {
    lr_mult: 1
    decay_mult: 1
  }
  convolution_param {
    num_output: 256
    bias_term: false
    pad: 0
    kernel_size: 1
    stride: 1
    weight_filler {
      type: "msra"
    }
    bias_filler {
      type: "constant"
      value: 0
    }
  }
}
layer {
  name: "layer_64_1_sum"
  type: "Eltwise"
  bottom: "layer_64_1_conv3"
  bottom: "layer_64_1_conv_expand"
  top: "layer_64_1_sum"
}
layer {
  name: "layer_64_2_bn1"
  type: "BatchNorm"
  bottom: "layer_64_1_sum"
  top: "layer_64_2_bn1"
  param {
    lr_mult: 0
    decay_mult: 0
  }
  param {
    lr_mult: 0
    decay_mult: 0
  }
  param {
    lr_mult: 0
    decay_mult: 0
  }
}
layer {
  name: "layer_64_2_scale1"
  type: "Scale"
  bottom: "layer_64_2_bn1"
  top: "layer_64_2_bn1"
  param {
    lr_mult: 1
    decay_mult: 1
  }
  param {
    lr_mult: 2
    decay_mult: 1
  }
  scale_param {
    bias_term: true
  }
}
layer {
  name: "layer_64_2_relu1"
  type: "ReLU"
  bottom: "layer_64_2_bn1"
  top: "layer_64_2_bn1"
}
layer {
  name: "layer_64_2_conv1"
  type: "Convolution"
  bottom: "layer_64_2_bn1"
  top: "layer_64_2_conv1"
  param {
    lr_mult: 1
    decay_mult: 1
  }
  convolution_param {
    num_output: 64
    bias_term: false
    pad: 0
    kernel_size: 1
    stride: 1
    weight_filler {
      type: "msra"
    }
    bias_filler {
      type: "constant"
      value: 0
    }
  }
}
layer {
  name: "layer_64_2_bn2"
  type: "BatchNorm"
  bottom: "layer_64_2_conv1"
  top: "layer_64_2_conv1"
  param {
    lr_mult: 0
    decay_mult: 0
  }
  param {
    lr_mult: 0
    decay_mult: 0
  }
  param {
    lr_mult: 0
    decay_mult: 0
  }
}
layer {
  name: "layer_64_2_scale2"
  type: "Scale"
  bottom: "layer_64_2_conv1"
  top: "layer_64_2_conv1"
  param {
    lr_mult: 1
    decay_mult: 1
  }
  param {
    lr_mult: 2
    decay_mult: 1
  }
  scale_param {
    bias_term: true
  }
}
layer {
  name: "layer_64_2_relu2"
  type: "ReLU"
  bottom: "layer_64_2_conv1"
  top: "layer_64_2_conv1"
}
layer {
  name: "layer_64_2_conv2"
  type: "Convolution"
  bottom: "layer_64_2_conv1"
  top: "layer_64_2_conv2"
  param {
    lr_mult: 1
    decay_mult: 1
  }
  convolution_param {
    num_output: 64
    bias_term: false
    pad: 1
    kernel_size: 3
    stride: 1
    weight_filler {
      type: "msra"
    }
    bias_filler {
      type: "constant"
      value: 0
    }
  }
}
layer {
  name: "layer_64_2_bn3"
  type: "BatchNorm"
  bottom: "layer_64_2_conv2"
  top: "layer_64_2_conv2"
  param {
    lr_mult: 0
    decay_mult: 0
  }
  param {
    lr_mult: 0
    decay_mult: 0
  }
  param {
    lr_mult: 0
    decay_mult: 0
  }
}
layer {
  name: "layer_64_2_scale3"
  type: "Scale"
  bottom: "layer_64_2_conv2"
  top: "layer_64_2_conv2"
  param {
    lr_mult: 1
    decay_mult: 1
  }
  param {
    lr_mult: 2
    decay_mult: 1
  }
  scale_param {
    bias_term: true
  }
}
layer {
  name: "layer_64_2_relu3"
  type: "ReLU"
  bottom: "layer_64_2_conv2"
  top: "layer_64_2_conv2"
}
layer {
  name: "layer_64_2_conv3"
  type: "Convolution"
  bottom: "layer_64_2_conv2"
  top: "layer_64_2_conv3"
  param {
    lr_mult: 1
    decay_mult: 1
  }
  convolution_param {
    num_output: 256
    bias_term: false
    pad: 0
    kernel_size: 1
    stride: 1
    weight_filler {
      type: "msra"
    }
    bias_filler {
      type: "constant"
      value: 0
    }
  }
}
layer {
  name: "layer_64_2_sum"
  type: "Eltwise"
  bottom: "layer_64_2_conv3"
  bottom: "layer_64_1_sum"
  top: "layer_64_2_sum"
}
layer {
  name: "layer_64_3_bn1"
  type: "BatchNorm"
  bottom: "layer_64_2_sum"
  top: "layer_64_3_bn1"
  param {
    lr_mult: 0
    decay_mult: 0
  }
  param {
    lr_mult: 0
    decay_mult: 0
  }
  param {
    lr_mult: 0
    decay_mult: 0
  }
}
layer {
  name: "layer_64_3_scale1"
  type: "Scale"
  bottom: "layer_64_3_bn1"
  top: "layer_64_3_bn1"
  param {
    lr_mult: 1
    decay_mult: 1
  }
  param {
    lr_mult: 2
    decay_mult: 1
  }
  scale_param {
    bias_term: true
  }
}
layer {
  name: "layer_64_3_relu1"
  type: "ReLU"
  bottom: "layer_64_3_bn1"
  top: "layer_64_3_bn1"
}
layer {
  name: "layer_64_3_conv1"
  type: "Convolution"
  bottom: "layer_64_3_bn1"
  top: "layer_64_3_conv1"
  param {
    lr_mult: 1
    decay_mult: 1
  }
  convolution_param {
    num_output: 64
    bias_term: false
    pad: 0
    kernel_size: 1
    stride: 1
    weight_filler {
      type: "msra"
    }
    bias_filler {
      type: "constant"
      value: 0
    }
  }
}
layer {
  name: "layer_64_3_bn2"
  type: "BatchNorm"
  bottom: "layer_64_3_conv1"
  top: "layer_64_3_conv1"
  param {
    lr_mult: 0
    decay_mult: 0
  }
  param {
    lr_mult: 0
    decay_mult: 0
  }
  param {
    lr_mult: 0
    decay_mult: 0
  }
}
layer {
  name: "layer_64_3_scale2"
  type: "Scale"
  bottom: "layer_64_3_conv1"
  top: "layer_64_3_conv1"
  param {
    lr_mult: 1
    decay_mult: 1
  }
  param {
    lr_mult: 2
    decay_mult: 1
  }
  scale_param {
    bias_term: true
  }
}
layer {
  name: "layer_64_3_relu2"
  type: "ReLU"
  bottom: "layer_64_3_conv1"
  top: "layer_64_3_conv1"
}
layer {
  name: "layer_64_3_conv2"
  type: "Convolution"
  bottom: "layer_64_3_conv1"
  top: "layer_64_3_conv2"
  param {
    lr_mult: 1
    decay_mult: 1
  }
  convolution_param {
    num_output: 64
    bias_term: false
    pad: 1
    kernel_size: 3
    stride: 1
    weight_filler {
      type: "msra"
    }
    bias_filler {
      type: "constant"
      value: 0
    }
  }
}
layer {
  name: "layer_64_3_bn3"
  type: "BatchNorm"
  bottom: "layer_64_3_conv2"
  top: "layer_64_3_conv2"
  param {
    lr_mult: 0
    decay_mult: 0
  }
  param {
    lr_mult: 0
    decay_mult: 0
  }
  param {
    lr_mult: 0
    decay_mult: 0
  }
}
layer {
  name: "layer_64_3_scale3"
  type: "Scale"
  bottom: "layer_64_3_conv2"
  top: "layer_64_3_conv2"
  param {
    lr_mult: 1
    decay_mult: 1
  }
  param {
    lr_mult: 2
    decay_mult: 1
  }
  scale_param {
    bias_term: true
  }
}
layer {
  name: "layer_64_3_relu3"
  type: "ReLU"
  bottom: "layer_64_3_conv2"
  top: "layer_64_3_conv2"
}
layer {
  name: "layer_64_3_conv3"
  type: "Convolution"
  bottom: "layer_64_3_conv2"
  top: "layer_64_3_conv3"
  param {
    lr_mult: 1
    decay_mult: 1
  }
  convolution_param {
    num_output: 256
    bias_term: false
    pad: 0
    kernel_size: 1
    stride: 1
    weight_filler {
      type: "msra"
    }
    bias_filler {
      type: "constant"
      value: 0
    }
  }
}
layer {
  name: "layer_64_3_sum"
  type: "Eltwise"
  bottom: "layer_64_3_conv3"
  bottom: "layer_64_2_sum"
  top: "layer_64_3_sum"
}
layer {
  name: "layer_128_1_bn1"
  type: "BatchNorm"
  bottom: "layer_64_3_sum"
  top: "layer_128_1_bn1"
  param {
    lr_mult: 0
    decay_mult: 0
  }
  param {
    lr_mult: 0
    decay_mult: 0
  }
  param {
    lr_mult: 0
    decay_mult: 0
  }
}
layer {
  name: "layer_128_1_scale1"
  type: "Scale"
  bottom: "layer_128_1_bn1"
  top: "layer_128_1_bn1"
  param {
    lr_mult: 1
    decay_mult: 1
  }
  param {
    lr_mult: 2
    decay_mult: 1
  }
  scale_param {
    bias_term: true
  }
}
layer {
  name: "layer_128_1_relu1"
  type: "ReLU"
  bottom: "layer_128_1_bn1"
  top: "layer_128_1_bn1"
}
layer {
  name: "layer_128_1_conv1"
  type: "Convolution"
  bottom: "layer_128_1_bn1"
  top: "layer_128_1_conv1"
  param {
    lr_mult: 1
    decay_mult: 1
  }
  convolution_param {
    num_output: 128
    bias_term: false
    pad: 0
    kernel_size: 1
    stride: 1
    weight_filler {
      type: "msra"
    }
    bias_filler {
      type: "constant"
      value: 0
    }
  }
}
layer {
  name: "layer_128_1_bn2"
  type: "BatchNorm"
  bottom: "layer_128_1_conv1"
  top: "layer_128_1_conv1"
  param {
    lr_mult: 0
    decay_mult: 0
  }
  param {
    lr_mult: 0
    decay_mult: 0
  }
  param {
    lr_mult: 0
    decay_mult: 0
  }
}
layer {
  name: "layer_128_1_scale2"
  type: "Scale"
  bottom: "layer_128_1_conv1"
  top: "layer_128_1_conv1"
  param {
    lr_mult: 1
    decay_mult: 1
  }
  param {
    lr_mult: 2
    decay_mult: 1
  }
  scale_param {
    bias_term: true
  }
}
layer {
  name: "layer_128_1_relu2"
  type: "ReLU"
  bottom: "layer_128_1_conv1"
  top: "layer_128_1_conv1"
}
layer {
  name: "layer_128_1_conv2"
  type: "Convolution"
  bottom: "layer_128_1_conv1"
  top: "layer_128_1_conv2"
  param {
    lr_mult: 1
    decay_mult: 1
  }
  convolution_param {
    num_output: 128
    bias_term: false
    pad: 1
    kernel_size: 3
    stride: 2
    weight_filler {
      type: "msra"
    }
    bias_filler {
      type: "constant"
      value: 0
    }
  }
}
layer {
  name: "layer_128_1_bn3"
  type: "BatchNorm"
  bottom: "layer_128_1_conv2"
  top: "layer_128_1_conv2"
  param {
    lr_mult: 0
    decay_mult: 0
  }
  param {
    lr_mult: 0
    decay_mult: 0
  }
  param {
    lr_mult: 0
    decay_mult: 0
  }
}
layer {
  name: "layer_128_1_scale3"
  type: "Scale"
  bottom: "layer_128_1_conv2"
  top: "layer_128_1_conv2"
  param {
    lr_mult: 1
    decay_mult: 1
  }
  param {
    lr_mult: 2
    decay_mult: 1
  }
  scale_param {
    bias_term: true
  }
}
layer {
  name: "layer_128_1_relu3"
  type: "ReLU"
  bottom: "layer_128_1_conv2"
  top: "layer_128_1_conv2"
}
layer {
  name: "layer_128_1_conv3"
  type: "Convolution"
  bottom: "layer_128_1_conv2"
  top: "layer_128_1_conv3"
  param {
    lr_mult: 1
    decay_mult: 1
  }
  convolution_param {
    num_output: 512
    bias_term: false
    pad: 0
    kernel_size: 1
    stride: 1
    weight_filler {
      type: "msra"
    }
    bias_filler {
      type: "constant"
      value: 0
    }
  }
}
layer {
  name: "layer_128_1_conv_expand"
  type: "Convolution"
  bottom: "layer_128_1_bn1"
  top: "layer_128_1_conv_expand"
  param {
    lr_mult: 1
    decay_mult: 1
  }
  convolution_param {
    num_output: 512
    bias_term: false
    pad: 0
    kernel_size: 1
    stride: 2
    weight_filler {
      type: "msra"
    }
    bias_filler {
      type: "constant"
      value: 0
    }
  }
}
layer {
  name: "layer_128_1_sum"
  type: "Eltwise"
  bottom: "layer_128_1_conv3"
  bottom: "layer_128_1_conv_expand"
  top: "layer_128_1_sum"
}
layer {
  name: "layer_128_2_bn1"
  type: "BatchNorm"
  bottom: "layer_128_1_sum"
  top: "layer_128_2_bn1"
  param {
    lr_mult: 0
    decay_mult: 0
  }
  param {
    lr_mult: 0
    decay_mult: 0
  }
  param {
    lr_mult: 0
    decay_mult: 0
  }
}
layer {
  name: "layer_128_2_scale1"
  type: "Scale"
  bottom: "layer_128_2_bn1"
  top: "layer_128_2_bn1"
  param {
    lr_mult: 1
    decay_mult: 1
  }
  param {
    lr_mult: 2
    decay_mult: 1
  }
  scale_param {
    bias_term: true
  }
}
layer {
  name: "layer_128_2_relu1"
  type: "ReLU"
  bottom: "layer_128_2_bn1"
  top: "layer_128_2_bn1"
}
layer {
  name: "layer_128_2_conv1"
  type: "Convolution"
  bottom: "layer_128_2_bn1"
  top: "layer_128_2_conv1"
  param {
    lr_mult: 1
    decay_mult: 1
  }
  convolution_param {
    num_output: 128
    bias_term: false
    pad: 0
    kernel_size: 1
    stride: 1
    weight_filler {
      type: "msra"
    }
    bias_filler {
      type: "constant"
      value: 0
    }
  }
}
layer {
  name: "layer_128_2_bn2"
  type: "BatchNorm"
  bottom: "layer_128_2_conv1"
  top: "layer_128_2_conv1"
  param {
    lr_mult: 0
    decay_mult: 0
  }
  param {
    lr_mult: 0
    decay_mult: 0
  }
  param {
    lr_mult: 0
    decay_mult: 0
  }
}
layer {
  name: "layer_128_2_scale2"
  type: "Scale"
  bottom: "layer_128_2_conv1"
  top: "layer_128_2_conv1"
  param {
    lr_mult: 1
    decay_mult: 1
  }
  param {
    lr_mult: 2
    decay_mult: 1
  }
  scale_param {
    bias_term: true
  }
}
layer {
  name: "layer_128_2_relu2"
  type: "ReLU"
  bottom: "layer_128_2_conv1"
  top: "layer_128_2_conv1"
}
layer {
  name: "layer_128_2_conv2"
  type: "Convolution"
  bottom: "layer_128_2_conv1"
  top: "layer_128_2_conv2"
  param {
    lr_mult: 1
    decay_mult: 1
  }
  convolution_param {
    num_output: 128
    bias_term: false
    pad: 1
    kernel_size: 3
    stride: 1
    weight_filler {
      type: "msra"
    }
    bias_filler {
      type: "constant"
      value: 0
    }
  }
}
layer {
  name: "layer_128_2_bn3"
  type: "BatchNorm"
  bottom: "layer_128_2_conv2"
  top: "layer_128_2_conv2"
  param {
    lr_mult: 0
    decay_mult: 0
  }
  param {
    lr_mult: 0
    decay_mult: 0
  }
  param {
    lr_mult: 0
    decay_mult: 0
  }
}
layer {
  name: "layer_128_2_scale3"
  type: "Scale"
  bottom: "layer_128_2_conv2"
  top: "layer_128_2_conv2"
  param {
    lr_mult: 1
    decay_mult: 1
  }
  param {
    lr_mult: 2
    decay_mult: 1
  }
  scale_param {
    bias_term: true
  }
}
layer {
  name: "layer_128_2_relu3"
  type: "ReLU"
  bottom: "layer_128_2_conv2"
  top: "layer_128_2_conv2"
}
layer {
  name: "layer_128_2_conv3"
  type: "Convolution"
  bottom: "layer_128_2_conv2"
  top: "layer_128_2_conv3"
  param {
    lr_mult: 1
    decay_mult: 1
  }
  convolution_param {
    num_output: 512
    bias_term: false
    pad: 0
    kernel_size: 1
    stride: 1
    weight_filler {
      type: "msra"
    }
    bias_filler {
      type: "constant"
      value: 0
    }
  }
}
layer {
  name: "layer_128_2_sum"
  type: "Eltwise"
  bottom: "layer_128_2_conv3"
  bottom: "layer_128_1_sum"
  top: "layer_128_2_sum"
}
layer {
  name: "layer_128_3_bn1"
  type: "BatchNorm"
  bottom: "layer_128_2_sum"
  top: "layer_128_3_bn1"
  param {
    lr_mult: 0
    decay_mult: 0
  }
  param {
    lr_mult: 0
    decay_mult: 0
  }
  param {
    lr_mult: 0
    decay_mult: 0
  }
}
layer {
  name: "layer_128_3_scale1"
  type: "Scale"
  bottom: "layer_128_3_bn1"
  top: "layer_128_3_bn1"
  param {
    lr_mult: 1
    decay_mult: 1
  }
  param {
    lr_mult: 2
    decay_mult: 1
  }
  scale_param {
    bias_term: true
  }
}
layer {
  name: "layer_128_3_relu1"
  type: "ReLU"
  bottom: "layer_128_3_bn1"
  top: "layer_128_3_bn1"
}
layer {
  name: "layer_128_3_conv1"
  type: "Convolution"
  bottom: "layer_128_3_bn1"
  top: "layer_128_3_conv1"
  param {
    lr_mult: 1
    decay_mult: 1
  }
  convolution_param {
    num_output: 128
    bias_term: false
    pad: 0
    kernel_size: 1
    stride: 1
    weight_filler {
      type: "msra"
    }
    bias_filler {
      type: "constant"
      value: 0
    }
  }
}
layer {
  name: "layer_128_3_bn2"
  type: "BatchNorm"
  bottom: "layer_128_3_conv1"
  top: "layer_128_3_conv1"
  param {
    lr_mult: 0
    decay_mult: 0
  }
  param {
    lr_mult: 0
    decay_mult: 0
  }
  param {
    lr_mult: 0
    decay_mult: 0
  }
}
layer {
  name: "layer_128_3_scale2"
  type: "Scale"
  bottom: "layer_128_3_conv1"
  top: "layer_128_3_conv1"
  param {
    lr_mult: 1
    decay_mult: 1
  }
  param {
    lr_mult: 2
    decay_mult: 1
  }
  scale_param {
    bias_term: true
  }
}
layer {
  name: "layer_128_3_relu2"
  type: "ReLU"
  bottom: "layer_128_3_conv1"
  top: "layer_128_3_conv1"
}
layer {
  name: "layer_128_3_conv2"
  type: "Convolution"
  bottom: "layer_128_3_conv1"
  top: "layer_128_3_conv2"
  param {
    lr_mult: 1
    decay_mult: 1
  }
  convolution_param {
    num_output: 128
    bias_term: false
    pad: 1
    kernel_size: 3
    stride: 1
    weight_filler {
      type: "msra"
    }
    bias_filler {
      type: "constant"
      value: 0
    }
  }
}
layer {
  name: "layer_128_3_bn3"
  type: "BatchNorm"
  bottom: "layer_128_3_conv2"
  top: "layer_128_3_conv2"
  param {
    lr_mult: 0
    decay_mult: 0
  }
  param {
    lr_mult: 0
    decay_mult: 0
  }
  param {
    lr_mult: 0
    decay_mult: 0
  }
}
layer {
  name: "layer_128_3_scale3"
  type: "Scale"
  bottom: "layer_128_3_conv2"
  top: "layer_128_3_conv2"
  param {
    lr_mult: 1
    decay_mult: 1
  }
  param {
    lr_mult: 2
    decay_mult: 1
  }
  scale_param {
    bias_term: true
  }
}
layer {
  name: "layer_128_3_relu3"
  type: "ReLU"
  bottom: "layer_128_3_conv2"
  top: "layer_128_3_conv2"
}
layer {
  name: "layer_128_3_conv3"
  type: "Convolution"
  bottom: "layer_128_3_conv2"
  top: "layer_128_3_conv3"
  param {
    lr_mult: 1
    decay_mult: 1
  }
  convolution_param {
    num_output: 512
    bias_term: false
    pad: 0
    kernel_size: 1
    stride: 1
    weight_filler {
      type: "msra"
    }
    bias_filler {
      type: "constant"
      value: 0
    }
  }
}
layer {
  name: "layer_128_3_sum"
  type: "Eltwise"
  bottom: "layer_128_3_conv3"
  bottom: "layer_128_2_sum"
  top: "layer_128_3_sum"
}
layer {
  name: "layer_128_4_bn1"
  type: "BatchNorm"
  bottom: "layer_128_3_sum"
  top: "layer_128_4_bn1"
  param {
    lr_mult: 0
    decay_mult: 0
  }
  param {
    lr_mult: 0
    decay_mult: 0
  }
  param {
    lr_mult: 0
    decay_mult: 0
  }
}
layer {
  name: "layer_128_4_scale1"
  type: "Scale"
  bottom: "layer_128_4_bn1"
  top: "layer_128_4_bn1"
  param {
    lr_mult: 1
    decay_mult: 1
  }
  param {
    lr_mult: 2
    decay_mult: 1
  }
  scale_param {
    bias_term: true
  }
}
layer {
  name: "layer_128_4_relu1"
  type: "ReLU"
  bottom: "layer_128_4_bn1"
  top: "layer_128_4_bn1"
}
layer {
  name: "layer_128_4_conv1"
  type: "Convolution"
  bottom: "layer_128_4_bn1"
  top: "layer_128_4_conv1"
  param {
    lr_mult: 1
    decay_mult: 1
  }
  convolution_param {
    num_output: 128
    bias_term: false
    pad: 0
    kernel_size: 1
    stride: 1
    weight_filler {
      type: "msra"
    }
    bias_filler {
      type: "constant"
      value: 0
    }
  }
}
layer {
  name: "layer_128_4_bn2"
  type: "BatchNorm"
  bottom: "layer_128_4_conv1"
  top: "layer_128_4_conv1"
  param {
    lr_mult: 0
    decay_mult: 0
  }
  param {
    lr_mult: 0
    decay_mult: 0
  }
  param {
    lr_mult: 0
    decay_mult: 0
  }
}
layer {
  name: "layer_128_4_scale2"
  type: "Scale"
  bottom: "layer_128_4_conv1"
  top: "layer_128_4_conv1"
  param {
    lr_mult: 1
    decay_mult: 1
  }
  param {
    lr_mult: 2
    decay_mult: 1
  }
  scale_param {
    bias_term: true
  }
}
layer {
  name: "layer_128_4_relu2"
  type: "ReLU"
  bottom: "layer_128_4_conv1"
  top: "layer_128_4_conv1"
}
layer {
  name: "layer_128_4_conv2"
  type: "Convolution"
  bottom: "layer_128_4_conv1"
  top: "layer_128_4_conv2"
  param {
    lr_mult: 1
    decay_mult: 1
  }
  convolution_param {
    num_output: 128
    bias_term: false
    pad: 1
    kernel_size: 3
    stride: 1
    weight_filler {
      type: "msra"
    }
    bias_filler {
      type: "constant"
      value: 0
    }
  }
}
layer {
  name: "layer_128_4_bn3"
  type: "BatchNorm"
  bottom: "layer_128_4_conv2"
  top: "layer_128_4_conv2"
  param {
    lr_mult: 0
    decay_mult: 0
  }
  param {
    lr_mult: 0
    decay_mult: 0
  }
  param {
    lr_mult: 0
    decay_mult: 0
  }
}
layer {
  name: "layer_128_4_scale3"
  type: "Scale"
  bottom: "layer_128_4_conv2"
  top: "layer_128_4_conv2"
  param {
    lr_mult: 1
    decay_mult: 1
  }
  param {
    lr_mult: 2
    decay_mult: 1
  }
  scale_param {
    bias_term: true
  }
}
layer {
  name: "layer_128_4_relu3"
  type: "ReLU"
  bottom: "layer_128_4_conv2"
  top: "layer_128_4_conv2"
}
layer {
  name: "layer_128_4_conv3"
  type: "Convolution"
  bottom: "layer_128_4_conv2"
  top: "layer_128_4_conv3"
  param {
    lr_mult: 1
    decay_mult: 1
  }
  convolution_param {
    num_output: 512
    bias_term: false
    pad: 0
    kernel_size: 1
    stride: 1
    weight_filler {
      type: "msra"
    }
    bias_filler {
      type: "constant"
      value: 0
    }
  }
}
layer {
  name: "layer_128_4_sum"
  type: "Eltwise"
  bottom: "layer_128_4_conv3"
  bottom: "layer_128_3_sum"
  top: "layer_128_4_sum"
}
layer {
  name: "last_bn"
  type: "BatchNorm"
  bottom: "layer_128_4_sum"
  top: "layer_128_4_sum"
  param {
    lr_mult: 0
    decay_mult: 0
  }
  param {
    lr_mult: 0
    decay_mult: 0
  }
  param {
    lr_mult: 0
    decay_mult: 0
  }
}
layer {
  name: "last_scale"
  type: "Scale"
  bottom: "layer_128_4_sum"
  top: "layer_128_4_sum"
  param {
    lr_mult: 1
    decay_mult: 1
  }
  param {
    lr_mult: 2
    decay_mult: 1
  }
  scale_param {
    bias_term: true
  }
}
layer {
  name: "last_relu"
  type: "ReLU"
  bottom: "layer_128_4_sum"
  top: "layer_128_4_sum"
}
layer {
  name: "slicer_feature_map"
  type: "Slice"
  bottom: "layer_128_4_sum"
  top: "slice_up"
  top: "slice_down"
  slice_param {
    slice_point: 7
    axis: 2
  }
}
layer {
  name: "concat_feature"
  type: "Concat"
  bottom: "slice_up"
  bottom: "slice_down"
  top: "concat_feature"
  concat_param {
    axis: 3
  }
}
layer {
  name: "permuted_data"
  type: "Permute"
  bottom: "concat_feature"
  top: "permuted_data"
  permute_param {
    order: 3
    order: 0
    order: 1
    order: 2
  }
}
layer {
  name: "lstm-reverse1"
  type: "Reverse"
  bottom: "permuted_data"
  top: "rlstm_input"
  reverse_param {
    axis: 0
  }
}
layer {
  name: "lstm2x_r1_r1"
  type: "LSTM"
  bottom: "rlstm_input"
  bottom: "indicator"
  top: "lstm2x"
  recurrent_param {
    num_output: 100
    weight_filler {
      type: "xavier"
    }
    bias_filler {
      type: "constant"
      value: 0
    }
  }
}
layer {
  name: "lstm-reverse2"
  type: "Reverse"
  bottom: "lstm2x"
  top: "rlstmx"
  reverse_param {
    axis: 0
  }
}
layer {
  name: "lstm1x_r1_r1"
  type: "LSTM"
  bottom: "permuted_data"
  bottom: "indicator"
  top: "lstm1x"
  recurrent_param {
    num_output: 100
    weight_filler {
      type: "xavier"
    }
    bias_filler {
      type: "constant"
      value: 0
    }
  }
}
layer {
  name: "merge_lstm_rlstmx"
  type: "Concat"
  bottom: "lstm1x"
  bottom: "rlstmx"
  top: "merge_lstm_rlstmx"
  concat_param {
    axis: 2
  }
}
layer {
  name: "fc_all_1"
  type: "InnerProduct"
  bottom: "merge_lstm_rlstmx"
  top: "fc_all_1"
  param {
    lr_mult: 1
    decay_mult: 1
  }
  param {
    lr_mult: 2
    decay_mult: 0
  }
  inner_product_param {
    num_output: 69
    weight_filler {
      type: "xavier"
    }
    bias_filler {
      type: "constant"
      value: 0
    }
    axis: 2
  }
}
layer {
  name: "ctc_loss"
  type: "CtcLoss"
  bottom: "fc_all_1"
  bottom: "label1"
  top: "ctc_loss"
  loss_weight: 1
  ctc_loss_param {
    alphabet_size: 69
    time_step: 60
    blank_label: 68
  }
}
layer {
  name: "pool_color_1"
  type: "Pooling"
  bottom: "layer_128_1_sum"
  top: "pool_color_1"
  pooling_param {
    pool: MAX
    kernel_size: 2
    stride: 2
  }
}
layer {
  name: "conv_color1_1"
  type: "Convolution"
  bottom: "pool_color_1"
  top: "conv_color1_1"
  param {
    lr_mult: 0
    decay_mult: 1
  }
  convolution_param {
    num_output: 256
    bias_term: false
    pad: 1
    kernel_size: 3
    stride: 1
    weight_filler {
      type: "msra"
    }
    bias_filler {
      type: "constant"
      value: 0
    }
  }
}
layer {
  name: "bn_color_1"
  type: "BatchNorm"
  bottom: "conv_color1_1"
  top: "conv_color1_1"
  param {
    lr_mult: 0
    decay_mult: 0
  }
  param {
    lr_mult: 0
    decay_mult: 0
  }
  param {
    lr_mult: 0
    decay_mult: 0
  }
  batch_norm_param {
    use_global_stats: true
  }
}
layer {
  name: "scale_color_1"
  type: "Scale"
  bottom: "conv_color1_1"
  top: "conv_color1_1"
  param {
    lr_mult: 0
    decay_mult: 1
  }
  param {
    lr_mult: 0
    decay_mult: 1
  }
  scale_param {
    bias_term: true
  }
}
layer {
  name: "relu_color_1"
  type: "ReLU"
  bottom: "conv_color1_1"
  top: "conv_color1_1"
}
layer {
  name: "pool_color_2"
  type: "Pooling"
  bottom: "conv_color1_1"
  top: "pool_color_2"
  pooling_param {
    pool: AVE
    global_pooling: true
  }
}
layer {
  name: "fc_color_1"
  type: "InnerProduct"
  bottom: "pool_color_2"
  top: "fc_color_1"
  param {
    lr_mult: 0
    decay_mult: 1
  }
  param {
    lr_mult: 0
    decay_mult: 0
  }
  propagate_down: false
  inner_product_param {
    num_output: 5
    weight_filler {
      type: "xavier"
    }
    bias_filler {
      type: "constant"
      value: 0
    }
  }
}
layer {
  name: "softmax_loss"
  type: "SoftmaxWithLoss"
  bottom: "fc_color_1"
  bottom: "label2"
  top: "softmax_loss"
  loss_weight: 0
}
layer {
  name: "permute_fc_1"
  type: "Permute"
  bottom: "fc_all_1"
  top: "premuted_fc_1"
  include {
    phase: TRAIN
  }
  permute_param {
    order: 1
    order: 0
    order: 2
  }
}
layer {
  name: "accuracy"
  type: "LabelsequenceAccuracy"
  bottom: "premuted_fc_1"
  bottom: "label1"
  top: "accuracy"
  include {
    phase: TRAIN
  }
  labelsequence_accuracy_param {
    blank_label: 68
  }
}
I0417 17:05:43.358872 25260 layer_factory.hpp:77] Creating layer data
I0417 17:05:43.358899 25260 net.cpp:84] Creating Layer data
I0417 17:05:43.358906 25260 net.cpp:380] data -> data
I0417 17:05:43.358919 25260 net.cpp:380] data -> label
I0417 17:05:43.358929 25260 image_data_layer.cpp:41] Opening file train.txt
The0label:68----
The1label:68----
The2label:68----
The3label:68----
The4label:68----
The5label:68----
The6label:68----
The7label:68----
The8label:68----
The9label:68----
The10label:68----
The11label:68----
The12label:68----
The13label:40----
The14label:21----
The15label:18----
The16label:24----
The17label:3----
The18label:9----
The19label:0----
The20label:4----
I0417 17:05:43.443312 25260 image_data_layer.cpp:64] Shuffling data
I0417 17:05:43.444515 25260 image_data_layer.cpp:74] A total of 61167 images.
I0417 17:05:43.544255 25260 image_data_layer.cpp:101] output data size: 38,3,112,240
I0417 17:05:43.562791 25260 net.cpp:122] Setting up data
I0417 17:05:43.562826 25260 net.cpp:129] Top shape: 38 3 112 240 (3064320)
I0417 17:05:43.562831 25260 net.cpp:129] Top shape: 38 21 1 1 (798)
I0417 17:05:43.562834 25260 net.cpp:137] Memory required for data: 12260472
I0417 17:05:43.562839 25260 layer_factory.hpp:77] Creating layer slicer_label
I0417 17:05:43.562850 25260 net.cpp:84] Creating Layer slicer_label
I0417 17:05:43.562856 25260 net.cpp:406] slicer_label <- label
I0417 17:05:43.562868 25260 net.cpp:380] slicer_label -> label1
I0417 17:05:43.562880 25260 net.cpp:380] slicer_label -> label2
I0417 17:05:43.562922 25260 net.cpp:122] Setting up slicer_label
I0417 17:05:43.562927 25260 net.cpp:129] Top shape: 38 20 1 1 (760)
I0417 17:05:43.562930 25260 net.cpp:129] Top shape: 38 1 1 1 (38)
I0417 17:05:43.562933 25260 net.cpp:137] Memory required for data: 12263664
I0417 17:05:43.562937 25260 layer_factory.hpp:77] Creating layer label1_slicer_label_0_split
I0417 17:05:43.562943 25260 net.cpp:84] Creating Layer label1_slicer_label_0_split
I0417 17:05:43.562949 25260 net.cpp:406] label1_slicer_label_0_split <- label1
I0417 17:05:43.562955 25260 net.cpp:380] label1_slicer_label_0_split -> label1_slicer_label_0_split_0
I0417 17:05:43.562964 25260 net.cpp:380] label1_slicer_label_0_split -> label1_slicer_label_0_split_1
I0417 17:05:43.562994 25260 net.cpp:122] Setting up label1_slicer_label_0_split
I0417 17:05:43.562999 25260 net.cpp:129] Top shape: 38 20 1 1 (760)
I0417 17:05:43.563002 25260 net.cpp:129] Top shape: 38 20 1 1 (760)
I0417 17:05:43.563005 25260 net.cpp:137] Memory required for data: 12269744
I0417 17:05:43.563009 25260 layer_factory.hpp:77] Creating layer indicator
I0417 17:05:43.563017 25260 net.cpp:84] Creating Layer indicator
I0417 17:05:43.563024 25260 net.cpp:380] indicator -> indicator
I0417 17:05:43.563063 25260 net.cpp:122] Setting up indicator
I0417 17:05:43.563072 25260 net.cpp:129] Top shape: 60 38 (2280)
I0417 17:05:43.563076 25260 net.cpp:137] Memory required for data: 12278864
I0417 17:05:43.563079 25260 layer_factory.hpp:77] Creating layer indicator_indicator_0_split
I0417 17:05:43.563086 25260 net.cpp:84] Creating Layer indicator_indicator_0_split
I0417 17:05:43.563091 25260 net.cpp:406] indicator_indicator_0_split <- indicator
I0417 17:05:43.563097 25260 net.cpp:380] indicator_indicator_0_split -> indicator_indicator_0_split_0
I0417 17:05:43.563105 25260 net.cpp:380] indicator_indicator_0_split -> indicator_indicator_0_split_1
I0417 17:05:43.563135 25260 net.cpp:122] Setting up indicator_indicator_0_split
I0417 17:05:43.563141 25260 net.cpp:129] Top shape: 60 38 (2280)
I0417 17:05:43.563144 25260 net.cpp:129] Top shape: 60 38 (2280)
I0417 17:05:43.563148 25260 net.cpp:137] Memory required for data: 12297104
I0417 17:05:43.563150 25260 layer_factory.hpp:77] Creating layer data_bn
I0417 17:05:43.563158 25260 net.cpp:84] Creating Layer data_bn
I0417 17:05:43.563161 25260 net.cpp:406] data_bn <- data
I0417 17:05:43.563168 25260 net.cpp:380] data_bn -> data_bn
I0417 17:05:43.564083 25260 net.cpp:122] Setting up data_bn
I0417 17:05:43.564092 25260 net.cpp:129] Top shape: 38 3 112 240 (3064320)
I0417 17:05:43.564095 25260 net.cpp:137] Memory required for data: 24554384
I0417 17:05:43.564117 25260 layer_factory.hpp:77] Creating layer data_scale
I0417 17:05:43.564126 25260 net.cpp:84] Creating Layer data_scale
I0417 17:05:43.564132 25260 net.cpp:406] data_scale <- data_bn
I0417 17:05:43.564138 25260 net.cpp:367] data_scale -> data_bn (in-place)
I0417 17:05:43.564178 25260 layer_factory.hpp:77] Creating layer data_scale
I0417 17:05:43.564275 25260 net.cpp:122] Setting up data_scale
I0417 17:05:43.564282 25260 net.cpp:129] Top shape: 38 3 112 240 (3064320)
I0417 17:05:43.564285 25260 net.cpp:137] Memory required for data: 36811664
I0417 17:05:43.564292 25260 layer_factory.hpp:77] Creating layer conv1
I0417 17:05:43.564306 25260 net.cpp:84] Creating Layer conv1
I0417 17:05:43.564311 25260 net.cpp:406] conv1 <- data_bn
I0417 17:05:43.564318 25260 net.cpp:380] conv1 -> conv1
I0417 17:05:43.566154 25260 net.cpp:122] Setting up conv1
I0417 17:05:43.566164 25260 net.cpp:129] Top shape: 38 64 56 120 (16343040)
I0417 17:05:43.566167 25260 net.cpp:137] Memory required for data: 102183824
I0417 17:05:43.566174 25260 layer_factory.hpp:77] Creating layer conv1_bn
I0417 17:05:43.566182 25260 net.cpp:84] Creating Layer conv1_bn
I0417 17:05:43.566187 25260 net.cpp:406] conv1_bn <- conv1
I0417 17:05:43.566195 25260 net.cpp:367] conv1_bn -> conv1 (in-place)
I0417 17:05:43.566318 25260 net.cpp:122] Setting up conv1_bn
I0417 17:05:43.566323 25260 net.cpp:129] Top shape: 38 64 56 120 (16343040)
I0417 17:05:43.566326 25260 net.cpp:137] Memory required for data: 167555984
I0417 17:05:43.566335 25260 layer_factory.hpp:77] Creating layer conv1_scale
I0417 17:05:43.566342 25260 net.cpp:84] Creating Layer conv1_scale
I0417 17:05:43.566347 25260 net.cpp:406] conv1_scale <- conv1
I0417 17:05:43.566354 25260 net.cpp:367] conv1_scale -> conv1 (in-place)
I0417 17:05:43.566387 25260 layer_factory.hpp:77] Creating layer conv1_scale
I0417 17:05:43.566470 25260 net.cpp:122] Setting up conv1_scale
I0417 17:05:43.566476 25260 net.cpp:129] Top shape: 38 64 56 120 (16343040)
I0417 17:05:43.566478 25260 net.cpp:137] Memory required for data: 232928144
I0417 17:05:43.566484 25260 layer_factory.hpp:77] Creating layer conv1_relu
I0417 17:05:43.566491 25260 net.cpp:84] Creating Layer conv1_relu
I0417 17:05:43.566496 25260 net.cpp:406] conv1_relu <- conv1
I0417 17:05:43.566501 25260 net.cpp:367] conv1_relu -> conv1 (in-place)
I0417 17:05:43.566507 25260 net.cpp:122] Setting up conv1_relu
I0417 17:05:43.566514 25260 net.cpp:129] Top shape: 38 64 56 120 (16343040)
I0417 17:05:43.566519 25260 net.cpp:137] Memory required for data: 298300304
I0417 17:05:43.566537 25260 layer_factory.hpp:77] Creating layer conv1_pool
I0417 17:05:43.566543 25260 net.cpp:84] Creating Layer conv1_pool
I0417 17:05:43.566560 25260 net.cpp:406] conv1_pool <- conv1
I0417 17:05:43.566567 25260 net.cpp:380] conv1_pool -> conv1_pool
I0417 17:05:43.566645 25260 net.cpp:122] Setting up conv1_pool
I0417 17:05:43.566653 25260 net.cpp:129] Top shape: 38 64 28 60 (4085760)
I0417 17:05:43.566655 25260 net.cpp:137] Memory required for data: 314643344
I0417 17:05:43.566671 25260 layer_factory.hpp:77] Creating layer layer_64_1_conv1
I0417 17:05:43.566679 25260 net.cpp:84] Creating Layer layer_64_1_conv1
I0417 17:05:43.566684 25260 net.cpp:406] layer_64_1_conv1 <- conv1_pool
I0417 17:05:43.566689 25260 net.cpp:380] layer_64_1_conv1 -> layer_64_1_conv1
I0417 17:05:43.567593 25260 net.cpp:122] Setting up layer_64_1_conv1
I0417 17:05:43.567602 25260 net.cpp:129] Top shape: 38 64 28 60 (4085760)
I0417 17:05:43.567605 25260 net.cpp:137] Memory required for data: 330986384
I0417 17:05:43.567610 25260 layer_factory.hpp:77] Creating layer layer_64_1_bn2
I0417 17:05:43.567617 25260 net.cpp:84] Creating Layer layer_64_1_bn2
I0417 17:05:43.567621 25260 net.cpp:406] layer_64_1_bn2 <- layer_64_1_conv1
I0417 17:05:43.567626 25260 net.cpp:367] layer_64_1_bn2 -> layer_64_1_conv1 (in-place)
I0417 17:05:43.567742 25260 net.cpp:122] Setting up layer_64_1_bn2
I0417 17:05:43.567749 25260 net.cpp:129] Top shape: 38 64 28 60 (4085760)
I0417 17:05:43.567750 25260 net.cpp:137] Memory required for data: 347329424
I0417 17:05:43.567756 25260 layer_factory.hpp:77] Creating layer layer_64_1_scale2
I0417 17:05:43.567764 25260 net.cpp:84] Creating Layer layer_64_1_scale2
I0417 17:05:43.567770 25260 net.cpp:406] layer_64_1_scale2 <- layer_64_1_conv1
I0417 17:05:43.567775 25260 net.cpp:367] layer_64_1_scale2 -> layer_64_1_conv1 (in-place)
I0417 17:05:43.567806 25260 layer_factory.hpp:77] Creating layer layer_64_1_scale2
I0417 17:05:43.567880 25260 net.cpp:122] Setting up layer_64_1_scale2
I0417 17:05:43.567886 25260 net.cpp:129] Top shape: 38 64 28 60 (4085760)
I0417 17:05:43.567888 25260 net.cpp:137] Memory required for data: 363672464
I0417 17:05:43.567895 25260 layer_factory.hpp:77] Creating layer layer_64_1_relu2
I0417 17:05:43.567903 25260 net.cpp:84] Creating Layer layer_64_1_relu2
I0417 17:05:43.567908 25260 net.cpp:406] layer_64_1_relu2 <- layer_64_1_conv1
I0417 17:05:43.567914 25260 net.cpp:367] layer_64_1_relu2 -> layer_64_1_conv1 (in-place)
I0417 17:05:43.567919 25260 net.cpp:122] Setting up layer_64_1_relu2
I0417 17:05:43.567925 25260 net.cpp:129] Top shape: 38 64 28 60 (4085760)
I0417 17:05:43.567929 25260 net.cpp:137] Memory required for data: 380015504
I0417 17:05:43.567934 25260 layer_factory.hpp:77] Creating layer layer_64_1_conv1_layer_64_1_relu2_0_split
I0417 17:05:43.567939 25260 net.cpp:84] Creating Layer layer_64_1_conv1_layer_64_1_relu2_0_split
I0417 17:05:43.567944 25260 net.cpp:406] layer_64_1_conv1_layer_64_1_relu2_0_split <- layer_64_1_conv1
I0417 17:05:43.567948 25260 net.cpp:380] layer_64_1_conv1_layer_64_1_relu2_0_split -> layer_64_1_conv1_layer_64_1_relu2_0_split_0
I0417 17:05:43.567971 25260 net.cpp:380] layer_64_1_conv1_layer_64_1_relu2_0_split -> layer_64_1_conv1_layer_64_1_relu2_0_split_1
I0417 17:05:43.568012 25260 net.cpp:122] Setting up layer_64_1_conv1_layer_64_1_relu2_0_split
I0417 17:05:43.568017 25260 net.cpp:129] Top shape: 38 64 28 60 (4085760)
I0417 17:05:43.568020 25260 net.cpp:129] Top shape: 38 64 28 60 (4085760)
I0417 17:05:43.568024 25260 net.cpp:137] Memory required for data: 412701584
I0417 17:05:43.568027 25260 layer_factory.hpp:77] Creating layer layer_64_1_conv2
I0417 17:05:43.568049 25260 net.cpp:84] Creating Layer layer_64_1_conv2
I0417 17:05:43.568054 25260 net.cpp:406] layer_64_1_conv2 <- layer_64_1_conv1_layer_64_1_relu2_0_split_0
I0417 17:05:43.568063 25260 net.cpp:380] layer_64_1_conv2 -> layer_64_1_conv2
I0417 17:05:43.568459 25260 net.cpp:122] Setting up layer_64_1_conv2
I0417 17:05:43.568465 25260 net.cpp:129] Top shape: 38 64 28 60 (4085760)
I0417 17:05:43.568467 25260 net.cpp:137] Memory required for data: 429044624
I0417 17:05:43.568485 25260 layer_factory.hpp:77] Creating layer layer_64_1_bn3
I0417 17:05:43.568500 25260 net.cpp:84] Creating Layer layer_64_1_bn3
I0417 17:05:43.568517 25260 net.cpp:406] layer_64_1_bn3 <- layer_64_1_conv2
I0417 17:05:43.568521 25260 net.cpp:367] layer_64_1_bn3 -> layer_64_1_conv2 (in-place)
I0417 17:05:43.568663 25260 net.cpp:122] Setting up layer_64_1_bn3
I0417 17:05:43.568670 25260 net.cpp:129] Top shape: 38 64 28 60 (4085760)
I0417 17:05:43.568671 25260 net.cpp:137] Memory required for data: 445387664
I0417 17:05:43.568676 25260 layer_factory.hpp:77] Creating layer layer_64_1_scale3
I0417 17:05:43.568696 25260 net.cpp:84] Creating Layer layer_64_1_scale3
I0417 17:05:43.568701 25260 net.cpp:406] layer_64_1_scale3 <- layer_64_1_conv2
I0417 17:05:43.568706 25260 net.cpp:367] layer_64_1_scale3 -> layer_64_1_conv2 (in-place)
I0417 17:05:43.568763 25260 layer_factory.hpp:77] Creating layer layer_64_1_scale3
I0417 17:05:43.568866 25260 net.cpp:122] Setting up layer_64_1_scale3
I0417 17:05:43.568871 25260 net.cpp:129] Top shape: 38 64 28 60 (4085760)
I0417 17:05:43.568873 25260 net.cpp:137] Memory required for data: 461730704
I0417 17:05:43.568879 25260 layer_factory.hpp:77] Creating layer layer_64_1_relu3
I0417 17:05:43.568886 25260 net.cpp:84] Creating Layer layer_64_1_relu3
I0417 17:05:43.568892 25260 net.cpp:406] layer_64_1_relu3 <- layer_64_1_conv2
I0417 17:05:43.568897 25260 net.cpp:367] layer_64_1_relu3 -> layer_64_1_conv2 (in-place)
I0417 17:05:43.568903 25260 net.cpp:122] Setting up layer_64_1_relu3
I0417 17:05:43.568909 25260 net.cpp:129] Top shape: 38 64 28 60 (4085760)
I0417 17:05:43.568913 25260 net.cpp:137] Memory required for data: 478073744
I0417 17:05:43.568917 25260 layer_factory.hpp:77] Creating layer layer_64_1_conv3
I0417 17:05:43.568924 25260 net.cpp:84] Creating Layer layer_64_1_conv3
I0417 17:05:43.568930 25260 net.cpp:406] layer_64_1_conv3 <- layer_64_1_conv2
I0417 17:05:43.568936 25260 net.cpp:380] layer_64_1_conv3 -> layer_64_1_conv3
I0417 17:05:43.569162 25260 net.cpp:122] Setting up layer_64_1_conv3
I0417 17:05:43.569169 25260 net.cpp:129] Top shape: 38 256 28 60 (16343040)
I0417 17:05:43.569172 25260 net.cpp:137] Memory required for data: 543445904
I0417 17:05:43.569177 25260 layer_factory.hpp:77] Creating layer layer_64_1_conv_expand
I0417 17:05:43.569185 25260 net.cpp:84] Creating Layer layer_64_1_conv_expand
I0417 17:05:43.569190 25260 net.cpp:406] layer_64_1_conv_expand <- layer_64_1_conv1_layer_64_1_relu2_0_split_1
I0417 17:05:43.569198 25260 net.cpp:380] layer_64_1_conv_expand -> layer_64_1_conv_expand
I0417 17:05:43.569417 25260 net.cpp:122] Setting up layer_64_1_conv_expand
I0417 17:05:43.569423 25260 net.cpp:129] Top shape: 38 256 28 60 (16343040)
I0417 17:05:43.569427 25260 net.cpp:137] Memory required for data: 608818064
I0417 17:05:43.569432 25260 layer_factory.hpp:77] Creating layer layer_64_1_sum
I0417 17:05:43.569437 25260 net.cpp:84] Creating Layer layer_64_1_sum
I0417 17:05:43.569442 25260 net.cpp:406] layer_64_1_sum <- layer_64_1_conv3
I0417 17:05:43.569447 25260 net.cpp:406] layer_64_1_sum <- layer_64_1_conv_expand
I0417 17:05:43.569453 25260 net.cpp:380] layer_64_1_sum -> layer_64_1_sum
I0417 17:05:43.569473 25260 net.cpp:122] Setting up layer_64_1_sum
I0417 17:05:43.569479 25260 net.cpp:129] Top shape: 38 256 28 60 (16343040)
I0417 17:05:43.569481 25260 net.cpp:137] Memory required for data: 674190224
I0417 17:05:43.569484 25260 layer_factory.hpp:77] Creating layer layer_64_1_sum_layer_64_1_sum_0_split
I0417 17:05:43.569490 25260 net.cpp:84] Creating Layer layer_64_1_sum_layer_64_1_sum_0_split
I0417 17:05:43.569496 25260 net.cpp:406] layer_64_1_sum_layer_64_1_sum_0_split <- layer_64_1_sum
I0417 17:05:43.569501 25260 net.cpp:380] layer_64_1_sum_layer_64_1_sum_0_split -> layer_64_1_sum_layer_64_1_sum_0_split_0
I0417 17:05:43.569509 25260 net.cpp:380] layer_64_1_sum_layer_64_1_sum_0_split -> layer_64_1_sum_layer_64_1_sum_0_split_1
I0417 17:05:43.569536 25260 net.cpp:122] Setting up layer_64_1_sum_layer_64_1_sum_0_split
I0417 17:05:43.569542 25260 net.cpp:129] Top shape: 38 256 28 60 (16343040)
I0417 17:05:43.569555 25260 net.cpp:129] Top shape: 38 256 28 60 (16343040)
I0417 17:05:43.569561 25260 net.cpp:137] Memory required for data: 804934544
I0417 17:05:43.569564 25260 layer_factory.hpp:77] Creating layer layer_64_2_bn1
I0417 17:05:43.569569 25260 net.cpp:84] Creating Layer layer_64_2_bn1
I0417 17:05:43.569573 25260 net.cpp:406] layer_64_2_bn1 <- layer_64_1_sum_layer_64_1_sum_0_split_0
I0417 17:05:43.569578 25260 net.cpp:380] layer_64_2_bn1 -> layer_64_2_bn1
I0417 17:05:43.569730 25260 net.cpp:122] Setting up layer_64_2_bn1
I0417 17:05:43.569736 25260 net.cpp:129] Top shape: 38 256 28 60 (16343040)
I0417 17:05:43.569739 25260 net.cpp:137] Memory required for data: 870306704
I0417 17:05:43.569746 25260 layer_factory.hpp:77] Creating layer layer_64_2_scale1
I0417 17:05:43.569753 25260 net.cpp:84] Creating Layer layer_64_2_scale1
I0417 17:05:43.569757 25260 net.cpp:406] layer_64_2_scale1 <- layer_64_2_bn1
I0417 17:05:43.569762 25260 net.cpp:367] layer_64_2_scale1 -> layer_64_2_bn1 (in-place)
I0417 17:05:43.569793 25260 layer_factory.hpp:77] Creating layer layer_64_2_scale1
I0417 17:05:43.569880 25260 net.cpp:122] Setting up layer_64_2_scale1
I0417 17:05:43.569886 25260 net.cpp:129] Top shape: 38 256 28 60 (16343040)
I0417 17:05:43.569891 25260 net.cpp:137] Memory required for data: 935678864
I0417 17:05:43.569897 25260 layer_factory.hpp:77] Creating layer layer_64_2_relu1
I0417 17:05:43.569903 25260 net.cpp:84] Creating Layer layer_64_2_relu1
I0417 17:05:43.569907 25260 net.cpp:406] layer_64_2_relu1 <- layer_64_2_bn1
I0417 17:05:43.569912 25260 net.cpp:367] layer_64_2_relu1 -> layer_64_2_bn1 (in-place)
I0417 17:05:43.569918 25260 net.cpp:122] Setting up layer_64_2_relu1
I0417 17:05:43.569924 25260 net.cpp:129] Top shape: 38 256 28 60 (16343040)
I0417 17:05:43.569927 25260 net.cpp:137] Memory required for data: 1001051024
I0417 17:05:43.569931 25260 layer_factory.hpp:77] Creating layer layer_64_2_conv1
I0417 17:05:43.569938 25260 net.cpp:84] Creating Layer layer_64_2_conv1
I0417 17:05:43.569943 25260 net.cpp:406] layer_64_2_conv1 <- layer_64_2_bn1
I0417 17:05:43.569948 25260 net.cpp:380] layer_64_2_conv1 -> layer_64_2_conv1
I0417 17:05:43.570276 25260 net.cpp:122] Setting up layer_64_2_conv1
I0417 17:05:43.570282 25260 net.cpp:129] Top shape: 38 64 28 60 (4085760)
I0417 17:05:43.570287 25260 net.cpp:137] Memory required for data: 1017394064
I0417 17:05:43.570291 25260 layer_factory.hpp:77] Creating layer layer_64_2_bn2
I0417 17:05:43.570297 25260 net.cpp:84] Creating Layer layer_64_2_bn2
I0417 17:05:43.570302 25260 net.cpp:406] layer_64_2_bn2 <- layer_64_2_conv1
I0417 17:05:43.570307 25260 net.cpp:367] layer_64_2_bn2 -> layer_64_2_conv1 (in-place)
I0417 17:05:43.570456 25260 net.cpp:122] Setting up layer_64_2_bn2
I0417 17:05:43.570461 25260 net.cpp:129] Top shape: 38 64 28 60 (4085760)
I0417 17:05:43.570466 25260 net.cpp:137] Memory required for data: 1033737104
I0417 17:05:43.570475 25260 layer_factory.hpp:77] Creating layer layer_64_2_scale2
I0417 17:05:43.570482 25260 net.cpp:84] Creating Layer layer_64_2_scale2
I0417 17:05:43.570487 25260 net.cpp:406] layer_64_2_scale2 <- layer_64_2_conv1
I0417 17:05:43.570492 25260 net.cpp:367] layer_64_2_scale2 -> layer_64_2_conv1 (in-place)
I0417 17:05:43.570523 25260 layer_factory.hpp:77] Creating layer layer_64_2_scale2
I0417 17:05:43.570611 25260 net.cpp:122] Setting up layer_64_2_scale2
I0417 17:05:43.570617 25260 net.cpp:129] Top shape: 38 64 28 60 (4085760)
I0417 17:05:43.570622 25260 net.cpp:137] Memory required for data: 1050080144
I0417 17:05:43.570629 25260 layer_factory.hpp:77] Creating layer layer_64_2_relu2
I0417 17:05:43.570634 25260 net.cpp:84] Creating Layer layer_64_2_relu2
I0417 17:05:43.570639 25260 net.cpp:406] layer_64_2_relu2 <- layer_64_2_conv1
I0417 17:05:43.570643 25260 net.cpp:367] layer_64_2_relu2 -> layer_64_2_conv1 (in-place)
I0417 17:05:43.570648 25260 net.cpp:122] Setting up layer_64_2_relu2
I0417 17:05:43.570652 25260 net.cpp:129] Top shape: 38 64 28 60 (4085760)
I0417 17:05:43.570655 25260 net.cpp:137] Memory required for data: 1066423184
I0417 17:05:43.570665 25260 layer_factory.hpp:77] Creating layer layer_64_2_conv2
I0417 17:05:43.570675 25260 net.cpp:84] Creating Layer layer_64_2_conv2
I0417 17:05:43.570679 25260 net.cpp:406] layer_64_2_conv2 <- layer_64_2_conv1
I0417 17:05:43.570685 25260 net.cpp:380] layer_64_2_conv2 -> layer_64_2_conv2
I0417 17:05:43.571221 25260 net.cpp:122] Setting up layer_64_2_conv2
I0417 17:05:43.571235 25260 net.cpp:129] Top shape: 38 64 28 60 (4085760)
I0417 17:05:43.571239 25260 net.cpp:137] Memory required for data: 1082766224
I0417 17:05:43.571245 25260 layer_factory.hpp:77] Creating layer layer_64_2_bn3
I0417 17:05:43.571251 25260 net.cpp:84] Creating Layer layer_64_2_bn3
I0417 17:05:43.571257 25260 net.cpp:406] layer_64_2_bn3 <- layer_64_2_conv2
I0417 17:05:43.571264 25260 net.cpp:367] layer_64_2_bn3 -> layer_64_2_conv2 (in-place)
I0417 17:05:43.571430 25260 net.cpp:122] Setting up layer_64_2_bn3
I0417 17:05:43.571439 25260 net.cpp:129] Top shape: 38 64 28 60 (4085760)
I0417 17:05:43.571444 25260 net.cpp:137] Memory required for data: 1099109264
I0417 17:05:43.571451 25260 layer_factory.hpp:77] Creating layer layer_64_2_scale3
I0417 17:05:43.571460 25260 net.cpp:84] Creating Layer layer_64_2_scale3
I0417 17:05:43.571462 25260 net.cpp:406] layer_64_2_scale3 <- layer_64_2_conv2
I0417 17:05:43.571468 25260 net.cpp:367] layer_64_2_scale3 -> layer_64_2_conv2 (in-place)
I0417 17:05:43.571503 25260 layer_factory.hpp:77] Creating layer layer_64_2_scale3
I0417 17:05:43.571590 25260 net.cpp:122] Setting up layer_64_2_scale3
I0417 17:05:43.571595 25260 net.cpp:129] Top shape: 38 64 28 60 (4085760)
I0417 17:05:43.571610 25260 net.cpp:137] Memory required for data: 1115452304
I0417 17:05:43.571614 25260 layer_factory.hpp:77] Creating layer layer_64_2_relu3
I0417 17:05:43.571632 25260 net.cpp:84] Creating Layer layer_64_2_relu3
I0417 17:05:43.571635 25260 net.cpp:406] layer_64_2_relu3 <- layer_64_2_conv2
I0417 17:05:43.571640 25260 net.cpp:367] layer_64_2_relu3 -> layer_64_2_conv2 (in-place)
I0417 17:05:43.571642 25260 net.cpp:122] Setting up layer_64_2_relu3
I0417 17:05:43.571645 25260 net.cpp:129] Top shape: 38 64 28 60 (4085760)
I0417 17:05:43.571647 25260 net.cpp:137] Memory required for data: 1131795344
I0417 17:05:43.571650 25260 layer_factory.hpp:77] Creating layer layer_64_2_conv3
I0417 17:05:43.571655 25260 net.cpp:84] Creating Layer layer_64_2_conv3
I0417 17:05:43.571658 25260 net.cpp:406] layer_64_2_conv3 <- layer_64_2_conv2
I0417 17:05:43.571662 25260 net.cpp:380] layer_64_2_conv3 -> layer_64_2_conv3
I0417 17:05:43.571910 25260 net.cpp:122] Setting up layer_64_2_conv3
I0417 17:05:43.571918 25260 net.cpp:129] Top shape: 38 256 28 60 (16343040)
I0417 17:05:43.571934 25260 net.cpp:137] Memory required for data: 1197167504
I0417 17:05:43.571938 25260 layer_factory.hpp:77] Creating layer layer_64_2_sum
I0417 17:05:43.571943 25260 net.cpp:84] Creating Layer layer_64_2_sum
I0417 17:05:43.571945 25260 net.cpp:406] layer_64_2_sum <- layer_64_2_conv3
I0417 17:05:43.571950 25260 net.cpp:406] layer_64_2_sum <- layer_64_1_sum_layer_64_1_sum_0_split_1
I0417 17:05:43.571955 25260 net.cpp:380] layer_64_2_sum -> layer_64_2_sum
I0417 17:05:43.571976 25260 net.cpp:122] Setting up layer_64_2_sum
I0417 17:05:43.571982 25260 net.cpp:129] Top shape: 38 256 28 60 (16343040)
I0417 17:05:43.571985 25260 net.cpp:137] Memory required for data: 1262539664
I0417 17:05:43.571987 25260 layer_factory.hpp:77] Creating layer layer_64_2_sum_layer_64_2_sum_0_split
I0417 17:05:43.571991 25260 net.cpp:84] Creating Layer layer_64_2_sum_layer_64_2_sum_0_split
I0417 17:05:43.571995 25260 net.cpp:406] layer_64_2_sum_layer_64_2_sum_0_split <- layer_64_2_sum
I0417 17:05:43.571998 25260 net.cpp:380] layer_64_2_sum_layer_64_2_sum_0_split -> layer_64_2_sum_layer_64_2_sum_0_split_0
I0417 17:05:43.572002 25260 net.cpp:380] layer_64_2_sum_layer_64_2_sum_0_split -> layer_64_2_sum_layer_64_2_sum_0_split_1
I0417 17:05:43.572026 25260 net.cpp:122] Setting up layer_64_2_sum_layer_64_2_sum_0_split
I0417 17:05:43.572031 25260 net.cpp:129] Top shape: 38 256 28 60 (16343040)
I0417 17:05:43.572037 25260 net.cpp:129] Top shape: 38 256 28 60 (16343040)
I0417 17:05:43.572052 25260 net.cpp:137] Memory required for data: 1393283984
I0417 17:05:43.572057 25260 layer_factory.hpp:77] Creating layer layer_64_3_bn1
I0417 17:05:43.572063 25260 net.cpp:84] Creating Layer layer_64_3_bn1
I0417 17:05:43.572068 25260 net.cpp:406] layer_64_3_bn1 <- layer_64_2_sum_layer_64_2_sum_0_split_0
I0417 17:05:43.572074 25260 net.cpp:380] layer_64_3_bn1 -> layer_64_3_bn1
I0417 17:05:43.572193 25260 net.cpp:122] Setting up layer_64_3_bn1
I0417 17:05:43.572199 25260 net.cpp:129] Top shape: 38 256 28 60 (16343040)
I0417 17:05:43.572201 25260 net.cpp:137] Memory required for data: 1458656144
I0417 17:05:43.572208 25260 layer_factory.hpp:77] Creating layer layer_64_3_scale1
I0417 17:05:43.572216 25260 net.cpp:84] Creating Layer layer_64_3_scale1
I0417 17:05:43.572221 25260 net.cpp:406] layer_64_3_scale1 <- layer_64_3_bn1
I0417 17:05:43.572227 25260 net.cpp:367] layer_64_3_scale1 -> layer_64_3_bn1 (in-place)
I0417 17:05:43.572258 25260 layer_factory.hpp:77] Creating layer layer_64_3_scale1
I0417 17:05:43.572329 25260 net.cpp:122] Setting up layer_64_3_scale1
I0417 17:05:43.572335 25260 net.cpp:129] Top shape: 38 256 28 60 (16343040)
I0417 17:05:43.572336 25260 net.cpp:137] Memory required for data: 1524028304
I0417 17:05:43.572342 25260 layer_factory.hpp:77] Creating layer layer_64_3_relu1
I0417 17:05:43.572350 25260 net.cpp:84] Creating Layer layer_64_3_relu1
I0417 17:05:43.572353 25260 net.cpp:406] layer_64_3_relu1 <- layer_64_3_bn1
I0417 17:05:43.572360 25260 net.cpp:367] layer_64_3_relu1 -> layer_64_3_bn1 (in-place)
I0417 17:05:43.572365 25260 net.cpp:122] Setting up layer_64_3_relu1
I0417 17:05:43.572372 25260 net.cpp:129] Top shape: 38 256 28 60 (16343040)
I0417 17:05:43.572376 25260 net.cpp:137] Memory required for data: 1589400464
I0417 17:05:43.572379 25260 layer_factory.hpp:77] Creating layer layer_64_3_conv1
I0417 17:05:43.572387 25260 net.cpp:84] Creating Layer layer_64_3_conv1
I0417 17:05:43.572393 25260 net.cpp:406] layer_64_3_conv1 <- layer_64_3_bn1
I0417 17:05:43.572399 25260 net.cpp:380] layer_64_3_conv1 -> layer_64_3_conv1
I0417 17:05:43.572623 25260 net.cpp:122] Setting up layer_64_3_conv1
I0417 17:05:43.572628 25260 net.cpp:129] Top shape: 38 64 28 60 (4085760)
I0417 17:05:43.572631 25260 net.cpp:137] Memory required for data: 1605743504
I0417 17:05:43.572635 25260 layer_factory.hpp:77] Creating layer layer_64_3_bn2
I0417 17:05:43.572643 25260 net.cpp:84] Creating Layer layer_64_3_bn2
I0417 17:05:43.572648 25260 net.cpp:406] layer_64_3_bn2 <- layer_64_3_conv1
I0417 17:05:43.572654 25260 net.cpp:367] layer_64_3_bn2 -> layer_64_3_conv1 (in-place)
I0417 17:05:43.572775 25260 net.cpp:122] Setting up layer_64_3_bn2
I0417 17:05:43.572780 25260 net.cpp:129] Top shape: 38 64 28 60 (4085760)
I0417 17:05:43.572782 25260 net.cpp:137] Memory required for data: 1622086544
I0417 17:05:43.572790 25260 layer_factory.hpp:77] Creating layer layer_64_3_scale2
I0417 17:05:43.572796 25260 net.cpp:84] Creating Layer layer_64_3_scale2
I0417 17:05:43.572801 25260 net.cpp:406] layer_64_3_scale2 <- layer_64_3_conv1
I0417 17:05:43.572808 25260 net.cpp:367] layer_64_3_scale2 -> layer_64_3_conv1 (in-place)
I0417 17:05:43.572840 25260 layer_factory.hpp:77] Creating layer layer_64_3_scale2
I0417 17:05:43.572917 25260 net.cpp:122] Setting up layer_64_3_scale2
I0417 17:05:43.572922 25260 net.cpp:129] Top shape: 38 64 28 60 (4085760)
I0417 17:05:43.572926 25260 net.cpp:137] Memory required for data: 1638429584
I0417 17:05:43.572932 25260 layer_factory.hpp:77] Creating layer layer_64_3_relu2
I0417 17:05:43.572937 25260 net.cpp:84] Creating Layer layer_64_3_relu2
I0417 17:05:43.572942 25260 net.cpp:406] layer_64_3_relu2 <- layer_64_3_conv1
I0417 17:05:43.572947 25260 net.cpp:367] layer_64_3_relu2 -> layer_64_3_conv1 (in-place)
I0417 17:05:43.572954 25260 net.cpp:122] Setting up layer_64_3_relu2
I0417 17:05:43.572973 25260 net.cpp:129] Top shape: 38 64 28 60 (4085760)
I0417 17:05:43.572978 25260 net.cpp:137] Memory required for data: 1654772624
I0417 17:05:43.572980 25260 layer_factory.hpp:77] Creating layer layer_64_3_conv2
I0417 17:05:43.572999 25260 net.cpp:84] Creating Layer layer_64_3_conv2
I0417 17:05:43.573004 25260 net.cpp:406] layer_64_3_conv2 <- layer_64_3_conv1
I0417 17:05:43.573010 25260 net.cpp:380] layer_64_3_conv2 -> layer_64_3_conv2
I0417 17:05:43.573408 25260 net.cpp:122] Setting up layer_64_3_conv2
I0417 17:05:43.573415 25260 net.cpp:129] Top shape: 38 64 28 60 (4085760)
I0417 17:05:43.573417 25260 net.cpp:137] Memory required for data: 1671115664
I0417 17:05:43.573421 25260 layer_factory.hpp:77] Creating layer layer_64_3_bn3
I0417 17:05:43.573428 25260 net.cpp:84] Creating Layer layer_64_3_bn3
I0417 17:05:43.573433 25260 net.cpp:406] layer_64_3_bn3 <- layer_64_3_conv2
I0417 17:05:43.573439 25260 net.cpp:367] layer_64_3_bn3 -> layer_64_3_conv2 (in-place)
I0417 17:05:43.573560 25260 net.cpp:122] Setting up layer_64_3_bn3
I0417 17:05:43.573566 25260 net.cpp:129] Top shape: 38 64 28 60 (4085760)
I0417 17:05:43.573570 25260 net.cpp:137] Memory required for data: 1687458704
I0417 17:05:43.573575 25260 layer_factory.hpp:77] Creating layer layer_64_3_scale3
I0417 17:05:43.573581 25260 net.cpp:84] Creating Layer layer_64_3_scale3
I0417 17:05:43.573586 25260 net.cpp:406] layer_64_3_scale3 <- layer_64_3_conv2
I0417 17:05:43.573592 25260 net.cpp:367] layer_64_3_scale3 -> layer_64_3_conv2 (in-place)
I0417 17:05:43.573626 25260 layer_factory.hpp:77] Creating layer layer_64_3_scale3
I0417 17:05:43.573704 25260 net.cpp:122] Setting up layer_64_3_scale3
I0417 17:05:43.573709 25260 net.cpp:129] Top shape: 38 64 28 60 (4085760)
I0417 17:05:43.573712 25260 net.cpp:137] Memory required for data: 1703801744
I0417 17:05:43.573717 25260 layer_factory.hpp:77] Creating layer layer_64_3_relu3
I0417 17:05:43.573724 25260 net.cpp:84] Creating Layer layer_64_3_relu3
I0417 17:05:43.573729 25260 net.cpp:406] layer_64_3_relu3 <- layer_64_3_conv2
I0417 17:05:43.573734 25260 net.cpp:367] layer_64_3_relu3 -> layer_64_3_conv2 (in-place)
I0417 17:05:43.573741 25260 net.cpp:122] Setting up layer_64_3_relu3
I0417 17:05:43.573747 25260 net.cpp:129] Top shape: 38 64 28 60 (4085760)
I0417 17:05:43.573752 25260 net.cpp:137] Memory required for data: 1720144784
I0417 17:05:43.573756 25260 layer_factory.hpp:77] Creating layer layer_64_3_conv3
I0417 17:05:43.573765 25260 net.cpp:84] Creating Layer layer_64_3_conv3
I0417 17:05:43.573768 25260 net.cpp:406] layer_64_3_conv3 <- layer_64_3_conv2
I0417 17:05:43.573776 25260 net.cpp:380] layer_64_3_conv3 -> layer_64_3_conv3
I0417 17:05:43.574004 25260 net.cpp:122] Setting up layer_64_3_conv3
I0417 17:05:43.574010 25260 net.cpp:129] Top shape: 38 256 28 60 (16343040)
I0417 17:05:43.574012 25260 net.cpp:137] Memory required for data: 1785516944
I0417 17:05:43.574018 25260 layer_factory.hpp:77] Creating layer layer_64_3_sum
I0417 17:05:43.574025 25260 net.cpp:84] Creating Layer layer_64_3_sum
I0417 17:05:43.574030 25260 net.cpp:406] layer_64_3_sum <- layer_64_3_conv3
I0417 17:05:43.574034 25260 net.cpp:406] layer_64_3_sum <- layer_64_2_sum_layer_64_2_sum_0_split_1
I0417 17:05:43.574040 25260 net.cpp:380] layer_64_3_sum -> layer_64_3_sum
I0417 17:05:43.574064 25260 net.cpp:122] Setting up layer_64_3_sum
I0417 17:05:43.574098 25260 net.cpp:129] Top shape: 38 256 28 60 (16343040)
I0417 17:05:43.574102 25260 net.cpp:137] Memory required for data: 1850889104
I0417 17:05:43.574105 25260 layer_factory.hpp:77] Creating layer layer_128_1_bn1
I0417 17:05:43.574113 25260 net.cpp:84] Creating Layer layer_128_1_bn1
I0417 17:05:43.574118 25260 net.cpp:406] layer_128_1_bn1 <- layer_64_3_sum
I0417 17:05:43.574124 25260 net.cpp:380] layer_128_1_bn1 -> layer_128_1_bn1
I0417 17:05:43.574252 25260 net.cpp:122] Setting up layer_128_1_bn1
I0417 17:05:43.574259 25260 net.cpp:129] Top shape: 38 256 28 60 (16343040)
I0417 17:05:43.574260 25260 net.cpp:137] Memory required for data: 1916261264
I0417 17:05:43.574270 25260 layer_factory.hpp:77] Creating layer layer_128_1_scale1
I0417 17:05:43.574277 25260 net.cpp:84] Creating Layer layer_128_1_scale1
I0417 17:05:43.574283 25260 net.cpp:406] layer_128_1_scale1 <- layer_128_1_bn1
I0417 17:05:43.574301 25260 net.cpp:367] layer_128_1_scale1 -> layer_128_1_bn1 (in-place)
I0417 17:05:43.574334 25260 layer_factory.hpp:77] Creating layer layer_128_1_scale1
I0417 17:05:43.574410 25260 net.cpp:122] Setting up layer_128_1_scale1
I0417 17:05:43.574417 25260 net.cpp:129] Top shape: 38 256 28 60 (16343040)
I0417 17:05:43.574419 25260 net.cpp:137] Memory required for data: 1981633424
I0417 17:05:43.574425 25260 layer_factory.hpp:77] Creating layer layer_128_1_relu1
I0417 17:05:43.574431 25260 net.cpp:84] Creating Layer layer_128_1_relu1
I0417 17:05:43.574436 25260 net.cpp:406] layer_128_1_relu1 <- layer_128_1_bn1
I0417 17:05:43.574442 25260 net.cpp:367] layer_128_1_relu1 -> layer_128_1_bn1 (in-place)
I0417 17:05:43.574448 25260 net.cpp:122] Setting up layer_128_1_relu1
I0417 17:05:43.574455 25260 net.cpp:129] Top shape: 38 256 28 60 (16343040)
I0417 17:05:43.574460 25260 net.cpp:137] Memory required for data: 2047005584
I0417 17:05:43.574462 25260 layer_factory.hpp:77] Creating layer layer_128_1_bn1_layer_128_1_relu1_0_split
I0417 17:05:43.574468 25260 net.cpp:84] Creating Layer layer_128_1_bn1_layer_128_1_relu1_0_split
I0417 17:05:43.574472 25260 net.cpp:406] layer_128_1_bn1_layer_128_1_relu1_0_split <- layer_128_1_bn1
I0417 17:05:43.574479 25260 net.cpp:380] layer_128_1_bn1_layer_128_1_relu1_0_split -> layer_128_1_bn1_layer_128_1_relu1_0_split_0
I0417 17:05:43.574487 25260 net.cpp:380] layer_128_1_bn1_layer_128_1_relu1_0_split -> layer_128_1_bn1_layer_128_1_relu1_0_split_1
I0417 17:05:43.574517 25260 net.cpp:122] Setting up layer_128_1_bn1_layer_128_1_relu1_0_split
I0417 17:05:43.574522 25260 net.cpp:129] Top shape: 38 256 28 60 (16343040)
I0417 17:05:43.574527 25260 net.cpp:129] Top shape: 38 256 28 60 (16343040)
I0417 17:05:43.574530 25260 net.cpp:137] Memory required for data: 2177749904
I0417 17:05:43.574534 25260 layer_factory.hpp:77] Creating layer layer_128_1_conv1
I0417 17:05:43.574542 25260 net.cpp:84] Creating Layer layer_128_1_conv1
I0417 17:05:43.574548 25260 net.cpp:406] layer_128_1_conv1 <- layer_128_1_bn1_layer_128_1_relu1_0_split_0
I0417 17:05:43.574554 25260 net.cpp:380] layer_128_1_conv1 -> layer_128_1_conv1
I0417 17:05:43.574903 25260 net.cpp:122] Setting up layer_128_1_conv1
I0417 17:05:43.574908 25260 net.cpp:129] Top shape: 38 128 28 60 (8171520)
I0417 17:05:43.574911 25260 net.cpp:137] Memory required for data: 2210435984
I0417 17:05:43.574916 25260 layer_factory.hpp:77] Creating layer layer_128_1_bn2
I0417 17:05:43.574923 25260 net.cpp:84] Creating Layer layer_128_1_bn2
I0417 17:05:43.574928 25260 net.cpp:406] layer_128_1_bn2 <- layer_128_1_conv1
I0417 17:05:43.574935 25260 net.cpp:367] layer_128_1_bn2 -> layer_128_1_conv1 (in-place)
I0417 17:05:43.575053 25260 net.cpp:122] Setting up layer_128_1_bn2
I0417 17:05:43.575059 25260 net.cpp:129] Top shape: 38 128 28 60 (8171520)
I0417 17:05:43.575062 25260 net.cpp:137] Memory required for data: 2243122064
I0417 17:05:43.575068 25260 layer_factory.hpp:77] Creating layer layer_128_1_scale2
I0417 17:05:43.575075 25260 net.cpp:84] Creating Layer layer_128_1_scale2
I0417 17:05:43.575079 25260 net.cpp:406] layer_128_1_scale2 <- layer_128_1_conv1
I0417 17:05:43.575085 25260 net.cpp:367] layer_128_1_scale2 -> layer_128_1_conv1 (in-place)
I0417 17:05:43.575119 25260 layer_factory.hpp:77] Creating layer layer_128_1_scale2
I0417 17:05:43.575193 25260 net.cpp:122] Setting up layer_128_1_scale2
I0417 17:05:43.575199 25260 net.cpp:129] Top shape: 38 128 28 60 (8171520)
I0417 17:05:43.575201 25260 net.cpp:137] Memory required for data: 2275808144
I0417 17:05:43.575208 25260 layer_factory.hpp:77] Creating layer layer_128_1_relu2
I0417 17:05:43.575214 25260 net.cpp:84] Creating Layer layer_128_1_relu2
I0417 17:05:43.575218 25260 net.cpp:406] layer_128_1_relu2 <- layer_128_1_conv1
I0417 17:05:43.575225 25260 net.cpp:367] layer_128_1_relu2 -> layer_128_1_conv1 (in-place)
I0417 17:05:43.575232 25260 net.cpp:122] Setting up layer_128_1_relu2
I0417 17:05:43.575239 25260 net.cpp:129] Top shape: 38 128 28 60 (8171520)
I0417 17:05:43.575251 25260 net.cpp:137] Memory required for data: 2308494224
I0417 17:05:43.575255 25260 layer_factory.hpp:77] Creating layer layer_128_1_conv2
I0417 17:05:43.575264 25260 net.cpp:84] Creating Layer layer_128_1_conv2
I0417 17:05:43.575270 25260 net.cpp:406] layer_128_1_conv2 <- layer_128_1_conv1
I0417 17:05:43.575278 25260 net.cpp:380] layer_128_1_conv2 -> layer_128_1_conv2
I0417 17:05:43.577174 25260 net.cpp:122] Setting up layer_128_1_conv2
I0417 17:05:43.577185 25260 net.cpp:129] Top shape: 38 128 14 30 (2042880)
I0417 17:05:43.577188 25260 net.cpp:137] Memory required for data: 2316665744
I0417 17:05:43.577193 25260 layer_factory.hpp:77] Creating layer layer_128_1_bn3
I0417 17:05:43.577200 25260 net.cpp:84] Creating Layer layer_128_1_bn3
I0417 17:05:43.577205 25260 net.cpp:406] layer_128_1_bn3 <- layer_128_1_conv2
I0417 17:05:43.577214 25260 net.cpp:367] layer_128_1_bn3 -> layer_128_1_conv2 (in-place)
I0417 17:05:43.577335 25260 net.cpp:122] Setting up layer_128_1_bn3
I0417 17:05:43.577342 25260 net.cpp:129] Top shape: 38 128 14 30 (2042880)
I0417 17:05:43.577344 25260 net.cpp:137] Memory required for data: 2324837264
I0417 17:05:43.577353 25260 layer_factory.hpp:77] Creating layer layer_128_1_scale3
I0417 17:05:43.577359 25260 net.cpp:84] Creating Layer layer_128_1_scale3
I0417 17:05:43.577364 25260 net.cpp:406] layer_128_1_scale3 <- layer_128_1_conv2
I0417 17:05:43.577369 25260 net.cpp:367] layer_128_1_scale3 -> layer_128_1_conv2 (in-place)
I0417 17:05:43.577404 25260 layer_factory.hpp:77] Creating layer layer_128_1_scale3
I0417 17:05:43.577512 25260 net.cpp:122] Setting up layer_128_1_scale3
I0417 17:05:43.577518 25260 net.cpp:129] Top shape: 38 128 14 30 (2042880)
I0417 17:05:43.577520 25260 net.cpp:137] Memory required for data: 2333008784
I0417 17:05:43.577527 25260 layer_factory.hpp:77] Creating layer layer_128_1_relu3
I0417 17:05:43.577534 25260 net.cpp:84] Creating Layer layer_128_1_relu3
I0417 17:05:43.577539 25260 net.cpp:406] layer_128_1_relu3 <- layer_128_1_conv2
I0417 17:05:43.577544 25260 net.cpp:367] layer_128_1_relu3 -> layer_128_1_conv2 (in-place)
I0417 17:05:43.577553 25260 net.cpp:122] Setting up layer_128_1_relu3
I0417 17:05:43.577558 25260 net.cpp:129] Top shape: 38 128 14 30 (2042880)
I0417 17:05:43.577563 25260 net.cpp:137] Memory required for data: 2341180304
I0417 17:05:43.577566 25260 layer_factory.hpp:77] Creating layer layer_128_1_conv3
I0417 17:05:43.577579 25260 net.cpp:84] Creating Layer layer_128_1_conv3
I0417 17:05:43.577584 25260 net.cpp:406] layer_128_1_conv3 <- layer_128_1_conv2
I0417 17:05:43.577589 25260 net.cpp:380] layer_128_1_conv3 -> layer_128_1_conv3
I0417 17:05:43.578161 25260 net.cpp:122] Setting up layer_128_1_conv3
I0417 17:05:43.578166 25260 net.cpp:129] Top shape: 38 512 14 30 (8171520)
I0417 17:05:43.578169 25260 net.cpp:137] Memory required for data: 2373866384
I0417 17:05:43.578173 25260 layer_factory.hpp:77] Creating layer layer_128_1_conv_expand
I0417 17:05:43.578181 25260 net.cpp:84] Creating Layer layer_128_1_conv_expand
I0417 17:05:43.578186 25260 net.cpp:406] layer_128_1_conv_expand <- layer_128_1_bn1_layer_128_1_relu1_0_split_1
I0417 17:05:43.578193 25260 net.cpp:380] layer_128_1_conv_expand -> layer_128_1_conv_expand
I0417 17:05:43.579210 25260 net.cpp:122] Setting up layer_128_1_conv_expand
I0417 17:05:43.579216 25260 net.cpp:129] Top shape: 38 512 14 30 (8171520)
I0417 17:05:43.579218 25260 net.cpp:137] Memory required for data: 2406552464
I0417 17:05:43.579223 25260 layer_factory.hpp:77] Creating layer layer_128_1_sum
I0417 17:05:43.579229 25260 net.cpp:84] Creating Layer layer_128_1_sum
I0417 17:05:43.579234 25260 net.cpp:406] layer_128_1_sum <- layer_128_1_conv3
I0417 17:05:43.579239 25260 net.cpp:406] layer_128_1_sum <- layer_128_1_conv_expand
I0417 17:05:43.579244 25260 net.cpp:380] layer_128_1_sum -> layer_128_1_sum
I0417 17:05:43.579267 25260 net.cpp:122] Setting up layer_128_1_sum
I0417 17:05:43.579272 25260 net.cpp:129] Top shape: 38 512 14 30 (8171520)
I0417 17:05:43.579275 25260 net.cpp:137] Memory required for data: 2439238544
I0417 17:05:43.579288 25260 layer_factory.hpp:77] Creating layer layer_128_1_sum_layer_128_1_sum_0_split
I0417 17:05:43.579296 25260 net.cpp:84] Creating Layer layer_128_1_sum_layer_128_1_sum_0_split
I0417 17:05:43.579301 25260 net.cpp:406] layer_128_1_sum_layer_128_1_sum_0_split <- layer_128_1_sum
I0417 17:05:43.579309 25260 net.cpp:380] layer_128_1_sum_layer_128_1_sum_0_split -> layer_128_1_sum_layer_128_1_sum_0_split_0
I0417 17:05:43.579318 25260 net.cpp:380] layer_128_1_sum_layer_128_1_sum_0_split -> layer_128_1_sum_layer_128_1_sum_0_split_1
I0417 17:05:43.579325 25260 net.cpp:380] layer_128_1_sum_layer_128_1_sum_0_split -> layer_128_1_sum_layer_128_1_sum_0_split_2
I0417 17:05:43.579362 25260 net.cpp:122] Setting up layer_128_1_sum_layer_128_1_sum_0_split
I0417 17:05:43.579368 25260 net.cpp:129] Top shape: 38 512 14 30 (8171520)
I0417 17:05:43.579371 25260 net.cpp:129] Top shape: 38 512 14 30 (8171520)
I0417 17:05:43.579375 25260 net.cpp:129] Top shape: 38 512 14 30 (8171520)
I0417 17:05:43.579380 25260 net.cpp:137] Memory required for data: 2537296784
I0417 17:05:43.579383 25260 layer_factory.hpp:77] Creating layer layer_128_2_bn1
I0417 17:05:43.579391 25260 net.cpp:84] Creating Layer layer_128_2_bn1
I0417 17:05:43.579396 25260 net.cpp:406] layer_128_2_bn1 <- layer_128_1_sum_layer_128_1_sum_0_split_0
I0417 17:05:43.579401 25260 net.cpp:380] layer_128_2_bn1 -> layer_128_2_bn1
I0417 17:05:43.579547 25260 net.cpp:122] Setting up layer_128_2_bn1
I0417 17:05:43.579553 25260 net.cpp:129] Top shape: 38 512 14 30 (8171520)
I0417 17:05:43.579555 25260 net.cpp:137] Memory required for data: 2569982864
I0417 17:05:43.579562 25260 layer_factory.hpp:77] Creating layer layer_128_2_scale1
I0417 17:05:43.579571 25260 net.cpp:84] Creating Layer layer_128_2_scale1
I0417 17:05:43.579576 25260 net.cpp:406] layer_128_2_scale1 <- layer_128_2_bn1
I0417 17:05:43.579581 25260 net.cpp:367] layer_128_2_scale1 -> layer_128_2_bn1 (in-place)
I0417 17:05:43.579613 25260 layer_factory.hpp:77] Creating layer layer_128_2_scale1
I0417 17:05:43.579689 25260 net.cpp:122] Setting up layer_128_2_scale1
I0417 17:05:43.579694 25260 net.cpp:129] Top shape: 38 512 14 30 (8171520)
I0417 17:05:43.579696 25260 net.cpp:137] Memory required for data: 2602668944
I0417 17:05:43.579702 25260 layer_factory.hpp:77] Creating layer layer_128_2_relu1
I0417 17:05:43.579710 25260 net.cpp:84] Creating Layer layer_128_2_relu1
I0417 17:05:43.579715 25260 net.cpp:406] layer_128_2_relu1 <- layer_128_2_bn1
I0417 17:05:43.579720 25260 net.cpp:367] layer_128_2_relu1 -> layer_128_2_bn1 (in-place)
I0417 17:05:43.579725 25260 net.cpp:122] Setting up layer_128_2_relu1
I0417 17:05:43.579732 25260 net.cpp:129] Top shape: 38 512 14 30 (8171520)
I0417 17:05:43.579736 25260 net.cpp:137] Memory required for data: 2635355024
I0417 17:05:43.579741 25260 layer_factory.hpp:77] Creating layer layer_128_2_conv1
I0417 17:05:43.579748 25260 net.cpp:84] Creating Layer layer_128_2_conv1
I0417 17:05:43.579753 25260 net.cpp:406] layer_128_2_conv1 <- layer_128_2_bn1
I0417 17:05:43.579759 25260 net.cpp:380] layer_128_2_conv1 -> layer_128_2_conv1
I0417 17:05:43.580319 25260 net.cpp:122] Setting up layer_128_2_conv1
I0417 17:05:43.580325 25260 net.cpp:129] Top shape: 38 128 14 30 (2042880)
I0417 17:05:43.580328 25260 net.cpp:137] Memory required for data: 2643526544
I0417 17:05:43.580333 25260 layer_factory.hpp:77] Creating layer layer_128_2_bn2
I0417 17:05:43.580340 25260 net.cpp:84] Creating Layer layer_128_2_bn2
I0417 17:05:43.580344 25260 net.cpp:406] layer_128_2_bn2 <- layer_128_2_conv1
I0417 17:05:43.580350 25260 net.cpp:367] layer_128_2_bn2 -> layer_128_2_conv1 (in-place)
I0417 17:05:43.580471 25260 net.cpp:122] Setting up layer_128_2_bn2
I0417 17:05:43.580476 25260 net.cpp:129] Top shape: 38 128 14 30 (2042880)
I0417 17:05:43.580478 25260 net.cpp:137] Memory required for data: 2651698064
I0417 17:05:43.580487 25260 layer_factory.hpp:77] Creating layer layer_128_2_scale2
I0417 17:05:43.580492 25260 net.cpp:84] Creating Layer layer_128_2_scale2
I0417 17:05:43.580497 25260 net.cpp:406] layer_128_2_scale2 <- layer_128_2_conv1
I0417 17:05:43.580512 25260 net.cpp:367] layer_128_2_scale2 -> layer_128_2_conv1 (in-place)
I0417 17:05:43.580544 25260 layer_factory.hpp:77] Creating layer layer_128_2_scale2
I0417 17:05:43.580628 25260 net.cpp:122] Setting up layer_128_2_scale2
I0417 17:05:43.580634 25260 net.cpp:129] Top shape: 38 128 14 30 (2042880)
I0417 17:05:43.580636 25260 net.cpp:137] Memory required for data: 2659869584
I0417 17:05:43.580642 25260 layer_factory.hpp:77] Creating layer layer_128_2_relu2
I0417 17:05:43.580648 25260 net.cpp:84] Creating Layer layer_128_2_relu2
I0417 17:05:43.580653 25260 net.cpp:406] layer_128_2_relu2 <- layer_128_2_conv1
I0417 17:05:43.580658 25260 net.cpp:367] layer_128_2_relu2 -> layer_128_2_conv1 (in-place)
I0417 17:05:43.580677 25260 net.cpp:122] Setting up layer_128_2_relu2
I0417 17:05:43.580684 25260 net.cpp:129] Top shape: 38 128 14 30 (2042880)
I0417 17:05:43.580688 25260 net.cpp:137] Memory required for data: 2668041104
I0417 17:05:43.580693 25260 layer_factory.hpp:77] Creating layer layer_128_2_conv2
I0417 17:05:43.580711 25260 net.cpp:84] Creating Layer layer_128_2_conv2
I0417 17:05:43.580716 25260 net.cpp:406] layer_128_2_conv2 <- layer_128_2_conv1
I0417 17:05:43.580736 25260 net.cpp:380] layer_128_2_conv2 -> layer_128_2_conv2
I0417 17:05:43.581847 25260 net.cpp:122] Setting up layer_128_2_conv2
I0417 17:05:43.581853 25260 net.cpp:129] Top shape: 38 128 14 30 (2042880)
I0417 17:05:43.581856 25260 net.cpp:137] Memory required for data: 2676212624
I0417 17:05:43.581872 25260 layer_factory.hpp:77] Creating layer layer_128_2_bn3
I0417 17:05:43.581877 25260 net.cpp:84] Creating Layer layer_128_2_bn3
I0417 17:05:43.581882 25260 net.cpp:406] layer_128_2_bn3 <- layer_128_2_conv2
I0417 17:05:43.581888 25260 net.cpp:367] layer_128_2_bn3 -> layer_128_2_conv2 (in-place)
I0417 17:05:43.582017 25260 net.cpp:122] Setting up layer_128_2_bn3
I0417 17:05:43.582023 25260 net.cpp:129] Top shape: 38 128 14 30 (2042880)
I0417 17:05:43.582026 25260 net.cpp:137] Memory required for data: 2684384144
I0417 17:05:43.582033 25260 layer_factory.hpp:77] Creating layer layer_128_2_scale3
I0417 17:05:43.582039 25260 net.cpp:84] Creating Layer layer_128_2_scale3
I0417 17:05:43.582044 25260 net.cpp:406] layer_128_2_scale3 <- layer_128_2_conv2
I0417 17:05:43.582049 25260 net.cpp:367] layer_128_2_scale3 -> layer_128_2_conv2 (in-place)
I0417 17:05:43.582082 25260 layer_factory.hpp:77] Creating layer layer_128_2_scale3
I0417 17:05:43.582154 25260 net.cpp:122] Setting up layer_128_2_scale3
I0417 17:05:43.582159 25260 net.cpp:129] Top shape: 38 128 14 30 (2042880)
I0417 17:05:43.582161 25260 net.cpp:137] Memory required for data: 2692555664
I0417 17:05:43.582167 25260 layer_factory.hpp:77] Creating layer layer_128_2_relu3
I0417 17:05:43.582173 25260 net.cpp:84] Creating Layer layer_128_2_relu3
I0417 17:05:43.582177 25260 net.cpp:406] layer_128_2_relu3 <- layer_128_2_conv2
I0417 17:05:43.582182 25260 net.cpp:367] layer_128_2_relu3 -> layer_128_2_conv2 (in-place)
I0417 17:05:43.582190 25260 net.cpp:122] Setting up layer_128_2_relu3
I0417 17:05:43.582195 25260 net.cpp:129] Top shape: 38 128 14 30 (2042880)
I0417 17:05:43.582198 25260 net.cpp:137] Memory required for data: 2700727184
I0417 17:05:43.582201 25260 layer_factory.hpp:77] Creating layer layer_128_2_conv3
I0417 17:05:43.582211 25260 net.cpp:84] Creating Layer layer_128_2_conv3
I0417 17:05:43.582216 25260 net.cpp:406] layer_128_2_conv3 <- layer_128_2_conv2
I0417 17:05:43.582221 25260 net.cpp:380] layer_128_2_conv3 -> layer_128_2_conv3
I0417 17:05:43.582815 25260 net.cpp:122] Setting up layer_128_2_conv3
I0417 17:05:43.582823 25260 net.cpp:129] Top shape: 38 512 14 30 (8171520)
I0417 17:05:43.582825 25260 net.cpp:137] Memory required for data: 2733413264
I0417 17:05:43.582830 25260 layer_factory.hpp:77] Creating layer layer_128_2_sum
I0417 17:05:43.582836 25260 net.cpp:84] Creating Layer layer_128_2_sum
I0417 17:05:43.582842 25260 net.cpp:406] layer_128_2_sum <- layer_128_2_conv3
I0417 17:05:43.582847 25260 net.cpp:406] layer_128_2_sum <- layer_128_1_sum_layer_128_1_sum_0_split_1
I0417 17:05:43.582861 25260 net.cpp:380] layer_128_2_sum -> layer_128_2_sum
I0417 17:05:43.582885 25260 net.cpp:122] Setting up layer_128_2_sum
I0417 17:05:43.582892 25260 net.cpp:129] Top shape: 38 512 14 30 (8171520)
I0417 17:05:43.582895 25260 net.cpp:137] Memory required for data: 2766099344
I0417 17:05:43.582896 25260 layer_factory.hpp:77] Creating layer layer_128_2_sum_layer_128_2_sum_0_split
I0417 17:05:43.582901 25260 net.cpp:84] Creating Layer layer_128_2_sum_layer_128_2_sum_0_split
I0417 17:05:43.582904 25260 net.cpp:406] layer_128_2_sum_layer_128_2_sum_0_split <- layer_128_2_sum
I0417 17:05:43.582908 25260 net.cpp:380] layer_128_2_sum_layer_128_2_sum_0_split -> layer_128_2_sum_layer_128_2_sum_0_split_0
I0417 17:05:43.582913 25260 net.cpp:380] layer_128_2_sum_layer_128_2_sum_0_split -> layer_128_2_sum_layer_128_2_sum_0_split_1
I0417 17:05:43.582942 25260 net.cpp:122] Setting up layer_128_2_sum_layer_128_2_sum_0_split
I0417 17:05:43.582962 25260 net.cpp:129] Top shape: 38 512 14 30 (8171520)
I0417 17:05:43.582964 25260 net.cpp:129] Top shape: 38 512 14 30 (8171520)
I0417 17:05:43.582979 25260 net.cpp:137] Memory required for data: 2831471504
I0417 17:05:43.582981 25260 layer_factory.hpp:77] Creating layer layer_128_3_bn1
I0417 17:05:43.582988 25260 net.cpp:84] Creating Layer layer_128_3_bn1
I0417 17:05:43.582993 25260 net.cpp:406] layer_128_3_bn1 <- layer_128_2_sum_layer_128_2_sum_0_split_0
I0417 17:05:43.582998 25260 net.cpp:380] layer_128_3_bn1 -> layer_128_3_bn1
I0417 17:05:43.583153 25260 net.cpp:122] Setting up layer_128_3_bn1
I0417 17:05:43.583160 25260 net.cpp:129] Top shape: 38 512 14 30 (8171520)
I0417 17:05:43.583163 25260 net.cpp:137] Memory required for data: 2864157584
I0417 17:05:43.583168 25260 layer_factory.hpp:77] Creating layer layer_128_3_scale1
I0417 17:05:43.583175 25260 net.cpp:84] Creating Layer layer_128_3_scale1
I0417 17:05:43.583180 25260 net.cpp:406] layer_128_3_scale1 <- layer_128_3_bn1
I0417 17:05:43.583186 25260 net.cpp:367] layer_128_3_scale1 -> layer_128_3_bn1 (in-place)
I0417 17:05:43.583243 25260 layer_factory.hpp:77] Creating layer layer_128_3_scale1
I0417 17:05:43.583317 25260 net.cpp:122] Setting up layer_128_3_scale1
I0417 17:05:43.583323 25260 net.cpp:129] Top shape: 38 512 14 30 (8171520)
I0417 17:05:43.583326 25260 net.cpp:137] Memory required for data: 2896843664
I0417 17:05:43.583331 25260 layer_factory.hpp:77] Creating layer layer_128_3_relu1
I0417 17:05:43.583338 25260 net.cpp:84] Creating Layer layer_128_3_relu1
I0417 17:05:43.583343 25260 net.cpp:406] layer_128_3_relu1 <- layer_128_3_bn1
I0417 17:05:43.583348 25260 net.cpp:367] layer_128_3_relu1 -> layer_128_3_bn1 (in-place)
I0417 17:05:43.583354 25260 net.cpp:122] Setting up layer_128_3_relu1
I0417 17:05:43.583360 25260 net.cpp:129] Top shape: 38 512 14 30 (8171520)
I0417 17:05:43.583365 25260 net.cpp:137] Memory required for data: 2929529744
I0417 17:05:43.583370 25260 layer_factory.hpp:77] Creating layer layer_128_3_conv1
I0417 17:05:43.583379 25260 net.cpp:84] Creating Layer layer_128_3_conv1
I0417 17:05:43.583384 25260 net.cpp:406] layer_128_3_conv1 <- layer_128_3_bn1
I0417 17:05:43.583389 25260 net.cpp:380] layer_128_3_conv1 -> layer_128_3_conv1
I0417 17:05:43.583998 25260 net.cpp:122] Setting up layer_128_3_conv1
I0417 17:05:43.584005 25260 net.cpp:129] Top shape: 38 128 14 30 (2042880)
I0417 17:05:43.584007 25260 net.cpp:137] Memory required for data: 2937701264
I0417 17:05:43.584012 25260 layer_factory.hpp:77] Creating layer layer_128_3_bn2
I0417 17:05:43.584017 25260 net.cpp:84] Creating Layer layer_128_3_bn2
I0417 17:05:43.584022 25260 net.cpp:406] layer_128_3_bn2 <- layer_128_3_conv1
I0417 17:05:43.584028 25260 net.cpp:367] layer_128_3_bn2 -> layer_128_3_conv1 (in-place)
I0417 17:05:43.584146 25260 net.cpp:122] Setting up layer_128_3_bn2
I0417 17:05:43.584152 25260 net.cpp:129] Top shape: 38 128 14 30 (2042880)
I0417 17:05:43.584154 25260 net.cpp:137] Memory required for data: 2945872784
I0417 17:05:43.584161 25260 layer_factory.hpp:77] Creating layer layer_128_3_scale2
I0417 17:05:43.584168 25260 net.cpp:84] Creating Layer layer_128_3_scale2
I0417 17:05:43.584182 25260 net.cpp:406] layer_128_3_scale2 <- layer_128_3_conv1
I0417 17:05:43.584188 25260 net.cpp:367] layer_128_3_scale2 -> layer_128_3_conv1 (in-place)
I0417 17:05:43.584220 25260 layer_factory.hpp:77] Creating layer layer_128_3_scale2
I0417 17:05:43.584295 25260 net.cpp:122] Setting up layer_128_3_scale2
I0417 17:05:43.584301 25260 net.cpp:129] Top shape: 38 128 14 30 (2042880)
I0417 17:05:43.584305 25260 net.cpp:137] Memory required for data: 2954044304
I0417 17:05:43.584307 25260 layer_factory.hpp:77] Creating layer layer_128_3_relu2
I0417 17:05:43.584312 25260 net.cpp:84] Creating Layer layer_128_3_relu2
I0417 17:05:43.584317 25260 net.cpp:406] layer_128_3_relu2 <- layer_128_3_conv1
I0417 17:05:43.584322 25260 net.cpp:367] layer_128_3_relu2 -> layer_128_3_conv1 (in-place)
I0417 17:05:43.584329 25260 net.cpp:122] Setting up layer_128_3_relu2
I0417 17:05:43.584336 25260 net.cpp:129] Top shape: 38 128 14 30 (2042880)
I0417 17:05:43.584338 25260 net.cpp:137] Memory required for data: 2962215824
I0417 17:05:43.584342 25260 layer_factory.hpp:77] Creating layer layer_128_3_conv2
I0417 17:05:43.584349 25260 net.cpp:84] Creating Layer layer_128_3_conv2
I0417 17:05:43.584354 25260 net.cpp:406] layer_128_3_conv2 <- layer_128_3_conv1
I0417 17:05:43.584362 25260 net.cpp:380] layer_128_3_conv2 -> layer_128_3_conv2
I0417 17:05:43.586258 25260 net.cpp:122] Setting up layer_128_3_conv2
I0417 17:05:43.586268 25260 net.cpp:129] Top shape: 38 128 14 30 (2042880)
I0417 17:05:43.586271 25260 net.cpp:137] Memory required for data: 2970387344
I0417 17:05:43.586277 25260 layer_factory.hpp:77] Creating layer layer_128_3_bn3
I0417 17:05:43.586287 25260 net.cpp:84] Creating Layer layer_128_3_bn3
I0417 17:05:43.586292 25260 net.cpp:406] layer_128_3_bn3 <- layer_128_3_conv2
I0417 17:05:43.586298 25260 net.cpp:367] layer_128_3_bn3 -> layer_128_3_conv2 (in-place)
I0417 17:05:43.586428 25260 net.cpp:122] Setting up layer_128_3_bn3
I0417 17:05:43.586434 25260 net.cpp:129] Top shape: 38 128 14 30 (2042880)
I0417 17:05:43.586436 25260 net.cpp:137] Memory required for data: 2978558864
I0417 17:05:43.586442 25260 layer_factory.hpp:77] Creating layer layer_128_3_scale3
I0417 17:05:43.586450 25260 net.cpp:84] Creating Layer layer_128_3_scale3
I0417 17:05:43.586457 25260 net.cpp:406] layer_128_3_scale3 <- layer_128_3_conv2
I0417 17:05:43.586462 25260 net.cpp:367] layer_128_3_scale3 -> layer_128_3_conv2 (in-place)
I0417 17:05:43.586496 25260 layer_factory.hpp:77] Creating layer layer_128_3_scale3
I0417 17:05:43.586576 25260 net.cpp:122] Setting up layer_128_3_scale3
I0417 17:05:43.586582 25260 net.cpp:129] Top shape: 38 128 14 30 (2042880)
I0417 17:05:43.586585 25260 net.cpp:137] Memory required for data: 2986730384
I0417 17:05:43.586591 25260 layer_factory.hpp:77] Creating layer layer_128_3_relu3
I0417 17:05:43.586598 25260 net.cpp:84] Creating Layer layer_128_3_relu3
I0417 17:05:43.586603 25260 net.cpp:406] layer_128_3_relu3 <- layer_128_3_conv2
I0417 17:05:43.586608 25260 net.cpp:367] layer_128_3_relu3 -> layer_128_3_conv2 (in-place)
I0417 17:05:43.586614 25260 net.cpp:122] Setting up layer_128_3_relu3
I0417 17:05:43.586621 25260 net.cpp:129] Top shape: 38 128 14 30 (2042880)
I0417 17:05:43.586625 25260 net.cpp:137] Memory required for data: 2994901904
I0417 17:05:43.586628 25260 layer_factory.hpp:77] Creating layer layer_128_3_conv3
I0417 17:05:43.586637 25260 net.cpp:84] Creating Layer layer_128_3_conv3
I0417 17:05:43.586642 25260 net.cpp:406] layer_128_3_conv3 <- layer_128_3_conv2
I0417 17:05:43.586648 25260 net.cpp:380] layer_128_3_conv3 -> layer_128_3_conv3
I0417 17:05:43.587957 25260 net.cpp:122] Setting up layer_128_3_conv3
I0417 17:05:43.587966 25260 net.cpp:129] Top shape: 38 512 14 30 (8171520)
I0417 17:05:43.587970 25260 net.cpp:137] Memory required for data: 3027587984
I0417 17:05:43.587975 25260 layer_factory.hpp:77] Creating layer layer_128_3_sum
I0417 17:05:43.587981 25260 net.cpp:84] Creating Layer layer_128_3_sum
I0417 17:05:43.587986 25260 net.cpp:406] layer_128_3_sum <- layer_128_3_conv3
I0417 17:05:43.588003 25260 net.cpp:406] layer_128_3_sum <- layer_128_2_sum_layer_128_2_sum_0_split_1
I0417 17:05:43.588011 25260 net.cpp:380] layer_128_3_sum -> layer_128_3_sum
I0417 17:05:43.588034 25260 net.cpp:122] Setting up layer_128_3_sum
I0417 17:05:43.588042 25260 net.cpp:129] Top shape: 38 512 14 30 (8171520)
I0417 17:05:43.588044 25260 net.cpp:137] Memory required for data: 3060274064
I0417 17:05:43.588047 25260 layer_factory.hpp:77] Creating layer layer_128_3_sum_layer_128_3_sum_0_split
I0417 17:05:43.588052 25260 net.cpp:84] Creating Layer layer_128_3_sum_layer_128_3_sum_0_split
I0417 17:05:43.588057 25260 net.cpp:406] layer_128_3_sum_layer_128_3_sum_0_split <- layer_128_3_sum
I0417 17:05:43.588063 25260 net.cpp:380] layer_128_3_sum_layer_128_3_sum_0_split -> layer_128_3_sum_layer_128_3_sum_0_split_0
I0417 17:05:43.588073 25260 net.cpp:380] layer_128_3_sum_layer_128_3_sum_0_split -> layer_128_3_sum_layer_128_3_sum_0_split_1
I0417 17:05:43.588102 25260 net.cpp:122] Setting up layer_128_3_sum_layer_128_3_sum_0_split
I0417 17:05:43.588109 25260 net.cpp:129] Top shape: 38 512 14 30 (8171520)
I0417 17:05:43.588112 25260 net.cpp:129] Top shape: 38 512 14 30 (8171520)
I0417 17:05:43.588115 25260 net.cpp:137] Memory required for data: 3125646224
I0417 17:05:43.588119 25260 layer_factory.hpp:77] Creating layer layer_128_4_bn1
I0417 17:05:43.588124 25260 net.cpp:84] Creating Layer layer_128_4_bn1
I0417 17:05:43.588129 25260 net.cpp:406] layer_128_4_bn1 <- layer_128_3_sum_layer_128_3_sum_0_split_0
I0417 17:05:43.588135 25260 net.cpp:380] layer_128_4_bn1 -> layer_128_4_bn1
I0417 17:05:43.588268 25260 net.cpp:122] Setting up layer_128_4_bn1
I0417 17:05:43.588274 25260 net.cpp:129] Top shape: 38 512 14 30 (8171520)
I0417 17:05:43.588276 25260 net.cpp:137] Memory required for data: 3158332304
I0417 17:05:43.588284 25260 layer_factory.hpp:77] Creating layer layer_128_4_scale1
I0417 17:05:43.588291 25260 net.cpp:84] Creating Layer layer_128_4_scale1
I0417 17:05:43.588296 25260 net.cpp:406] layer_128_4_scale1 <- layer_128_4_bn1
I0417 17:05:43.588302 25260 net.cpp:367] layer_128_4_scale1 -> layer_128_4_bn1 (in-place)
I0417 17:05:43.588337 25260 layer_factory.hpp:77] Creating layer layer_128_4_scale1
I0417 17:05:43.588413 25260 net.cpp:122] Setting up layer_128_4_scale1
I0417 17:05:43.588418 25260 net.cpp:129] Top shape: 38 512 14 30 (8171520)
I0417 17:05:43.588423 25260 net.cpp:137] Memory required for data: 3191018384
I0417 17:05:43.588428 25260 layer_factory.hpp:77] Creating layer layer_128_4_relu1
I0417 17:05:43.588434 25260 net.cpp:84] Creating Layer layer_128_4_relu1
I0417 17:05:43.588438 25260 net.cpp:406] layer_128_4_relu1 <- layer_128_4_bn1
I0417 17:05:43.588443 25260 net.cpp:367] layer_128_4_relu1 -> layer_128_4_bn1 (in-place)
I0417 17:05:43.588451 25260 net.cpp:122] Setting up layer_128_4_relu1
I0417 17:05:43.588457 25260 net.cpp:129] Top shape: 38 512 14 30 (8171520)
I0417 17:05:43.588461 25260 net.cpp:137] Memory required for data: 3223704464
I0417 17:05:43.588464 25260 layer_factory.hpp:77] Creating layer layer_128_4_conv1
I0417 17:05:43.588474 25260 net.cpp:84] Creating Layer layer_128_4_conv1
I0417 17:05:43.588479 25260 net.cpp:406] layer_128_4_conv1 <- layer_128_4_bn1
I0417 17:05:43.588485 25260 net.cpp:380] layer_128_4_conv1 -> layer_128_4_conv1
I0417 17:05:43.589041 25260 net.cpp:122] Setting up layer_128_4_conv1
I0417 17:05:43.589047 25260 net.cpp:129] Top shape: 38 128 14 30 (2042880)
I0417 17:05:43.589051 25260 net.cpp:137] Memory required for data: 3231875984
I0417 17:05:43.589054 25260 layer_factory.hpp:77] Creating layer layer_128_4_bn2
I0417 17:05:43.589061 25260 net.cpp:84] Creating Layer layer_128_4_bn2
I0417 17:05:43.589066 25260 net.cpp:406] layer_128_4_bn2 <- layer_128_4_conv1
I0417 17:05:43.589072 25260 net.cpp:367] layer_128_4_bn2 -> layer_128_4_conv1 (in-place)
I0417 17:05:43.589191 25260 net.cpp:122] Setting up layer_128_4_bn2
I0417 17:05:43.589197 25260 net.cpp:129] Top shape: 38 128 14 30 (2042880)
I0417 17:05:43.589200 25260 net.cpp:137] Memory required for data: 3240047504
I0417 17:05:43.589215 25260 layer_factory.hpp:77] Creating layer layer_128_4_scale2
I0417 17:05:43.589222 25260 net.cpp:84] Creating Layer layer_128_4_scale2
I0417 17:05:43.589227 25260 net.cpp:406] layer_128_4_scale2 <- layer_128_4_conv1
I0417 17:05:43.589236 25260 net.cpp:367] layer_128_4_scale2 -> layer_128_4_conv1 (in-place)
I0417 17:05:43.589268 25260 layer_factory.hpp:77] Creating layer layer_128_4_scale2
I0417 17:05:43.589344 25260 net.cpp:122] Setting up layer_128_4_scale2
I0417 17:05:43.589349 25260 net.cpp:129] Top shape: 38 128 14 30 (2042880)
I0417 17:05:43.589352 25260 net.cpp:137] Memory required for data: 3248219024
I0417 17:05:43.589357 25260 layer_factory.hpp:77] Creating layer layer_128_4_relu2
I0417 17:05:43.589363 25260 net.cpp:84] Creating Layer layer_128_4_relu2
I0417 17:05:43.589368 25260 net.cpp:406] layer_128_4_relu2 <- layer_128_4_conv1
I0417 17:05:43.589375 25260 net.cpp:367] layer_128_4_relu2 -> layer_128_4_conv1 (in-place)
I0417 17:05:43.589382 25260 net.cpp:122] Setting up layer_128_4_relu2
I0417 17:05:43.589388 25260 net.cpp:129] Top shape: 38 128 14 30 (2042880)
I0417 17:05:43.589392 25260 net.cpp:137] Memory required for data: 3256390544
I0417 17:05:43.589396 25260 layer_factory.hpp:77] Creating layer layer_128_4_conv2
I0417 17:05:43.589406 25260 net.cpp:84] Creating Layer layer_128_4_conv2
I0417 17:05:43.589409 25260 net.cpp:406] layer_128_4_conv2 <- layer_128_4_conv1
I0417 17:05:43.589416 25260 net.cpp:380] layer_128_4_conv2 -> layer_128_4_conv2
I0417 17:05:43.590528 25260 net.cpp:122] Setting up layer_128_4_conv2
I0417 17:05:43.590535 25260 net.cpp:129] Top shape: 38 128 14 30 (2042880)
I0417 17:05:43.590538 25260 net.cpp:137] Memory required for data: 3264562064
I0417 17:05:43.590546 25260 layer_factory.hpp:77] Creating layer layer_128_4_bn3
I0417 17:05:43.590553 25260 net.cpp:84] Creating Layer layer_128_4_bn3
I0417 17:05:43.590559 25260 net.cpp:406] layer_128_4_bn3 <- layer_128_4_conv2
I0417 17:05:43.590564 25260 net.cpp:367] layer_128_4_bn3 -> layer_128_4_conv2 (in-place)
I0417 17:05:43.590687 25260 net.cpp:122] Setting up layer_128_4_bn3
I0417 17:05:43.590693 25260 net.cpp:129] Top shape: 38 128 14 30 (2042880)
I0417 17:05:43.590695 25260 net.cpp:137] Memory required for data: 3272733584
I0417 17:05:43.590701 25260 layer_factory.hpp:77] Creating layer layer_128_4_scale3
I0417 17:05:43.590708 25260 net.cpp:84] Creating Layer layer_128_4_scale3
I0417 17:05:43.590713 25260 net.cpp:406] layer_128_4_scale3 <- layer_128_4_conv2
I0417 17:05:43.590718 25260 net.cpp:367] layer_128_4_scale3 -> layer_128_4_conv2 (in-place)
I0417 17:05:43.590751 25260 layer_factory.hpp:77] Creating layer layer_128_4_scale3
I0417 17:05:43.590826 25260 net.cpp:122] Setting up layer_128_4_scale3
I0417 17:05:43.590832 25260 net.cpp:129] Top shape: 38 128 14 30 (2042880)
I0417 17:05:43.590834 25260 net.cpp:137] Memory required for data: 3280905104
I0417 17:05:43.590840 25260 layer_factory.hpp:77] Creating layer layer_128_4_relu3
I0417 17:05:43.590847 25260 net.cpp:84] Creating Layer layer_128_4_relu3
I0417 17:05:43.590852 25260 net.cpp:406] layer_128_4_relu3 <- layer_128_4_conv2
I0417 17:05:43.590857 25260 net.cpp:367] layer_128_4_relu3 -> layer_128_4_conv2 (in-place)
I0417 17:05:43.590864 25260 net.cpp:122] Setting up layer_128_4_relu3
I0417 17:05:43.590869 25260 net.cpp:129] Top shape: 38 128 14 30 (2042880)
I0417 17:05:43.590874 25260 net.cpp:137] Memory required for data: 3289076624
I0417 17:05:43.590878 25260 layer_factory.hpp:77] Creating layer layer_128_4_conv3
I0417 17:05:43.590885 25260 net.cpp:84] Creating Layer layer_128_4_conv3
I0417 17:05:43.590890 25260 net.cpp:406] layer_128_4_conv3 <- layer_128_4_conv2
I0417 17:05:43.590896 25260 net.cpp:380] layer_128_4_conv3 -> layer_128_4_conv3
I0417 17:05:43.591456 25260 net.cpp:122] Setting up layer_128_4_conv3
I0417 17:05:43.591462 25260 net.cpp:129] Top shape: 38 512 14 30 (8171520)
I0417 17:05:43.591464 25260 net.cpp:137] Memory required for data: 3321762704
I0417 17:05:43.591470 25260 layer_factory.hpp:77] Creating layer layer_128_4_sum
I0417 17:05:43.591483 25260 net.cpp:84] Creating Layer layer_128_4_sum
I0417 17:05:43.591488 25260 net.cpp:406] layer_128_4_sum <- layer_128_4_conv3
I0417 17:05:43.591493 25260 net.cpp:406] layer_128_4_sum <- layer_128_3_sum_layer_128_3_sum_0_split_1
I0417 17:05:43.591518 25260 net.cpp:380] layer_128_4_sum -> layer_128_4_sum
I0417 17:05:43.591554 25260 net.cpp:122] Setting up layer_128_4_sum
I0417 17:05:43.591575 25260 net.cpp:129] Top shape: 38 512 14 30 (8171520)
I0417 17:05:43.591578 25260 net.cpp:137] Memory required for data: 3354448784
I0417 17:05:43.591580 25260 layer_factory.hpp:77] Creating layer last_bn
I0417 17:05:43.591586 25260 net.cpp:84] Creating Layer last_bn
I0417 17:05:43.591590 25260 net.cpp:406] last_bn <- layer_128_4_sum
I0417 17:05:43.591596 25260 net.cpp:367] last_bn -> layer_128_4_sum (in-place)
I0417 17:05:43.591732 25260 net.cpp:122] Setting up last_bn
I0417 17:05:43.591737 25260 net.cpp:129] Top shape: 38 512 14 30 (8171520)
I0417 17:05:43.591739 25260 net.cpp:137] Memory required for data: 3387134864
I0417 17:05:43.591747 25260 layer_factory.hpp:77] Creating layer last_scale
I0417 17:05:43.591753 25260 net.cpp:84] Creating Layer last_scale
I0417 17:05:43.591758 25260 net.cpp:406] last_scale <- layer_128_4_sum
I0417 17:05:43.591764 25260 net.cpp:367] last_scale -> layer_128_4_sum (in-place)
I0417 17:05:43.591799 25260 layer_factory.hpp:77] Creating layer last_scale
I0417 17:05:43.591872 25260 net.cpp:122] Setting up last_scale
I0417 17:05:43.591878 25260 net.cpp:129] Top shape: 38 512 14 30 (8171520)
I0417 17:05:43.591881 25260 net.cpp:137] Memory required for data: 3419820944
I0417 17:05:43.591886 25260 layer_factory.hpp:77] Creating layer last_relu
I0417 17:05:43.591892 25260 net.cpp:84] Creating Layer last_relu
I0417 17:05:43.591897 25260 net.cpp:406] last_relu <- layer_128_4_sum
I0417 17:05:43.591903 25260 net.cpp:367] last_relu -> layer_128_4_sum (in-place)
I0417 17:05:43.591910 25260 net.cpp:122] Setting up last_relu
I0417 17:05:43.591915 25260 net.cpp:129] Top shape: 38 512 14 30 (8171520)
I0417 17:05:43.591918 25260 net.cpp:137] Memory required for data: 3452507024
I0417 17:05:43.591924 25260 layer_factory.hpp:77] Creating layer slicer_feature_map
I0417 17:05:43.591930 25260 net.cpp:84] Creating Layer slicer_feature_map
I0417 17:05:43.591934 25260 net.cpp:406] slicer_feature_map <- layer_128_4_sum
I0417 17:05:43.591940 25260 net.cpp:380] slicer_feature_map -> slice_up
I0417 17:05:43.591949 25260 net.cpp:380] slicer_feature_map -> slice_down
I0417 17:05:43.591982 25260 net.cpp:122] Setting up slicer_feature_map
I0417 17:05:43.591987 25260 net.cpp:129] Top shape: 38 512 7 30 (4085760)
I0417 17:05:43.591991 25260 net.cpp:129] Top shape: 38 512 7 30 (4085760)
I0417 17:05:43.591995 25260 net.cpp:137] Memory required for data: 3485193104
I0417 17:05:43.591998 25260 layer_factory.hpp:77] Creating layer concat_feature
I0417 17:05:43.592005 25260 net.cpp:84] Creating Layer concat_feature
I0417 17:05:43.592008 25260 net.cpp:406] concat_feature <- slice_up
I0417 17:05:43.592013 25260 net.cpp:406] concat_feature <- slice_down
I0417 17:05:43.592020 25260 net.cpp:380] concat_feature -> concat_feature
I0417 17:05:43.592044 25260 net.cpp:122] Setting up concat_feature
I0417 17:05:43.592051 25260 net.cpp:129] Top shape: 38 512 7 60 (8171520)
I0417 17:05:43.592052 25260 net.cpp:137] Memory required for data: 3517879184
I0417 17:05:43.592056 25260 layer_factory.hpp:77] Creating layer permuted_data
I0417 17:05:43.592062 25260 net.cpp:84] Creating Layer permuted_data
I0417 17:05:43.592067 25260 net.cpp:406] permuted_data <- concat_feature
I0417 17:05:43.592072 25260 net.cpp:380] permuted_data -> permuted_data
I0417 17:05:43.592140 25260 net.cpp:122] Setting up permuted_data
I0417 17:05:43.592146 25260 net.cpp:129] Top shape: 60 38 512 7 (8171520)
I0417 17:05:43.592149 25260 net.cpp:137] Memory required for data: 3550565264
I0417 17:05:43.592151 25260 layer_factory.hpp:77] Creating layer permuted_data_permuted_data_0_split
I0417 17:05:43.592156 25260 net.cpp:84] Creating Layer permuted_data_permuted_data_0_split
I0417 17:05:43.592170 25260 net.cpp:406] permuted_data_permuted_data_0_split <- permuted_data
I0417 17:05:43.592176 25260 net.cpp:380] permuted_data_permuted_data_0_split -> permuted_data_permuted_data_0_split_0
I0417 17:05:43.592185 25260 net.cpp:380] permuted_data_permuted_data_0_split -> permuted_data_permuted_data_0_split_1
I0417 17:05:43.592216 25260 net.cpp:122] Setting up permuted_data_permuted_data_0_split
I0417 17:05:43.592221 25260 net.cpp:129] Top shape: 60 38 512 7 (8171520)
I0417 17:05:43.592223 25260 net.cpp:129] Top shape: 60 38 512 7 (8171520)
I0417 17:05:43.592227 25260 net.cpp:137] Memory required for data: 3615937424
I0417 17:05:43.592231 25260 layer_factory.hpp:77] Creating layer lstm-reverse1
I0417 17:05:43.592236 25260 net.cpp:84] Creating Layer lstm-reverse1
I0417 17:05:43.592242 25260 net.cpp:406] lstm-reverse1 <- permuted_data_permuted_data_0_split_0
I0417 17:05:43.592247 25260 net.cpp:380] lstm-reverse1 -> rlstm_input
I0417 17:05:43.592286 25260 net.cpp:122] Setting up lstm-reverse1
I0417 17:05:43.592291 25260 net.cpp:129] Top shape: 60 38 512 7 (8171520)
I0417 17:05:43.592293 25260 net.cpp:137] Memory required for data: 3648623504
I0417 17:05:43.592296 25260 layer_factory.hpp:77] Creating layer lstm2x_r1_r1
I0417 17:05:43.592303 25260 net.cpp:84] Creating Layer lstm2x_r1_r1
I0417 17:05:43.592308 25260 net.cpp:406] lstm2x_r1_r1 <- rlstm_input
I0417 17:05:43.592312 25260 net.cpp:406] lstm2x_r1_r1 <- indicator_indicator_0_split_0
I0417 17:05:43.592320 25260 net.cpp:380] lstm2x_r1_r1 -> lstm2x
I0417 17:05:43.592331 25260 recurrent_layer.cpp:20] Initializing recurrent layer: assuming input batch contains 60 timesteps of 38 independent streams.
I0417 17:05:43.593364 25260 net.cpp:51] Initializing net from parameters: 
layer {
  name: "lstm2x_r1_r1_"
  type: "Input"
  top: "x"
  top: "cont"
  input_param {
    shape {
      dim: 60
      dim: 38
      dim: 512
      dim: 7
    }
    shape {
      dim: 60
      dim: 38
    }
  }
}
layer {
  name: "lstm2x_r1_r1_"
  type: "Input"
  top: "c_0"
  top: "h_0"
  input_param {
    shape {
      dim: 1
      dim: 38
      dim: 100
    }
    shape {
      dim: 1
      dim: 38
      dim: 100
    }
  }
}
layer {
  name: "lstm2x_r1_r1_cont_slice"
  type: "Slice"
  bottom: "cont"
  top: "cont_1"
  top: "cont_2"
  top: "cont_3"
  top: "cont_4"
  top: "cont_5"
  top: "cont_6"
  top: "cont_7"
  top: "cont_8"
  top: "cont_9"
  top: "cont_10"
  top: "cont_11"
  top: "cont_12"
  top: "cont_13"
  top: "cont_14"
  top: "cont_15"
  top: "cont_16"
  top: "cont_17"
  top: "cont_18"
  top: "cont_19"
  top: "cont_20"
  top: "cont_21"
  top: "cont_22"
  top: "cont_23"
  top: "cont_24"
  top: "cont_25"
  top: "cont_26"
  top: "cont_27"
  top: "cont_28"
  top: "cont_29"
  top: "cont_30"
  top: "cont_31"
  top: "cont_32"
  top: "cont_33"
  top: "cont_34"
  top: "cont_35"
  top: "cont_36"
  top: "cont_37"
  top: "cont_38"
  top: "cont_39"
  top: "cont_40"
  top: "cont_41"
  top: "cont_42"
  top: "cont_43"
  top: "cont_44"
  top: "cont_45"
  top: "cont_46"
  top: "cont_47"
  top: "cont_48"
  top: "cont_49"
  top: "cont_50"
  top: "cont_51"
  top: "cont_52"
  top: "cont_53"
  top: "cont_54"
  top: "cont_55"
  top: "cont_56"
  top: "cont_57"
  top: "cont_58"
  top: "cont_59"
  top: "cont_60"
  slice_param {
    axis: 0
  }
}
layer {
  name: "lstm2x_r1_r1_x_transform"
  type: "InnerProduct"
  bottom: "x"
  top: "W_xc_x"
  param {
    name: "W_xc"
  }
  param {
    name: "b_c"
  }
  propagate_down: true
  inner_product_param {
    num_output: 400
    bias_term: true
    weight_filler {
      type: "xavier"
    }
    bias_filler {
      type: "constant"
      value: 0
    }
    axis: 2
  }
}
layer {
  name: "lstm2x_r1_r1_W_xc_x_slice"
  type: "Slice"
  bottom: "W_xc_x"
  top: "W_xc_x_1"
  top: "W_xc_x_2"
  top: "W_xc_x_3"
  top: "W_xc_x_4"
  top: "W_xc_x_5"
  top: "W_xc_x_6"
  top: "W_xc_x_7"
  top: "W_xc_x_8"
  top: "W_xc_x_9"
  top: "W_xc_x_10"
  top: "W_xc_x_11"
  top: "W_xc_x_12"
  top: "W_xc_x_13"
  top: "W_xc_x_14"
  top: "W_xc_x_15"
  top: "W_xc_x_16"
  top: "W_xc_x_17"
  top: "W_xc_x_18"
  top: "W_xc_x_19"
  top: "W_xc_x_20"
  top: "W_xc_x_21"
  top: "W_xc_x_22"
  top: "W_xc_x_23"
  top: "W_xc_x_24"
  top: "W_xc_x_25"
  top: "W_xc_x_26"
  top: "W_xc_x_27"
  top: "W_xc_x_28"
  top: "W_xc_x_29"
  top: "W_xc_x_30"
  top: "W_xc_x_31"
  top: "W_xc_x_32"
  top: "W_xc_x_33"
  top: "W_xc_x_34"
  top: "W_xc_x_35"
  top: "W_xc_x_36"
  top: "W_xc_x_37"
  top: "W_xc_x_38"
  top: "W_xc_x_39"
  top: "W_xc_x_40"
  top: "W_xc_x_41"
  top: "W_xc_x_42"
  top: "W_xc_x_43"
  top: "W_xc_x_44"
  top: "W_xc_x_45"
  top: "W_xc_x_46"
  top: "W_xc_x_47"
  top: "W_xc_x_48"
  top: "W_xc_x_49"
  top: "W_xc_x_50"
  top: "W_xc_x_51"
  top: "W_xc_x_52"
  top: "W_xc_x_53"
  top: "W_xc_x_54"
  top: "W_xc_x_55"
  top: "W_xc_x_56"
  top: "W_xc_x_57"
  top: "W_xc_x_58"
  top: "W_xc_x_59"
  top: "W_xc_x_60"
  slice_param {
    axis: 0
  }
}
layer {
  name: "lstm2x_r1_r1_h_conted_0"
  type: "Scale"
  bottom: "h_0"
  bottom: "cont_1"
  top: "h_conted_0"
  scale_param {
    axis: 0
  }
}
layer {
  name: "lstm2x_r1_r1_transform_1"
  type: "InnerProduct"
  bottom: "h_conted_0"
  top: "W_hc_h_0"
  param {
    name: "W_hc"
  }
  inner_product_param {
    num_output: 400
    bias_term: false
    weight_filler {
      type: "xavier"
    }
    axis: 2
  }
}
layer {
  name: "lstm2x_r1_r1_gate_input_1"
  type: "Eltwise"
  bottom: "W_hc_h_0"
  bottom: "W_xc_x_1"
  top: "gate_input_1"
  eltwise_param {
    operation: SUM
  }
}
layer {
  name: "lstm2x_r1_r1_unit_1"
  type: "LSTMUnit"
  bottom: "c_0"
  bottom: "gate_input_1"
  bottom: "cont_1"
  top: "c_1"
  top: "h_1"
}
layer {
  name: "lstm2x_r1_r1_h_conted_1"
  type: "Scale"
  bottom: "h_1"
  bottom: "cont_2"
  top: "h_conted_1"
  scale_param {
    axis: 0
  }
}
layer {
  name: "lstm2x_r1_r1_transform_2"
  type: "InnerProduct"
  bottom: "h_conted_1"
  top: "W_hc_h_1"
  param {
    name: "W_hc"
  }
  inner_product_param {
    num_output: 400
    bias_term: false
    weight_filler {
      type: "xavier"
    }
    axis: 2
  }
}
layer {
  name: "lstm2x_r1_r1_gate_input_2"
  type: "Eltwise"
  bottom: "W_hc_h_1"
  bottom: "W_xc_x_2"
  top: "gate_input_2"
  eltwise_param {
    operation: SUM
  }
}
layer {
  name: "lstm2x_r1_r1_unit_2"
  type: "LSTMUnit"
  bottom: "c_1"
  bottom: "gate_input_2"
  bottom: "cont_2"
  top: "c_2"
  top: "h_2"
}
layer {
  name: "lstm2x_r1_r1_h_conted_2"
  type: "Scale"
  bottom: "h_2"
  bottom: "cont_3"
  top: "h_conted_2"
  scale_param {
    axis: 0
  }
}
layer {
  name: "lstm2x_r1_r1_transform_3"
  type: "InnerProduct"
  bottom: "h_conted_2"
  top: "W_hc_h_2"
  param {
    name: "W_hc"
  }
  inner_product_param {
    num_output: 400
    bias_term: false
    weight_filler {
      type: "xavier"
    }
    axis: 2
  }
}
layer {
  name: "lstm2x_r1_r1_gate_input_3"
  type: "Eltwise"
  bottom: "W_hc_h_2"
  bottom: "W_xc_x_3"
  top: "gate_input_3"
  eltwise_param {
    operation: SUM
  }
}
layer {
  name: "lstm2x_r1_r1_unit_3"
  type: "LSTMUnit"
  bottom: "c_2"
  bottom: "gate_input_3"
  bottom: "cont_3"
  top: "c_3"
  top: "h_3"
}
layer {
  name: "lstm2x_r1_r1_h_conted_3"
  type: "Scale"
  bottom: "h_3"
  bottom: "cont_4"
  top: "h_conted_3"
  scale_param {
    axis: 0
  }
}
layer {
  name: "lstm2x_r1_r1_transform_4"
  type: "InnerProduct"
  bottom: "h_conted_3"
  top: "W_hc_h_3"
  param {
    name: "W_hc"
  }
  inner_product_param {
    num_output: 400
    bias_term: false
    weight_filler {
      type: "xavier"
    }
    axis: 2
  }
}
layer {
  name: "lstm2x_r1_r1_gate_input_4"
  type: "Eltwise"
  bottom: "W_hc_h_3"
  bottom: "W_xc_x_4"
  top: "gate_input_4"
  eltwise_param {
    operation: SUM
  }
}
layer {
  name: "lstm2x_r1_r1_unit_4"
  type: "LSTMUnit"
  bottom: "c_3"
  bottom: "gate_input_4"
  bottom: "cont_4"
  top: "c_4"
  top: "h_4"
}
layer {
  name: "lstm2x_r1_r1_h_conted_4"
  type: "Scale"
  bottom: "h_4"
  bottom: "cont_5"
  top: "h_conted_4"
  scale_param {
    axis: 0
  }
}
layer {
  name: "lstm2x_r1_r1_transform_5"
  type: "InnerProduct"
  bottom: "h_conted_4"
  top: "W_hc_h_4"
  param {
    name: "W_hc"
  }
  inner_product_param {
    num_output: 400
    bias_term: false
    weight_filler {
      type: "xavier"
    }
    axis: 2
  }
}
layer {
  name: "lstm2x_r1_r1_gate_input_5"
  type: "Eltwise"
  bottom: "W_hc_h_4"
  bottom: "W_xc_x_5"
  top: "gate_input_5"
  eltwise_param {
    operation: SUM
  }
}
layer {
  name: "lstm2x_r1_r1_unit_5"
  type: "LSTMUnit"
  bottom: "c_4"
  bottom: "gate_input_5"
  bottom: "cont_5"
  top: "c_5"
  top: "h_5"
}
layer {
  name: "lstm2x_r1_r1_h_conted_5"
  type: "Scale"
  bottom: "h_5"
  bottom: "cont_6"
  top: "h_conted_5"
  scale_param {
    axis: 0
  }
}
layer {
  name: "lstm2x_r1_r1_transform_6"
  type: "InnerProduct"
  bottom: "h_conted_5"
  top: "W_hc_h_5"
  param {
    name: "W_hc"
  }
  inner_product_param {
    num_output: 400
    bias_term: false
    weight_filler {
      type: "xavier"
    }
    axis: 2
  }
}
layer {
  name: "lstm2x_r1_r1_gate_input_6"
  type: "Eltwise"
  bottom: "W_hc_h_5"
  bottom: "W_xc_x_6"
  top: "gate_input_6"
  eltwise_param {
    operation: SUM
  }
}
layer {
  name: "lstm2x_r1_r1_unit_6"
  type: "LSTMUnit"
  bottom: "c_5"
  bottom: "gate_input_6"
  bottom: "cont_6"
  top: "c_6"
  top: "h_6"
}
layer {
  name: "lstm2x_r1_r1_h_conted_6"
  type: "Scale"
  bottom: "h_6"
  bottom: "cont_7"
  top: "h_conted_6"
  scale_param {
    axis: 0
  }
}
layer {
  name: "lstm2x_r1_r1_transform_7"
  type: "InnerProduct"
  bottom: "h_conted_6"
  top: "W_hc_h_6"
  param {
    name: "W_hc"
  }
  inner_product_param {
    num_output: 400
    bias_term: false
    weight_filler {
      type: "xavier"
    }
    axis: 2
  }
}
layer {
  name: "lstm2x_r1_r1_gate_input_7"
  type: "Eltwise"
  bottom: "W_hc_h_6"
  bottom: "W_xc_x_7"
  top: "gate_input_7"
  eltwise_param {
    operation: SUM
  }
}
layer {
  name: "lstm2x_r1_r1_unit_7"
  type: "LSTMUnit"
  bottom: "c_6"
  bottom: "gate_input_7"
  bottom: "cont_7"
  top: "c_7"
  top: "h_7"
}
layer {
  name: "lstm2x_r1_r1_h_conted_7"
  type: "Scale"
  bottom: "h_7"
  bottom: "cont_8"
  top: "h_conted_7"
  scale_param {
    axis: 0
  }
}
layer {
  name: "lstm2x_r1_r1_transform_8"
  type: "InnerProduct"
  bottom: "h_conted_7"
  top: "W_hc_h_7"
  param {
    name: "W_hc"
  }
  inner_product_param {
    num_output: 400
    bias_term: false
    weight_filler {
      type: "xavier"
    }
    axis: 2
  }
}
layer {
  name: "lstm2x_r1_r1_gate_input_8"
  type: "Eltwise"
  bottom: "W_hc_h_7"
  bottom: "W_xc_x_8"
  top: "gate_input_8"
  eltwise_param {
    operation: SUM
  }
}
layer {
  name: "lstm2x_r1_r1_unit_8"
  type: "LSTMUnit"
  bottom: "c_7"
  bottom: "gate_input_8"
  bottom: "cont_8"
  top: "c_8"
  top: "h_8"
}
layer {
  name: "lstm2x_r1_r1_h_conted_8"
  type: "Scale"
  bottom: "h_8"
  bottom: "cont_9"
  top: "h_conted_8"
  scale_param {
    axis: 0
  }
}
layer {
  name: "lstm2x_r1_r1_transform_9"
  type: "InnerProduct"
  bottom: "h_conted_8"
  top: "W_hc_h_8"
  param {
    name: "W_hc"
  }
  inner_product_param {
    num_output: 400
    bias_term: false
    weight_filler {
      type: "xavier"
    }
    axis: 2
  }
}
layer {
  name: "lstm2x_r1_r1_gate_input_9"
  type: "Eltwise"
  bottom: "W_hc_h_8"
  bottom: "W_xc_x_9"
  top: "gate_input_9"
  eltwise_param {
    operation: SUM
  }
}
layer {
  name: "lstm2x_r1_r1_unit_9"
  type: "LSTMUnit"
  bottom: "c_8"
  bottom: "gate_input_9"
  bottom: "cont_9"
  top: "c_9"
  top: "h_9"
}
layer {
  name: "lstm2x_r1_r1_h_conted_9"
  type: "Scale"
  bottom: "h_9"
  bottom: "cont_10"
  top: "h_conted_9"
  scale_param {
    axis: 0
  }
}
layer {
  name: "lstm2x_r1_r1_transform_10"
  type: "InnerProduct"
  bottom: "h_conted_9"
  top: "W_hc_h_9"
  param {
    name: "W_hc"
  }
  inner_product_param {
    num_output: 400
    bias_term: false
    weight_filler {
      type: "xavier"
    }
    axis: 2
  }
}
layer {
  name: "lstm2x_r1_r1_gate_input_10"
  type: "Eltwise"
  bottom: "W_hc_h_9"
  bottom: "W_xc_x_10"
  top: "gate_input_10"
  eltwise_param {
    operation: SUM
  }
}
layer {
  name: "lstm2x_r1_r1_unit_10"
  type: "LSTMUnit"
  bottom: "c_9"
  bottom: "gate_input_10"
  bottom: "cont_10"
  top: "c_10"
  top: "h_10"
}
layer {
  name: "lstm2x_r1_r1_h_conted_10"
  type: "Scale"
  bottom: "h_10"
  bottom: "cont_11"
  top: "h_conted_10"
  scale_param {
    axis: 0
  }
}
layer {
  name: "lstm2x_r1_r1_transform_11"
  type: "InnerProduct"
  bottom: "h_conted_10"
  top: "W_hc_h_10"
  param {
    name: "W_hc"
  }
  inner_product_param {
    num_output: 400
    bias_term: false
    weight_filler {
      type: "xavier"
    }
    axis: 2
  }
}
layer {
  name: "lstm2x_r1_r1_gate_input_11"
  type: "Eltwise"
  bottom: "W_hc_h_10"
  bottom: "W_xc_x_11"
  top: "gate_input_11"
  eltwise_param {
    operation: SUM
  }
}
layer {
  name: "lstm2x_r1_r1_unit_11"
  type: "LSTMUnit"
  bottom: "c_10"
  bottom: "gate_input_11"
  bottom: "cont_11"
  top: "c_11"
  top: "h_11"
}
layer {
  name: "lstm2x_r1_r1_h_conted_11"
  type: "Scale"
  bottom: "h_11"
  bottom: "cont_12"
  top: "h_conted_11"
  scale_param {
    axis: 0
  }
}
layer {
  name: "lstm2x_r1_r1_transform_12"
  type: "InnerProduct"
  bottom: "h_conted_11"
  top: "W_hc_h_11"
  param {
    name: "W_hc"
  }
  inner_product_param {
    num_output: 400
    bias_term: false
    weight_filler {
      type: "xavier"
    }
    axis: 2
  }
}
layer {
  name: "lstm2x_r1_r1_gate_input_12"
  type: "Eltwise"
  bottom: "W_hc_h_11"
  bottom: "W_xc_x_12"
  top: "gate_input_12"
  eltwise_param {
    operation: SUM
  }
}
layer {
  name: "lstm2x_r1_r1_unit_12"
  type: "LSTMUnit"
  bottom: "c_11"
  bottom: "gate_input_12"
  bottom: "cont_12"
  top: "c_12"
  top: "h_12"
}
layer {
  name: "lstm2x_r1_r1_h_conted_12"
  type: "Scale"
  bottom: "h_12"
  bottom: "cont_13"
  top: "h_conted_12"
  scale_param {
    axis: 0
  }
}
layer {
  name: "lstm2x_r1_r1_transform_13"
  type: "InnerProduct"
  bottom: "h_conted_12"
  top: "W_hc_h_12"
  param {
    name: "W_hc"
  }
  inner_product_param {
    num_output: 400
    bias_term: false
    weight_filler {
      type: "xavier"
    }
    axis: 2
  }
}
layer {
  name: "lstm2x_r1_r1_gate_input_13"
  type: "Eltwise"
  bottom: "W_hc_h_12"
  bottom: "W_xc_x_13"
  top: "gate_input_13"
  eltwise_param {
    operation: SUM
  }
}
layer {
  name: "lstm2x_r1_r1_unit_13"
  type: "LSTMUnit"
  bottom: "c_12"
  bottom: "gate_input_13"
  bottom: "cont_13"
  top: "c_13"
  top: "h_13"
}
layer {
  name: "lstm2x_r1_r1_h_conted_13"
  type: "Scale"
  bottom: "h_13"
  bottom: "cont_14"
  top: "h_conted_13"
  scale_param {
    axis: 0
  }
}
layer {
  name: "lstm2x_r1_r1_transform_14"
  type: "InnerProduct"
  bottom: "h_conted_13"
  top: "W_hc_h_13"
  param {
    name: "W_hc"
  }
  inner_product_param {
    num_output: 400
    bias_term: false
    weight_filler {
      type: "xavier"
    }
    axis: 2
  }
}
layer {
  name: "lstm2x_r1_r1_gate_input_14"
  type: "Eltwise"
  bottom: "W_hc_h_13"
  bottom: "W_xc_x_14"
  top: "gate_input_14"
  eltwise_param {
    operation: SUM
  }
}
layer {
  name: "lstm2x_r1_r1_unit_14"
  type: "LSTMUnit"
  bottom: "c_13"
  bottom: "gate_input_14"
  bottom: "cont_14"
  top: "c_14"
  top: "h_14"
}
layer {
  name: "lstm2x_r1_r1_h_conted_14"
  type: "Scale"
  bottom: "h_14"
  bottom: "cont_15"
  top: "h_conted_14"
  scale_param {
    axis: 0
  }
}
layer {
  name: "lstm2x_r1_r1_transform_15"
  type: "InnerProduct"
  bottom: "h_conted_14"
  top: "W_hc_h_14"
  param {
    name: "W_hc"
  }
  inner_product_param {
    num_output: 400
    bias_term: false
    weight_filler {
      type: "xavier"
    }
    axis: 2
  }
}
layer {
  name: "lstm2x_r1_r1_gate_input_15"
  type: "Eltwise"
  bottom: "W_hc_h_14"
  bottom: "W_xc_x_15"
  top: "gate_input_15"
  eltwise_param {
    operation: SUM
  }
}
layer {
  name: "lstm2x_r1_r1_unit_15"
  type: "LSTMUnit"
  bottom: "c_14"
  bottom: "gate_input_15"
  bottom: "cont_15"
  top: "c_15"
  top: "h_15"
}
layer {
  name: "lstm2x_r1_r1_h_conted_15"
  type: "Scale"
  bottom: "h_15"
  bottom: "cont_16"
  top: "h_conted_15"
  scale_param {
    axis: 0
  }
}
layer {
  name: "lstm2x_r1_r1_transform_16"
  type: "InnerProduct"
  bottom: "h_conted_15"
  top: "W_hc_h_15"
  param {
    name: "W_hc"
  }
  inner_product_param {
    num_output: 400
    bias_term: false
    weight_filler {
      type: "xavier"
    }
    axis: 2
  }
}
layer {
  name: "lstm2x_r1_r1_gate_input_16"
  type: "Eltwise"
  bottom: "W_hc_h_15"
  bottom: "W_xc_x_16"
  top: "gate_input_16"
  eltwise_param {
    operation: SUM
  }
}
layer {
  name: "lstm2x_r1_r1_unit_16"
  type: "LSTMUnit"
  bottom: "c_15"
  bottom: "gate_input_16"
  bottom: "cont_16"
  top: "c_16"
  top: "h_16"
}
layer {
  name: "lstm2x_r1_r1_h_conted_16"
  type: "Scale"
  bottom: "h_16"
  bottom: "cont_17"
  top: "h_conted_16"
  scale_param {
    axis: 0
  }
}
layer {
  name: "lstm2x_r1_r1_transform_17"
  type: "InnerProduct"
  bottom: "h_conted_16"
  top: "W_hc_h_16"
  param {
    name: "W_hc"
  }
  inner_product_param {
    num_output: 400
    bias_term: false
    weight_filler {
      type: "xavier"
    }
    axis: 2
  }
}
layer {
  name: "lstm2x_r1_r1_gate_input_17"
  type: "Eltwise"
  bottom: "W_hc_h_16"
  bottom: "W_xc_x_17"
  top: "gate_input_17"
  eltwise_param {
    operation: SUM
  }
}
layer {
  name: "lstm2x_r1_r1_unit_17"
  type: "LSTMUnit"
  bottom: "c_16"
  bottom: "gate_input_17"
  bottom: "cont_17"
  top: "c_17"
  top: "h_17"
}
layer {
  name: "lstm2x_r1_r1_h_conted_17"
  type: "Scale"
  bottom: "h_17"
  bottom: "cont_18"
  top: "h_conted_17"
  scale_param {
    axis: 0
  }
}
layer {
  name: "lstm2x_r1_r1_transform_18"
  type: "InnerProduct"
  bottom: "h_conted_17"
  top: "W_hc_h_17"
  param {
    name: "W_hc"
  }
  inner_product_param {
    num_output: 400
    bias_term: false
    weight_filler {
      type: "xavier"
    }
    axis: 2
  }
}
layer {
  name: "lstm2x_r1_r1_gate_input_18"
  type: "Eltwise"
  bottom: "W_hc_h_17"
  bottom: "W_xc_x_18"
  top: "gate_input_18"
  eltwise_param {
    operation: SUM
  }
}
layer {
  name: "lstm2x_r1_r1_unit_18"
  type: "LSTMUnit"
  bottom: "c_17"
  bottom: "gate_input_18"
  bottom: "cont_18"
  top: "c_18"
  top: "h_18"
}
layer {
  name: "lstm2x_r1_r1_h_conted_18"
  type: "Scale"
  bottom: "h_18"
  bottom: "cont_19"
  top: "h_conted_18"
  scale_param {
    axis: 0
  }
}
layer {
  name: "lstm2x_r1_r1_transform_19"
  type: "InnerProduct"
  bottom: "h_conted_18"
  top: "W_hc_h_18"
  param {
    name: "W_hc"
  }
  inner_product_param {
    num_output: 400
    bias_term: false
    weight_filler {
      type: "xavier"
    }
    axis: 2
  }
}
layer {
  name: "lstm2x_r1_r1_gate_input_19"
  type: "Eltwise"
  bottom: "W_hc_h_18"
  bottom: "W_xc_x_19"
  top: "gate_input_19"
  eltwise_param {
    operation: SUM
  }
}
layer {
  name: "lstm2x_r1_r1_unit_19"
  type: "LSTMUnit"
  bottom: "c_18"
  bottom: "gate_input_19"
  bottom: "cont_19"
  top: "c_19"
  top: "h_19"
}
layer {
  name: "lstm2x_r1_r1_h_conted_19"
  type: "Scale"
  bottom: "h_19"
  bottom: "cont_20"
  top: "h_conted_19"
  scale_param {
    axis: 0
  }
}
layer {
  name: "lstm2x_r1_r1_transform_20"
  type: "InnerProduct"
  bottom: "h_conted_19"
  top: "W_hc_h_19"
  param {
    name: "W_hc"
  }
  inner_product_param {
    num_output: 400
    bias_term: false
    weight_filler {
      type: "xavier"
    }
    axis: 2
  }
}
layer {
  name: "lstm2x_r1_r1_gate_input_20"
  type: "Eltwise"
  bottom: "W_hc_h_19"
  bottom: "W_xc_x_20"
  top: "gate_input_20"
  eltwise_param {
    operation: SUM
  }
}
layer {
  name: "lstm2x_r1_r1_unit_20"
  type: "LSTMUnit"
  bottom: "c_19"
  bottom: "gate_input_20"
  bottom: "cont_20"
  top: "c_20"
  top: "h_20"
}
layer {
  name: "lstm2x_r1_r1_h_conted_20"
  type: "Scale"
  bottom: "h_20"
  bottom: "cont_21"
  top: "h_conted_20"
  scale_param {
    axis: 0
  }
}
layer {
  name: "lstm2x_r1_r1_transform_21"
  type: "InnerProduct"
  bottom: "h_conted_20"
  top: "W_hc_h_20"
  param {
    name: "W_hc"
  }
  inner_product_param {
    num_output: 400
    bias_term: false
    weight_filler {
      type: "xavier"
    }
    axis: 2
  }
}
layer {
  name: "lstm2x_r1_r1_gate_input_21"
  type: "Eltwise"
  bottom: "W_hc_h_20"
  bottom: "W_xc_x_21"
  top: "gate_input_21"
  eltwise_param {
    operation: SUM
  }
}
layer {
  name: "lstm2x_r1_r1_unit_21"
  type: "LSTMUnit"
  bottom: "c_20"
  bottom: "gate_input_21"
  bottom: "cont_21"
  top: "c_21"
  top: "h_21"
}
layer {
  name: "lstm2x_r1_r1_h_conted_21"
  type: "Scale"
  bottom: "h_21"
  bottom: "cont_22"
  top: "h_conted_21"
  scale_param {
    axis: 0
  }
}
layer {
  name: "lstm2x_r1_r1_transform_22"
  type: "InnerProduct"
  bottom: "h_conted_21"
  top: "W_hc_h_21"
  param {
    name: "W_hc"
  }
  inner_product_param {
    num_output: 400
    bias_term: false
    weight_filler {
      type: "xavier"
    }
    axis: 2
  }
}
layer {
  name: "lstm2x_r1_r1_gate_input_22"
  type: "Eltwise"
  bottom: "W_hc_h_21"
  bottom: "W_xc_x_22"
  top: "gate_input_22"
  eltwise_param {
    operation: SUM
  }
}
layer {
  name: "lstm2x_r1_r1_unit_22"
  type: "LSTMUnit"
  bottom: "c_21"
  bottom: "gate_input_22"
  bottom: "cont_22"
  top: "c_22"
  top: "h_22"
}
layer {
  name: "lstm2x_r1_r1_h_conted_22"
  type: "Scale"
  bottom: "h_22"
  bottom: "cont_23"
  top: "h_conted_22"
  scale_param {
    axis: 0
  }
}
layer {
  name: "lstm2x_r1_r1_transform_23"
  type: "InnerProduct"
  bottom: "h_conted_22"
  top: "W_hc_h_22"
  param {
    name: "W_hc"
  }
  inner_product_param {
    num_output: 400
    bias_term: false
    weight_filler {
      type: "xavier"
    }
    axis: 2
  }
}
layer {
  name: "lstm2x_r1_r1_gate_input_23"
  type: "Eltwise"
  bottom: "W_hc_h_22"
  bottom: "W_xc_x_23"
  top: "gate_input_23"
  eltwise_param {
    operation: SUM
  }
}
layer {
  name: "lstm2x_r1_r1_unit_23"
  type: "LSTMUnit"
  bottom: "c_22"
  bottom: "gate_input_23"
  bottom: "cont_23"
  top: "c_23"
  top: "h_23"
}
layer {
  name: "lstm2x_r1_r1_h_conted_23"
  type: "Scale"
  bottom: "h_23"
  bottom: "cont_24"
  top: "h_conted_23"
  scale_param {
    axis: 0
  }
}
layer {
  name: "lstm2x_r1_r1_transform_24"
  type: "InnerProduct"
  bottom: "h_conted_23"
  top: "W_hc_h_23"
  param {
    name: "W_hc"
  }
  inner_product_param {
    num_output: 400
    bias_term: false
    weight_filler {
      type: "xavier"
    }
    axis: 2
  }
}
layer {
  name: "lstm2x_r1_r1_gate_input_24"
  type: "Eltwise"
  bottom: "W_hc_h_23"
  bottom: "W_xc_x_24"
  top: "gate_input_24"
  eltwise_param {
    operation: SUM
  }
}
layer {
  name: "lstm2x_r1_r1_unit_24"
  type: "LSTMUnit"
  bottom: "c_23"
  bottom: "gate_input_24"
  bottom: "cont_24"
  top: "c_24"
  top: "h_24"
}
layer {
  name: "lstm2x_r1_r1_h_conted_24"
  type: "Scale"
  bottom: "h_24"
  bottom: "cont_25"
  top: "h_conted_24"
  scale_param {
    axis: 0
  }
}
layer {
  name: "lstm2x_r1_r1_transform_25"
  type: "InnerProduct"
  bottom: "h_conted_24"
  top: "W_hc_h_24"
  param {
    name: "W_hc"
  }
  inner_product_param {
    num_output: 400
    bias_term: false
    weight_filler {
      type: "xavier"
    }
    axis: 2
  }
}
layer {
  name: "lstm2x_r1_r1_gate_input_25"
  type: "Eltwise"
  bottom: "W_hc_h_24"
  bottom: "W_xc_x_25"
  top: "gate_input_25"
  eltwise_param {
    operation: SUM
  }
}
layer {
  name: "lstm2x_r1_r1_unit_25"
  type: "LSTMUnit"
  bottom: "c_24"
  bottom: "gate_input_25"
  bottom: "cont_25"
  top: "c_25"
  top: "h_25"
}
layer {
  name: "lstm2x_r1_r1_h_conted_25"
  type: "Scale"
  bottom: "h_25"
  bottom: "cont_26"
  top: "h_conted_25"
  scale_param {
    axis: 0
  }
}
layer {
  name: "lstm2x_r1_r1_transform_26"
  type: "InnerProduct"
  bottom: "h_conted_25"
  top: "W_hc_h_25"
  param {
    name: "W_hc"
  }
  inner_product_param {
    num_output: 400
    bias_term: false
    weight_filler {
      type: "xavier"
    }
    axis: 2
  }
}
layer {
  name: "lstm2x_r1_r1_gate_input_26"
  type: "Eltwise"
  bottom: "W_hc_h_25"
  bottom: "W_xc_x_26"
  top: "gate_input_26"
  eltwise_param {
    operation: SUM
  }
}
layer {
  name: "lstm2x_r1_r1_unit_26"
  type: "LSTMUnit"
  bottom: "c_25"
  bottom: "gate_input_26"
  bottom: "cont_26"
  top: "c_26"
  top: "h_26"
}
layer {
  name: "lstm2x_r1_r1_h_conted_26"
  type: "Scale"
  bottom: "h_26"
  bottom: "cont_27"
  top: "h_conted_26"
  scale_param {
    axis: 0
  }
}
layer {
  name: "lstm2x_r1_r1_transform_27"
  type: "InnerProduct"
  bottom: "h_conted_26"
  top: "W_hc_h_26"
  param {
    name: "W_hc"
  }
  inner_product_param {
    num_output: 400
    bias_term: false
    weight_filler {
      type: "xavier"
    }
    axis: 2
  }
}
layer {
  name: "lstm2x_r1_r1_gate_input_27"
  type: "Eltwise"
  bottom: "W_hc_h_26"
  bottom: "W_xc_x_27"
  top: "gate_input_27"
  eltwise_param {
    operation: SUM
  }
}
layer {
  name: "lstm2x_r1_r1_unit_27"
  type: "LSTMUnit"
  bottom: "c_26"
  bottom: "gate_input_27"
  bottom: "cont_27"
  top: "c_27"
  top: "h_27"
}
layer {
  name: "lstm2x_r1_r1_h_conted_27"
  type: "Scale"
  bottom: "h_27"
  bottom: "cont_28"
  top: "h_conted_27"
  scale_param {
    axis: 0
  }
}
layer {
  name: "lstm2x_r1_r1_transform_28"
  type: "InnerProduct"
  bottom: "h_conted_27"
  top: "W_hc_h_27"
  param {
    name: "W_hc"
  }
  inner_product_param {
    num_output: 400
    bias_term: false
    weight_filler {
      type: "xavier"
    }
    axis: 2
  }
}
layer {
  name: "lstm2x_r1_r1_gate_input_28"
  type: "Eltwise"
  bottom: "W_hc_h_27"
  bottom: "W_xc_x_28"
  top: "gate_input_28"
  eltwise_param {
    operation: SUM
  }
}
layer {
  name: "lstm2x_r1_r1_unit_28"
  type: "LSTMUnit"
  bottom: "c_27"
  bottom: "gate_input_28"
  bottom: "cont_28"
  top: "c_28"
  top: "h_28"
}
layer {
  name: "lstm2x_r1_r1_h_conted_28"
  type: "Scale"
  bottom: "h_28"
  bottom: "cont_29"
  top: "h_conted_28"
  scale_param {
    axis: 0
  }
}
layer {
  name: "lstm2x_r1_r1_transform_29"
  type: "InnerProduct"
  bottom: "h_conted_28"
  top: "W_hc_h_28"
  param {
    name: "W_hc"
  }
  inner_product_param {
    num_output: 400
    bias_term: false
    weight_filler {
      type: "xavier"
    }
    axis: 2
  }
}
layer {
  name: "lstm2x_r1_r1_gate_input_29"
  type: "Eltwise"
  bottom: "W_hc_h_28"
  bottom: "W_xc_x_29"
  top: "gate_input_29"
  eltwise_param {
    operation: SUM
  }
}
layer {
  name: "lstm2x_r1_r1_unit_29"
  type: "LSTMUnit"
  bottom: "c_28"
  bottom: "gate_input_29"
  bottom: "cont_29"
  top: "c_29"
  top: "h_29"
}
layer {
  name: "lstm2x_r1_r1_h_conted_29"
  type: "Scale"
  bottom: "h_29"
  bottom: "cont_30"
  top: "h_conted_29"
  scale_param {
    axis: 0
  }
}
layer {
  name: "lstm2x_r1_r1_transform_30"
  type: "InnerProduct"
  bottom: "h_conted_29"
  top: "W_hc_h_29"
  param {
    name: "W_hc"
  }
  inner_product_param {
    num_output: 400
    bias_term: false
    weight_filler {
      type: "xavier"
    }
    axis: 2
  }
}
layer {
  name: "lstm2x_r1_r1_gate_input_30"
  type: "Eltwise"
  bottom: "W_hc_h_29"
  bottom: "W_xc_x_30"
  top: "gate_input_30"
  eltwise_param {
    operation: SUM
  }
}
layer {
  name: "lstm2x_r1_r1_unit_30"
  type: "LSTMUnit"
  bottom: "c_29"
  bottom: "gate_input_30"
  bottom: "cont_30"
  top: "c_30"
  top: "h_30"
}
layer {
  name: "lstm2x_r1_r1_h_conted_30"
  type: "Scale"
  bottom: "h_30"
  bottom: "cont_31"
  top: "h_conted_30"
  scale_param {
    axis: 0
  }
}
layer {
  name: "lstm2x_r1_r1_transform_31"
  type: "InnerProduct"
  bottom: "h_conted_30"
  top: "W_hc_h_30"
  param {
    name: "W_hc"
  }
  inner_product_param {
    num_output: 400
    bias_term: false
    weight_filler {
      type: "xavier"
    }
    axis: 2
  }
}
layer {
  name: "lstm2x_r1_r1_gate_input_31"
  type: "Eltwise"
  bottom: "W_hc_h_30"
  bottom: "W_xc_x_31"
  top: "gate_input_31"
  eltwise_param {
    operation: SUM
  }
}
layer {
  name: "lstm2x_r1_r1_unit_31"
  type: "LSTMUnit"
  bottom: "c_30"
  bottom: "gate_input_31"
  bottom: "cont_31"
  top: "c_31"
  top: "h_31"
}
layer {
  name: "lstm2x_r1_r1_h_conted_31"
  type: "Scale"
  bottom: "h_31"
  bottom: "cont_32"
  top: "h_conted_31"
  scale_param {
    axis: 0
  }
}
layer {
  name: "lstm2x_r1_r1_transform_32"
  type: "InnerProduct"
  bottom: "h_conted_31"
  top: "W_hc_h_31"
  param {
    name: "W_hc"
  }
  inner_product_param {
    num_output: 400
    bias_term: false
    weight_filler {
      type: "xavier"
    }
    axis: 2
  }
}
layer {
  name: "lstm2x_r1_r1_gate_input_32"
  type: "Eltwise"
  bottom: "W_hc_h_31"
  bottom: "W_xc_x_32"
  top: "gate_input_32"
  eltwise_param {
    operation: SUM
  }
}
layer {
  name: "lstm2x_r1_r1_unit_32"
  type: "LSTMUnit"
  bottom: "c_31"
  bottom: "gate_input_32"
  bottom: "cont_32"
  top: "c_32"
  top: "h_32"
}
layer {
  name: "lstm2x_r1_r1_h_conted_32"
  type: "Scale"
  bottom: "h_32"
  bottom: "cont_33"
  top: "h_conted_32"
  scale_param {
    axis: 0
  }
}
layer {
  name: "lstm2x_r1_r1_transform_33"
  type: "InnerProduct"
  bottom: "h_conted_32"
  top: "W_hc_h_32"
  param {
    name: "W_hc"
  }
  inner_product_param {
    num_output: 400
    bias_term: false
    weight_filler {
      type: "xavier"
    }
    axis: 2
  }
}
layer {
  name: "lstm2x_r1_r1_gate_input_33"
  type: "Eltwise"
  bottom: "W_hc_h_32"
  bottom: "W_xc_x_33"
  top: "gate_input_33"
  eltwise_param {
    operation: SUM
  }
}
layer {
  name: "lstm2x_r1_r1_unit_33"
  type: "LSTMUnit"
  bottom: "c_32"
  bottom: "gate_input_33"
  bottom: "cont_33"
  top: "c_33"
  top: "h_33"
}
layer {
  name: "lstm2x_r1_r1_h_conted_33"
  type: "Scale"
  bottom: "h_33"
  bottom: "cont_34"
  top: "h_conted_33"
  scale_param {
    axis: 0
  }
}
layer {
  name: "lstm2x_r1_r1_transform_34"
  type: "InnerProduct"
  bottom: "h_conted_33"
  top: "W_hc_h_33"
  param {
    name: "W_hc"
  }
  inner_product_param {
    num_output: 400
    bias_term: false
    weight_filler {
      type: "xavier"
    }
    axis: 2
  }
}
layer {
  name: "lstm2x_r1_r1_gate_input_34"
  type: "Eltwise"
  bottom: "W_hc_h_33"
  bottom: "W_xc_x_34"
  top: "gate_input_34"
  eltwise_param {
    operation: SUM
  }
}
layer {
  name: "lstm2x_r1_r1_unit_34"
  type: "LSTMUnit"
  bottom: "c_33"
  bottom: "gate_input_34"
  bottom: "cont_34"
  top: "c_34"
  top: "h_34"
}
layer {
  name: "lstm2x_r1_r1_h_conted_34"
  type: "Scale"
  bottom: "h_34"
  bottom: "cont_35"
  top: "h_conted_34"
  scale_param {
    axis: 0
  }
}
layer {
  name: "lstm2x_r1_r1_transform_35"
  type: "InnerProduct"
  bottom: "h_conted_34"
  top: "W_hc_h_34"
  param {
    name: "W_hc"
  }
  inner_product_param {
    num_output: 400
    bias_term: false
    weight_filler {
      type: "xavier"
    }
    axis: 2
  }
}
layer {
  name: "lstm2x_r1_r1_gate_input_35"
  type: "Eltwise"
  bottom: "W_hc_h_34"
  bottom: "W_xc_x_35"
  top: "gate_input_35"
  eltwise_param {
    operation: SUM
  }
}
layer {
  name: "lstm2x_r1_r1_unit_35"
  type: "LSTMUnit"
  bottom: "c_34"
  bottom: "gate_input_35"
  bottom: "cont_35"
  top: "c_35"
  top: "h_35"
}
layer {
  name: "lstm2x_r1_r1_h_conted_35"
  type: "Scale"
  bottom: "h_35"
  bottom: "cont_36"
  top: "h_conted_35"
  scale_param {
    axis: 0
  }
}
layer {
  name: "lstm2x_r1_r1_transform_36"
  type: "InnerProduct"
  bottom: "h_conted_35"
  top: "W_hc_h_35"
  param {
    name: "W_hc"
  }
  inner_product_param {
    num_output: 400
    bias_term: false
    weight_filler {
      type: "xavier"
    }
    axis: 2
  }
}
layer {
  name: "lstm2x_r1_r1_gate_input_36"
  type: "Eltwise"
  bottom: "W_hc_h_35"
  bottom: "W_xc_x_36"
  top: "gate_input_36"
  eltwise_param {
    operation: SUM
  }
}
layer {
  name: "lstm2x_r1_r1_unit_36"
  type: "LSTMUnit"
  bottom: "c_35"
  bottom: "gate_input_36"
  bottom: "cont_36"
  top: "c_36"
  top: "h_36"
}
layer {
  name: "lstm2x_r1_r1_h_conted_36"
  type: "Scale"
  
I0417 17:05:43.594674 25260 layer_factory.hpp:77] Creating layer lstm2x_r1_r1_
I0417 17:05:43.594684 25260 net.cpp:84] Creating Layer lstm2x_r1_r1_
I0417 17:05:43.594689 25260 net.cpp:380] lstm2x_r1_r1_ -> x
I0417 17:05:43.594702 25260 net.cpp:380] lstm2x_r1_r1_ -> cont
I0417 17:05:43.594741 25260 net.cpp:122] Setting up lstm2x_r1_r1_
I0417 17:05:43.594748 25260 net.cpp:129] Top shape: 60 38 512 7 (8171520)
I0417 17:05:43.594751 25260 net.cpp:129] Top shape: 60 38 (2280)
I0417 17:05:43.594756 25260 net.cpp:137] Memory required for data: 32695200
I0417 17:05:43.594759 25260 layer_factory.hpp:77] Creating layer lstm2x_r1_r1_
I0417 17:05:43.594765 25260 net.cpp:84] Creating Layer lstm2x_r1_r1_
I0417 17:05:43.594771 25260 net.cpp:380] lstm2x_r1_r1_ -> c_0
I0417 17:05:43.594780 25260 net.cpp:380] lstm2x_r1_r1_ -> h_0
I0417 17:05:43.594815 25260 net.cpp:122] Setting up lstm2x_r1_r1_
I0417 17:05:43.594820 25260 net.cpp:129] Top shape: 1 38 100 (3800)
I0417 17:05:43.594825 25260 net.cpp:129] Top shape: 1 38 100 (3800)
I0417 17:05:43.594828 25260 net.cpp:137] Memory required for data: 32725600
I0417 17:05:43.594841 25260 layer_factory.hpp:77] Creating layer lstm2x_r1_r1_cont_slice
I0417 17:05:43.594851 25260 net.cpp:84] Creating Layer lstm2x_r1_r1_cont_slice
I0417 17:05:43.594857 25260 net.cpp:406] lstm2x_r1_r1_cont_slice <- cont
I0417 17:05:43.594867 25260 net.cpp:380] lstm2x_r1_r1_cont_slice -> cont_1
…
I0417 17:05:43.595453 25260 net.cpp:380] lstm2x_r1_r1_cont_slice -> cont_54
I0417 17:05:43.595463 25260 net.cpp:380] lstm2x_r1_r1_cont_slice -> cont_55
I0417 17:05:43.595474 25260 net.cpp:380] lstm2x_r1_r1_cont_slice -> cont_56
I0417 17:05:43.595484 25260 net.cpp:380] lstm2x_r1_r1_cont_slice -> cont_57
I0417 17:05:43.595499 25260 net.cpp:380] lstm2x_r1_r1_cont_slice -> cont_58
I0417 17:05:43.595510 25260 net.cpp:380] lstm2x_r1_r1_cont_slice -> cont_59
I0417 17:05:43.595521 25260 net.cpp:380] lstm2x_r1_r1_cont_slice -> cont_60
I0417 17:05:43.595969 25260 net.cpp:122] Setting up lstm2x_r1_r1_cont_slice
I0417 17:05:43.595976 25260 net.cpp:129] Top shape: 1 38 (38)
I0417 17:05:43.595979 25260 net.cpp:129] Top shape: 1 38 (38)
I0417 17:05:43.595983 25260 net.cpp:129] Top shape: 1 38 (38)
I0417 17:05:43.595988 25260 net.cpp:129] Top shape: 1 38 (38)
I0417 17:05:43.595993 25260 net.cpp:129] Top shape: 1 38 (38)
I0417 17:05:43.595998 25260 net.cpp:129] Top shape: 1 38 (38)
I0417 17:05:43.596002 25260 net.cpp:129] Top shape: 1 38 (38)
I0417 17:05:43.596006 25260 net.cpp:129] Top shape: 1 38 (38)
I0417 17:05:43.596010 25260 net.cpp:129] Top shape: 1 38 (38)
I0417 17:05:43.596016 25260 net.cpp:129] Top shape: 1 38 (38)
I0417 17:05:43.596020 25260 net.cpp:129] Top shape: 1 38 (38)
I0417 17:05:43.596025 25260 net.cpp:129] Top shape: 1 38 (38)
I0417 17:05:43.596031 25260 net.cpp:129] Top shape: 1 38 (38)
I0417 17:05:43.596036 25260 net.cpp:129] Top shape: 1 38 (38)
I0417 17:05:43.596040 25260 net.cpp:129] Top shape: 1 38 (38)
I0417 17:05:43.596045 25260 net.cpp:129] Top shape: 1 38 (38)
I0417 17:05:43.596050 25260 net.cpp:129] Top shape: 1 38 (38)
I0417 17:05:43.596055 25260 net.cpp:129] Top shape: 1 38 (38)
I0417 17:05:43.596060 25260 net.cpp:129] Top shape: 1 38 (38)
I0417 17:05:43.596065 25260 net.cpp:129] Top shape: 1 38 (38)
I0417 17:05:43.596068 25260 net.cpp:129] Top shape: 1 38 (38)
I0417 17:05:43.596073 25260 net.cpp:129] Top shape: 1 38 (38)
I0417 17:05:43.596077 25260 net.cpp:129] Top shape: 1 38 (38)
I0417 17:05:43.596082 25260 net.cpp:129] Top shape: 1 38 (38)
I0417 17:05:43.596086 25260 net.cpp:129] Top shape: 1 38 (38)
I0417 17:05:43.596092 25260 net.cpp:129] Top shape: 1 38 (38)
I0417 17:05:43.596096 25260 net.cpp:129] Top shape: 1 38 (38)
I0417 17:05:43.596101 25260 net.cpp:129] Top shape: 1 38 (38)
I0417 17:05:43.596105 25260 net.cpp:129] Top shape: 1 38 (38)
I0417 17:05:43.596110 25260 net.cpp:129] Top shape: 1 38 (38)
I0417 17:05:43.596114 25260 net.cpp:129] Top shape: 1 38 (38)
I0417 17:05:43.596119 25260 net.cpp:129] Top shape: 1 38 (38)
I0417 17:05:43.596123 25260 net.cpp:129] Top shape: 1 38 (38)
I0417 17:05:43.596128 25260 net.cpp:129] Top shape: 1 38 (38)
I0417 17:05:43.596132 25260 net.cpp:129] Top shape: 1 38 (38)
I0417 17:05:43.596138 25260 net.cpp:129] Top shape: 1 38 (38)
I0417 17:05:43.596141 25260 net.cpp:129] Top shape: 1 38 (38)
I0417 17:05:43.596148 25260 net.cpp:129] Top shape: 1 38 (38)
I0417 17:05:43.596151 25260 net.cpp:129] Top shape: 1 38 (38)
I0417 17:05:43.596156 25260 net.cpp:129] Top shape: 1 38 (38)
I0417 17:05:43.596160 25260 net.cpp:129] Top shape: 1 38 (38)
I0417 17:05:43.596165 25260 net.cpp:129] Top shape: 1 38 (38)
I0417 17:05:43.596169 25260 net.cpp:129] Top shape: 1 38 (38)
I0417 17:05:43.596174 25260 net.cpp:129] Top shape: 1 38 (38)
I0417 17:05:43.596179 25260 net.cpp:129] Top shape: 1 38 (38)
I0417 17:05:43.596185 25260 net.cpp:129] Top shape: 1 38 (38)
I0417 17:05:43.596189 25260 net.cpp:129] Top shape: 1 38 (38)
I0417 17:05:43.596194 25260 net.cpp:129] Top shape: 1 38 (38)
I0417 17:05:43.596199 25260 net.cpp:129] Top shape: 1 38 (38)
I0417 17:05:43.596202 25260 net.cpp:129] Top shape: 1 38 (38)
I0417 17:05:43.596206 25260 net.cpp:129] Top shape: 1 38 (38)
I0417 17:05:43.596210 25260 net.cpp:129] Top shape: 1 38 (38)
I0417 17:05:43.596215 25260 net.cpp:129] Top shape: 1 38 (38)
I0417 17:05:43.596220 25260 net.cpp:129] Top shape: 1 38 (38)
I0417 17:05:43.596233 25260 net.cpp:129] Top shape: 1 38 (38)
I0417 17:05:43.596238 25260 net.cpp:129] Top shape: 1 38 (38)
I0417 17:05:43.596242 25260 net.cpp:129] Top shape: 1 38 (38)
I0417 17:05:43.596248 25260 net.cpp:129] Top shape: 1 38 (38)
I0417 17:05:43.596252 25260 net.cpp:129] Top shape: 1 38 (38)
I0417 17:05:43.596257 25260 net.cpp:129] Top shape: 1 38 (38)
I0417 17:05:43.596261 25260 net.cpp:137] Memory required for data: 32734720
I0417 17:05:43.596266 25260 layer_factory.hpp:77] Creating layer cont_1_lstm2x_r1_r1_cont_slice_0_split
I0417 17:05:43.596271 25260 net.cpp:84] Creating Layer cont_1_lstm2x_r1_r1_cont_slice_0_split
I0417 17:05:43.596276 25260 net.cpp:406] cont_1_lstm2x_r1_r1_cont_slice_0_split <- cont_1
I0417 17:05:43.596283 25260 net.cpp:380] cont_1_lstm2x_r1_r1_cont_slice_0_split -> cont_1_lstm2x_r1_r1_cont_slice_0_split_0
I0417 17:05:43.596293 25260 net.cpp:380] cont_1_lstm2x_r1_r1_cont_slice_0_split -> cont_1_lstm2x_r1_r1_cont_slice_0_split_1
I0417 17:05:43.596325 25260 net.cpp:122] Setting up cont_1_lstm2x_r1_r1_cont_slice_0_split
I0417 17:05:43.596331 25260 net.cpp:129] Top shape: 1 38 (38)
I0417 17:05:43.596334 25260 net.cpp:129] Top shape: 1 38 (38)
I0417 17:05:43.596338 25260 net.cpp:137] Memory required for data: 32735024
I0417 17:05:43.596343 25260 layer_factory.hpp:77] Creating layer cont_2_lstm2x_r1_r1_cont_slice_1_split
I0417 17:05:43.596349 25260 net.cpp:84] Creating Layer cont_2_lstm2x_r1_r1_cont_slice_1_split
I0417 17:05:43.596352 25260 net.cpp:406] cont_2_lstm2x_r1_r1_cont_slice_1_split <- cont_2
I0417 17:05:43.596360 25260 net.cpp:380] cont_2_lstm2x_r1_r1_cont_slice_1_split -> cont_2_lstm2x_r1_r1_cont_slice_1_split_0
I0417 17:05:43.596369 25260 net.cpp:380] cont_2_lstm2x_r1_r1_cont_slice_1_split -> cont_2_lstm2x_r1_r1_cont_slice_1_split_1
I0417 17:05:43.596400 25260 net.cpp:122] Setting up cont_2_lstm2x_r1_r1_cont_slice_1_split
I0417 17:05:43.596405 25260 net.cpp:129] Top shape: 1 38 (38)
I0417 17:05:43.596408 25260 net.cpp:129] Top shape: 1 38 (38)
I0417 17:05:43.596411 25260 net.cpp:137] Memory required for data: 32735328
I0417 17:05:43.596415 25260 layer_factory.hpp:77] Creating layer cont_3_lstm2x_r1_r1_cont_slice_2_split
I0417 17:05:43.596420 25260 net.cpp:84] Creating Layer cont_3_lstm2x_r1_r1_cont_slice_2_split
I0417 17:05:43.596424 25260 net.cpp:406] cont_3_lstm2x_r1_r1_cont_slice_2_split <- cont_3
I0417 17:05:43.596431 25260 net.cpp:380] cont_3_lstm2x_r1_r1_cont_slice_2_split -> cont_3_lstm2x_r1_r1_cont_slice_2_split_0
I0417 17:05:43.596438 25260 net.cpp:380] cont_3_lstm2x_r1_r1_cont_slice_2_split -> cont_3_lstm2x_r1_r1_cont_slice_2_split_1
I0417 17:05:43.596467 25260 net.cpp:122] Setting up cont_3_lstm2x_r1_r1_cont_slice_2_split
I0417 17:05:43.596472 25260 net.cpp:129] Top shape: 1 38 (38)
I0417 17:05:43.596475 25260 net.cpp:129] Top shape: 1 38 (38)
I0417 17:05:43.596478 25260 net.cpp:137] Memory required for data: 32735632
I0417 17:05:43.596482 25260 layer_factory.hpp:77] Creating layer cont_4_lstm2x_r1_r1_cont_slice_3_split
I0417 17:05:43.596487 25260 net.cpp:84] Creating Layer cont_4_lstm2x_r1_r1_cont_slice_3_split
I0417 17:05:43.596491 25260 net.cpp:406] cont_4_lstm2x_r1_r1_cont_slice_3_split <- cont_4
I0417 17:05:43.596498 25260 net.cpp:380] cont_4_lstm2x_r1_r1_cont_slice_3_split -> cont_4_lstm2x_r1_r1_cont_slice_3_split_0
I0417 17:05:43.596504 25260 net.cpp:380] cont_4_lstm2x_r1_r1_cont_slice_3_split -> cont_4_lstm2x_r1_r1_cont_slice_3_split_1
I0417 17:05:43.596535 25260 net.cpp:122] Setting up cont_4_lstm2x_r1_r1_cont_slice_3_split
I0417 17:05:43.596541 25260 net.cpp:129] Top shape: 1 38 (38)
I0417 17:05:43.596544 25260 net.cpp:129] Top shape: 1 38 (38)
I0417 17:05:43.596546 25260 net.cpp:137] Memory required for data: 32735936
I0417 17:05:43.596550 25260 layer_factory.hpp:77] Creating layer cont_5_lstm2x_r1_r1_cont_slice_4_split
I0417 17:05:43.596555 25260 net.cpp:84] Creating Layer cont_5_lstm2x_r1_r1_cont_slice_4_split
I0417 17:05:43.596560 25260 net.cpp:406] cont_5_lstm2x_r1_r1_cont_slice_4_split <- cont_5
I0417 17:05:43.596575 25260 net.cpp:380] cont_5_lstm2x_r1_r1_cont_slice_4_split -> cont_5_lstm2x_r1_r1_cont_slice_4_split_0
I0417 17:05:43.596582 25260 net.cpp:380] cont_5_lstm2x_r1_r1_cont_slice_4_split -> cont_5_lstm2x_r1_r1_cont_slice_4_split_1
I0417 17:05:43.596613 25260 net.cpp:122] Setting up cont_5_lstm2x_r1_r1_cont_slice_4_split
I0417 17:05:43.596618 25260 net.cpp:129] Top shape: 1 38 (38)
I0417 17:05:43.596621 25260 net.cpp:129] Top shape: 1 38 (38)
I0417 17:05:43.596624 25260 net.cpp:137] Memory required for data: 32736240
I0417 17:05:43.596628 25260 layer_factory.hpp:77] Creating layer cont_6_lstm2x_r1_r1_cont_slice_5_split
I0417 17:05:43.596633 25260 net.cpp:84] Creating Layer cont_6_lstm2x_r1_r1_cont_slice_5_split
I0417 17:05:43.596638 25260 net.cpp:406] cont_6_lstm2x_r1_r1_cont_slice_5_split <- cont_6
I0417 17:05:43.596644 25260 net.cpp:380] cont_6_lstm2x_r1_r1_cont_slice_5_split -> cont_6_lstm2x_r1_r1_cont_slice_5_split_0
I0417 17:05:43.596653 25260 net.cpp:380] cont_6_lstm2x_r1_r1_cont_slice_5_split -> cont_6_lstm2x_r1_r1_cont_slice_5_split_1
I0417 17:05:43.596683 25260 net.cpp:122] Setting up cont_6_lstm2x_r1_r1_cont_slice_5_split
I0417 17:05:43.596688 25260 net.cpp:129] Top shape: 1 38 (38)
I0417 17:05:43.596690 25260 net.cpp:129] Top shape: 1 38 (38)
I0417 17:05:43.596694 25260 net.cpp:137] Memory required for data: 32736544
I0417 17:05:43.596698 25260 layer_factory.hpp:77] Creating layer cont_7_lstm2x_r1_r1_cont_slice_6_split
I0417 17:05:43.596702 25260 net.cpp:84] Creating Layer cont_7_lstm2x_r1_r1_cont_slice_6_split
I0417 17:05:43.596706 25260 net.cpp:406] cont_7_lstm2x_r1_r1_cont_slice_6_split <- cont_7
I0417 17:05:43.596712 25260 net.cpp:380] cont_7_lstm2x_r1_r1_cont_slice_6_split -> cont_7_lstm2x_r1_r1_cont_slice_6_split_0
I0417 17:05:43.596720 25260 net.cpp:380] cont_7_lstm2x_r1_r1_cont_slice_6_split -> cont_7_lstm2x_r1_r1_cont_slice_6_split_1
I0417 17:05:43.596748 25260 net.cpp:122] Setting up cont_7_lstm2x_r1_r1_cont_slice_6_split
I0417 17:05:43.596753 25260 net.cpp:129] Top shape: 1 38 (38)
I0417 17:05:43.596757 25260 net.cpp:129] Top shape: 1 38 (38)
I0417 17:05:43.596760 25260 net.cpp:137] Memory required for data: 32736848
I0417 17:05:43.596763 25260 layer_factory.hpp:77] Creating layer cont_8_lstm2x_r1_r1_cont_slice_7_split
I0417 17:05:43.596767 25260 net.cpp:84] Creating Layer cont_8_lstm2x_r1_r1_cont_slice_7_split
I0417 17:05:43.596773 25260 net.cpp:406] cont_8_lstm2x_r1_r1_cont_slice_7_split <- cont_8
I0417 17:05:43.596779 25260 net.cpp:380] cont_8_lstm2x_r1_r1_cont_slice_7_split -> cont_8_lstm2x_r1_r1_cont_slice_7_split_0
I0417 17:05:43.596786 25260 net.cpp:380] cont_8_lstm2x_r1_r1_cont_slice_7_split -> cont_8_lstm2x_r1_r1_cont_slice_7_split_1
I0417 17:05:43.596815 25260 net.cpp:122] Setting up cont_8_lstm2x_r1_r1_cont_slice_7_split
I0417 17:05:43.596822 25260 net.cpp:129] Top shape: 1 38 (38)
I0417 17:05:43.596823 25260 net.cpp:129] Top shape: 1 38 (38)
I0417 17:05:43.596827 25260 net.cpp:137] Memory required for data: 32737152
I0417 17:05:43.596829 25260 layer_factory.hpp:77] Creating layer cont_9_lstm2x_r1_r1_cont_slice_8_split
I0417 17:05:43.596834 25260 net.cpp:84] Creating Layer cont_9_lstm2x_r1_r1_cont_slice_8_split
I0417 17:05:43.596839 25260 net.cpp:406] cont_9_lstm2x_r1_r1_cont_slice_8_split <- cont_9
I0417 17:05:43.596845 25260 net.cpp:380] cont_9_lstm2x_r1_r1_cont_slice_8_split -> cont_9_lstm2x_r1_r1_cont_slice_8_split_0
I0417 17:05:43.596853 25260 net.cpp:380] cont_9_lstm2x_r1_r1_cont_slice_8_split -> cont_9_lstm2x_r1_r1_cont_slice_8_split_1
I0417 17:05:43.596882 25260 net.cpp:122] Setting up cont_9_lstm2x_r1_r1_cont_slice_8_split
I0417 17:05:43.596887 25260 net.cpp:129] Top shape: 1 38 (38)
I0417 17:05:43.596889 25260 net.cpp:129] Top shape: 1 38 (38)
I0417 17:05:43.596892 25260 net.cpp:137] Memory required for data: 32737456
I0417 17:05:43.596896 25260 layer_factory.hpp:77] Creating layer cont_10_lstm2x_r1_r1_cont_slice_9_split
I0417 17:05:43.596901 25260 net.cpp:84] Creating Layer cont_10_lstm2x_r1_r1_cont_slice_9_split
I0417 17:05:43.596905 25260 net.cpp:406] cont_10_lstm2x_r1_r1_cont_slice_9_split <- cont_10
I0417 17:05:43.596918 25260 net.cpp:380] cont_10_lstm2x_r1_r1_cont_slice_9_split -> cont_10_lstm2x_r1_r1_cont_slice_9_split_0
I0417 17:05:43.596927 25260 net.cpp:380] cont_10_lstm2x_r1_r1_cont_slice_9_split -> cont_10_lstm2x_r1_r1_cont_slice_9_split_1
I0417 17:05:43.596956 25260 net.cpp:122] Setting up cont_10_lstm2x_r1_r1_cont_slice_9_split
I0417 17:05:43.596961 25260 net.cpp:129] Top shape: 1 38 (38)
I0417 17:05:43.596964 25260 net.cpp:129] Top shape: 1 38 (38)
I0417 17:05:43.596967 25260 net.cpp:137] Memory required for data: 32737760
I0417 17:05:43.596971 25260 layer_factory.hpp:77] Creating layer cont_11_lstm2x_r1_r1_cont_slice_10_split
I0417 17:05:43.596976 25260 net.cpp:84] Creating Layer cont_11_lstm2x_r1_r1_cont_slice_10_split
I0417 17:05:43.596981 25260 net.cpp:406] cont_11_lstm2x_r1_r1_cont_slice_10_split <- cont_11
I0417 17:05:43.596987 25260 net.cpp:380] cont_11_lstm2x_r1_r1_cont_slice_10_split -> cont_11_lstm2x_r1_r1_cont_slice_10_split_0
I0417 17:05:43.596994 25260 net.cpp:380] cont_11_lstm2x_r1_r1_cont_slice_10_split -> cont_11_lstm2x_r1_r1_cont_slice_10_split_1
I0417 17:05:43.597023 25260 net.cpp:122] Setting up cont_11_lstm2x_r1_r1_cont_slice_10_split
I0417 17:05:43.597028 25260 net.cpp:129] Top shape: 1 38 (38)
I0417 17:05:43.597033 25260 net.cpp:129] Top shape: 1 38 (38)
I0417 17:05:43.597035 25260 net.cpp:137] Memory required for data: 32738064
I0417 17:05:43.597038 25260 layer_factory.hpp:77] Creating layer cont_12_lstm2x_r1_r1_cont_slice_11_split
I0417 17:05:43.597043 25260 net.cpp:84] Creating Layer cont_12_lstm2x_r1_r1_cont_slice_11_split
I0417 17:05:43.597048 25260 net.cpp:406] cont_12_lstm2x_r1_r1_cont_slice_11_split <- cont_12
I0417 17:05:43.597054 25260 net.cpp:380] cont_12_lstm2x_r1_r1_cont_slice_11_split -> cont_12_lstm2x_r1_r1_cont_slice_11_split_0
I0417 17:05:43.597061 25260 net.cpp:380] cont_12_lstm2x_r1_r1_cont_slice_11_split -> cont_12_lstm2x_r1_r1_cont_slice_11_split_1
I0417 17:05:43.597090 25260 net.cpp:122] Setting up cont_12_lstm2x_r1_r1_cont_slice_11_split
I0417 17:05:43.597095 25260 net.cpp:129] Top shape: 1 38 (38)
I0417 17:05:43.597098 25260 net.cpp:129] Top shape: 1 38 (38)
I0417 17:05:43.597101 25260 net.cpp:137] Memory required for data: 32738368
I0417 17:05:43.597105 25260 layer_factory.hpp:77] Creating layer cont_13_lstm2x_r1_r1_cont_slice_12_split
I0417 17:05:43.597110 25260 net.cpp:84] Creating Layer cont_13_lstm2x_r1_r1_cont_slice_12_split
I0417 17:05:43.597115 25260 net.cpp:406] cont_13_lstm2x_r1_r1_cont_slice_12_split <- cont_13
I0417 17:05:43.597121 25260 net.cpp:380] cont_13_lstm2x_r1_r1_cont_slice_12_split -> cont_13_lstm2x_r1_r1_cont_slice_12_split_0
I0417 17:05:43.597127 25260 net.cpp:380] cont_13_lstm2x_r1_r1_cont_slice_12_split -> cont_13_lstm2x_r1_r1_cont_slice_12_split_1
I0417 17:05:43.597157 25260 net.cpp:122] Setting up cont_13_lstm2x_r1_r1_cont_slice_12_split
I0417 17:05:43.597162 25260 net.cpp:129] Top shape: 1 38 (38)
I0417 17:05:43.597164 25260 net.cpp:129] Top shape: 1 38 (38)
I0417 17:05:43.597167 25260 net.cpp:137] Memory required for data: 32738672
I0417 17:05:43.597170 25260 layer_factory.hpp:77] Creating layer cont_14_lstm2x_r1_r1_cont_slice_13_split
I0417 17:05:43.597177 25260 net.cpp:84] Creating Layer cont_14_lstm2x_r1_r1_cont_slice_13_split
I0417 17:05:43.597182 25260 net.cpp:406] cont_14_lstm2x_r1_r1_cont_slice_13_split <- cont_14
I0417 17:05:43.597187 25260 net.cpp:380] cont_14_lstm2x_r1_r1_cont_slice_13_split -> cont_14_lstm2x_r1_r1_cont_slice_13_split_0
I0417 17:05:43.597210 25260 net.cpp:380] cont_14_lstm2x_r1_r1_cont_slice_13_split -> cont_14_lstm2x_r1_r1_cont_slice_13_split_1
I0417 17:05:43.597241 25260 net.cpp:122] Setting up cont_14_lstm2x_r1_r1_cont_slice_13_split
I0417 17:05:43.597246 25260 net.cpp:129] Top shape: 1 38 (38)
I0417 17:05:43.597249 25260 net.cpp:129] Top shape: 1 38 (38)
I0417 17:05:43.597252 25260 net.cpp:137] Memory required for data: 32738976
I0417 17:05:43.597256 25260 layer_factory.hpp:77] Creating layer cont_15_lstm2x_r1_r1_cont_slice_14_split
I0417 17:05:43.597261 25260 net.cpp:84] Creating Layer cont_15_lstm2x_r1_r1_cont_slice_14_split
I0417 17:05:43.597272 25260 net.cpp:406] cont_15_lstm2x_r1_r1_cont_slice_14_split <- cont_15
I0417 17:05:43.597280 25260 net.cpp:380] cont_15_lstm2x_r1_r1_cont_slice_14_split -> cont_15_lstm2x_r1_r1_cont_slice_14_split_0
I0417 17:05:43.597290 25260 net.cpp:380] cont_15_lstm2x_r1_r1_cont_slice_14_split -> cont_15_lstm2x_r1_r1_cont_slice_14_split_1
I0417 17:05:43.597318 25260 net.cpp:122] Setting up cont_15_lstm2x_r1_r1_cont_slice_14_split
I0417 17:05:43.597323 25260 net.cpp:129] Top shape: 1 38 (38)
I0417 17:05:43.597326 25260 net.cpp:129] Top shape: 1 38 (38)
I0417 17:05:43.597331 25260 net.cpp:137] Memory required for data: 32739280
I0417 17:05:43.597333 25260 layer_factory.hpp:77] Creating layer cont_16_lstm2x_r1_r1_cont_slice_15_split
I0417 17:05:43.597337 25260 net.cpp:84] Creating Layer cont_16_lstm2x_r1_r1_cont_slice_15_split
I0417 17:05:43.597342 25260 net.cpp:406] cont_16_lstm2x_r1_r1_cont_slice_15_split <- cont_16
I0417 17:05:43.597350 25260 net.cpp:380] cont_16_lstm2x_r1_r1_cont_slice_15_split -> cont_16_lstm2x_r1_r1_cont_slice_15_split_0
I0417 17:05:43.597358 25260 net.cpp:380] cont_16_lstm2x_r1_r1_cont_slice_15_split -> cont_16_lstm2x_r1_r1_cont_slice_15_split_1
I0417 17:05:43.597386 25260 net.cpp:122] Setting up cont_16_lstm2x_r1_r1_cont_slice_15_split
I0417 17:05:43.597391 25260 net.cpp:129] Top shape: 1 38 (38)
I0417 17:05:43.597394 25260 net.cpp:129] Top shape: 1 38 (38)
I0417 17:05:43.597398 25260 net.cpp:137] Memory required for data: 32739584
I0417 17:05:43.597400 25260 layer_factory.hpp:77] Creating layer cont_17_lstm2x_r1_r1_cont_slice_16_split
I0417 17:05:43.597405 25260 net.cpp:84] Creating Layer cont_17_lstm2x_r1_r1_cont_slice_16_split
I0417 17:05:43.597410 25260 net.cpp:406] cont_17_lstm2x_r1_r1_cont_slice_16_split <- cont_17
I0417 17:05:43.597416 25260 net.cpp:380] cont_17_lstm2x_r1_r1_cont_slice_16_split -> cont_17_lstm2x_r1_r1_cont_slice_16_split_0
I0417 17:05:43.597424 25260 net.cpp:380] cont_17_lstm2x_r1_r1_cont_slice_16_split -> cont_17_lstm2x_r1_r1_cont_slice_16_split_1
I0417 17:05:43.597452 25260 net.cpp:122] Setting up cont_17_lstm2x_r1_r1_cont_slice_16_split
I0417 17:05:43.597458 25260 net.cpp:129] Top shape: 1 38 (38)
I0417 17:05:43.597460 25260 net.cpp:129] Top shape: 1 38 (38)
I0417 17:05:43.597463 25260 net.cpp:137] Memory required for data: 32739888
I0417 17:05:43.597466 25260 layer_factory.hpp:77] Creating layer cont_18_lstm2x_r1_r1_cont_slice_17_split
I0417 17:05:43.597471 25260 net.cpp:84] Creating Layer cont_18_lstm2x_r1_r1_cont_slice_17_split
I0417 17:05:43.597476 25260 net.cpp:406] cont_18_lstm2x_r1_r1_cont_slice_17_split <- cont_18
I0417 17:05:43.597482 25260 net.cpp:380] cont_18_lstm2x_r1_r1_cont_slice_17_split -> cont_18_lstm2x_r1_r1_cont_slice_17_split_0
I0417 17:05:43.597489 25260 net.cpp:380] cont_18_lstm2x_r1_r1_cont_slice_17_split -> cont_18_lstm2x_r1_r1_cont_slice_17_split_1
I0417 17:05:43.597518 25260 net.cpp:122] Setting up cont_18_lstm2x_r1_r1_cont_slice_17_split
I0417 17:05:43.597525 25260 net.cpp:129] Top shape: 1 38 (38)
I0417 17:05:43.597527 25260 net.cpp:129] Top shape: 1 38 (38)
I0417 17:05:43.597530 25260 net.cpp:137] Memory required for data: 32740192
I0417 17:05:43.597534 25260 layer_factory.hpp:77] Creating layer cont_19_lstm2x_r1_r1_cont_slice_18_split
…
I0417 17:05:44.166961 25260 net.cpp:380] h_58_lstm2x_r1_r1_unit_58_1_split -> h_58_lstm2x_r1_r1_unit_58_1_split_1
I0417 17:05:44.166981 25260 net.cpp:122] Setting up h_58_lstm2x_r1_r1_unit_58_1_split
I0417 17:05:44.166985 25260 net.cpp:129] Top shape: 1 8 100 (800)
I0417 17:05:44.166988 25260 net.cpp:129] Top shape: 1 8 100 (800)
I0417 17:05:44.166990 25260 net.cpp:137] Memory required for data: 10844160
I0417 17:05:44.166992 25260 layer_factory.hpp:77] Creating layer lstm2x_r1_r1_h_conted_58
I0417 17:05:44.166996 25260 net.cpp:84] Creating Layer lstm2x_r1_r1_h_conted_58
I0417 17:05:44.166999 25260 net.cpp:406] lstm2x_r1_r1_h_conted_58 <- h_58_lstm2x_r1_r1_unit_58_1_split_0
I0417 17:05:44.167002 25260 net.cpp:406] lstm2x_r1_r1_h_conted_58 <- cont_59_lstm2x_r1_r1_cont_slice_58_split_0
I0417 17:05:44.167006 25260 net.cpp:380] lstm2x_r1_r1_h_conted_58 -> h_conted_58
I0417 17:05:44.167047 25260 net.cpp:122] Setting up lstm2x_r1_r1_h_conted_58
I0417 17:05:44.167052 25260 net.cpp:129] Top shape: 1 8 100 (800)
I0417 17:05:44.167054 25260 net.cpp:137] Memory required for data: 10847360
I0417 17:05:44.167057 25260 layer_factory.hpp:77] Creating layer lstm2x_r1_r1_transform_59
I0417 17:05:44.167062 25260 net.cpp:84] Creating Layer lstm2x_r1_r1_transform_59
I0417 17:05:44.167064 25260 net.cpp:406] lstm2x_r1_r1_transform_59 <- h_conted_58
I0417 17:05:44.167068 25260 net.cpp:380] lstm2x_r1_r1_transform_59 -> W_hc_h_58
I0417 17:05:44.167256 25260 net.cpp:122] Setting up lstm2x_r1_r1_transform_59
I0417 17:05:44.167261 25260 net.cpp:129] Top shape: 1 8 400 (3200)
I0417 17:05:44.167263 25260 net.cpp:137] Memory required for data: 10860160
I0417 17:05:44.167266 25260 net.cpp:465] Sharing parameters 'W_hc' owned by layer 'lstm2x_r1_r1_transform_1', param index 0
I0417 17:05:44.167268 25260 layer_factory.hpp:77] Creating layer lstm2x_r1_r1_gate_input_59
I0417 17:05:44.167273 25260 net.cpp:84] Creating Layer lstm2x_r1_r1_gate_input_59
I0417 17:05:44.167275 25260 net.cpp:406] lstm2x_r1_r1_gate_input_59 <- W_hc_h_58
I0417 17:05:44.167279 25260 net.cpp:406] lstm2x_r1_r1_gate_input_59 <- W_xc_x_59
I0417 17:05:44.167282 25260 net.cpp:380] lstm2x_r1_r1_gate_input_59 -> gate_input_59
I0417 17:05:44.167299 25260 net.cpp:122] Setting up lstm2x_r1_r1_gate_input_59
I0417 17:05:44.167304 25260 net.cpp:129] Top shape: 1 8 400 (3200)
I0417 17:05:44.167304 25260 net.cpp:137] Memory required for data: 10872960
I0417 17:05:44.167306 25260 layer_factory.hpp:77] Creating layer lstm2x_r1_r1_unit_59
I0417 17:05:44.167310 25260 net.cpp:84] Creating Layer lstm2x_r1_r1_unit_59
I0417 17:05:44.167313 25260 net.cpp:406] lstm2x_r1_r1_unit_59 <- c_58
I0417 17:05:44.167316 25260 net.cpp:406] lstm2x_r1_r1_unit_59 <- gate_input_59
I0417 17:05:44.167321 25260 net.cpp:406] lstm2x_r1_r1_unit_59 <- cont_59_lstm2x_r1_r1_cont_slice_58_split_1
I0417 17:05:44.167325 25260 net.cpp:380] lstm2x_r1_r1_unit_59 -> c_59
I0417 17:05:44.167330 25260 net.cpp:380] lstm2x_r1_r1_unit_59 -> h_59
I0417 17:05:44.167367 25260 net.cpp:122] Setting up lstm2x_r1_r1_unit_59
I0417 17:05:44.167372 25260 net.cpp:129] Top shape: 1 8 100 (800)
I0417 17:05:44.167374 25260 net.cpp:129] Top shape: 1 8 100 (800)
I0417 17:05:44.167377 25260 net.cpp:137] Memory required for data: 10879360
I0417 17:05:44.167379 25260 layer_factory.hpp:77] Creating layer h_59_lstm2x_r1_r1_unit_59_1_split
I0417 17:05:44.167383 25260 net.cpp:84] Creating Layer h_59_lstm2x_r1_r1_unit_59_1_split
I0417 17:05:44.167385 25260 net.cpp:406] h_59_lstm2x_r1_r1_unit_59_1_split <- h_59
I0417 17:05:44.167389 25260 net.cpp:380] h_59_lstm2x_r1_r1_unit_59_1_split -> h_59_lstm2x_r1_r1_unit_59_1_split_0
I0417 17:05:44.167393 25260 net.cpp:380] h_59_lstm2x_r1_r1_unit_59_1_split -> h_59_lstm2x_r1_r1_unit_59_1_split_1
I0417 17:05:44.167417 25260 net.cpp:122] Setting up h_59_lstm2x_r1_r1_unit_59_1_split
I0417 17:05:44.167420 25260 net.cpp:129] Top shape: 1 8 100 (800)
I0417 17:05:44.167423 25260 net.cpp:129] Top shape: 1 8 100 (800)
I0417 17:05:44.167425 25260 net.cpp:137] Memory required for data: 10885760
I0417 17:05:44.167428 25260 layer_factory.hpp:77] Creating layer lstm2x_r1_r1_h_conted_59
I0417 17:05:44.167430 25260 net.cpp:84] Creating Layer lstm2x_r1_r1_h_conted_59
I0417 17:05:44.167434 25260 net.cpp:406] lstm2x_r1_r1_h_conted_59 <- h_59_lstm2x_r1_r1_unit_59_1_split_0
I0417 17:05:44.167438 25260 net.cpp:406] lstm2x_r1_r1_h_conted_59 <- cont_60_lstm2x_r1_r1_cont_slice_59_split_0
I0417 17:05:44.167441 25260 net.cpp:380] lstm2x_r1_r1_h_conted_59 -> h_conted_59
I0417 17:05:44.167481 25260 net.cpp:122] Setting up lstm2x_r1_r1_h_conted_59
I0417 17:05:44.167486 25260 net.cpp:129] Top shape: 1 8 100 (800)
I0417 17:05:44.167488 25260 net.cpp:137] Memory required for data: 10888960
I0417 17:05:44.167490 25260 layer_factory.hpp:77] Creating layer lstm2x_r1_r1_transform_60
I0417 17:05:44.167515 25260 net.cpp:84] Creating Layer lstm2x_r1_r1_transform_60
I0417 17:05:44.167521 25260 net.cpp:406] lstm2x_r1_r1_transform_60 <- h_conted_59
I0417 17:05:44.167526 25260 net.cpp:380] lstm2x_r1_r1_transform_60 -> W_hc_h_59
I0417 17:05:44.167727 25260 net.cpp:122] Setting up lstm2x_r1_r1_transform_60
I0417 17:05:44.167732 25260 net.cpp:129] Top shape: 1 8 400 (3200)
I0417 17:05:44.167734 25260 net.cpp:137] Memory required for data: 10901760
I0417 17:05:44.167737 25260 net.cpp:465] Sharing parameters 'W_hc' owned by layer 'lstm2x_r1_r1_transform_1', param index 0
I0417 17:05:44.167739 25260 layer_factory.hpp:77] Creating layer lstm2x_r1_r1_gate_input_60
I0417 17:05:44.167743 25260 net.cpp:84] Creating Layer lstm2x_r1_r1_gate_input_60
I0417 17:05:44.167747 25260 net.cpp:406] lstm2x_r1_r1_gate_input_60 <- W_hc_h_59
I0417 17:05:44.167749 25260 net.cpp:406] lstm2x_r1_r1_gate_input_60 <- W_xc_x_60
I0417 17:05:44.167754 25260 net.cpp:380] lstm2x_r1_r1_gate_input_60 -> gate_input_60
I0417 17:05:44.167769 25260 net.cpp:122] Setting up lstm2x_r1_r1_gate_input_60
I0417 17:05:44.167774 25260 net.cpp:129] Top shape: 1 8 400 (3200)
I0417 17:05:44.167776 25260 net.cpp:137] Memory required for data: 10914560
I0417 17:05:44.167778 25260 layer_factory.hpp:77] Creating layer lstm2x_r1_r1_unit_60
I0417 17:05:44.167781 25260 net.cpp:84] Creating Layer lstm2x_r1_r1_unit_60
I0417 17:05:44.167784 25260 net.cpp:406] lstm2x_r1_r1_unit_60 <- c_59
I0417 17:05:44.167788 25260 net.cpp:406] lstm2x_r1_r1_unit_60 <- gate_input_60
I0417 17:05:44.167790 25260 net.cpp:406] lstm2x_r1_r1_unit_60 <- cont_60_lstm2x_r1_r1_cont_slice_59_split_1
I0417 17:05:44.167795 25260 net.cpp:380] lstm2x_r1_r1_unit_60 -> c_60
I0417 17:05:44.167800 25260 net.cpp:380] lstm2x_r1_r1_unit_60 -> h_60
I0417 17:05:44.167830 25260 net.cpp:122] Setting up lstm2x_r1_r1_unit_60
I0417 17:05:44.167834 25260 net.cpp:129] Top shape: 1 8 100 (800)
I0417 17:05:44.167836 25260 net.cpp:129] Top shape: 1 8 100 (800)
I0417 17:05:44.167838 25260 net.cpp:137] Memory required for data: 10920960
I0417 17:05:44.167840 25260 layer_factory.hpp:77] Creating layer lstm2x_r1_r1_
I0417 17:05:44.167843 25260 net.cpp:84] Creating Layer lstm2x_r1_r1_
I0417 17:05:44.167853 25260 net.cpp:406] lstm2x_r1_r1_ <- c_60
I0417 17:05:44.167857 25260 net.cpp:380] lstm2x_r1_r1_ -> c_T
I0417 17:05:44.167873 25260 net.cpp:122] Setting up lstm2x_r1_r1_
I0417 17:05:44.167877 25260 net.cpp:129] Top shape: 1 8 100 (800)
I0417 17:05:44.167879 25260 net.cpp:137] Memory required for data: 10924160
I0417 17:05:44.167881 25260 layer_factory.hpp:77] Creating layer lstm2x_r1_r1_h_concat
I0417 17:05:44.167891 25260 net.cpp:84] Creating Layer lstm2x_r1_r1_h_concat
I0417 17:05:44.167896 25260 net.cpp:406] lstm2x_r1_r1_h_concat <- h_1_lstm2x_r1_r1_unit_1_1_split_1
I0417 17:05:44.167899 25260 net.cpp:406] lstm2x_r1_r1_h_concat <- h_2_lstm2x_r1_r1_unit_2_1_split_1
…
I0417 17:05:44.169375 25260 net.cpp:200] lstm2x_r1_r1_ does not need backward computation.
I0417 17:05:44.169376 25260 net.cpp:242] This network produces output c_T
I0417 17:05:44.169379 25260 net.cpp:242] This network produces output h_pseudoloss
I0417 17:05:44.171159 25260 net.cpp:255] Network initialization done.
I0417 17:05:44.171607 25260 recurrent_layer.cpp:150] Adding parameter 0: W_xc
I0417 17:05:44.171613 25260 recurrent_layer.cpp:150] Adding parameter 1: b_c
I0417 17:05:44.171615 25260 recurrent_layer.cpp:150] Adding parameter 2: W_hc
I0417 17:05:44.171947 25260 net.cpp:122] Setting up lstm2x_r1_r1
I0417 17:05:44.171953 25260 net.cpp:129] Top shape: 60 8 100 (48000)
I0417 17:05:44.171957 25260 net.cpp:137] Memory required for data: 768323328
I0417 17:05:44.171962 25260 layer_factory.hpp:77] Creating layer lstm-reverse2
I0417 17:05:44.171967 25260 net.cpp:84] Creating Layer lstm-reverse2
I0417 17:05:44.171972 25260 net.cpp:406] lstm-reverse2 <- lstm2x
I0417 17:05:44.171975 25260 net.cpp:380] lstm-reverse2 -> rlstmx
I0417 17:05:44.172013 25260 net.cpp:122] Setting up lstm-reverse2
I0417 17:05:44.172017 25260 net.cpp:129] Top shape: 60 8 100 (48000)
I0417 17:05:44.172019 25260 net.cpp:137] Memory required for data: 768515328
I0417 17:05:44.172022 25260 layer_factory.hpp:77] Creating layer lstm1x_r1_r1
I0417 17:05:44.172039 25260 net.cpp:84] Creating Layer lstm1x_r1_r1
I0417 17:05:44.172062 25260 net.cpp:406] lstm1x_r1_r1 <- permuted_data_permuted_data_0_split_1
I0417 17:05:44.172066 25260 net.cpp:406] lstm1x_r1_r1 <- indicator_indicator_0_split_1
I0417 17:05:44.172071 25260 net.cpp:380] lstm1x_r1_r1 -> lstm1x
I0417 17:05:44.172076 25260 recurrent_layer.cpp:20] Initializing recurrent layer: assuming input batch contains 60 timesteps of 8 independent streams.
I0417 17:05:44.173085 25260 net.cpp:51] Initializing net from parameters: 
layer {
  name: "lstm1x_r1_r1_"
  type: "Input"
  top: "x"
  top: "cont"
  input_param {
    shape {
      dim: 60
      dim: 8
      dim: 512
      dim: 7
    }
    shape {
      dim: 60
      dim: 8
    }
  }
}
layer {
  name: "lstm1x_r1_r1_"
  type: "Input"
  top: "c_0"
  top: "h_0"
  input_param {
    shape {
      dim: 1
      dim: 8
      dim: 100
    }
    shape {
      dim: 1
      dim: 8
      dim: 100
    }
  }
}
layer {
  name: "lstm1x_r1_r1_cont_slice"
  type: "Slice"
  bottom: "cont"
  top: "cont_1"
  top: "cont_2"
  top: "cont_3"
  top: "cont_4"
  top: "cont_5"
  top: "cont_6"
  top: "cont_7"
  top: "cont_8"
  top: "cont_9"
  top: "cont_10"
  top: "cont_11"
  top: "cont_12"
  top: "cont_13"
  top: "cont_14"
  top: "cont_15"
  top: "cont_16"
  top: "cont_17"
  top: "cont_18"
  top: "cont_19"
  top: "cont_20"
  top: "cont_21"
  top: "cont_22"
  top: "cont_23"
  top: "cont_24"
  top: "cont_25"
  top: "cont_26"
  top: "cont_27"
  top: "cont_28"
  top: "cont_29"
  top: "cont_30"
  top: "cont_31"
  top: "cont_32"
  top: "cont_33"
  top: "cont_34"
  top: "cont_35"
  top: "cont_36"
  top: "cont_37"
  top: "cont_38"
  top: "cont_39"
  top: "cont_40"
  top: "cont_41"
  top: "cont_42"
  top: "cont_43"
  top: "cont_44"
  top: "cont_45"
  top: "cont_46"
  top: "cont_47"
  top: "cont_48"
  top: "cont_49"
  top: "cont_50"
  top: "cont_51"
  top: "cont_52"
  top: "cont_53"
  top: "cont_54"
  top: "cont_55"
  top: "cont_56"
  top: "cont_57"
  top: "cont_58"
  top: "cont_59"
  top: "cont_60"
  slice_param {
    axis: 0
  }
}
layer {
  name: "lstm1x_r1_r1_x_transform"
  type: "InnerProduct"
  bottom: "x"
  top: "W_xc_x"
  param {
    name: "W_xc"
  }
  param {
    name: "b_c"
  }
  propagate_down: true
  inner_product_param {
    num_output: 400
    bias_term: true
    weight_filler {
      type: "xavier"
    }
    bias_filler {
      type: "constant"
      value: 0
    }
    axis: 2
  }
}
layer {
  name: "lstm1x_r1_r1_W_xc_x_slice"
  type: "Slice"
  bottom: "W_xc_x"
  top: "W_xc_x_1"
  top: "W_xc_x_2"
  top: "W_xc_x_3"
  top: "W_xc_x_4"
  top: "W_xc_x_5"
  top: "W_xc_x_6"
  top: "W_xc_x_7"
  top: "W_xc_x_8"
  top: "W_xc_x_9"
  top: "W_xc_x_10"
  top: "W_xc_x_11"
  top: "W_xc_x_12"
  top: "W_xc_x_13"
  top: "W_xc_x_14"
  top: "W_xc_x_15"
  top: "W_xc_x_16"
  top: "W_xc_x_17"
  top: "W_xc_x_18"
  top: "W_xc_x_19"
  top: "W_xc_x_20"
  top: "W_xc_x_21"
  top: "W_xc_x_22"
  top: "W_xc_x_23"
  top: "W_xc_x_24"
  top: "W_xc_x_25"
  top: "W_xc_x_26"
  top: "W_xc_x_27"
  top: "W_xc_x_28"
  top: "W_xc_x_29"
  top: "W_xc_x_30"
  top: "W_xc_x_31"
  top: "W_xc_x_32"
  top: "W_xc_x_33"
  top: "W_xc_x_34"
  top: "W_xc_x_35"
  top: "W_xc_x_36"
  top: "W_xc_x_37"
  top: "W_xc_x_38"
  top: "W_xc_x_39"
  top: "W_xc_x_40"
  top: "W_xc_x_41"
  top: "W_xc_x_42"
  top: "W_xc_x_43"
  top: "W_xc_x_44"
  top: "W_xc_x_45"
  top: "W_xc_x_46"
  top: "W_xc_x_47"
  top: "W_xc_x_48"
  top: "W_xc_x_49"
  top: "W_xc_x_50"
  top: "W_xc_x_51"
  top: "W_xc_x_52"
  top: "W_xc_x_53"
  top: "W_xc_x_54"
  top: "W_xc_x_55"
  top: "W_xc_x_56"
  top: "W_xc_x_57"
  top: "W_xc_x_58"
  top: "W_xc_x_59"
  top: "W_xc_x_60"
  slice_param {
    axis: 0
  }
}
layer {
  name: "lstm1x_r1_r1_h_conted_0"
  type: "Scale"
  bottom: "h_0"
  bottom: "cont_1"
  top: "h_conted_0"
  scale_param {
    axis: 0
  }
}
layer {
  name: "lstm1x_r1_r1_transform_1"
  type: "InnerProduct"
  bottom: "h_conted_0"
  top: "W_hc_h_0"
  param {
    name: "W_hc"
  }
  inner_product_param {
    num_output: 400
    bias_term: false
    weight_filler {
      type: "xavier"
    }
    axis: 2
  }
}
layer {
  name: "lstm1x_r1_r1_gate_input_1"
  type: "Eltwise"
  bottom: "W_hc_h_0"
  bottom: "W_xc_x_1"
  top: "gate_input_1"
  eltwise_param {
    operation: SUM
  }
}
layer {
  name: "lstm1x_r1_r1_unit_1"
  type: "LSTMUnit"
  bottom: "c_0"
  bottom: "gate_input_1"
  bottom: "cont_1"
  top: "c_1"
  top: "h_1"
}
layer {
  name: "lstm1x_r1_r1_h_conted_1"
  type: "Scale"
  bottom: "h_1"
  bottom: "cont_2"
  top: "h_conted_1"
  scale_param {
    axis: 0
  }
}
layer {
  name: "lstm1x_r1_r1_transform_2"
  type: "InnerProduct"
  bottom: "h_conted_1"
  top: "W_hc_h_1"
  param {
    name: "W_hc"
  }
  inner_product_param {
    num_output: 400
    bias_term: false
    weight_filler {
      type: "xavier"
    }
    axis: 2
  }
}
layer {
  name: "lstm1x_r1_r1_gate_input_2"
  type: "Eltwise"
  bottom: "W_hc_h_1"
  bottom: "W_xc_x_2"
  top: "gate_input_2"
  eltwise_param {
    operation: SUM
  }
}
layer {
  name: "lstm1x_r1_r1_unit_2"
  type: "LSTMUnit"
  bottom: "c_1"
  bottom: "gate_input_2"
  bottom: "cont_2"
  top: "c_2"
  top: "h_2"
}
layer {
  name: "lstm1x_r1_r1_h_conted_2"
  type: "Scale"
  bottom: "h_2"
  bottom: "cont_3"
  top: "h_conted_2"
  scale_param {
    axis: 0
  }
}
layer {
  name: "lstm1x_r1_r1_transform_3"
  type: "InnerProduct"
  bottom: "h_conted_2"
  top: "W_hc_h_2"
  param {
    name: "W_hc"
  }
  inner_product_param {
    num_output: 400
    bias_term: false
    weight_filler {
      type: "xavier"
    }
    axis: 2
  }
}
layer {
  name: "lstm1x_r1_r1_gate_input_3"
  type: "Eltwise"
  bottom: "W_hc_h_2"
  bottom: "W_xc_x_3"
  top: "gate_input_3"
  eltwise_param {
    operation: SUM
  }
}
layer {
  name: "lstm1x_r1_r1_unit_3"
  type: "LSTMUnit"
  bottom: "c_2"
  bottom: "gate_input_3"
  bottom: "cont_3"
  top: "c_3"
  top: "h_3"
}
layer {
  name: "lstm1x_r1_r1_h_conted_3"
  type: "Scale"
  bottom: "h_3"
  bottom: "cont_4"
  top: "h_conted_3"
  scale_param {
    axis: 0
  }
}
layer {
  name: "lstm1x_r1_r1_transform_4"
  type: "InnerProduct"
  bottom: "h_conted_3"
  top: "W_hc_h_3"
  param {
    name: "W_hc"
  }
  inner_product_param {
    num_output: 400
    bias_term: false
    weight_filler {
      type: "xavier"
    }
    axis: 2
  }
}
layer {
  name: "lstm1x_r1_r1_gate_input_4"
  type: "Eltwise"
  bottom: "W_hc_h_3"
  bottom: "W_xc_x_4"
  top: "gate_input_4"
  eltwise_param {
    operation: SUM
  }
}
layer {
  name: "lstm1x_r1_r1_unit_4"
  type: "LSTMUnit"
  bottom: "c_3"
  bottom: "gate_input_4"
  bottom: "cont_4"
  top: "c_4"
  top: "h_4"
}
layer {
  name: "lstm1x_r1_r1_h_conted_4"
  type: "Scale"
  bottom: "h_4"
  bottom: "cont_5"
  top: "h_conted_4"
  scale_param {
    axis: 0
  }
}
layer {
  name: "lstm1x_r1_r1_transform_5"
  type: "InnerProduct"
  bottom: "h_conted_4"
  top: "W_hc_h_4"
  param {
    name: "W_hc"
  }
  inner_product_param {
    num_output: 400
    bias_term: false
    weight_filler {
      type: "xavier"
    }
    axis: 2
  }
}
layer {
  name: "lstm1x_r1_r1_gate_input_5"
  type: "Eltwise"
  bottom: "W_hc_h_4"
  bottom: "W_xc_x_5"
  top: "gate_input_5"
  eltwise_param {
    operation: SUM
  }
}
layer {
  name: "lstm1x_r1_r1_unit_5"
  type: "LSTMUnit"
  bottom: "c_4"
  bottom: "gate_input_5"
  bottom: "cont_5"
  top: "c_5"
  top: "h_5"
}
layer {
  name: "lstm1x_r1_r1_h_conted_5"
  type: "Scale"
  bottom: "h_5"
  bottom: "cont_6"
  top: "h_conted_5"
  scale_param {
    axis: 0
  }
}
layer {
  name: "lstm1x_r1_r1_transform_6"
  type: "InnerProduct"
  bottom: "h_conted_5"
  top: "W_hc_h_5"
  param {
    name: "W_hc"
  }
  inner_product_param {
    num_output: 400
    bias_term: false
    weight_filler {
      type: "xavier"
    }
    axis: 2
  }
}
layer {
  name: "lstm1x_r1_r1_gate_input_6"
  type: "Eltwise"
  bottom: "W_hc_h_5"
  bottom: "W_xc_x_6"
  top: "gate_input_6"
  eltwise_param {
    operation: SUM
  }
}
layer {
  name: "lstm1x_r1_r1_unit_6"
  type: "LSTMUnit"
  bottom: "c_5"
  bottom: "gate_input_6"
  bottom: "cont_6"
  top: "c_6"
  top: "h_6"
}
layer {
  name: "lstm1x_r1_r1_h_conted_6"
  type: "Scale"
  bottom: "h_6"
  bottom: "cont_7"
  top: "h_conted_6"
  scale_param {
    axis: 0
  }
}
layer {
  name: "lstm1x_r1_r1_transform_7"
  type: "InnerProduct"
  bottom: "h_conted_6"
  top: "W_hc_h_6"
  param {
    name: "W_hc"
  }
  inner_product_param {
    num_output: 400
    bias_term: false
    weight_filler {
      type: "xavier"
    }
    axis: 2
  }
}
layer {
  name: "lstm1x_r1_r1_gate_input_7"
  type: "Eltwise"
  bottom: "W_hc_h_6"
  bottom: "W_xc_x_7"
  top: "gate_input_7"
  eltwise_param {
    operation: SUM
  }
}
layer {
  name: "lstm1x_r1_r1_unit_7"
  type: "LSTMUnit"
  bottom: "c_6"
  bottom: "gate_input_7"
  bottom: "cont_7"
  top: "c_7"
  top: "h_7"
}
layer {
  name: "lstm1x_r1_r1_h_conted_7"
  type: "Scale"
  bottom: "h_7"
  bottom: "cont_8"
  top: "h_conted_7"
  scale_param {
    axis: 0
  }
}
layer {
  name: "lstm1x_r1_r1_transform_8"
  type: "InnerProduct"
  bottom: "h_conted_7"
  top: "W_hc_h_7"
  param {
    name: "W_hc"
  }
  inner_product_param {
    num_output: 400
    bias_term: false
    weight_filler {
      type: "xavier"
    }
    axis: 2
  }
}
layer {
  name: "lstm1x_r1_r1_gate_input_8"
  type: "Eltwise"
  bottom: "W_hc_h_7"
  bottom: "W_xc_x_8"
  top: "gate_input_8"
  eltwise_param {
    operation: SUM
  }
}
layer {
  name: "lstm1x_r1_r1_unit_8"
  type: "LSTMUnit"
  bottom: "c_7"
  bottom: "gate_input_8"
  bottom: "cont_8"
  top: "c_8"
  top: "h_8"
}
layer {
  name: "lstm1x_r1_r1_h_conted_8"
  type: "Scale"
  bottom: "h_8"
  bottom: "cont_9"
  top: "h_conted_8"
  scale_param {
    axis: 0
  }
}
layer {
  name: "lstm1x_r1_r1_transform_9"
  type: "InnerProduct"
  bottom: "h_conted_8"
  top: "W_hc_h_8"
  param {
    name: "W_hc"
  }
  inner_product_param {
    num_output: 400
    bias_term: false
    weight_filler {
      type: "xavier"
    }
    axis: 2
  }
}
layer {
  name: "lstm1x_r1_r1_gate_input_9"
  type: "Eltwise"
  bottom: "W_hc_h_8"
  bottom: "W_xc_x_9"
  top: "gate_input_9"
  eltwise_param {
    operation: SUM
  }
}
layer {
  name: "lstm1x_r1_r1_unit_9"
  type: "LSTMUnit"
  bottom: "c_8"
  bottom: "gate_input_9"
  bottom: "cont_9"
  top: "c_9"
  top: "h_9"
}
layer {
  name: "lstm1x_r1_r1_h_conted_9"
  type: "Scale"
  bottom: "h_9"
  bottom: "cont_10"
  top: "h_conted_9"
  scale_param {
    axis: 0
  }
}
layer {
  name: "lstm1x_r1_r1_transform_10"
  type: "InnerProduct"
  bottom: "h_conted_9"
  top: "W_hc_h_9"
  param {
    name: "W_hc"
  }
  inner_product_param {
    num_output: 400
    bias_term: false
    weight_filler {
      type: "xavier"
    }
    axis: 2
  }
}
layer {
  name: "lstm1x_r1_r1_gate_input_10"
  type: "Eltwise"
  bottom: "W_hc_h_9"
  bottom: "W_xc_x_10"
  top: "gate_input_10"
  eltwise_param {
    operation: SUM
  }
}
layer {
  name: "lstm1x_r1_r1_unit_10"
  type: "LSTMUnit"
  bottom: "c_9"
  bottom: "gate_input_10"
  bottom: "cont_10"
  top: "c_10"
  top: "h_10"
}
layer {
  name: "lstm1x_r1_r1_h_conted_10"
  type: "Scale"
  bottom: "h_10"
  bottom: "cont_11"
  top: "h_conted_10"
  scale_param {
    axis: 0
  }
}
layer {
  name: "lstm1x_r1_r1_transform_11"
  type: "InnerProduct"
  bottom: "h_conted_10"
  top: "W_hc_h_10"
  param {
    name: "W_hc"
  }
  inner_product_param {
    num_output: 400
    bias_term: false
    weight_filler {
      type: "xavier"
    }
    axis: 2
  }
}
layer {
  name: "lstm1x_r1_r1_gate_input_11"
  type: "Eltwise"
  bottom: "W_hc_h_10"
  bottom: "W_xc_x_11"
  top: "gate_input_11"
  eltwise_param {
    operation: SUM
  }
}
layer {
  name: "lstm1x_r1_r1_unit_11"
  type: "LSTMUnit"
  bottom: "c_10"
  bottom: "gate_input_11"
  bottom: "cont_11"
  top: "c_11"
  top: "h_11"
}
layer {
  name: "lstm1x_r1_r1_h_conted_11"
  type: "Scale"
  bottom: "h_11"
  bottom: "cont_12"
  top: "h_conted_11"
  scale_param {
    axis: 0
  }
}
layer {
  name: "lstm1x_r1_r1_transform_12"
  type: "InnerProduct"
  bottom: "h_conted_11"
  top: "W_hc_h_11"
  param {
    name: "W_hc"
  }
  inner_product_param {
    num_output: 400
    bias_term: false
    weight_filler {
      type: "xavier"
    }
    axis: 2
  }
}
layer {
  name: "lstm1x_r1_r1_gate_input_12"
  type: "Eltwise"
  bottom: "W_hc_h_11"
  bottom: "W_xc_x_12"
  top: "gate_input_12"
  eltwise_param {
    operation: SUM
  }
}
layer {
  name: "lstm1x_r1_r1_unit_12"
  type: "LSTMUnit"
  bottom: "c_11"
  bottom: "gate_input_12"
  bottom: "cont_12"
  top: "c_12"
  top: "h_12"
}
layer {
  name: "lstm1x_r1_r1_h_conted_12"
  type: "Scale"
  bottom: "h_12"
  bottom: "cont_13"
  top: "h_conted_12"
  scale_param {
    axis: 0
  }
}
layer {
  name: "lstm1x_r1_r1_transform_13"
  type: "InnerProduct"
  bottom: "h_conted_12"
  top: "W_hc_h_12"
  param {
    name: "W_hc"
  }
  inner_product_param {
    num_output: 400
    bias_term: false
    weight_filler {
      type: "xavier"
    }
    axis: 2
  }
}
layer {
  name: "lstm1x_r1_r1_gate_input_13"
  type: "Eltwise"
  bottom: "W_hc_h_12"
  bottom: "W_xc_x_13"
  top: "gate_input_13"
  eltwise_param {
    operation: SUM
  }
}
layer {
  name: "lstm1x_r1_r1_unit_13"
  type: "LSTMUnit"
  bottom: "c_12"
  bottom: "gate_input_13"
  bottom: "cont_13"
  top: "c_13"
  top: "h_13"
}
layer {
  name: "lstm1x_r1_r1_h_conted_13"
  type: "Scale"
  bottom: "h_13"
  bottom: "cont_14"
  top: "h_conted_13"
  scale_param {
    axis: 0
  }
}
layer {
  name: "lstm1x_r1_r1_transform_14"
  type: "InnerProduct"
  bottom: "h_conted_13"
  top: "W_hc_h_13"
  param {
    name: "W_hc"
  }
  inner_product_param {
    num_output: 400
    bias_term: false
    weight_filler {
      type: "xavier"
    }
    axis: 2
  }
}
layer {
  name: "lstm1x_r1_r1_gate_input_14"
  type: "Eltwise"
  bottom: "W_hc_h_13"
  bottom: "W_xc_x_14"
  top: "gate_input_14"
  eltwise_param {
    operation: SUM
  }
}
layer {
  name: "lstm1x_r1_r1_unit_14"
  type: "LSTMUnit"
  bottom: "c_13"
  bottom: "gate_input_14"
  bottom: "cont_14"
  top: "c_14"
  top: "h_14"
}
layer {
  name: "lstm1x_r1_r1_h_conted_14"
  type: "Scale"
  bottom: "h_14"
  bottom: "cont_15"
  top: "h_conted_14"
  scale_param {
    axis: 0
  }
}
layer {
  name: "lstm1x_r1_r1_transform_15"
  type: "InnerProduct"
  bottom: "h_conted_14"
  top: "W_hc_h_14"
  param {
    name: "W_hc"
  }
  inner_product_param {
    num_output: 400
    bias_term: false
    weight_filler {
      type: "xavier"
    }
    axis: 2
  }
}
layer {
  name: "lstm1x_r1_r1_gate_input_15"
  type: "Eltwise"
  bottom: "W_hc_h_14"
  bottom: "W_xc_x_15"
  top: "gate_input_15"
  eltwise_param {
    operation: SUM
  }
}
layer {
  name: "lstm1x_r1_r1_unit_15"
  type: "LSTMUnit"
  bottom: "c_14"
  bottom: "gate_input_15"
  bottom: "cont_15"
  top: "c_15"
  top: "h_15"
}
layer {
  name: "lstm1x_r1_r1_h_conted_15"
  type: "Scale"
  bottom: "h_15"
  bottom: "cont_16"
  top: "h_conted_15"
  scale_param {
    axis: 0
  }
}
layer {
  name: "lstm1x_r1_r1_transform_16"
  type: "InnerProduct"
  bottom: "h_conted_15"
  top: "W_hc_h_15"
  param {
    name: "W_hc"
  }
  inner_product_param {
    num_output: 400
    bias_term: false
    weight_filler {
      type: "xavier"
    }
    axis: 2
  }
}
layer {
  name: "lstm1x_r1_r1_gate_input_16"
  type: "Eltwise"
  bottom: "W_hc_h_15"
  bottom: "W_xc_x_16"
  top: "gate_input_16"
  eltwise_param {
    operation: SUM
  }
}
layer {
  name: "lstm1x_r1_r1_unit_16"
  type: "LSTMUnit"
  bottom: "c_15"
  bottom: "gate_input_16"
  bottom: "cont_16"
  top: "c_16"
  top: "h_16"
}
layer {
  name: "lstm1x_r1_r1_h_conted_16"
  type: "Scale"
  bottom: "h_16"
  bottom: "cont_17"
  top: "h_conted_16"
  scale_param {
    axis: 0
  }
}
layer {
  name: "lstm1x_r1_r1_transform_17"
  type: "InnerProduct"
  bottom: "h_conted_16"
  top: "W_hc_h_16"
  param {
    name: "W_hc"
  }
  inner_product_param {
    num_output: 400
    bias_term: false
    weight_filler {
      type: "xavier"
    }
    axis: 2
  }
}
layer {
  name: "lstm1x_r1_r1_gate_input_17"
  type: "Eltwise"
  bottom: "W_hc_h_16"
  bottom: "W_xc_x_17"
  top: "gate_input_17"
  eltwise_param {
    operation: SUM
  }
}
layer {
  name: "lstm1x_r1_r1_unit_17"
  type: "LSTMUnit"
  bottom: "c_16"
  bottom: "gate_input_17"
  bottom: "cont_17"
  top: "c_17"
  top: "h_17"
}
layer {
  name: "lstm1x_r1_r1_h_conted_17"
  type: "Scale"
  bottom: "h_17"
  bottom: "cont_18"
  top: "h_conted_17"
  scale_param {
    axis: 0
  }
}
layer {
  name: "lstm1x_r1_r1_transform_18"
  type: "InnerProduct"
  bottom: "h_conted_17"
  top: "W_hc_h_17"
  param {
    name: "W_hc"
  }
  inner_product_param {
    num_output: 400
    bias_term: false
    weight_filler {
      type: "xavier"
    }
    axis: 2
  }
}
layer {
  name: "lstm1x_r1_r1_gate_input_18"
  type: "Eltwise"
  bottom: "W_hc_h_17"
  bottom: "W_xc_x_18"
  top: "gate_input_18"
  eltwise_param {
    operation: SUM
  }
}
layer {
  name: "lstm1x_r1_r1_unit_18"
  type: "LSTMUnit"
  bottom: "c_17"
  bottom: "gate_input_18"
  bottom: "cont_18"
  top: "c_18"
  top: "h_18"
}
layer {
  name: "lstm1x_r1_r1_h_conted_18"
  type: "Scale"
  bottom: "h_18"
  bottom: "cont_19"
  top: "h_conted_18"
  scale_param {
    axis: 0
  }
}
layer {
  name: "lstm1x_r1_r1_transform_19"
  type: "InnerProduct"
  bottom: "h_conted_18"
  top: "W_hc_h_18"
  param {
    name: "W_hc"
  }
  inner_product_param {
    num_output: 400
    bias_term: false
    weight_filler {
      type: "xavier"
    }
    axis: 2
  }
}
layer {
  name: "lstm1x_r1_r1_gate_input_19"
  type: "Eltwise"
  bottom: "W_hc_h_18"
  bottom: "W_xc_x_19"
  top: "gate_input_19"
  eltwise_param {
    operation: SUM
  }
}
layer {
  name: "lstm1x_r1_r1_unit_19"
  type: "LSTMUnit"
  bottom: "c_18"
  bottom: "gate_input_19"
  bottom: "cont_19"
  top: "c_19"
  top: "h_19"
}
layer {
  name: "lstm1x_r1_r1_h_conted_19"
  type: "Scale"
  bottom: "h_19"
  bottom: "cont_20"
  top: "h_conted_19"
  scale_param {
    axis: 0
  }
}
layer {
  name: "lstm1x_r1_r1_transform_20"
  type: "InnerProduct"
  bottom: "h_conted_19"
  top: "W_hc_h_19"
  param {
    name: "W_hc"
  }
  inner_product_param {
    num_output: 400
    bias_term: false
    weight_filler {
      type: "xavier"
    }
    axis: 2
  }
}
layer {
  name: "lstm1x_r1_r1_gate_input_20"
  type: "Eltwise"
  bottom: "W_hc_h_19"
  bottom: "W_xc_x_20"
  top: "gate_input_20"
  eltwise_param {
    operation: SUM
  }
}
layer {
  name: "lstm1x_r1_r1_unit_20"
  type: "LSTMUnit"
  bottom: "c_19"
  bottom: "gate_input_20"
  bottom: "cont_20"
  top: "c_20"
  top: "h_20"
}
layer {
  name: "lstm1x_r1_r1_h_conted_20"
  type: "Scale"
  bottom: "h_20"
  bottom: "cont_21"
  top: "h_conted_20"
  scale_param {
    axis: 0
  }
}
layer {
  name: "lstm1x_r1_r1_transform_21"
  type: "InnerProduct"
  bottom: "h_conted_20"
  top: "W_hc_h_20"
  param {
    name: "W_hc"
  }
  inner_product_param {
    num_output: 400
    bias_term: false
    weight_filler {
      type: "xavier"
    }
    axis: 2
  }
}
layer {
  name: "lstm1x_r1_r1_gate_input_21"
  type: "Eltwise"
  bottom: "W_hc_h_20"
  bottom: "W_xc_x_21"
  top: "gate_input_21"
  eltwise_param {
    operation: SUM
  }
}
layer {
  name: "lstm1x_r1_r1_unit_21"
  type: "LSTMUnit"
  bottom: "c_20"
  bottom: "gate_input_21"
  bottom: "cont_21"
  top: "c_21"
  top: "h_21"
}
layer {
  name: "lstm1x_r1_r1_h_conted_21"
  type: "Scale"
  bottom: "h_21"
  bottom: "cont_22"
  top: "h_conted_21"
  scale_param {
    axis: 0
  }
}
layer {
  name: "lstm1x_r1_r1_transform_22"
  type: "InnerProduct"
  bottom: "h_conted_21"
  top: "W_hc_h_21"
  param {
    name: "W_hc"
  }
  inner_product_param {
    num_output: 400
    bias_term: false
    weight_filler {
      type: "xavier"
    }
    axis: 2
  }
}
layer {
  name: "lstm1x_r1_r1_gate_input_22"
  type: "Eltwise"
  bottom: "W_hc_h_21"
  bottom: "W_xc_x_22"
  top: "gate_input_22"
  eltwise_param {
    operation: SUM
  }
}
layer {
  name: "lstm1x_r1_r1_unit_22"
  type: "LSTMUnit"
  bottom: "c_21"
  bottom: "gate_input_22"
  bottom: "cont_22"
  top: "c_22"
  top: "h_22"
}
layer {
  name: "lstm1x_r1_r1_h_conted_22"
  type: "Scale"
  bottom: "h_22"
  bottom: "cont_23"
  top: "h_conted_22"
  scale_param {
    axis: 0
  }
}
layer {
  name: "lstm1x_r1_r1_transform_23"
  type: "InnerProduct"
  bottom: "h_conted_22"
  top: "W_hc_h_22"
  param {
    name: "W_hc"
  }
  inner_product_param {
    num_output: 400
    bias_term: false
    weight_filler {
      type: "xavier"
    }
    axis: 2
  }
}
layer {
  name: "lstm1x_r1_r1_gate_input_23"
  type: "Eltwise"
  bottom: "W_hc_h_22"
  bottom: "W_xc_x_23"
  top: "gate_input_23"
  eltwise_param {
    operation: SUM
  }
}
layer {
  name: "lstm1x_r1_r1_unit_23"
  type: "LSTMUnit"
  bottom: "c_22"
  bottom: "gate_input_23"
  bottom: "cont_23"
  top: "c_23"
  top: "h_23"
}
layer {
  name: "lstm1x_r1_r1_h_conted_23"
  type: "Scale"
  bottom: "h_23"
  bottom: "cont_24"
  top: "h_conted_23"
  scale_param {
    axis: 0
  }
}
layer {
  name: "lstm1x_r1_r1_transform_24"
  type: "InnerProduct"
  bottom: "h_conted_23"
  top: "W_hc_h_23"
  param {
    name: "W_hc"
  }
  inner_product_param {
    num_output: 400
    bias_term: false
    weight_filler {
      type: "xavier"
    }
    axis: 2
  }
}
layer {
  name: "lstm1x_r1_r1_gate_input_24"
  type: "Eltwise"
  bottom: "W_hc_h_23"
  bottom: "W_xc_x_24"
  top: "gate_input_24"
  eltwise_param {
    operation: SUM
  }
}
layer {
  name: "lstm1x_r1_r1_unit_24"
  type: "LSTMUnit"
  bottom: "c_23"
  bottom: "gate_input_24"
  bottom: "cont_24"
  top: "c_24"
  top: "h_24"
}
layer {
  name: "lstm1x_r1_r1_h_conted_24"
  type: "Scale"
  bottom: "h_24"
  bottom: "cont_25"
  top: "h_conted_24"
  scale_param {
    axis: 0
  }
}
layer {
  name: "lstm1x_r1_r1_transform_25"
  type: "InnerProduct"
  bottom: "h_conted_24"
  top: "W_hc_h_24"
  param {
    name: "W_hc"
  }
  inner_product_param {
    num_output: 400
    bias_term: false
    weight_filler {
      type: "xavier"
    }
    axis: 2
  }
}
layer {
  name: "lstm1x_r1_r1_gate_input_25"
  type: "Eltwise"
  bottom: "W_hc_h_24"
  bottom: "W_xc_x_25"
  top: "gate_input_25"
  eltwise_param {
    operation: SUM
  }
}
layer {
  name: "lstm1x_r1_r1_unit_25"
  type: "LSTMUnit"
  bottom: "c_24"
  bottom: "gate_input_25"
  bottom: "cont_25"
  top: "c_25"
  top: "h_25"
}
layer {
  name: "lstm1x_r1_r1_h_conted_25"
  type: "Scale"
  bottom: "h_25"
  bottom: "cont_26"
  top: "h_conted_25"
  scale_param {
    axis: 0
  }
}
layer {
  name: "lstm1x_r1_r1_transform_26"
  type: "InnerProduct"
  bottom: "h_conted_25"
  top: "W_hc_h_25"
  param {
    name: "W_hc"
  }
  inner_product_param {
    num_output: 400
    bias_term: false
    weight_filler {
      type: "xavier"
    }
    axis: 2
  }
}
layer {
  name: "lstm1x_r1_r1_gate_input_26"
  type: "Eltwise"
  bottom: "W_hc_h_25"
  bottom: "W_xc_x_26"
  top: "gate_input_26"
  eltwise_param {
    operation: SUM
  }
}
layer {
  name: "lstm1x_r1_r1_unit_26"
  type: "LSTMUnit"
  bottom: "c_25"
  bottom: "gate_input_26"
  bottom: "cont_26"
  top: "c_26"
  top: "h_26"
}
layer {
  name: "lstm1x_r1_r1_h_conted_26"
  type: "Scale"
  bottom: "h_26"
  bottom: "cont_27"
  top: "h_conted_26"
  scale_param {
    axis: 0
  }
}
layer {
  name: "lstm1x_r1_r1_transform_27"
  type: "InnerProduct"
  bottom: "h_conted_26"
  top: "W_hc_h_26"
  param {
    name: "W_hc"
  }
  inner_product_param {
    num_output: 400
    bias_term: false
    weight_filler {
      type: "xavier"
    }
    axis: 2
  }
}
layer {
  name: "lstm1x_r1_r1_gate_input_27"
  type: "Eltwise"
  bottom: "W_hc_h_26"
  bottom: "W_xc_x_27"
  top: "gate_input_27"
  eltwise_param {
    operation: SUM
  }
}
layer {
  name: "lstm1x_r1_r1_unit_27"
  type: "LSTMUnit"
  bottom: "c_26"
  bottom: "gate_input_27"
  bottom: "cont_27"
  top: "c_27"
  top: "h_27"
}
layer {
  name: "lstm1x_r1_r1_h_conted_27"
  type: "Scale"
  bottom: "h_27"
  bottom: "cont_28"
  top: "h_conted_27"
  scale_param {
    axis: 0
  }
}
layer {
  name: "lstm1x_r1_r1_transform_28"
  type: "InnerProduct"
  bottom: "h_conted_27"
  top: "W_hc_h_27"
  param {
    name: "W_hc"
  }
  inner_product_param {
    num_output: 400
    bias_term: false
    weight_filler {
      type: "xavier"
    }
    axis: 2
  }
}
layer {
  name: "lstm1x_r1_r1_gate_input_28"
  type: "Eltwise"
  bottom: "W_hc_h_27"
  bottom: "W_xc_x_28"
  top: "gate_input_28"
  eltwise_param {
    operation: SUM
  }
}
layer {
  name: "lstm1x_r1_r1_unit_28"
  type: "LSTMUnit"
  bottom: "c_27"
  bottom: "gate_input_28"
  bottom: "cont_28"
  top: "c_28"
  top: "h_28"
}
layer {
  name: "lstm1x_r1_r1_h_conted_28"
  type: "Scale"
  bottom: "h_28"
  bottom: "cont_29"
  top: "h_conted_28"
  scale_param {
    axis: 0
  }
}
layer {
  name: "lstm1x_r1_r1_transform_29"
  type: "InnerProduct"
  bottom: "h_conted_28"
  top: "W_hc_h_28"
  param {
    name: "W_hc"
  }
  inner_product_param {
    num_output: 400
    bias_term: false
    weight_filler {
      type: "xavier"
    }
    axis: 2
  }
}
layer {
  name: "lstm1x_r1_r1_gate_input_29"
  type: "Eltwise"
  bottom: "W_hc_h_28"
  bottom: "W_xc_x_29"
  top: "gate_input_29"
  eltwise_param {
    operation: SUM
  }
}
layer {
  name: "lstm1x_r1_r1_unit_29"
  type: "LSTMUnit"
  bottom: "c_28"
  bottom: "gate_input_29"
  bottom: "cont_29"
  top: "c_29"
  top: "h_29"
}
layer {
  name: "lstm1x_r1_r1_h_conted_29"
  type: "Scale"
  bottom: "h_29"
  bottom: "cont_30"
  top: "h_conted_29"
  scale_param {
    axis: 0
  }
}
layer {
  name: "lstm1x_r1_r1_transform_30"
  type: "InnerProduct"
  bottom: "h_conted_29"
  top: "W_hc_h_29"
  param {
    name: "W_hc"
  }
  inner_product_param {
    num_output: 400
    bias_term: false
    weight_filler {
      type: "xavier"
    }
    axis: 2
  }
}
layer {
  name: "lstm1x_r1_r1_gate_input_30"
  type: "Eltwise"
  bottom: "W_hc_h_29"
  bottom: "W_xc_x_30"
  top: "gate_input_30"
  eltwise_param {
    operation: SUM
  }
}
layer {
  name: "lstm1x_r1_r1_unit_30"
  type: "LSTMUnit"
  bottom: "c_29"
  bottom: "gate_input_30"
  bottom: "cont_30"
  top: "c_30"
  top: "h_30"
}
layer {
  name: "lstm1x_r1_r1_h_conted_30"
  type: "Scale"
  bottom: "h_30"
  bottom: "cont_31"
  top: "h_conted_30"
  scale_param {
    axis: 0
  }
}
layer {
  name: "lstm1x_r1_r1_transform_31"
  type: "InnerProduct"
  bottom: "h_conted_30"
  top: "W_hc_h_30"
  param {
    name: "W_hc"
  }
  inner_product_param {
    num_output: 400
    bias_term: false
    weight_filler {
      type: "xavier"
    }
    axis: 2
  }
}
layer {
  name: "lstm1x_r1_r1_gate_input_31"
  type: "Eltwise"
  bottom: "W_hc_h_30"
  bottom: "W_xc_x_31"
  top: "gate_input_31"
  eltwise_param {
    operation: SUM
  }
}
layer {
  name: "lstm1x_r1_r1_unit_31"
  type: "LSTMUnit"
  bottom: "c_30"
  bottom: "gate_input_31"
  bottom: "cont_31"
  top: "c_31"
  top: "h_31"
}
layer {
  name: "lstm1x_r1_r1_h_conted_31"
  type: "Scale"
  bottom: "h_31"
  bottom: "cont_32"
  top: "h_conted_31"
  scale_param {
    axis: 0
  }
}
layer {
  name: "lstm1x_r1_r1_transform_32"
  type: "InnerProduct"
  bottom: "h_conted_31"
  top: "W_hc_h_31"
  param {
    name: "W_hc"
  }
  inner_product_param {
    num_output: 400
    bias_term: false
    weight_filler {
      type: "xavier"
    }
    axis: 2
  }
}
layer {
  name: "lstm1x_r1_r1_gate_input_32"
  type: "Eltwise"
  bottom: "W_hc_h_31"
  bottom: "W_xc_x_32"
  top: "gate_input_32"
  eltwise_param {
    operation: SUM
  }
}
layer {
  name: "lstm1x_r1_r1_unit_32"
  type: "LSTMUnit"
  bottom: "c_31"
  bottom: "gate_input_32"
  bottom: "cont_32"
  top: "c_32"
  top: "h_32"
}
layer {
  name: "lstm1x_r1_r1_h_conted_32"
  type: "Scale"
  bottom: "h_32"
  bottom: "cont_33"
  top: "h_conted_32"
  scale_param {
    axis: 0
  }
}
layer {
  name: "lstm1x_r1_r1_transform_33"
  type: "InnerProduct"
  bottom: "h_conted_32"
  top: "W_hc_h_32"
  param {
    name: "W_hc"
  }
  inner_product_param {
    num_output: 400
    bias_term: false
    weight_filler {
      type: "xavier"
    }
    axis: 2
  }
}
layer {
  name: "lstm1x_r1_r1_gate_input_33"
  type: "Eltwise"
  bottom: "W_hc_h_32"
  bottom: "W_xc_x_33"
  top: "gate_input_33"
  eltwise_param {
    operation: SUM
  }
}
layer {
  name: "lstm1x_r1_r1_unit_33"
  type: "LSTMUnit"
  bottom: "c_32"
  bottom: "gate_input_33"
  bottom: "cont_33"
  top: "c_33"
  top: "h_33"
}
layer {
  name: "lstm1x_r1_r1_h_conted_33"
  type: "Scale"
  bottom: "h_33"
  bottom: "cont_34"
  top: "h_conted_33"
  scale_param {
    axis: 0
  }
}
layer {
  name: "lstm1x_r1_r1_transform_34"
  type: "InnerProduct"
  bottom: "h_conted_33"
  top: "W_hc_h_33"
  param {
    name: "W_hc"
  }
  inner_product_param {
    num_output: 400
    bias_term: false
    weight_filler {
      type: "xavier"
    }
    axis: 2
  }
}
layer {
  name: "lstm1x_r1_r1_gate_input_34"
  type: "Eltwise"
  bottom: "W_hc_h_33"
  bottom: "W_xc_x_34"
  top: "gate_input_34"
  eltwise_param {
    operation: SUM
  }
}
layer {
  name: "lstm1x_r1_r1_unit_34"
  type: "LSTMUnit"
  bottom: "c_33"
  bottom: "gate_input_34"
  bottom: "cont_34"
  top: "c_34"
  top: "h_34"
}
layer {
  name: "lstm1x_r1_r1_h_conted_34"
  type: "Scale"
  bottom: "h_34"
  bottom: "cont_35"
  top: "h_conted_34"
  scale_param {
    axis: 0
  }
}
layer {
  name: "lstm1x_r1_r1_transform_35"
  type: "InnerProduct"
  bottom: "h_conted_34"
  top: "W_hc_h_34"
  param {
    name: "W_hc"
  }
  inner_product_param {
    num_output: 400
    bias_term: false
    weight_filler {
      type: "xavier"
    }
    axis: 2
  }
}
layer {
  name: "lstm1x_r1_r1_gate_input_35"
  type: "Eltwise"
  bottom: "W_hc_h_34"
  bottom: "W_xc_x_35"
  top: "gate_input_35"
  eltwise_param {
    operation: SUM
  }
}
layer {
  name: "lstm1x_r1_r1_unit_35"
  type: "LSTMUnit"
  bottom: "c_34"
  bottom: "gate_input_35"
  bottom: "cont_35"
  top: "c_35"
  top: "h_35"
}
layer {
  name: "lstm1x_r1_r1_h_conted_35"
  type: "Scale"
  bottom: "h_35"
  bottom: "cont_36"
  top: "h_conted_35"
  scale_param {
    axis: 0
  }
}
layer {
  name: "lstm1x_r1_r1_transform_36"
  type: "InnerProduct"
  bottom: "h_conted_35"
  top: "W_hc_h_35"
  param {
    name: "W_hc"
  }
  inner_product_param {
    num_output: 400
    bias_term: false
    weight_filler {
      type: "xavier"
    }
    axis: 2
  }
}
layer {
  name: "lstm1x_r1_r1_gate_input_36"
  type: "Eltwise"
  bottom: "W_hc_h_35"
  bottom: "W_xc_x_36"
  top: "gate_input_36"
  eltwise_param {
    operation: SUM
  }
}
layer {
  name: "lstm1x_r1_r1_unit_36"
  type: "LSTMUnit"
  bottom: "c_35"
  bottom: "gate_input_36"
  bottom: "cont_36"
  top: "c_36"
  top: "h_36"
}
layer {
  name: "lstm1x_r1_r1_h_conted_36"
  type: "Scale"
  bott
I0417 17:05:44.174250 25260 layer_factory.hpp:77] Creating layer lstm1x_r1_r1_
I0417 17:05:44.174257 25260 net.cpp:84] Creating Layer lstm1x_r1_r1_
I0417 17:05:44.174262 25260 net.cpp:380] lstm1x_r1_r1_ -> x
I0417 17:05:44.174268 25260 net.cpp:380] lstm1x_r1_r1_ -> cont
I0417 17:05:44.174305 25260 net.cpp:122] Setting up lstm1x_r1_r1_
I0417 17:05:44.174310 25260 net.cpp:129] Top shape: 60 8 512 7 (1720320)
I0417 17:05:44.174314 25260 net.cpp:129] Top shape: 60 8 (480)
I0417 17:05:44.174315 25260 net.cpp:137] Memory required for data: 6883200
I0417 17:05:44.174317 25260 layer_factory.hpp:77] Creating layer lstm1x_r1_r1_
I0417 17:05:44.174321 25260 net.cpp:84] Creating Layer lstm1x_r1_r1_
I0417 17:05:44.174325 25260 net.cpp:380] lstm1x_r1_r1_ -> c_0
I0417 17:05:44.174329 25260 net.cpp:380] lstm1x_r1_r1_ -> h_0
I0417 17:05:44.174356 25260 net.cpp:122] Setting up lstm1x_r1_r1_
I0417 17:05:44.174360 25260 net.cpp:129] Top shape: 1 8 100 (800)
I0417 17:05:44.174363 25260 net.cpp:129] Top shape: 1 8 100 (800)
I0417 17:05:44.174365 25260 net.cpp:137] Memory required for data: 6889600
I0417 17:05:44.174367 25260 layer_factory.hpp:77] Creating layer lstm1x_r1_r1_cont_slice
I0417 17:05:44.174373 25260 net.cpp:84] Creating Layer lstm1x_r1_r1_cont_slice
I0417 17:05:44.174376 25260 net.cpp:406] lstm1x_r1_r1_cont_slice <- cont
I0417 17:05:44.174381 25260 net.cpp:380] lstm1x_r1_r1_cont_slice -> cont_1
…
I0417 17:05:44.222863 25260 net.cpp:200] lstm1x_r1_r1_ does not need backward computation.
I0417 17:05:44.222865 25260 net.cpp:242] This network produces output c_T
I0417 17:05:44.222868 25260 net.cpp:242] This network produces output h_pseudoloss
I0417 17:05:44.224484 25260 net.cpp:255] Network initialization done.
I0417 17:05:44.224952 25260 recurrent_layer.cpp:150] Adding parameter 0: W_xc
I0417 17:05:44.224957 25260 recurrent_layer.cpp:150] Adding parameter 1: b_c
I0417 17:05:44.224961 25260 recurrent_layer.cpp:150] Adding parameter 2: W_hc
I0417 17:05:44.225370 25260 net.cpp:122] Setting up lstm1x_r1_r1
I0417 17:05:44.225376 25260 net.cpp:129] Top shape: 60 8 100 (48000)
I0417 17:05:44.225379 25260 net.cpp:137] Memory required for data: 768707328
I0417 17:05:44.225386 25260 layer_factory.hpp:77] Creating layer merge_lstm_rlstmx
I0417 17:05:44.225390 25260 net.cpp:84] Creating Layer merge_lstm_rlstmx
I0417 17:05:44.225394 25260 net.cpp:406] merge_lstm_rlstmx <- lstm1x
I0417 17:05:44.225399 25260 net.cpp:406] merge_lstm_rlstmx <- rlstmx
I0417 17:05:44.225402 25260 net.cpp:380] merge_lstm_rlstmx -> merge_lstm_rlstmx
I0417 17:05:44.225422 25260 net.cpp:122] Setting up merge_lstm_rlstmx
I0417 17:05:44.225426 25260 net.cpp:129] Top shape: 60 8 200 (96000)
I0417 17:05:44.225428 25260 net.cpp:137] Memory required for data: 769091328
I0417 17:05:44.225431 25260 layer_factory.hpp:77] Creating layer fc_all_1
I0417 17:05:44.225435 25260 net.cpp:84] Creating Layer fc_all_1
I0417 17:05:44.225438 25260 net.cpp:406] fc_all_1 <- merge_lstm_rlstmx
I0417 17:05:44.225442 25260 net.cpp:380] fc_all_1 -> fc_all_1
I0417 17:05:44.225595 25260 net.cpp:122] Setting up fc_all_1
I0417 17:05:44.225600 25260 net.cpp:129] Top shape: 60 8 69 (33120)
I0417 17:05:44.225602 25260 net.cpp:137] Memory required for data: 769223808
I0417 17:05:44.225606 25260 layer_factory.hpp:77] Creating layer fc_all_1_fc_all_1_0_split
I0417 17:05:44.225610 25260 net.cpp:84] Creating Layer fc_all_1_fc_all_1_0_split
I0417 17:05:44.225613 25260 net.cpp:406] fc_all_1_fc_all_1_0_split <- fc_all_1
I0417 17:05:44.225616 25260 net.cpp:380] fc_all_1_fc_all_1_0_split -> fc_all_1_fc_all_1_0_split_0
I0417 17:05:44.225621 25260 net.cpp:380] fc_all_1_fc_all_1_0_split -> fc_all_1_fc_all_1_0_split_1
I0417 17:05:44.225646 25260 net.cpp:122] Setting up fc_all_1_fc_all_1_0_split
I0417 17:05:44.225649 25260 net.cpp:129] Top shape: 60 8 69 (33120)
I0417 17:05:44.225653 25260 net.cpp:129] Top shape: 60 8 69 (33120)
I0417 17:05:44.225654 25260 net.cpp:137] Memory required for data: 769488768
I0417 17:05:44.225657 25260 layer_factory.hpp:77] Creating layer ctc_loss
I0417 17:05:44.225662 25260 net.cpp:84] Creating Layer ctc_loss
I0417 17:05:44.225664 25260 net.cpp:406] ctc_loss <- fc_all_1_fc_all_1_0_split_0
I0417 17:05:44.225667 25260 net.cpp:406] ctc_loss <- label1_slicer_label_0_split_0
I0417 17:05:44.225672 25260 net.cpp:380] ctc_loss -> ctc_loss
I0417 17:05:44.225689 25260 net.cpp:122] Setting up ctc_loss
I0417 17:05:44.225692 25260 net.cpp:129] Top shape: (1)
I0417 17:05:44.225694 25260 net.cpp:132]     with loss weight 1
I0417 17:05:44.225700 25260 net.cpp:137] Memory required for data: 769488772
I0417 17:05:44.225703 25260 layer_factory.hpp:77] Creating layer pool_color_1
I0417 17:05:44.225708 25260 net.cpp:84] Creating Layer pool_color_1
I0417 17:05:44.225709 25260 net.cpp:406] pool_color_1 <- layer_128_1_sum_layer_128_1_sum_0_split_2
I0417 17:05:44.225713 25260 net.cpp:380] pool_color_1 -> pool_color_1
I0417 17:05:44.225745 25260 net.cpp:122] Setting up pool_color_1
I0417 17:05:44.225750 25260 net.cpp:129] Top shape: 8 512 7 15 (430080)
I0417 17:05:44.225752 25260 net.cpp:137] Memory required for data: 771209092
I0417 17:05:44.225755 25260 layer_factory.hpp:77] Creating layer conv_color1_1
I0417 17:05:44.225761 25260 net.cpp:84] Creating Layer conv_color1_1
I0417 17:05:44.225764 25260 net.cpp:406] conv_color1_1 <- pool_color_1
I0417 17:05:44.225767 25260 net.cpp:380] conv_color1_1 -> conv_color1_1
I0417 17:05:44.235175 25260 net.cpp:122] Setting up conv_color1_1
I0417 17:05:44.235198 25260 net.cpp:129] Top shape: 8 256 7 15 (215040)
I0417 17:05:44.235201 25260 net.cpp:137] Memory required for data: 772069252
I0417 17:05:44.235210 25260 layer_factory.hpp:77] Creating layer bn_color_1
I0417 17:05:44.235224 25260 net.cpp:84] Creating Layer bn_color_1
I0417 17:05:44.235229 25260 net.cpp:406] bn_color_1 <- conv_color1_1
I0417 17:05:44.235237 25260 net.cpp:367] bn_color_1 -> conv_color1_1 (in-place)
I0417 17:05:44.235435 25260 net.cpp:122] Setting up bn_color_1
I0417 17:05:44.235445 25260 net.cpp:129] Top shape: 8 256 7 15 (215040)
I0417 17:05:44.235450 25260 net.cpp:137] Memory required for data: 772929412
I0417 17:05:44.235457 25260 layer_factory.hpp:77] Creating layer scale_color_1
I0417 17:05:44.235469 25260 net.cpp:84] Creating Layer scale_color_1
I0417 17:05:44.235474 25260 net.cpp:406] scale_color_1 <- conv_color1_1
I0417 17:05:44.235481 25260 net.cpp:367] scale_color_1 -> conv_color1_1 (in-place)
I0417 17:05:44.235535 25260 layer_factory.hpp:77] Creating layer scale_color_1
I0417 17:05:44.235618 25260 net.cpp:122] Setting up scale_color_1
I0417 17:05:44.235625 25260 net.cpp:129] Top shape: 8 256 7 15 (215040)
I0417 17:05:44.235626 25260 net.cpp:137] Memory required for data: 773789572
I0417 17:05:44.235631 25260 layer_factory.hpp:77] Creating layer relu_color_1
I0417 17:05:44.235635 25260 net.cpp:84] Creating Layer relu_color_1
I0417 17:05:44.235638 25260 net.cpp:406] relu_color_1 <- conv_color1_1
I0417 17:05:44.235642 25260 net.cpp:367] relu_color_1 -> conv_color1_1 (in-place)
I0417 17:05:44.235646 25260 net.cpp:122] Setting up relu_color_1
I0417 17:05:44.235649 25260 net.cpp:129] Top shape: 8 256 7 15 (215040)
I0417 17:05:44.235651 25260 net.cpp:137] Memory required for data: 774649732
I0417 17:05:44.235653 25260 layer_factory.hpp:77] Creating layer pool_color_2
I0417 17:05:44.235658 25260 net.cpp:84] Creating Layer pool_color_2
I0417 17:05:44.235661 25260 net.cpp:406] pool_color_2 <- conv_color1_1
I0417 17:05:44.235666 25260 net.cpp:380] pool_color_2 -> pool_color_2
I0417 17:05:44.235683 25260 net.cpp:122] Setting up pool_color_2
I0417 17:05:44.235687 25260 net.cpp:129] Top shape: 8 256 1 1 (2048)
I0417 17:05:44.235689 25260 net.cpp:137] Memory required for data: 774657924
I0417 17:05:44.235692 25260 layer_factory.hpp:77] Creating layer fc_color_1
I0417 17:05:44.235697 25260 net.cpp:84] Creating Layer fc_color_1
I0417 17:05:44.235700 25260 net.cpp:406] fc_color_1 <- pool_color_2
I0417 17:05:44.235704 25260 net.cpp:380] fc_color_1 -> fc_color_1
I0417 17:05:44.235817 25260 net.cpp:122] Setting up fc_color_1
I0417 17:05:44.235821 25260 net.cpp:129] Top shape: 8 5 (40)
I0417 17:05:44.235823 25260 net.cpp:137] Memory required for data: 774658084
I0417 17:05:44.235827 25260 layer_factory.hpp:77] Creating layer fc_color_1_fc_color_1_0_split
I0417 17:05:44.235831 25260 net.cpp:84] Creating Layer fc_color_1_fc_color_1_0_split
I0417 17:05:44.235834 25260 net.cpp:406] fc_color_1_fc_color_1_0_split <- fc_color_1
I0417 17:05:44.235838 25260 net.cpp:380] fc_color_1_fc_color_1_0_split -> fc_color_1_fc_color_1_0_split_0
I0417 17:05:44.235843 25260 net.cpp:380] fc_color_1_fc_color_1_0_split -> fc_color_1_fc_color_1_0_split_1
I0417 17:05:44.235874 25260 net.cpp:122] Setting up fc_color_1_fc_color_1_0_split
I0417 17:05:44.235880 25260 net.cpp:129] Top shape: 8 5 (40)
I0417 17:05:44.235883 25260 net.cpp:129] Top shape: 8 5 (40)
I0417 17:05:44.235886 25260 net.cpp:137] Memory required for data: 774658404
I0417 17:05:44.235903 25260 layer_factory.hpp:77] Creating layer softmax_loss
I0417 17:05:44.235906 25260 net.cpp:84] Creating Layer softmax_loss
I0417 17:05:44.235909 25260 net.cpp:406] softmax_loss <- fc_color_1_fc_color_1_0_split_0
I0417 17:05:44.235914 25260 net.cpp:406] softmax_loss <- label2_slicer_label_1_split_0
I0417 17:05:44.235919 25260 net.cpp:380] softmax_loss -> softmax_loss
I0417 17:05:44.235927 25260 layer_factory.hpp:77] Creating layer softmax_loss
I0417 17:05:44.236238 25260 net.cpp:122] Setting up softmax_loss
I0417 17:05:44.236254 25260 net.cpp:129] Top shape: (1)
I0417 17:05:44.236258 25260 net.cpp:137] Memory required for data: 774658408
I0417 17:05:44.236259 25260 layer_factory.hpp:77] Creating layer permute_fc
I0417 17:05:44.236265 25260 net.cpp:84] Creating Layer permute_fc
I0417 17:05:44.236268 25260 net.cpp:406] permute_fc <- fc_all_1_fc_all_1_0_split_1
I0417 17:05:44.236274 25260 net.cpp:380] permute_fc -> premuted_fc
I0417 17:05:44.236353 25260 net.cpp:122] Setting up permute_fc
I0417 17:05:44.236357 25260 net.cpp:129] Top shape: 8 60 69 (33120)
I0417 17:05:44.236359 25260 net.cpp:137] Memory required for data: 774790888
I0417 17:05:44.236362 25260 layer_factory.hpp:77] Creating layer accuracy
I0417 17:05:44.236366 25260 net.cpp:84] Creating Layer accuracy
I0417 17:05:44.236369 25260 net.cpp:406] accuracy <- premuted_fc
I0417 17:05:44.236372 25260 net.cpp:406] accuracy <- label1_slicer_label_0_split_1
I0417 17:05:44.236377 25260 net.cpp:380] accuracy -> accuracy
…
