…
snapshot: 10000
snapshot_prefix: "./models/"
solver_mode: GPU
device_id: 0
net: "train24.prototxt"
train_state {
  level: 0
  stage: ""
}
I0613 19:39:56.128046  2164 solver.cpp:87] Creating training net from net file: train24.prototxt
I0613 19:39:56.128527  2164 net.cpp:51] Initializing net from parameters: 
name: "face_24c"
state {
  phase: TRAIN
  level: 0
  stage: ""
}
layer {
  name: "PythonLayer"
  type: "Python"
  top: "data"
  top: "label"
  top: "roi"
  top: "pts"
  python_param {
    module: "pythonLayer"
    layer: "Data_Layer_train"
  }
}
layer {
  name: "conv1"
  type: "Convolution"
  bottom: "data"
  top: "conv1"
  param {
    lr_mult: 0
    decay_mult: 0
  }
  param {
    lr_mult: 0
    decay_mult: 0
  }
  convolution_param {
    num_output: 28
    kernel_size: 3
    weight_filler {
      type: "gaussian"
      std: 0.0001
    }
    bias_filler {
      type: "constant"
      value: 0
    }
  }
}
layer {
  name: "relu1"
  type: "PReLU"
  bottom: "conv1"
  top: "conv1"
}
layer {
  name: "pool1"
  type: "Pooling"
  bottom: "conv1"
  top: "pool1"
  pooling_param {
    pool: MAX
    kernel_size: 3
    stride: 2
  }
}
layer {
  name: "conv2"
  type: "Convolution"
  bottom: "pool1"
  top: "conv2"
  param {
    lr_mult: 1
  }
  param {
    lr_mult: 2
  }
  convolution_param {
    num_output: 48
    kernel_size: 3
    weight_filler {
      type: "gaussian"
      std: 0.0001
    }
    bias_filler {
      type: "constant"
    }
  }
}
layer {
  name: "relu2"
  type: "PReLU"
  bottom: "conv2"
  top: "conv2"
}
layer {
  name: "pool2"
  type: "Pooling"
  bottom: "conv2"
  top: "pool2"
  pooling_param {
    pool: MAX
    kernel_size: 3
    stride: 2
  }
}
layer {
  name: "conv3"
  type: "Convolution"
  bottom: "pool2"
  top: "conv3"
  param {
    lr_mult: 1
    decay_mult: 1
  }
  param {
    lr_mult: 2
    decay_mult: 0
  }
  convolution_param {
    num_output: 64
    kernel_size: 2
    stride: 1
    weight_filler {
      type: "xavier"
    }
    bias_filler {
      type: "constant"
      value: 0
    }
  }
}
layer {
  name: "relu3"
  type: "PReLU"
  bottom: "conv3"
  top: "conv3"
}
layer {
  name: "fc4"
  type: "InnerProduct"
  bottom: "conv3"
  top: "fc4"
  param {
    lr_mult: 1
    decay_mult: 1
  }
  param {
    lr_mult: 2
    decay_mult: 0
  }
  inner_product_param {
    num_output: 128
    weight_filler {
      type: "xavier"
    }
    bias_filler {
      type: "constant"
      value: 0
    }
  }
}
layer {
  name: "relu4"
  type: "PReLU"
  bottom: "fc4"
  top: "fc4"
}
layer {
  name: "fc5-1"
  type: "InnerProduct"
  bottom: "fc4"
  top: "fc5-1"
  param {
    lr_mult: 1
    decay_mult: 1
  }
  param {
    lr_mult: 2
    decay_mult: 0
  }
  inner_product_param {
    num_output: 2
    weight_filler {
      type: "xavier"
    }
    bias_filler {
      type: "constant"
      value: 0
    }
  }
}
layer {
  name: "cls_bridge"
  type: "Python"
  bottom: "fc5-1"
  bottom: "label"
  top: "fc5-1-valid"
  top: "label-valid"
  python_param {
    module: "pythonLayer"
    layer: "cls_Layer"
  }
}
layer {
  name: "cls_loss"
  type: "SoftmaxWithLoss"
  bottom: "fc5-1-valid"
  bottom: "label-valid"
  top: "cls_loss"
  loss_weight: 1
  propagate_down: true
  propagate_down: false
}
layer {
  name: "cls_acc"
  type: "Accuracy"
  bottom: "fc5-1-valid"
  bottom: "label-valid"
  top: "cls_acc"
  include {
    phase: TRAIN
  }
}
layer {
  name: "fc5-2"
  type: "InnerProduct"
  bottom: "fc4"
  top: "fc5-2"
  param {
    lr_mult: 1
    decay_mult: 1
  }
  param {
    lr_mult: 2
    decay_mult: 0
  }
  inner_product_param {
    num_output: 4
    weight_filler {
      type: "xavier"
    }
    bias_filler {
      type: "constant"
      value: 0
    }
  }
}
layer {
  name: "roi_loss"
  type: "Python"
  bottom: "fc5-2"
  bottom: "roi"
  top: "roi_loss"
  loss_weight: 0.5
  python_param {
    module: "pythonLayer"
    layer: "regression_Layer"
  }
}
layer {
  name: "fc5-3"
  type: "InnerProduct"
  bottom: "fc4"
  top: "fc5-3"
  param {
    lr_mult: 1
    decay_mult: 1
  }
  param {
    lr_mult: 2
    decay_mult: 0
  }
  inner_product_param {
    num_output: 10
    weight_filler {
      type: "xavier"
    }
    bias_filler {
      type: "constant"
      value: 0
    }
  }
}
layer {
  name: "pts_loss"
  type: "Python"
  bottom: "fc5-3"
  bottom: "pts"
  top: "pts_loss"
  loss_weight: 0.5
  python_param {
    module: "pythonLayer"
    layer: "regression_Layer"
  }
}
I0613 19:39:56.128798  2164 layer_factory.hpp:77] Creating layer PythonLayer
[libprotobuf ERROR google/protobuf/descriptor_database.cc:57] File already exists in database: caffe.proto
[libprotobuf FATAL google/protobuf/descriptor.cc:1272] CHECK failed: generated_database_->Add(encoded_file_descriptor, size): 
…
snapshot: 10000
snapshot_prefix: "./models/"
solver_mode: GPU
device_id: 0
net: "train24.prototxt"
train_state {
  level: 0
  stage: ""
}
I0613 20:46:18.861167 28773 solver.cpp:87] Creating training net from net file: train24.prototxt
I0613 20:46:18.861716 28773 net.cpp:51] Initializing net from parameters: 
name: "face_24c"
state {
  phase: TRAIN
  level: 0
  stage: ""
}
layer {
  name: "PythonLayer"
  type: "Python"
  top: "data"
  top: "label"
  top: "roi"
  top: "pts"
  python_param {
    module: "pythonLayer"
    layer: "Data_Layer_train"
  }
}
layer {
  name: "conv1"
  type: "Convolution"
  bottom: "data"
  top: "conv1"
  param {
    lr_mult: 0
    decay_mult: 0
  }
  param {
    lr_mult: 0
    decay_mult: 0
  }
  convolution_param {
    num_output: 28
    kernel_size: 3
    weight_filler {
      type: "gaussian"
      std: 0.0001
    }
    bias_filler {
      type: "constant"
      value: 0
    }
  }
}
layer {
  name: "relu1"
  type: "PReLU"
  bottom: "conv1"
  top: "conv1"
}
layer {
  name: "pool1"
  type: "Pooling"
  bottom: "conv1"
  top: "pool1"
  pooling_param {
    pool: MAX
    kernel_size: 3
    stride: 2
  }
}
layer {
  name: "conv2"
  type: "Convolution"
  bottom: "pool1"
  top: "conv2"
  param {
    lr_mult: 1
  }
  param {
    lr_mult: 2
  }
  convolution_param {
    num_output: 48
    kernel_size: 3
    weight_filler {
      type: "gaussian"
      std: 0.0001
    }
    bias_filler {
      type: "constant"
    }
  }
}
layer {
  name: "relu2"
  type: "PReLU"
  bottom: "conv2"
  top: "conv2"
}
layer {
  name: "pool2"
  type: "Pooling"
  bottom: "conv2"
  top: "pool2"
  pooling_param {
    pool: MAX
    kernel_size: 3
    stride: 2
  }
}
layer {
  name: "conv3"
  type: "Convolution"
  bottom: "pool2"
  top: "conv3"
  param {
    lr_mult: 1
    decay_mult: 1
  }
  param {
    lr_mult: 2
    decay_mult: 0
  }
  convolution_param {
    num_output: 64
    kernel_size: 2
    stride: 1
    weight_filler {
      type: "xavier"
    }
    bias_filler {
      type: "constant"
      value: 0
    }
  }
}
layer {
  name: "relu3"
  type: "PReLU"
  bottom: "conv3"
  top: "conv3"
}
layer {
  name: "fc4"
  type: "InnerProduct"
  bottom: "conv3"
  top: "fc4"
  param {
    lr_mult: 1
    decay_mult: 1
  }
  param {
    lr_mult: 2
    decay_mult: 0
  }
  inner_product_param {
    num_output: 128
    weight_filler {
      type: "xavier"
    }
    bias_filler {
      type: "constant"
      value: 0
    }
  }
}
layer {
  name: "relu4"
  type: "PReLU"
  bottom: "fc4"
  top: "fc4"
}
layer {
  name: "fc5-1"
  type: "InnerProduct"
  bottom: "fc4"
  top: "fc5-1"
  param {
    lr_mult: 1
    decay_mult: 1
  }
  param {
    lr_mult: 2
    decay_mult: 0
  }
  inner_product_param {
    num_output: 2
    weight_filler {
      type: "xavier"
    }
    bias_filler {
      type: "constant"
      value: 0
    }
  }
}
layer {
  name: "cls_bridge"
  type: "Python"
  bottom: "fc5-1"
  bottom: "label"
  top: "fc5-1-valid"
  top: "label-valid"
  python_param {
    module: "pythonLayer"
    layer: "cls_Layer"
  }
}
layer {
  name: "cls_loss"
  type: "SoftmaxWithLoss"
  bottom: "fc5-1-valid"
  bottom: "label-valid"
  top: "cls_loss"
  loss_weight: 1
  propagate_down: true
  propagate_down: false
}
layer {
  name: "cls_acc"
  type: "Accuracy"
  bottom: "fc5-1-valid"
  bottom: "label-valid"
  top: "cls_acc"
  include {
    phase: TRAIN
  }
}
layer {
  name: "fc5-2"
  type: "InnerProduct"
  bottom: "fc4"
  top: "fc5-2"
  param {
    lr_mult: 1
    decay_mult: 1
  }
  param {
    lr_mult: 2
    decay_mult: 0
  }
  inner_product_param {
    num_output: 4
    weight_filler {
      type: "xavier"
    }
    bias_filler {
      type: "constant"
      value: 0
    }
  }
}
layer {
  name: "roi_loss"
  type: "Python"
  bottom: "fc5-2"
  bottom: "roi"
  top: "roi_loss"
  loss_weight: 0.5
  python_param {
    module: "pythonLayer"
    layer: "regression_Layer"
  }
}
layer {
  name: "fc5-3"
  type: "InnerProduct"
  bottom: "fc4"
  top: "fc5-3"
  param {
    lr_mult: 1
    decay_mult: 1
  }
  param {
    lr_mult: 2
    decay_mult: 0
  }
  inner_product_param {
    num_output: 10
    weight_filler {
      type: "xavier"
    }
    bias_filler {
      type: "constant"
      value: 0
    }
  }
}
layer {
  name: "pts_loss"
  type: "Python"
  bottom: "fc5-3"
  bottom: "pts"
  top: "pts_loss"
  loss_weight: 0.5
  python_param {
    module: "pythonLayer"
    layer: "regression_Layer"
  }
}
I0613 20:46:18.861938 28773 layer_factory.hpp:77] Creating layer PythonLayer
I0613 20:46:20.027287 28773 net.cpp:84] Creating Layer PythonLayer
I0613 20:46:20.027310 28773 net.cpp:380] PythonLayer -> data
I0613 20:46:20.027340 28773 net.cpp:380] PythonLayer -> label
I0613 20:46:20.027348 28773 net.cpp:380] PythonLayer -> roi
I0613 20:46:20.027354 28773 net.cpp:380] PythonLayer -> pts
Start Reading Classify Data into Memory...

1124566  Classify Data have been read into Memory...
Start Reading Regression Data into Memory...

524566  Regression Data have been read into Memory...
Start Reading pts-regression Data into Memory...

202599  pts-regression Data have been read into Memory...
I0613 21:28:39.906754 28773 net.cpp:122] Setting up PythonLayer
I0613 21:28:40.008147 28773 net.cpp:129] Top shape: 64 3 24 24 (110592)
I0613 21:28:40.008191 28773 net.cpp:129] Top shape: 64 1 (64)
I0613 21:28:40.008204 28773 net.cpp:129] Top shape: 64 4 (256)
I0613 21:28:40.008215 28773 net.cpp:129] Top shape: 64 10 (640)
I0613 21:28:40.008226 28773 net.cpp:137] Memory required for data: 446208
I0613 21:28:40.011793 28773 layer_factory.hpp:77] Creating layer conv1
I0613 21:28:40.016659 28773 net.cpp:84] Creating Layer conv1
I0613 21:28:40.017242 28773 net.cpp:406] conv1 <- data
I0613 21:28:40.018476 28773 net.cpp:380] conv1 -> conv1
I0613 21:28:45.401804 28773 net.cpp:122] Setting up conv1
I0613 21:28:45.404896 28773 net.cpp:129] Top shape: 64 28 22 22 (867328)
I0613 21:28:45.404917 28773 net.cpp:137] Memory required for data: 3915520
I0613 21:28:45.408921 28773 layer_factory.hpp:77] Creating layer relu1
I0613 21:28:45.411242 28773 net.cpp:84] Creating Layer relu1
I0613 21:28:45.411267 28773 net.cpp:406] relu1 <- conv1
I0613 21:28:45.411286 28773 net.cpp:367] relu1 -> conv1 (in-place)
I0613 21:28:45.414875 28773 net.cpp:122] Setting up relu1
I0613 21:28:45.414913 28773 net.cpp:129] Top shape: 64 28 22 22 (867328)
I0613 21:28:45.414924 28773 net.cpp:137] Memory required for data: 7384832
I0613 21:28:45.414945 28773 layer_factory.hpp:77] Creating layer pool1
I0613 21:28:45.415249 28773 net.cpp:84] Creating Layer pool1
I0613 21:28:45.415269 28773 net.cpp:406] pool1 <- conv1
I0613 21:28:45.415287 28773 net.cpp:380] pool1 -> pool1
I0613 21:28:45.417495 28773 net.cpp:122] Setting up pool1
I0613 21:28:45.417531 28773 net.cpp:129] Top shape: 64 28 11 11 (216832)
I0613 21:28:45.417544 28773 net.cpp:137] Memory required for data: 8252160
I0613 21:28:45.417553 28773 layer_factory.hpp:77] Creating layer conv2
I0613 21:28:45.417874 28773 net.cpp:84] Creating Layer conv2
I0613 21:28:45.417891 28773 net.cpp:406] conv2 <- pool1
I0613 21:28:45.417909 28773 net.cpp:380] conv2 -> conv2
I0613 21:28:45.425359 28773 net.cpp:122] Setting up conv2
I0613 21:28:45.425395 28773 net.cpp:129] Top shape: 64 48 9 9 (248832)
I0613 21:28:45.425405 28773 net.cpp:137] Memory required for data: 9247488
I0613 21:28:45.425436 28773 layer_factory.hpp:77] Creating layer relu2
I0613 21:28:45.425480 28773 net.cpp:84] Creating Layer relu2
I0613 21:28:45.425490 28773 net.cpp:406] relu2 <- conv2
I0613 21:28:45.425756 28773 net.cpp:367] relu2 -> conv2 (in-place)
I0613 21:28:45.427932 28773 net.cpp:122] Setting up relu2
I0613 21:28:45.427968 28773 net.cpp:129] Top shape: 64 48 9 9 (248832)
I0613 21:28:45.427978 28773 net.cpp:137] Memory required for data: 10242816
I0613 21:28:45.427992 28773 layer_factory.hpp:77] Creating layer pool2
I0613 21:28:45.428012 28773 net.cpp:84] Creating Layer pool2
I0613 21:28:45.428025 28773 net.cpp:406] pool2 <- conv2
I0613 21:28:45.428040 28773 net.cpp:380] pool2 -> pool2
I0613 21:28:45.428149 28773 net.cpp:122] Setting up pool2
I0613 21:28:45.428167 28773 net.cpp:129] Top shape: 64 48 4 4 (49152)
I0613 21:28:45.428179 28773 net.cpp:137] Memory required for data: 10439424
I0613 21:28:45.428187 28773 layer_factory.hpp:77] Creating layer conv3
I0613 21:28:45.428210 28773 net.cpp:84] Creating Layer conv3
I0613 21:28:45.428221 28773 net.cpp:406] conv3 <- pool2
I0613 21:28:45.428261 28773 net.cpp:380] conv3 -> conv3
I0613 21:28:45.433306 28773 net.cpp:122] Setting up conv3
I0613 21:28:45.433343 28773 net.cpp:129] Top shape: 64 64 3 3 (36864)
I0613 21:28:45.433373 28773 net.cpp:137] Memory required for data: 10586880
I0613 21:28:45.433907 28773 layer_factory.hpp:77] Creating layer relu3
I0613 21:28:45.433964 28773 net.cpp:84] Creating Layer relu3
I0613 21:28:45.433979 28773 net.cpp:406] relu3 <- conv3
I0613 21:28:45.433998 28773 net.cpp:367] relu3 -> conv3 (in-place)
I0613 21:28:45.434365 28773 net.cpp:122] Setting up relu3
I0613 21:28:45.434391 28773 net.cpp:129] Top shape: 64 64 3 3 (36864)
I0613 21:28:45.434401 28773 net.cpp:137] Memory required for data: 10734336
I0613 21:28:45.434423 28773 layer_factory.hpp:77] Creating layer fc4
I0613 21:28:45.434456 28773 net.cpp:84] Creating Layer fc4
I0613 21:28:45.434468 28773 net.cpp:406] fc4 <- conv3
I0613 21:28:45.434533 28773 net.cpp:380] fc4 -> fc4
I0613 21:28:45.437892 28773 net.cpp:122] Setting up fc4
I0613 21:28:45.437925 28773 net.cpp:129] Top shape: 64 128 (8192)
I0613 21:28:45.437938 28773 net.cpp:137] Memory required for data: 10767104
I0613 21:28:45.437958 28773 layer_factory.hpp:77] Creating layer relu4
I0613 21:28:45.437974 28773 net.cpp:84] Creating Layer relu4
I0613 21:28:45.437984 28773 net.cpp:406] relu4 <- fc4
I0613 21:28:45.438002 28773 net.cpp:367] relu4 -> fc4 (in-place)
I0613 21:28:45.438235 28773 net.cpp:122] Setting up relu4
I0613 21:28:45.438256 28773 net.cpp:129] Top shape: 64 128 (8192)
I0613 21:28:45.438263 28773 net.cpp:137] Memory required for data: 10799872
I0613 21:28:45.438277 28773 layer_factory.hpp:77] Creating layer fc4_relu4_0_split
I0613 21:28:45.439613 28773 net.cpp:84] Creating Layer fc4_relu4_0_split
I0613 21:28:45.439654 28773 net.cpp:406] fc4_relu4_0_split <- fc4
I0613 21:28:45.439676 28773 net.cpp:380] fc4_relu4_0_split -> fc4_relu4_0_split_0
I0613 21:28:45.439702 28773 net.cpp:380] fc4_relu4_0_split -> fc4_relu4_0_split_1
I0613 21:28:45.439723 28773 net.cpp:380] fc4_relu4_0_split -> fc4_relu4_0_split_2
I0613 21:28:45.439944 28773 net.cpp:122] Setting up fc4_relu4_0_split
I0613 21:28:45.439967 28773 net.cpp:129] Top shape: 64 128 (8192)
I0613 21:28:45.439983 28773 net.cpp:129] Top shape: 64 128 (8192)
I0613 21:28:45.439993 28773 net.cpp:129] Top shape: 64 128 (8192)
I0613 21:28:45.440003 28773 net.cpp:137] Memory required for data: 10898176
I0613 21:28:45.440474 28773 layer_factory.hpp:77] Creating layer fc5-1
I0613 21:28:45.440506 28773 net.cpp:84] Creating Layer fc5-1
I0613 21:28:45.440518 28773 net.cpp:406] fc5-1 <- fc4_relu4_0_split_0
I0613 21:28:45.440536 28773 net.cpp:380] fc5-1 -> fc5-1
I0613 21:28:45.440843 28773 net.cpp:122] Setting up fc5-1
I0613 21:28:45.440865 28773 net.cpp:129] Top shape: 64 2 (128)
I0613 21:28:45.440873 28773 net.cpp:137] Memory required for data: 10898688
I0613 21:28:45.440891 28773 layer_factory.hpp:77] Creating layer cls_bridge
I0613 21:28:45.460760 28773 net.cpp:84] Creating Layer cls_bridge
I0613 21:28:45.460799 28773 net.cpp:406] cls_bridge <- fc5-1
I0613 21:28:45.460839 28773 net.cpp:406] cls_bridge <- label
I0613 21:28:45.460863 28773 net.cpp:380] cls_bridge -> fc5-1-valid
I0613 21:28:45.460891 28773 net.cpp:380] cls_bridge -> label-valid
I0613 21:28:45.476680 28773 net.cpp:122] Setting up cls_bridge
I0613 21:28:45.476727 28773 net.cpp:129] Top shape: 64 2 (128)
I0613 21:28:45.476742 28773 net.cpp:129] Top shape: 64 1 (64)
I0613 21:28:45.476752 28773 net.cpp:137] Memory required for data: 10899456
I0613 21:28:45.476768 28773 layer_factory.hpp:77] Creating layer fc5-1-valid_cls_bridge_0_split
I0613 21:28:45.476789 28773 net.cpp:84] Creating Layer fc5-1-valid_cls_bridge_0_split
I0613 21:28:45.476804 28773 net.cpp:406] fc5-1-valid_cls_bridge_0_split <- fc5-1-valid
I0613 21:28:45.476822 28773 net.cpp:380] fc5-1-valid_cls_bridge_0_split -> fc5-1-valid_cls_bridge_0_split_0
I0613 21:28:45.476857 28773 net.cpp:380] fc5-1-valid_cls_bridge_0_split -> fc5-1-valid_cls_bridge_0_split_1
I0613 21:28:45.476966 28773 net.cpp:122] Setting up fc5-1-valid_cls_bridge_0_split
I0613 21:28:45.476985 28773 net.cpp:129] Top shape: 64 2 (128)
I0613 21:28:45.476999 28773 net.cpp:129] Top shape: 64 2 (128)
I0613 21:28:45.477010 28773 net.cpp:137] Memory required for data: 10900480
I0613 21:28:45.477021 28773 layer_factory.hpp:77] Creating layer label-valid_cls_bridge_1_split
I0613 21:28:45.477047 28773 net.cpp:84] Creating Layer label-valid_cls_bridge_1_split
I0613 21:28:45.477061 28773 net.cpp:406] label-valid_cls_bridge_1_split <- label-valid
I0613 21:28:45.477079 28773 net.cpp:380] label-valid_cls_bridge_1_split -> label-valid_cls_bridge_1_split_0
I0613 21:28:45.477098 28773 net.cpp:380] label-valid_cls_bridge_1_split -> label-valid_cls_bridge_1_split_1
I0613 21:28:45.477192 28773 net.cpp:122] Setting up label-valid_cls_bridge_1_split
I0613 21:28:45.477210 28773 net.cpp:129] Top shape: 64 1 (64)
I0613 21:28:45.477224 28773 net.cpp:129] Top shape: 64 1 (64)
I0613 21:28:45.477274 28773 net.cpp:137] Memory required for data: 10900992
I0613 21:28:45.477290 28773 layer_factory.hpp:77] Creating layer cls_loss
I0613 21:28:45.477315 28773 net.cpp:84] Creating Layer cls_loss
I0613 21:28:45.477330 28773 net.cpp:406] cls_loss <- fc5-1-valid_cls_bridge_0_split_0
I0613 21:28:45.477347 28773 net.cpp:406] cls_loss <- label-valid_cls_bridge_1_split_0
I0613 21:28:45.477365 28773 net.cpp:380] cls_loss -> cls_loss
…
