…
snapshot: 10000
snapshot_prefix: "./models/"
solver_mode: GPU
device_id: 0
net: "train12.prototxt"
train_state {
  level: 0
  stage: ""
}
I0608 13:57:29.181362 10922 solver.cpp:87] Creating training net from net file: train12.prototxt
I0608 13:57:29.181625 10922 net.cpp:51] Initializing net from parameters: 
name: "face_12c"
state {
  phase: TRAIN
  level: 0
  stage: ""
}
layer {
  name: "PythonLayer"
  type: "Python"
  top: "data"
  top: "label"
  top: "roi"
  top: "pts"
  python_param {
    module: "pythonLayer"
    layer: "Data_Layer_train"
  }
}
layer {
  name: "conv1"
  type: "Convolution"
  bottom: "data"
  top: "conv1"
  param {
    lr_mult: 1
  }
  param {
    lr_mult: 2
  }
  convolution_param {
    num_output: 10
    kernel_size: 3
    weight_filler {
      type: "gaussian"
      std: 0.0001
    }
    bias_filler {
      type: "constant"
    }
  }
}
layer {
  name: "relu1"
  type: "PReLU"
  bottom: "conv1"
  top: "conv1"
}
layer {
  name: "pool1"
  type: "Pooling"
  bottom: "conv1"
  top: "pool1"
  pooling_param {
    pool: MAX
    kernel_size: 3
    stride: 2
  }
}
layer {
  name: "conv2"
  type: "Convolution"
  bottom: "pool1"
  top: "conv2"
  param {
    lr_mult: 1
  }
  param {
    lr_mult: 2
  }
  convolution_param {
    num_output: 16
    kernel_size: 3
    weight_filler {
      type: "gaussian"
      std: 0.0001
    }
    bias_filler {
      type: "constant"
    }
  }
}
layer {
  name: "relu2"
  type: "PReLU"
  bottom: "conv2"
  top: "conv2"
}
layer {
  name: "conv3"
  type: "Convolution"
  bottom: "conv2"
  top: "conv3"
  param {
    lr_mult: 1
    decay_mult: 1
  }
  param {
    lr_mult: 2
    decay_mult: 0
  }
  convolution_param {
    num_output: 32
    kernel_size: 3
    stride: 1
    weight_filler {
      type: "xavier"
    }
    bias_filler {
      type: "constant"
      value: 0
    }
  }
}
layer {
  name: "relu3"
  type: "PReLU"
  bottom: "conv3"
  top: "conv3"
}
layer {
  name: "conv4-1"
  type: "Convolution"
  bottom: "conv3"
  top: "conv4-1"
  param {
    lr_mult: 1
    decay_mult: 1
  }
  param {
    lr_mult: 2
    decay_mult: 0
  }
  convolution_param {
    num_output: 2
    kernel_size: 1
    stride: 1
    weight_filler {
      type: "xavier"
    }
    bias_filler {
      type: "constant"
      value: 0
    }
  }
}
layer {
  name: "cls_bridge"
  type: "Python"
  bottom: "conv4-1"
  bottom: "label"
  top: "conv4-1-valid"
  top: "label-valid"
  python_param {
    module: "pythonLayer"
    layer: "cls_Layer_fc"
  }
}
layer {
  name: "cls_loss"
  type: "SoftmaxWithLoss"
  bottom: "conv4-1-valid"
  bottom: "label-valid"
  top: "cls_loss"
  loss_weight: 1
  propagate_down: true
  propagate_down: false
}
layer {
  name: "cls_Acc"
  type: "Accuracy"
  bottom: "conv4-1-valid"
  bottom: "label-valid"
  top: "cls_Acc"
  include {
    phase: TRAIN
  }
}
layer {
  name: "conv4-2"
  type: "Convolution"
  bottom: "conv3"
  top: "conv4-2"
  param {
    lr_mult: 1
    decay_mult: 1
  }
  param {
    lr_mult: 2
    decay_mult: 0
  }
  convolution_param {
    num_output: 4
    kernel_size: 1
    stride: 1
    weight_filler {
      type: "xavier"
    }
    bias_filler {
      type: "constant"
      value: 0
    }
  }
}
layer {
  name: "roi_loss"
  type: "Python"
  bottom: "conv4-2"
  bottom: "roi"
  top: "roi_loss"
  loss_weight: 0.5
  python_param {
    module: "pythonLayer"
    layer: "regression_Layer"
  }
}
layer {
  name: "conv4-3"
  type: "Convolution"
  bottom: "conv3"
  top: "conv4-3"
  param {
    lr_mult: 1
    decay_mult: 1
  }
  param {
    lr_mult: 2
    decay_mult: 0
  }
  convolution_param {
    num_output: 10
    kernel_size: 1
    stride: 1
    weight_filler {
      type: "xavier"
    }
    bias_filler {
      type: "constant"
      value: 0
    }
  }
}
layer {
  name: "pts_loss"
  type: "Python"
  bottom: "conv4-3"
  bottom: "pts"
  top: "pts_loss"
  loss_weight: 0.5
  python_param {
    module: "pythonLayer"
    layer: "regression_Layer"
  }
}
I0608 13:57:29.181838 10922 layer_factory.hpp:77] Creating layer PythonLayer
I0608 13:57:29.611022 10922 net.cpp:84] Creating Layer PythonLayer
I0608 13:57:29.611059 10922 net.cpp:380] PythonLayer -> data
I0608 13:57:29.611075 10922 net.cpp:380] PythonLayer -> label
I0608 13:57:29.611085 10922 net.cpp:380] PythonLayer -> roi
I0608 13:57:29.611090 10922 net.cpp:380] PythonLayer -> pts
Start Reading Classify Data into Memory...

788878  Classify Data have been read into Memory...
Start Reading Regression Data into Memory...

488878  Regression Data have been read into Memory...
Start Reading pts-regression Data into Memory...

202599  pts-regression Data have been read into Memory...
I0608 14:05:56.832573 10922 net.cpp:122] Setting up PythonLayer
I0608 14:05:56.832880 10922 net.cpp:129] Top shape: 64 3 12 12 (27648)
I0608 14:05:56.832887 10922 net.cpp:129] Top shape: 64 1 (64)
I0608 14:05:56.832891 10922 net.cpp:129] Top shape: 64 4 (256)
I0608 14:05:56.832895 10922 net.cpp:129] Top shape: 64 10 (640)
I0608 14:05:56.832897 10922 net.cpp:137] Memory required for data: 114432
I0608 14:05:56.832908 10922 layer_factory.hpp:77] Creating layer conv1
I0608 14:05:56.832929 10922 net.cpp:84] Creating Layer conv1
I0608 14:05:56.832934 10922 net.cpp:406] conv1 <- data
I0608 14:05:56.832947 10922 net.cpp:380] conv1 -> conv1
I0608 14:05:57.332525 10922 net.cpp:122] Setting up conv1
I0608 14:05:57.332548 10922 net.cpp:129] Top shape: 64 10 10 10 (64000)
I0608 14:05:57.332551 10922 net.cpp:137] Memory required for data: 370432
I0608 14:05:57.332581 10922 layer_factory.hpp:77] Creating layer relu1
I0608 14:05:57.332592 10922 net.cpp:84] Creating Layer relu1
I0608 14:05:57.332597 10922 net.cpp:406] relu1 <- conv1
I0608 14:05:57.332602 10922 net.cpp:367] relu1 -> conv1 (in-place)
I0608 14:05:57.332747 10922 net.cpp:122] Setting up relu1
I0608 14:05:57.332753 10922 net.cpp:129] Top shape: 64 10 10 10 (64000)
I0608 14:05:57.332769 10922 net.cpp:137] Memory required for data: 626432
I0608 14:05:57.332774 10922 layer_factory.hpp:77] Creating layer pool1
I0608 14:05:57.332794 10922 net.cpp:84] Creating Layer pool1
I0608 14:05:57.332798 10922 net.cpp:406] pool1 <- conv1
I0608 14:05:57.332800 10922 net.cpp:380] pool1 -> pool1
I0608 14:05:57.332846 10922 net.cpp:122] Setting up pool1
I0608 14:05:57.332851 10922 net.cpp:129] Top shape: 64 10 5 5 (16000)
I0608 14:05:57.332868 10922 net.cpp:137] Memory required for data: 690432
I0608 14:05:57.332870 10922 layer_factory.hpp:77] Creating layer conv2
I0608 14:05:57.332880 10922 net.cpp:84] Creating Layer conv2
I0608 14:05:57.332883 10922 net.cpp:406] conv2 <- pool1
I0608 14:05:57.332887 10922 net.cpp:380] conv2 -> conv2
I0608 14:05:57.334473 10922 net.cpp:122] Setting up conv2
I0608 14:05:57.334486 10922 net.cpp:129] Top shape: 64 16 3 3 (9216)
I0608 14:05:57.334489 10922 net.cpp:137] Memory required for data: 727296
I0608 14:05:57.334498 10922 layer_factory.hpp:77] Creating layer relu2
I0608 14:05:57.334503 10922 net.cpp:84] Creating Layer relu2
I0608 14:05:57.334507 10922 net.cpp:406] relu2 <- conv2
I0608 14:05:57.334511 10922 net.cpp:367] relu2 -> conv2 (in-place)
I0608 14:05:57.334576 10922 net.cpp:122] Setting up relu2
I0608 14:05:57.334581 10922 net.cpp:129] Top shape: 64 16 3 3 (9216)
I0608 14:05:57.334585 10922 net.cpp:137] Memory required for data: 764160
I0608 14:05:57.334589 10922 layer_factory.hpp:77] Creating layer conv3
I0608 14:05:57.334596 10922 net.cpp:84] Creating Layer conv3
I0608 14:05:57.334599 10922 net.cpp:406] conv3 <- conv2
I0608 14:05:57.334605 10922 net.cpp:380] conv3 -> conv3
I0608 14:05:57.336164 10922 net.cpp:122] Setting up conv3
I0608 14:05:57.336179 10922 net.cpp:129] Top shape: 64 32 1 1 (2048)
I0608 14:05:57.336182 10922 net.cpp:137] Memory required for data: 772352
I0608 14:05:57.336189 10922 layer_factory.hpp:77] Creating layer relu3
I0608 14:05:57.336194 10922 net.cpp:84] Creating Layer relu3
I0608 14:05:57.336197 10922 net.cpp:406] relu3 <- conv3
I0608 14:05:57.336202 10922 net.cpp:367] relu3 -> conv3 (in-place)
I0608 14:05:57.336266 10922 net.cpp:122] Setting up relu3
I0608 14:05:57.336271 10922 net.cpp:129] Top shape: 64 32 1 1 (2048)
I0608 14:05:57.336273 10922 net.cpp:137] Memory required for data: 780544
I0608 14:05:57.336280 10922 layer_factory.hpp:77] Creating layer conv3_relu3_0_split
I0608 14:05:57.336287 10922 net.cpp:84] Creating Layer conv3_relu3_0_split
I0608 14:05:57.336290 10922 net.cpp:406] conv3_relu3_0_split <- conv3
I0608 14:05:57.336294 10922 net.cpp:380] conv3_relu3_0_split -> conv3_relu3_0_split_0
I0608 14:05:57.336302 10922 net.cpp:380] conv3_relu3_0_split -> conv3_relu3_0_split_1
I0608 14:05:57.336307 10922 net.cpp:380] conv3_relu3_0_split -> conv3_relu3_0_split_2
I0608 14:05:57.336340 10922 net.cpp:122] Setting up conv3_relu3_0_split
I0608 14:05:57.336345 10922 net.cpp:129] Top shape: 64 32 1 1 (2048)
I0608 14:05:57.336369 10922 net.cpp:129] Top shape: 64 32 1 1 (2048)
I0608 14:05:57.336372 10922 net.cpp:129] Top shape: 64 32 1 1 (2048)
I0608 14:05:57.336375 10922 net.cpp:137] Memory required for data: 805120
I0608 14:05:57.336379 10922 layer_factory.hpp:77] Creating layer conv4-1
I0608 14:05:57.336386 10922 net.cpp:84] Creating Layer conv4-1
I0608 14:05:57.336390 10922 net.cpp:406] conv4-1 <- conv3_relu3_0_split_0
I0608 14:05:57.336393 10922 net.cpp:380] conv4-1 -> conv4-1
I0608 14:05:57.337679 10922 net.cpp:122] Setting up conv4-1
I0608 14:05:57.337689 10922 net.cpp:129] Top shape: 64 2 1 1 (128)
I0608 14:05:57.337692 10922 net.cpp:137] Memory required for data: 805632
I0608 14:05:57.337698 10922 layer_factory.hpp:77] Creating layer cls_bridge
I0608 14:05:57.337757 10922 net.cpp:84] Creating Layer cls_bridge
I0608 14:05:57.337762 10922 net.cpp:406] cls_bridge <- conv4-1
I0608 14:05:57.337767 10922 net.cpp:406] cls_bridge <- label
I0608 14:05:57.337777 10922 net.cpp:380] cls_bridge -> conv4-1-valid
I0608 14:05:57.337783 10922 net.cpp:380] cls_bridge -> label-valid
I0608 14:05:57.337908 10922 net.cpp:122] Setting up cls_bridge
I0608 14:05:57.337915 10922 net.cpp:129] Top shape: 64 2 1 1 (128)
I0608 14:05:57.337919 10922 net.cpp:129] Top shape: 64 1 (64)
I0608 14:05:57.337923 10922 net.cpp:137] Memory required for data: 806400
I0608 14:05:57.337925 10922 layer_factory.hpp:77] Creating layer conv4-1-valid_cls_bridge_0_split
I0608 14:05:57.337929 10922 net.cpp:84] Creating Layer conv4-1-valid_cls_bridge_0_split
I0608 14:05:57.337934 10922 net.cpp:406] conv4-1-valid_cls_bridge_0_split <- conv4-1-valid
I0608 14:05:57.337939 10922 net.cpp:380] conv4-1-valid_cls_bridge_0_split -> conv4-1-valid_cls_bridge_0_split_0
I0608 14:05:57.337944 10922 net.cpp:380] conv4-1-valid_cls_bridge_0_split -> conv4-1-valid_cls_bridge_0_split_1
I0608 14:05:57.337975 10922 net.cpp:122] Setting up conv4-1-valid_cls_bridge_0_split
I0608 14:05:57.337980 10922 net.cpp:129] Top shape: 64 2 1 1 (128)
I0608 14:05:57.337985 10922 net.cpp:129] Top shape: 64 2 1 1 (128)
I0608 14:05:57.337987 10922 net.cpp:137] Memory required for data: 807424
I0608 14:05:57.337990 10922 layer_factory.hpp:77] Creating layer label-valid_cls_bridge_1_split
I0608 14:05:57.337994 10922 net.cpp:84] Creating Layer label-valid_cls_bridge_1_split
I0608 14:05:57.337997 10922 net.cpp:406] label-valid_cls_bridge_1_split <- label-valid
I0608 14:05:57.338001 10922 net.cpp:380] label-valid_cls_bridge_1_split -> label-valid_cls_bridge_1_split_0
I0608 14:05:57.338008 10922 net.cpp:380] label-valid_cls_bridge_1_split -> label-valid_cls_bridge_1_split_1
I0608 14:05:57.338033 10922 net.cpp:122] Setting up label-valid_cls_bridge_1_split
I0608 14:05:57.338038 10922 net.cpp:129] Top shape: 64 1 (64)
I0608 14:05:57.338042 10922 net.cpp:129] Top shape: 64 1 (64)
I0608 14:05:57.338044 10922 net.cpp:137] Memory required for data: 807936
I0608 14:05:57.338047 10922 layer_factory.hpp:77] Creating layer cls_loss
I0608 14:05:57.338052 10922 net.cpp:84] Creating Layer cls_loss
I0608 14:05:57.338055 10922 net.cpp:406] cls_loss <- conv4-1-valid_cls_bridge_0_split_0
I0608 14:05:57.338059 10922 net.cpp:406] cls_loss <- label-valid_cls_bridge_1_split_0
I0608 14:05:57.338063 10922 net.cpp:380] cls_loss -> cls_loss
…
