…
snapshot: 20000
snapshot_prefix: "./models/"
solver_mode: GPU
device_id: 0
net: "train12.prototxt"
train_state {
  level: 0
  stage: ""
}
I0620 14:05:20.517953 13618 solver.cpp:87] Creating training net from net file: train12.prototxt
I0620 14:05:20.518221 13618 net.cpp:51] Initializing net from parameters: 
name: "face_12c"
state {
  phase: TRAIN
  level: 0
  stage: ""
}
layer {
  name: "PythonLayer"
  type: "Python"
  top: "data"
  top: "label"
  top: "roi"
  top: "pts"
  python_param {
    module: "pythonLayer"
    layer: "Data_Layer_train"
  }
}
layer {
  name: "conv1"
  type: "Convolution"
  bottom: "data"
  top: "conv1"
  param {
    lr_mult: 1
    decay_mult: 1
  }
  param {
    lr_mult: 2
    decay_mult: 0
  }
  convolution_param {
    num_output: 10
    kernel_size: 3
    stride: 1
    weight_filler {
      type: "xavier"
    }
    bias_filler {
      type: "constant"
      value: 0
    }
  }
}
layer {
  name: "PReLU1"
  type: "PReLU"
  bottom: "conv1"
  top: "conv1"
}
layer {
  name: "pool1"
  type: "Pooling"
  bottom: "conv1"
  top: "pool1"
  pooling_param {
    pool: MAX
    kernel_size: 2
    stride: 2
  }
}
layer {
  name: "conv2"
  type: "Convolution"
  bottom: "pool1"
  top: "conv2"
  param {
    lr_mult: 1
    decay_mult: 1
  }
  param {
    lr_mult: 2
    decay_mult: 0
  }
  convolution_param {
    num_output: 16
    kernel_size: 3
    stride: 1
    weight_filler {
      type: "xavier"
    }
    bias_filler {
      type: "constant"
      value: 0
    }
  }
}
layer {
  name: "PReLU2"
  type: "PReLU"
  bottom: "conv2"
  top: "conv2"
}
layer {
  name: "conv3"
  type: "Convolution"
  bottom: "conv2"
  top: "conv3"
  param {
    lr_mult: 1
    decay_mult: 1
  }
  param {
    lr_mult: 2
    decay_mult: 0
  }
  convolution_param {
    num_output: 32
    kernel_size: 3
    stride: 1
    weight_filler {
      type: "xavier"
    }
    bias_filler {
      type: "constant"
      value: 0
    }
  }
}
layer {
  name: "PReLU3"
  type: "PReLU"
  bottom: "conv3"
  top: "conv3"
}
layer {
  name: "conv4-1"
  type: "Convolution"
  bottom: "conv3"
  top: "conv4-1"
  param {
    lr_mult: 1
    decay_mult: 1
  }
  param {
    lr_mult: 2
    decay_mult: 0
  }
  convolution_param {
    num_output: 2
    kernel_size: 1
    stride: 1
    weight_filler {
      type: "xavier"
    }
    bias_filler {
      type: "constant"
      value: 0
    }
  }
}
layer {
  name: "cls_bridge"
  type: "Python"
  bottom: "conv4-1"
  bottom: "label"
  top: "conv4-1-valid"
  top: "label-valid"
  python_param {
    module: "pythonLayer"
    layer: "cls_Layer_fc"
  }
}
layer {
  name: "cls_loss"
  type: "SoftmaxWithLoss"
  bottom: "conv4-1-valid"
  bottom: "label-valid"
  top: "cls_loss"
  loss_weight: 1
  propagate_down: true
  propagate_down: false
}
layer {
  name: "cls_Acc"
  type: "Accuracy"
  bottom: "conv4-1-valid"
  bottom: "label-valid"
  top: "cls_Acc"
  include {
    phase: TRAIN
  }
}
layer {
  name: "conv4-2"
  type: "Convolution"
  bottom: "conv3"
  top: "conv4-2"
  param {
    lr_mult: 1
    decay_mult: 1
  }
  param {
    lr_mult: 2
    decay_mult: 0
  }
  convolution_param {
    num_output: 4
    kernel_size: 1
    stride: 1
    weight_filler {
      type: "xavier"
    }
    bias_filler {
      type: "constant"
      value: 0
    }
  }
}
layer {
  name: "roi_loss"
  type: "Python"
  bottom: "conv4-2"
  bottom: "roi"
  top: "roi_loss"
  loss_weight: 0.5
  python_param {
    module: "pythonLayer"
    layer: "regression_Layer"
  }
}
layer {
  name: "conv4-3"
  type: "Convolution"
  bottom: "conv3"
  top: "conv4-3"
  param {
    lr_mult: 1
    decay_mult: 1
  }
  param {
    lr_mult: 2
    decay_mult: 0
  }
  convolution_param {
    num_output: 10
    kernel_size: 1
    stride: 1
    weight_filler {
      type: "xavier"
    }
    bias_filler {
      type: "constant"
      value: 0
    }
  }
}
layer {
  name: "pts_loss"
  type: "Python"
  bottom: "conv4-3"
  bottom: "pts"
  top: "pts_loss"
  loss_weight: 0.5
  python_param {
    module: "pythonLayer"
    layer: "regression_Layer"
  }
}
I0620 14:05:20.518467 13618 layer_factory.hpp:77] Creating layer PythonLayer
I0620 14:05:20.926370 13618 net.cpp:84] Creating Layer PythonLayer
I0620 14:05:20.926409 13618 net.cpp:380] PythonLayer -> data
I0620 14:05:20.926437 13618 net.cpp:380] PythonLayer -> label
I0620 14:05:20.926450 13618 net.cpp:380] PythonLayer -> roi
I0620 14:05:20.926455 13618 net.cpp:380] PythonLayer -> pts
Start Reading Classify Data into Memory...

640000  Classify Data have been read into Memory...
Start Reading Regression Data into Memory...

360000  Regression Data have been read into Memory...
Start Reading pts-regression Data into Memory...

200000  pts-regression Data have been read into Memory...
I0620 14:12:05.608510 13618 net.cpp:122] Setting up PythonLayer
I0620 14:12:05.608775 13618 net.cpp:129] Top shape: 64 3 12 12 (27648)
I0620 14:12:05.608783 13618 net.cpp:129] Top shape: 64 1 (64)
I0620 14:12:05.608785 13618 net.cpp:129] Top shape: 64 4 (256)
I0620 14:12:05.608789 13618 net.cpp:129] Top shape: 64 10 (640)
I0620 14:12:05.608791 13618 net.cpp:137] Memory required for data: 114432
I0620 14:12:05.608800 13618 layer_factory.hpp:77] Creating layer conv1
I0620 14:12:05.608819 13618 net.cpp:84] Creating Layer conv1
I0620 14:12:05.608824 13618 net.cpp:406] conv1 <- data
I0620 14:12:05.608834 13618 net.cpp:380] conv1 -> conv1
I0620 14:12:05.943603 13618 net.cpp:122] Setting up conv1
I0620 14:12:05.943640 13618 net.cpp:129] Top shape: 64 10 10 10 (64000)
I0620 14:12:05.943645 13618 net.cpp:137] Memory required for data: 370432
I0620 14:12:05.943678 13618 layer_factory.hpp:77] Creating layer PReLU1
I0620 14:12:05.943702 13618 net.cpp:84] Creating Layer PReLU1
I0620 14:12:05.943706 13618 net.cpp:406] PReLU1 <- conv1
I0620 14:12:05.943711 13618 net.cpp:367] PReLU1 -> conv1 (in-place)
I0620 14:12:05.943789 13618 net.cpp:122] Setting up PReLU1
I0620 14:12:05.943807 13618 net.cpp:129] Top shape: 64 10 10 10 (64000)
I0620 14:12:05.943809 13618 net.cpp:137] Memory required for data: 626432
I0620 14:12:05.943827 13618 layer_factory.hpp:77] Creating layer pool1
I0620 14:12:05.943832 13618 net.cpp:84] Creating Layer pool1
I0620 14:12:05.943835 13618 net.cpp:406] pool1 <- conv1
I0620 14:12:05.943840 13618 net.cpp:380] pool1 -> pool1
I0620 14:12:05.943871 13618 net.cpp:122] Setting up pool1
I0620 14:12:05.943876 13618 net.cpp:129] Top shape: 64 10 5 5 (16000)
I0620 14:12:05.943878 13618 net.cpp:137] Memory required for data: 690432
I0620 14:12:05.943881 13618 layer_factory.hpp:77] Creating layer conv2
I0620 14:12:05.943889 13618 net.cpp:84] Creating Layer conv2
I0620 14:12:05.943892 13618 net.cpp:406] conv2 <- pool1
I0620 14:12:05.943897 13618 net.cpp:380] conv2 -> conv2
I0620 14:12:05.945302 13618 net.cpp:122] Setting up conv2
I0620 14:12:05.945312 13618 net.cpp:129] Top shape: 64 16 3 3 (9216)
I0620 14:12:05.945315 13618 net.cpp:137] Memory required for data: 727296
I0620 14:12:05.945322 13618 layer_factory.hpp:77] Creating layer PReLU2
I0620 14:12:05.945327 13618 net.cpp:84] Creating Layer PReLU2
I0620 14:12:05.945330 13618 net.cpp:406] PReLU2 <- conv2
I0620 14:12:05.945334 13618 net.cpp:367] PReLU2 -> conv2 (in-place)
I0620 14:12:05.945423 13618 net.cpp:122] Setting up PReLU2
I0620 14:12:05.945428 13618 net.cpp:129] Top shape: 64 16 3 3 (9216)
I0620 14:12:05.945444 13618 net.cpp:137] Memory required for data: 764160
I0620 14:12:05.945448 13618 layer_factory.hpp:77] Creating layer conv3
I0620 14:12:05.945454 13618 net.cpp:84] Creating Layer conv3
I0620 14:12:05.945457 13618 net.cpp:406] conv3 <- conv2
I0620 14:12:05.945461 13618 net.cpp:380] conv3 -> conv3
I0620 14:12:05.946840 13618 net.cpp:122] Setting up conv3
I0620 14:12:05.946863 13618 net.cpp:129] Top shape: 64 32 1 1 (2048)
I0620 14:12:05.946866 13618 net.cpp:137] Memory required for data: 772352
I0620 14:12:05.946871 13618 layer_factory.hpp:77] Creating layer PReLU3
I0620 14:12:05.946877 13618 net.cpp:84] Creating Layer PReLU3
I0620 14:12:05.946895 13618 net.cpp:406] PReLU3 <- conv3
I0620 14:12:05.946899 13618 net.cpp:367] PReLU3 -> conv3 (in-place)
I0620 14:12:05.946959 13618 net.cpp:122] Setting up PReLU3
I0620 14:12:05.946964 13618 net.cpp:129] Top shape: 64 32 1 1 (2048)
I0620 14:12:05.946969 13618 net.cpp:137] Memory required for data: 780544
I0620 14:12:05.946974 13618 layer_factory.hpp:77] Creating layer conv3_PReLU3_0_split
I0620 14:12:05.946979 13618 net.cpp:84] Creating Layer conv3_PReLU3_0_split
I0620 14:12:05.946981 13618 net.cpp:406] conv3_PReLU3_0_split <- conv3
I0620 14:12:05.946986 13618 net.cpp:380] conv3_PReLU3_0_split -> conv3_PReLU3_0_split_0
I0620 14:12:05.946992 13618 net.cpp:380] conv3_PReLU3_0_split -> conv3_PReLU3_0_split_1
I0620 14:12:05.946997 13618 net.cpp:380] conv3_PReLU3_0_split -> conv3_PReLU3_0_split_2
I0620 14:12:05.947041 13618 net.cpp:122] Setting up conv3_PReLU3_0_split
I0620 14:12:05.947046 13618 net.cpp:129] Top shape: 64 32 1 1 (2048)
I0620 14:12:05.947084 13618 net.cpp:129] Top shape: 64 32 1 1 (2048)
I0620 14:12:05.947088 13618 net.cpp:129] Top shape: 64 32 1 1 (2048)
I0620 14:12:05.947090 13618 net.cpp:137] Memory required for data: 805120
I0620 14:12:05.947094 13618 layer_factory.hpp:77] Creating layer conv4-1
I0620 14:12:05.947100 13618 net.cpp:84] Creating Layer conv4-1
I0620 14:12:05.947103 13618 net.cpp:406] conv4-1 <- conv3_PReLU3_0_split_0
I0620 14:12:05.947108 13618 net.cpp:380] conv4-1 -> conv4-1
I0620 14:12:05.948249 13618 net.cpp:122] Setting up conv4-1
I0620 14:12:05.948258 13618 net.cpp:129] Top shape: 64 2 1 1 (128)
I0620 14:12:05.948261 13618 net.cpp:137] Memory required for data: 805632
I0620 14:12:05.948266 13618 layer_factory.hpp:77] Creating layer cls_bridge
I0620 14:12:05.948323 13618 net.cpp:84] Creating Layer cls_bridge
I0620 14:12:05.948340 13618 net.cpp:406] cls_bridge <- conv4-1
I0620 14:12:05.948344 13618 net.cpp:406] cls_bridge <- label
I0620 14:12:05.948362 13618 net.cpp:380] cls_bridge -> conv4-1-valid
I0620 14:12:05.948367 13618 net.cpp:380] cls_bridge -> label-valid
I0620 14:12:05.948477 13618 net.cpp:122] Setting up cls_bridge
I0620 14:12:05.948482 13618 net.cpp:129] Top shape: 64 2 1 1 (128)
I0620 14:12:05.948499 13618 net.cpp:129] Top shape: 64 1 (64)
I0620 14:12:05.948503 13618 net.cpp:137] Memory required for data: 806400
I0620 14:12:05.948506 13618 layer_factory.hpp:77] Creating layer conv4-1-valid_cls_bridge_0_split
I0620 14:12:05.948510 13618 net.cpp:84] Creating Layer conv4-1-valid_cls_bridge_0_split
I0620 14:12:05.948514 13618 net.cpp:406] conv4-1-valid_cls_bridge_0_split <- conv4-1-valid
I0620 14:12:05.948519 13618 net.cpp:380] conv4-1-valid_cls_bridge_0_split -> conv4-1-valid_cls_bridge_0_split_0
I0620 14:12:05.948524 13618 net.cpp:380] conv4-1-valid_cls_bridge_0_split -> conv4-1-valid_cls_bridge_0_split_1
I0620 14:12:05.948549 13618 net.cpp:122] Setting up conv4-1-valid_cls_bridge_0_split
I0620 14:12:05.948554 13618 net.cpp:129] Top shape: 64 2 1 1 (128)
I0620 14:12:05.948559 13618 net.cpp:129] Top shape: 64 2 1 1 (128)
I0620 14:12:05.948560 13618 net.cpp:137] Memory required for data: 807424
I0620 14:12:05.948563 13618 layer_factory.hpp:77] Creating layer label-valid_cls_bridge_1_split
I0620 14:12:05.948567 13618 net.cpp:84] Creating Layer label-valid_cls_bridge_1_split
I0620 14:12:05.948570 13618 net.cpp:406] label-valid_cls_bridge_1_split <- label-valid
I0620 14:12:05.948575 13618 net.cpp:380] label-valid_cls_bridge_1_split -> label-valid_cls_bridge_1_split_0
I0620 14:12:05.948580 13618 net.cpp:380] label-valid_cls_bridge_1_split -> label-valid_cls_bridge_1_split_1
I0620 14:12:05.948606 13618 net.cpp:122] Setting up label-valid_cls_bridge_1_split
I0620 14:12:05.948611 13618 net.cpp:129] Top shape: 64 1 (64)
I0620 14:12:05.948613 13618 net.cpp:129] Top shape: 64 1 (64)
I0620 14:12:05.948616 13618 net.cpp:137] Memory required for data: 807936
I0620 14:12:05.948619 13618 layer_factory.hpp:77] Creating layer cls_loss
I0620 14:12:05.948624 13618 net.cpp:84] Creating Layer cls_loss
I0620 14:12:05.948627 13618 net.cpp:406] cls_loss <- conv4-1-valid_cls_bridge_0_split_0
I0620 14:12:05.948632 13618 net.cpp:406] cls_loss <- label-valid_cls_bridge_1_split_0
I0620 14:12:05.948647 13618 net.cpp:380] cls_loss -> cls_loss
…
