…
snapshot: 10000
snapshot_prefix: "./models/"
solver_mode: GPU
device_id: 0
net: "train12.prototxt"
train_state {
  level: 0
  stage: ""
}
I0608 17:00:46.151057 18839 solver.cpp:87] Creating training net from net file: train12.prototxt
I0608 17:00:46.151342 18839 net.cpp:51] Initializing net from parameters: 
name: "face_12c"
state {
  phase: TRAIN
  level: 0
  stage: ""
}
layer {
  name: "PythonLayer"
  type: "Python"
  top: "data"
  top: "label"
  top: "roi"
  top: "pts"
  python_param {
    module: "pythonLayer"
    layer: "Data_Layer_train"
  }
}
layer {
  name: "conv1"
  type: "Convolution"
  bottom: "data"
  top: "conv1"
  param {
    lr_mult: 1
  }
  param {
    lr_mult: 2
  }
  convolution_param {
    num_output: 10
    kernel_size: 3
    weight_filler {
      type: "gaussian"
      std: 0.0001
    }
    bias_filler {
      type: "constant"
    }
  }
}
layer {
  name: "relu1"
  type: "PReLU"
  bottom: "conv1"
  top: "conv1"
}
layer {
  name: "pool1"
  type: "Pooling"
  bottom: "conv1"
  top: "pool1"
  pooling_param {
    pool: MAX
    kernel_size: 3
    stride: 2
  }
}
layer {
  name: "conv2"
  type: "Convolution"
  bottom: "pool1"
  top: "conv2"
  param {
    lr_mult: 1
  }
  param {
    lr_mult: 2
  }
  convolution_param {
    num_output: 16
    kernel_size: 3
    weight_filler {
      type: "gaussian"
      std: 0.0001
    }
    bias_filler {
      type: "constant"
    }
  }
}
layer {
  name: "relu2"
  type: "PReLU"
  bottom: "conv2"
  top: "conv2"
}
layer {
  name: "conv3"
  type: "Convolution"
  bottom: "conv2"
  top: "conv3"
  param {
    lr_mult: 1
    decay_mult: 1
  }
  param {
    lr_mult: 2
    decay_mult: 0
  }
  convolution_param {
    num_output: 32
    kernel_size: 3
    stride: 1
    weight_filler {
      type: "xavier"
    }
    bias_filler {
      type: "constant"
      value: 0
    }
  }
}
layer {
  name: "relu3"
  type: "PReLU"
  bottom: "conv3"
  top: "conv3"
}
layer {
  name: "conv4-1"
  type: "Convolution"
  bottom: "conv3"
  top: "conv4-1"
  param {
    lr_mult: 1
    decay_mult: 1
  }
  param {
    lr_mult: 2
    decay_mult: 0
  }
  convolution_param {
    num_output: 2
    kernel_size: 1
    stride: 1
    weight_filler {
      type: "xavier"
    }
    bias_filler {
      type: "constant"
      value: 0
    }
  }
}
layer {
  name: "cls_bridge"
  type: "Python"
  bottom: "conv4-1"
  bottom: "label"
  top: "conv4-1-valid"
  top: "label-valid"
  python_param {
    module: "pythonLayer"
    layer: "cls_Layer_fc"
  }
}
layer {
  name: "cls_loss"
  type: "SoftmaxWithLoss"
  bottom: "conv4-1-valid"
  bottom: "label-valid"
  top: "cls_loss"
  loss_weight: 1
  propagate_down: true
  propagate_down: false
}
layer {
  name: "cls_Acc"
  type: "Accuracy"
  bottom: "conv4-1-valid"
  bottom: "label-valid"
  top: "cls_Acc"
  include {
    phase: TRAIN
  }
}
layer {
  name: "conv4-2"
  type: "Convolution"
  bottom: "conv3"
  top: "conv4-2"
  param {
    lr_mult: 1
    decay_mult: 1
  }
  param {
    lr_mult: 2
    decay_mult: 0
  }
  convolution_param {
    num_output: 4
    kernel_size: 1
    stride: 1
    weight_filler {
      type: "xavier"
    }
    bias_filler {
      type: "constant"
      value: 0
    }
  }
}
layer {
  name: "roi_loss"
  type: "Python"
  bottom: "conv4-2"
  bottom: "roi"
  top: "roi_loss"
  loss_weight: 0.5
  python_param {
    module: "pythonLayer"
    layer: "regression_Layer"
  }
}
layer {
  name: "conv4-3"
  type: "Convolution"
  bottom: "conv3"
  top: "conv4-3"
  param {
    lr_mult: 1
    decay_mult: 1
  }
  param {
    lr_mult: 2
    decay_mult: 0
  }
  convolution_param {
    num_output: 10
    kernel_size: 1
    stride: 1
    weight_filler {
      type: "xavier"
    }
    bias_filler {
      type: "constant"
      value: 0
    }
  }
}
layer {
  name: "pts_loss"
  type: "Python"
  bottom: "conv4-3"
  bottom: "pts"
  top: "pts_loss"
  loss_weight: 0.5
  python_param {
    module: "pythonLayer"
    layer: "regression_Layer"
  }
}
I0608 17:00:46.151553 18839 layer_factory.hpp:77] Creating layer PythonLayer
I0608 17:00:46.601630 18839 net.cpp:84] Creating Layer PythonLayer
I0608 17:00:46.601657 18839 net.cpp:380] PythonLayer -> data
I0608 17:00:46.601687 18839 net.cpp:380] PythonLayer -> label
I0608 17:00:46.601696 18839 net.cpp:380] PythonLayer -> roi
I0608 17:00:46.601701 18839 net.cpp:380] PythonLayer -> pts
Start Reading Classify Data into Memory...

788878  Classify Data have been read into Memory...
Start Reading Regression Data into Memory...

488878  Regression Data have been read into Memory...
Start Reading pts-regression Data into Memory...

202599  pts-regression Data have been read into Memory...
I0608 17:10:37.203120 18839 net.cpp:122] Setting up PythonLayer
I0608 17:10:37.209275 18839 net.cpp:129] Top shape: 64 3 12 12 (27648)
I0608 17:10:37.209314 18839 net.cpp:129] Top shape: 64 1 (64)
I0608 17:10:37.209334 18839 net.cpp:129] Top shape: 64 4 (256)
I0608 17:10:37.209347 18839 net.cpp:129] Top shape: 64 10 (640)
I0608 17:10:37.209352 18839 net.cpp:137] Memory required for data: 114432
I0608 17:10:37.212111 18839 layer_factory.hpp:77] Creating layer conv1
I0608 17:10:37.215056 18839 net.cpp:84] Creating Layer conv1
I0608 17:10:37.215075 18839 net.cpp:406] conv1 <- data
I0608 17:10:37.215397 18839 net.cpp:380] conv1 -> conv1
I0608 17:10:38.923957 18839 net.cpp:122] Setting up conv1
I0608 17:10:38.926457 18839 net.cpp:129] Top shape: 64 10 10 10 (64000)
I0608 17:10:38.926463 18839 net.cpp:137] Memory required for data: 370432
I0608 17:10:38.932829 18839 layer_factory.hpp:77] Creating layer relu1
I0608 17:10:38.935191 18839 net.cpp:84] Creating Layer relu1
I0608 17:10:38.935201 18839 net.cpp:406] relu1 <- conv1
I0608 17:10:38.935222 18839 net.cpp:367] relu1 -> conv1 (in-place)
I0608 17:10:38.936424 18839 net.cpp:122] Setting up relu1
I0608 17:10:38.936432 18839 net.cpp:129] Top shape: 64 10 10 10 (64000)
I0608 17:10:38.936450 18839 net.cpp:137] Memory required for data: 626432
I0608 17:10:38.936455 18839 layer_factory.hpp:77] Creating layer pool1
I0608 17:10:38.936466 18839 net.cpp:84] Creating Layer pool1
I0608 17:10:38.936470 18839 net.cpp:406] pool1 <- conv1
I0608 17:10:38.936475 18839 net.cpp:380] pool1 -> pool1
I0608 17:10:38.938601 18839 net.cpp:122] Setting up pool1
I0608 17:10:38.938612 18839 net.cpp:129] Top shape: 64 10 5 5 (16000)
I0608 17:10:38.938629 18839 net.cpp:137] Memory required for data: 690432
I0608 17:10:38.938633 18839 layer_factory.hpp:77] Creating layer conv2
I0608 17:10:38.938642 18839 net.cpp:84] Creating Layer conv2
I0608 17:10:38.938647 18839 net.cpp:406] conv2 <- pool1
I0608 17:10:38.938652 18839 net.cpp:380] conv2 -> conv2
I0608 17:10:38.941104 18839 net.cpp:122] Setting up conv2
I0608 17:10:38.941121 18839 net.cpp:129] Top shape: 64 16 3 3 (9216)
I0608 17:10:38.941125 18839 net.cpp:137] Memory required for data: 727296
I0608 17:10:38.941135 18839 layer_factory.hpp:77] Creating layer relu2
I0608 17:10:38.941154 18839 net.cpp:84] Creating Layer relu2
I0608 17:10:38.941172 18839 net.cpp:406] relu2 <- conv2
I0608 17:10:38.941177 18839 net.cpp:367] relu2 -> conv2 (in-place)
I0608 17:10:38.941253 18839 net.cpp:122] Setting up relu2
I0608 17:10:38.941258 18839 net.cpp:129] Top shape: 64 16 3 3 (9216)
I0608 17:10:38.941275 18839 net.cpp:137] Memory required for data: 764160
I0608 17:10:38.941278 18839 layer_factory.hpp:77] Creating layer conv3
I0608 17:10:38.941287 18839 net.cpp:84] Creating Layer conv3
I0608 17:10:38.941288 18839 net.cpp:406] conv3 <- conv2
I0608 17:10:38.941293 18839 net.cpp:380] conv3 -> conv3
I0608 17:10:38.944053 18839 net.cpp:122] Setting up conv3
I0608 17:10:38.944083 18839 net.cpp:129] Top shape: 64 32 1 1 (2048)
I0608 17:10:38.944087 18839 net.cpp:137] Memory required for data: 772352
I0608 17:10:38.944094 18839 layer_factory.hpp:77] Creating layer relu3
I0608 17:10:38.944100 18839 net.cpp:84] Creating Layer relu3
I0608 17:10:38.944103 18839 net.cpp:406] relu3 <- conv3
I0608 17:10:38.944108 18839 net.cpp:367] relu3 -> conv3 (in-place)
I0608 17:10:38.944218 18839 net.cpp:122] Setting up relu3
I0608 17:10:38.944223 18839 net.cpp:129] Top shape: 64 32 1 1 (2048)
I0608 17:10:38.944238 18839 net.cpp:137] Memory required for data: 780544
I0608 17:10:38.944244 18839 layer_factory.hpp:77] Creating layer conv3_relu3_0_split
I0608 17:10:38.945060 18839 net.cpp:84] Creating Layer conv3_relu3_0_split
I0608 17:10:38.945065 18839 net.cpp:406] conv3_relu3_0_split <- conv3
I0608 17:10:38.945070 18839 net.cpp:380] conv3_relu3_0_split -> conv3_relu3_0_split_0
I0608 17:10:38.945077 18839 net.cpp:380] conv3_relu3_0_split -> conv3_relu3_0_split_1
I0608 17:10:38.945082 18839 net.cpp:380] conv3_relu3_0_split -> conv3_relu3_0_split_2
I0608 17:10:38.945116 18839 net.cpp:122] Setting up conv3_relu3_0_split
I0608 17:10:38.945122 18839 net.cpp:129] Top shape: 64 32 1 1 (2048)
I0608 17:10:38.945586 18839 net.cpp:129] Top shape: 64 32 1 1 (2048)
I0608 17:10:38.945590 18839 net.cpp:129] Top shape: 64 32 1 1 (2048)
I0608 17:10:38.945593 18839 net.cpp:137] Memory required for data: 805120
I0608 17:10:38.945596 18839 layer_factory.hpp:77] Creating layer conv4-1
I0608 17:10:38.945605 18839 net.cpp:84] Creating Layer conv4-1
I0608 17:10:38.945607 18839 net.cpp:406] conv4-1 <- conv3_relu3_0_split_0
I0608 17:10:38.945612 18839 net.cpp:380] conv4-1 -> conv4-1
I0608 17:10:38.946882 18839 net.cpp:122] Setting up conv4-1
I0608 17:10:38.946894 18839 net.cpp:129] Top shape: 64 2 1 1 (128)
I0608 17:10:38.946897 18839 net.cpp:137] Memory required for data: 805632
I0608 17:10:38.946903 18839 layer_factory.hpp:77] Creating layer cls_bridge
I0608 17:10:38.965693 18839 net.cpp:84] Creating Layer cls_bridge
I0608 17:10:38.965710 18839 net.cpp:406] cls_bridge <- conv4-1
I0608 17:10:38.965716 18839 net.cpp:406] cls_bridge <- label
I0608 17:10:38.965720 18839 net.cpp:380] cls_bridge -> conv4-1-valid
I0608 17:10:38.965726 18839 net.cpp:380] cls_bridge -> label-valid
I0608 17:10:38.971802 18839 net.cpp:122] Setting up cls_bridge
I0608 17:10:38.971834 18839 net.cpp:129] Top shape: 64 2 1 1 (128)
I0608 17:10:38.971839 18839 net.cpp:129] Top shape: 64 1 (64)
I0608 17:10:38.971843 18839 net.cpp:137] Memory required for data: 806400
I0608 17:10:38.971846 18839 layer_factory.hpp:77] Creating layer conv4-1-valid_cls_bridge_0_split
I0608 17:10:38.971853 18839 net.cpp:84] Creating Layer conv4-1-valid_cls_bridge_0_split
I0608 17:10:38.971858 18839 net.cpp:406] conv4-1-valid_cls_bridge_0_split <- conv4-1-valid
I0608 17:10:38.971875 18839 net.cpp:380] conv4-1-valid_cls_bridge_0_split -> conv4-1-valid_cls_bridge_0_split_0
I0608 17:10:38.971882 18839 net.cpp:380] conv4-1-valid_cls_bridge_0_split -> conv4-1-valid_cls_bridge_0_split_1
I0608 17:10:38.971913 18839 net.cpp:122] Setting up conv4-1-valid_cls_bridge_0_split
I0608 17:10:38.971917 18839 net.cpp:129] Top shape: 64 2 1 1 (128)
I0608 17:10:38.971921 18839 net.cpp:129] Top shape: 64 2 1 1 (128)
I0608 17:10:38.971923 18839 net.cpp:137] Memory required for data: 807424
I0608 17:10:38.971926 18839 layer_factory.hpp:77] Creating layer label-valid_cls_bridge_1_split
I0608 17:10:38.971930 18839 net.cpp:84] Creating Layer label-valid_cls_bridge_1_split
I0608 17:10:38.971933 18839 net.cpp:406] label-valid_cls_bridge_1_split <- label-valid
I0608 17:10:38.971937 18839 net.cpp:380] label-valid_cls_bridge_1_split -> label-valid_cls_bridge_1_split_0
I0608 17:10:38.971945 18839 net.cpp:380] label-valid_cls_bridge_1_split -> label-valid_cls_bridge_1_split_1
I0608 17:10:38.971968 18839 net.cpp:122] Setting up label-valid_cls_bridge_1_split
I0608 17:10:38.971973 18839 net.cpp:129] Top shape: 64 1 (64)
I0608 17:10:38.971976 18839 net.cpp:129] Top shape: 64 1 (64)
I0608 17:10:38.971979 18839 net.cpp:137] Memory required for data: 807936
I0608 17:10:38.971982 18839 layer_factory.hpp:77] Creating layer cls_loss
I0608 17:10:38.971992 18839 net.cpp:84] Creating Layer cls_loss
I0608 17:10:38.971995 18839 net.cpp:406] cls_loss <- conv4-1-valid_cls_bridge_0_split_0
I0608 17:10:38.971998 18839 net.cpp:406] cls_loss <- label-valid_cls_bridge_1_split_0
I0608 17:10:38.972002 18839 net.cpp:380] cls_loss -> cls_loss
…
