…
snapshot: 10000
snapshot_prefix: "./models/"
solver_mode: GPU
device_id: 0
net: "train12.prototxt"
train_state {
  level: 0
  stage: ""
}
I0608 11:24:49.732771  6137 solver.cpp:87] Creating training net from net file: train12.prototxt
I0608 11:24:49.733034  6137 net.cpp:51] Initializing net from parameters: 
name: "face_12c"
state {
  phase: TRAIN
  level: 0
  stage: ""
}
layer {
  name: "PythonLayer"
  type: "Python"
  top: "data"
  top: "label"
  top: "roi"
  top: "pts"
  python_param {
    module: "pythonLayer"
    layer: "Data_Layer_train"
  }
}
layer {
  name: "conv1"
  type: "Convolution"
  bottom: "data"
  top: "conv1"
  param {
    lr_mult: 1
  }
  param {
    lr_mult: 2
  }
  convolution_param {
    num_output: 10
    kernel_size: 3
    weight_filler {
      type: "gaussian"
      std: 0.0001
    }
    bias_filler {
      type: "constant"
    }
  }
}
layer {
  name: "relu1"
  type: "PReLU"
  bottom: "conv1"
  top: "conv1"
}
layer {
  name: "pool1"
  type: "Pooling"
  bottom: "conv1"
  top: "pool1"
  pooling_param {
    pool: MAX
    kernel_size: 3
    stride: 2
  }
}
layer {
  name: "conv2"
  type: "Convolution"
  bottom: "pool1"
  top: "conv2"
  param {
    lr_mult: 1
  }
  param {
    lr_mult: 2
  }
  convolution_param {
    num_output: 16
    kernel_size: 3
    weight_filler {
      type: "gaussian"
      std: 0.0001
    }
    bias_filler {
      type: "constant"
    }
  }
}
layer {
  name: "relu2"
  type: "PReLU"
  bottom: "conv2"
  top: "conv2"
}
layer {
  name: "conv3"
  type: "Convolution"
  bottom: "conv2"
  top: "conv3"
  param {
    lr_mult: 1
    decay_mult: 1
  }
  param {
    lr_mult: 2
    decay_mult: 0
  }
  convolution_param {
    num_output: 32
    kernel_size: 3
    stride: 1
    weight_filler {
      type: "xavier"
    }
    bias_filler {
      type: "constant"
      value: 0
    }
  }
}
layer {
  name: "relu3"
  type: "PReLU"
  bottom: "conv3"
  top: "conv3"
}
layer {
  name: "conv4-1"
  type: "Convolution"
  bottom: "conv3"
  top: "conv4-1"
  param {
    lr_mult: 1
    decay_mult: 1
  }
  param {
    lr_mult: 2
    decay_mult: 0
  }
  convolution_param {
    num_output: 2
    kernel_size: 1
    stride: 1
    weight_filler {
      type: "xavier"
    }
    bias_filler {
      type: "constant"
      value: 0
    }
  }
}
layer {
  name: "cls_bridge"
  type: "Python"
  bottom: "conv4-1"
  bottom: "label"
  top: "conv4-1-valid"
  top: "label-valid"
  python_param {
    module: "pythonLayer"
    layer: "cls_Layer_fc"
  }
}
layer {
  name: "cls_loss"
  type: "SoftmaxWithLoss"
  bottom: "conv4-1-valid"
  bottom: "label-valid"
  top: "cls_loss"
  loss_weight: 1
  propagate_down: true
  propagate_down: false
}
layer {
  name: "cls_Acc"
  type: "Accuracy"
  bottom: "conv4-1-valid"
  bottom: "label-valid"
  top: "cls_Acc"
  include {
    phase: TRAIN
  }
}
layer {
  name: "conv4-2"
  type: "Convolution"
  bottom: "conv3"
  top: "conv4-2"
  param {
    lr_mult: 1
    decay_mult: 1
  }
  param {
    lr_mult: 2
    decay_mult: 0
  }
  convolution_param {
    num_output: 4
    kernel_size: 1
    stride: 1
    weight_filler {
      type: "xavier"
    }
    bias_filler {
      type: "constant"
      value: 0
    }
  }
}
layer {
  name: "roi_loss"
  type: "Python"
  bottom: "conv4-2"
  bottom: "roi"
  top: "roi_loss"
  loss_weight: 0.5
  python_param {
    module: "pythonLayer"
    layer: "regression_Layer"
  }
}
layer {
  name: "conv4-3"
  type: "Convolution"
  bottom: "conv3"
  top: "conv4-3"
  param {
    lr_mult: 1
    decay_mult: 1
  }
  param {
    lr_mult: 2
    decay_mult: 0
  }
  convolution_param {
    num_output: 10
    kernel_size: 1
    stride: 1
    weight_filler {
      type: "xavier"
    }
    bias_filler {
      type: "constant"
      value: 0
    }
  }
}
layer {
  name: "pts_loss"
  type: "Python"
  bottom: "conv4-3"
  bottom: "pts"
  top: "pts_loss"
  loss_weight: 0.5
  python_param {
    module: "pythonLayer"
    layer: "regression_Layer"
  }
}
I0608 11:24:49.733305  6137 layer_factory.hpp:77] Creating layer PythonLayer
I0608 11:24:50.393815  6137 net.cpp:84] Creating Layer PythonLayer
I0608 11:24:50.393852  6137 net.cpp:380] PythonLayer -> data
I0608 11:24:50.393882  6137 net.cpp:380] PythonLayer -> label
I0608 11:24:50.393918  6137 net.cpp:380] PythonLayer -> roi
I0608 11:24:50.393923  6137 net.cpp:380] PythonLayer -> pts
Start Reading Classify Data into Memory...

788878  Classify Data have been read into Memory...
Start Reading Regression Data into Memory...

488878  Regression Data have been read into Memory...
Start Reading pts-regression Data into Memory...

202599  pts-regression Data have been read into Memory...
I0608 11:33:24.057171  6137 net.cpp:122] Setting up PythonLayer
I0608 11:33:24.057425  6137 net.cpp:129] Top shape: 64 3 12 12 (27648)
I0608 11:33:24.057430  6137 net.cpp:129] Top shape: 64 1 (64)
I0608 11:33:24.057446  6137 net.cpp:129] Top shape: 64 4 (256)
I0608 11:33:24.057448  6137 net.cpp:129] Top shape: 64 10 (640)
I0608 11:33:24.057451  6137 net.cpp:137] Memory required for data: 114432
I0608 11:33:24.057472  6137 layer_factory.hpp:77] Creating layer conv1
I0608 11:33:24.057521  6137 net.cpp:84] Creating Layer conv1
I0608 11:33:24.057540  6137 net.cpp:406] conv1 <- data
I0608 11:33:24.057551  6137 net.cpp:380] conv1 -> conv1
I0608 11:33:24.612015  6137 net.cpp:122] Setting up conv1
I0608 11:33:24.612077  6137 net.cpp:129] Top shape: 64 10 10 10 (64000)
I0608 11:33:24.612087  6137 net.cpp:137] Memory required for data: 370432
I0608 11:33:24.612146  6137 layer_factory.hpp:77] Creating layer relu1
I0608 11:33:24.612177  6137 net.cpp:84] Creating Layer relu1
I0608 11:33:24.612187  6137 net.cpp:406] relu1 <- conv1
I0608 11:33:24.612203  6137 net.cpp:367] relu1 -> conv1 (in-place)
I0608 11:33:24.612448  6137 net.cpp:122] Setting up relu1
I0608 11:33:24.612465  6137 net.cpp:129] Top shape: 64 10 10 10 (64000)
I0608 11:33:24.612473  6137 net.cpp:137] Memory required for data: 626432
I0608 11:33:24.612485  6137 layer_factory.hpp:77] Creating layer pool1
I0608 11:33:24.612500  6137 net.cpp:84] Creating Layer pool1
I0608 11:33:24.612510  6137 net.cpp:406] pool1 <- conv1
I0608 11:33:24.612524  6137 net.cpp:380] pool1 -> pool1
I0608 11:33:24.612619  6137 net.cpp:122] Setting up pool1
I0608 11:33:24.612634  6137 net.cpp:129] Top shape: 64 10 5 5 (16000)
I0608 11:33:24.612642  6137 net.cpp:137] Memory required for data: 690432
I0608 11:33:24.612648  6137 layer_factory.hpp:77] Creating layer conv2
I0608 11:33:24.612671  6137 net.cpp:84] Creating Layer conv2
I0608 11:33:24.612681  6137 net.cpp:406] conv2 <- pool1
I0608 11:33:24.612694  6137 net.cpp:380] conv2 -> conv2
I0608 11:33:24.616945  6137 net.cpp:122] Setting up conv2
I0608 11:33:24.616972  6137 net.cpp:129] Top shape: 64 16 3 3 (9216)
I0608 11:33:24.616981  6137 net.cpp:137] Memory required for data: 727296
I0608 11:33:24.616997  6137 layer_factory.hpp:77] Creating layer relu2
I0608 11:33:24.617013  6137 net.cpp:84] Creating Layer relu2
I0608 11:33:24.617022  6137 net.cpp:406] relu2 <- conv2
I0608 11:33:24.617033  6137 net.cpp:367] relu2 -> conv2 (in-place)
I0608 11:33:24.617203  6137 net.cpp:122] Setting up relu2
I0608 11:33:24.617218  6137 net.cpp:129] Top shape: 64 16 3 3 (9216)
I0608 11:33:24.617225  6137 net.cpp:137] Memory required for data: 764160
I0608 11:33:24.617233  6137 layer_factory.hpp:77] Creating layer conv3
I0608 11:33:24.617249  6137 net.cpp:84] Creating Layer conv3
I0608 11:33:24.617259  6137 net.cpp:406] conv3 <- conv2
I0608 11:33:24.617271  6137 net.cpp:380] conv3 -> conv3
I0608 11:33:24.621230  6137 net.cpp:122] Setting up conv3
I0608 11:33:24.621258  6137 net.cpp:129] Top shape: 64 32 1 1 (2048)
I0608 11:33:24.621268  6137 net.cpp:137] Memory required for data: 772352
I0608 11:33:24.621279  6137 layer_factory.hpp:77] Creating layer relu3
I0608 11:33:24.621292  6137 net.cpp:84] Creating Layer relu3
I0608 11:33:24.621301  6137 net.cpp:406] relu3 <- conv3
I0608 11:33:24.621315  6137 net.cpp:367] relu3 -> conv3 (in-place)
I0608 11:33:24.621484  6137 net.cpp:122] Setting up relu3
I0608 11:33:24.621498  6137 net.cpp:129] Top shape: 64 32 1 1 (2048)
I0608 11:33:24.621505  6137 net.cpp:137] Memory required for data: 780544
I0608 11:33:24.621520  6137 layer_factory.hpp:77] Creating layer conv3_relu3_0_split
I0608 11:33:24.621533  6137 net.cpp:84] Creating Layer conv3_relu3_0_split
I0608 11:33:24.621542  6137 net.cpp:406] conv3_relu3_0_split <- conv3
I0608 11:33:24.621554  6137 net.cpp:380] conv3_relu3_0_split -> conv3_relu3_0_split_0
I0608 11:33:24.621572  6137 net.cpp:380] conv3_relu3_0_split -> conv3_relu3_0_split_1
I0608 11:33:24.621587  6137 net.cpp:380] conv3_relu3_0_split -> conv3_relu3_0_split_2
I0608 11:33:24.621678  6137 net.cpp:122] Setting up conv3_relu3_0_split
I0608 11:33:24.621691  6137 net.cpp:129] Top shape: 64 32 1 1 (2048)
I0608 11:33:24.621752  6137 net.cpp:129] Top shape: 64 32 1 1 (2048)
I0608 11:33:24.621763  6137 net.cpp:129] Top shape: 64 32 1 1 (2048)
I0608 11:33:24.621770  6137 net.cpp:137] Memory required for data: 805120
I0608 11:33:24.621778  6137 layer_factory.hpp:77] Creating layer conv4-1
I0608 11:33:24.621798  6137 net.cpp:84] Creating Layer conv4-1
I0608 11:33:24.621807  6137 net.cpp:406] conv4-1 <- conv3_relu3_0_split_0
I0608 11:33:24.621821  6137 net.cpp:380] conv4-1 -> conv4-1
I0608 11:33:24.624753  6137 net.cpp:122] Setting up conv4-1
I0608 11:33:24.624773  6137 net.cpp:129] Top shape: 64 2 1 1 (128)
I0608 11:33:24.624780  6137 net.cpp:137] Memory required for data: 805632
I0608 11:33:24.624790  6137 layer_factory.hpp:77] Creating layer cls_bridge
I0608 11:33:24.624892  6137 net.cpp:84] Creating Layer cls_bridge
I0608 11:33:24.624902  6137 net.cpp:406] cls_bridge <- conv4-1
I0608 11:33:24.624910  6137 net.cpp:406] cls_bridge <- label
I0608 11:33:24.624918  6137 net.cpp:380] cls_bridge -> conv4-1-valid
I0608 11:33:24.624927  6137 net.cpp:380] cls_bridge -> label-valid
I0608 11:33:24.625171  6137 net.cpp:122] Setting up cls_bridge
I0608 11:33:24.625186  6137 net.cpp:129] Top shape: 64 2 1 1 (128)
I0608 11:33:24.625192  6137 net.cpp:129] Top shape: 64 1 (64)
I0608 11:33:24.625196  6137 net.cpp:137] Memory required for data: 806400
I0608 11:33:24.625202  6137 layer_factory.hpp:77] Creating layer conv4-1-valid_cls_bridge_0_split
I0608 11:33:24.625211  6137 net.cpp:84] Creating Layer conv4-1-valid_cls_bridge_0_split
I0608 11:33:24.625216  6137 net.cpp:406] conv4-1-valid_cls_bridge_0_split <- conv4-1-valid
I0608 11:33:24.625226  6137 net.cpp:380] conv4-1-valid_cls_bridge_0_split -> conv4-1-valid_cls_bridge_0_split_0
I0608 11:33:24.625238  6137 net.cpp:380] conv4-1-valid_cls_bridge_0_split -> conv4-1-valid_cls_bridge_0_split_1
I0608 11:33:24.625291  6137 net.cpp:122] Setting up conv4-1-valid_cls_bridge_0_split
I0608 11:33:24.625300  6137 net.cpp:129] Top shape: 64 2 1 1 (128)
I0608 11:33:24.625306  6137 net.cpp:129] Top shape: 64 2 1 1 (128)
I0608 11:33:24.625311  6137 net.cpp:137] Memory required for data: 807424
I0608 11:33:24.625315  6137 layer_factory.hpp:77] Creating layer label-valid_cls_bridge_1_split
I0608 11:33:24.625322  6137 net.cpp:84] Creating Layer label-valid_cls_bridge_1_split
I0608 11:33:24.625327  6137 net.cpp:406] label-valid_cls_bridge_1_split <- label-valid
I0608 11:33:24.625336  6137 net.cpp:380] label-valid_cls_bridge_1_split -> label-valid_cls_bridge_1_split_0
I0608 11:33:24.625351  6137 net.cpp:380] label-valid_cls_bridge_1_split -> label-valid_cls_bridge_1_split_1
I0608 11:33:24.625403  6137 net.cpp:122] Setting up label-valid_cls_bridge_1_split
I0608 11:33:24.625413  6137 net.cpp:129] Top shape: 64 1 (64)
I0608 11:33:24.625421  6137 net.cpp:129] Top shape: 64 1 (64)
I0608 11:33:24.625424  6137 net.cpp:137] Memory required for data: 807936
I0608 11:33:24.625428  6137 layer_factory.hpp:77] Creating layer cls_loss
I0608 11:33:24.625437  6137 net.cpp:84] Creating Layer cls_loss
I0608 11:33:24.625443  6137 net.cpp:406] cls_loss <- conv4-1-valid_cls_bridge_0_split_0
I0608 11:33:24.625452  6137 net.cpp:406] cls_loss <- label-valid_cls_bridge_1_split_0
I0608 11:33:24.625460  6137 net.cpp:380] cls_loss -> cls_loss
…
