…
snapshot: 10000
snapshot_prefix: "./models/"
solver_mode: GPU
device_id: 0
net: "train24.prototxt"
train_state {
  level: 0
  stage: ""
}
I0618 12:46:05.914454  8453 solver.cpp:87] Creating training net from net file: train24.prototxt
I0618 12:46:05.915408  8453 net.cpp:51] Initializing net from parameters: 
name: "face_24c"
state {
  phase: TRAIN
  level: 0
  stage: ""
}
layer {
  name: "PythonLayer"
  type: "Python"
  top: "data"
  top: "label"
  top: "roi"
  top: "pts"
  python_param {
    module: "pythonLayer"
    layer: "Data_Layer_train"
  }
}
layer {
  name: "conv1"
  type: "Convolution"
  bottom: "data"
  top: "conv1"
  param {
    lr_mult: 0
    decay_mult: 0
  }
  param {
    lr_mult: 0
    decay_mult: 0
  }
  convolution_param {
    num_output: 28
    kernel_size: 3
    weight_filler {
      type: "gaussian"
      std: 0.0001
    }
    bias_filler {
      type: "constant"
      value: 0
    }
  }
}
layer {
  name: "relu1"
  type: "PReLU"
  bottom: "conv1"
  top: "conv1"
}
layer {
  name: "pool1"
  type: "Pooling"
  bottom: "conv1"
  top: "pool1"
  pooling_param {
    pool: MAX
    kernel_size: 3
    stride: 2
  }
}
layer {
  name: "conv2"
  type: "Convolution"
  bottom: "pool1"
  top: "conv2"
  param {
    lr_mult: 1
  }
  param {
    lr_mult: 2
  }
  convolution_param {
    num_output: 48
    kernel_size: 3
    weight_filler {
      type: "gaussian"
      std: 0.0001
    }
    bias_filler {
      type: "constant"
    }
  }
}
layer {
  name: "relu2"
  type: "PReLU"
  bottom: "conv2"
  top: "conv2"
}
layer {
  name: "pool2"
  type: "Pooling"
  bottom: "conv2"
  top: "pool2"
  pooling_param {
    pool: MAX
    kernel_size: 3
    stride: 2
  }
}
layer {
  name: "conv3"
  type: "Convolution"
  bottom: "pool2"
  top: "conv3"
  param {
    lr_mult: 1
    decay_mult: 1
  }
  param {
    lr_mult: 2
    decay_mult: 0
  }
  convolution_param {
    num_output: 64
    kernel_size: 2
    stride: 1
    weight_filler {
      type: "xavier"
    }
    bias_filler {
      type: "constant"
      value: 0
    }
  }
}
layer {
  name: "relu3"
  type: "PReLU"
  bottom: "conv3"
  top: "conv3"
}
layer {
  name: "fc4"
  type: "InnerProduct"
  bottom: "conv3"
  top: "fc4"
  param {
    lr_mult: 1
    decay_mult: 1
  }
  param {
    lr_mult: 2
    decay_mult: 0
  }
  inner_product_param {
    num_output: 128
    weight_filler {
      type: "xavier"
    }
    bias_filler {
      type: "constant"
      value: 0
    }
  }
}
layer {
  name: "relu4"
  type: "PReLU"
  bottom: "fc4"
  top: "fc4"
}
layer {
  name: "fc5-1"
  type: "InnerProduct"
  bottom: "fc4"
  top: "fc5-1"
  param {
    lr_mult: 1
    decay_mult: 1
  }
  param {
    lr_mult: 2
    decay_mult: 0
  }
  inner_product_param {
    num_output: 2
    weight_filler {
      type: "xavier"
    }
    bias_filler {
      type: "constant"
      value: 0
    }
  }
}
layer {
  name: "cls_bridge"
  type: "Python"
  bottom: "fc5-1"
  bottom: "label"
  top: "fc5-1-valid"
  top: "label-valid"
  python_param {
    module: "pythonLayer"
    layer: "cls_Layer"
  }
}
layer {
  name: "cls_loss"
  type: "SoftmaxWithLoss"
  bottom: "fc5-1-valid"
  bottom: "label-valid"
  top: "cls_loss"
  loss_weight: 1
  propagate_down: true
  propagate_down: false
}
layer {
  name: "cls_acc"
  type: "Accuracy"
  bottom: "fc5-1-valid"
  bottom: "label-valid"
  top: "cls_acc"
  include {
    phase: TRAIN
  }
}
layer {
  name: "fc5-2"
  type: "InnerProduct"
  bottom: "fc4"
  top: "fc5-2"
  param {
    lr_mult: 1
    decay_mult: 1
  }
  param {
    lr_mult: 2
    decay_mult: 0
  }
  inner_product_param {
    num_output: 4
    weight_filler {
      type: "xavier"
    }
    bias_filler {
      type: "constant"
      value: 0
    }
  }
}
layer {
  name: "roi_bridge"
  type: "Python"
  bottom: "fc5-2"
  bottom: "roi"
  top: "fc5-2-valid"
  top: "roi-valid"
  propagate_down: true
  propagate_down: false
  python_param {
    module: "pythonLayer"
    layer: "roi_filter_Layer"
  }
}
layer {
  name: "roi_loss"
  type: "EuclideanLoss"
  bottom: "fc5-2-valid"
  bottom: "roi-valid"
  top: "roi_loss"
  loss_weight: 0.5
  propagate_down: true
  propagate_down: false
}
layer {
  name: "fc5-3"
  type: "InnerProduct"
  bottom: "fc4"
  top: "fc5-3"
  param {
    lr_mult: 1
    decay_mult: 1
  }
  param {
    lr_mult: 2
    decay_mult: 0
  }
  inner_product_param {
    num_output: 10
    weight_filler {
      type: "xavier"
    }
    bias_filler {
      type: "constant"
      value: 0
    }
  }
}
layer {
  name: "pts_bridge"
  type: "Python"
  bottom: "fc5-3"
  bottom: "pts"
  top: "fc5-3-valid"
  top: "pts-valid"
  propagate_down: true
  propagate_down: false
  python_param {
    module: "pythonLayer"
    layer: "pts_filter_Layer"
  }
}
layer {
  name: "pts_loss"
  type: "EuclideanLoss"
  bottom: "fc5-3-valid"
  bottom: "pts-valid"
  top: "pts_loss"
  loss_weight: 0.5
  propagate_down: true
  propagate_down: false
}
I0618 12:46:05.915899  8453 layer_factory.hpp:77] Creating layer PythonLayer
I0618 12:46:07.274220  8453 net.cpp:84] Creating Layer PythonLayer
I0618 12:46:07.274261  8453 net.cpp:380] PythonLayer -> data
I0618 12:46:07.274307  8453 net.cpp:380] PythonLayer -> label
I0618 12:46:07.274315  8453 net.cpp:380] PythonLayer -> roi
I0618 12:46:07.274335  8453 net.cpp:380] PythonLayer -> pts
Start Reading Classify Data into Memory...

1124566  Classify Data have been read into Memory...
Start Reading Regression Data into Memory...

524566  Regression Data have been read into Memory...
Start Reading pts-regression Data into Memory...

202599  pts-regression Data have been read into Memory...
I0618 13:28:11.693302  8453 net.cpp:122] Setting up PythonLayer
I0618 13:28:11.700086  8453 net.cpp:129] Top shape: 64 3 24 24 (110592)
I0618 13:28:11.700111  8453 net.cpp:129] Top shape: 64 1 (64)
I0618 13:28:11.700124  8453 net.cpp:129] Top shape: 64 4 (256)
I0618 13:28:11.700131  8453 net.cpp:129] Top shape: 64 10 (640)
I0618 13:28:11.700139  8453 net.cpp:137] Memory required for data: 446208
I0618 13:28:11.704989  8453 layer_factory.hpp:77] Creating layer conv1
I0618 13:28:11.711053  8453 net.cpp:84] Creating Layer conv1
I0618 13:28:11.711990  8453 net.cpp:406] conv1 <- data
I0618 13:28:11.714334  8453 net.cpp:380] conv1 -> conv1
I0618 13:28:14.363023  8453 net.cpp:122] Setting up conv1
I0618 13:28:14.366240  8453 net.cpp:129] Top shape: 64 28 22 22 (867328)
I0618 13:28:14.366263  8453 net.cpp:137] Memory required for data: 3915520
I0618 13:28:14.371290  8453 layer_factory.hpp:77] Creating layer relu1
I0618 13:28:14.373841  8453 net.cpp:84] Creating Layer relu1
I0618 13:28:14.373878  8453 net.cpp:406] relu1 <- conv1
I0618 13:28:14.373895  8453 net.cpp:367] relu1 -> conv1 (in-place)
I0618 13:28:14.377528  8453 net.cpp:122] Setting up relu1
I0618 13:28:14.377562  8453 net.cpp:129] Top shape: 64 28 22 22 (867328)
I0618 13:28:14.377573  8453 net.cpp:137] Memory required for data: 7384832
I0618 13:28:14.377593  8453 layer_factory.hpp:77] Creating layer pool1
I0618 13:28:14.377629  8453 net.cpp:84] Creating Layer pool1
I0618 13:28:14.377640  8453 net.cpp:406] pool1 <- conv1
I0618 13:28:14.377655  8453 net.cpp:380] pool1 -> pool1
I0618 13:28:14.379570  8453 net.cpp:122] Setting up pool1
I0618 13:28:14.379595  8453 net.cpp:129] Top shape: 64 28 11 11 (216832)
I0618 13:28:14.379602  8453 net.cpp:137] Memory required for data: 8252160
I0618 13:28:14.379612  8453 layer_factory.hpp:77] Creating layer conv2
I0618 13:28:14.379637  8453 net.cpp:84] Creating Layer conv2
I0618 13:28:14.379649  8453 net.cpp:406] conv2 <- pool1
I0618 13:28:14.379665  8453 net.cpp:380] conv2 -> conv2
I0618 13:28:14.386150  8453 net.cpp:122] Setting up conv2
I0618 13:28:14.386193  8453 net.cpp:129] Top shape: 64 48 9 9 (248832)
I0618 13:28:14.386204  8453 net.cpp:137] Memory required for data: 9247488
I0618 13:28:14.386754  8453 layer_factory.hpp:77] Creating layer relu2
I0618 13:28:14.386783  8453 net.cpp:84] Creating Layer relu2
I0618 13:28:14.386795  8453 net.cpp:406] relu2 <- conv2
I0618 13:28:14.386809  8453 net.cpp:367] relu2 -> conv2 (in-place)
I0618 13:28:14.388965  8453 net.cpp:122] Setting up relu2
I0618 13:28:14.389003  8453 net.cpp:129] Top shape: 64 48 9 9 (248832)
I0618 13:28:14.389012  8453 net.cpp:137] Memory required for data: 10242816
I0618 13:28:14.389027  8453 layer_factory.hpp:77] Creating layer pool2
I0618 13:28:14.389047  8453 net.cpp:84] Creating Layer pool2
I0618 13:28:14.389061  8453 net.cpp:406] pool2 <- conv2
I0618 13:28:14.389076  8453 net.cpp:380] pool2 -> pool2
I0618 13:28:14.389175  8453 net.cpp:122] Setting up pool2
I0618 13:28:14.389194  8453 net.cpp:129] Top shape: 64 48 4 4 (49152)
I0618 13:28:14.389204  8453 net.cpp:137] Memory required for data: 10439424
I0618 13:28:14.389212  8453 layer_factory.hpp:77] Creating layer conv3
I0618 13:28:14.389235  8453 net.cpp:84] Creating Layer conv3
I0618 13:28:14.389246  8453 net.cpp:406] conv3 <- pool2
I0618 13:28:14.389267  8453 net.cpp:380] conv3 -> conv3
I0618 13:28:14.393757  8453 net.cpp:122] Setting up conv3
I0618 13:28:14.393790  8453 net.cpp:129] Top shape: 64 64 3 3 (36864)
I0618 13:28:14.393800  8453 net.cpp:137] Memory required for data: 10586880
I0618 13:28:14.393818  8453 layer_factory.hpp:77] Creating layer relu3
I0618 13:28:14.394433  8453 net.cpp:84] Creating Layer relu3
I0618 13:28:14.394469  8453 net.cpp:406] relu3 <- conv3
I0618 13:28:14.394485  8453 net.cpp:367] relu3 -> conv3 (in-place)
I0618 13:28:14.394815  8453 net.cpp:122] Setting up relu3
I0618 13:28:14.394840  8453 net.cpp:129] Top shape: 64 64 3 3 (36864)
I0618 13:28:14.394848  8453 net.cpp:137] Memory required for data: 10734336
I0618 13:28:14.394871  8453 layer_factory.hpp:77] Creating layer fc4
I0618 13:28:14.394893  8453 net.cpp:84] Creating Layer fc4
I0618 13:28:14.394906  8453 net.cpp:406] fc4 <- conv3
I0618 13:28:14.394960  8453 net.cpp:380] fc4 -> fc4
I0618 13:28:14.398118  8453 net.cpp:122] Setting up fc4
I0618 13:28:14.398151  8453 net.cpp:129] Top shape: 64 128 (8192)
I0618 13:28:14.398160  8453 net.cpp:137] Memory required for data: 10767104
I0618 13:28:14.398177  8453 layer_factory.hpp:77] Creating layer relu4
I0618 13:28:14.398195  8453 net.cpp:84] Creating Layer relu4
I0618 13:28:14.398206  8453 net.cpp:406] relu4 <- fc4
I0618 13:28:14.398219  8453 net.cpp:367] relu4 -> fc4 (in-place)
I0618 13:28:14.398423  8453 net.cpp:122] Setting up relu4
I0618 13:28:14.398440  8453 net.cpp:129] Top shape: 64 128 (8192)
I0618 13:28:14.398450  8453 net.cpp:137] Memory required for data: 10799872
I0618 13:28:14.398461  8453 layer_factory.hpp:77] Creating layer fc4_relu4_0_split
I0618 13:28:14.399144  8453 net.cpp:84] Creating Layer fc4_relu4_0_split
I0618 13:28:14.399163  8453 net.cpp:406] fc4_relu4_0_split <- fc4
I0618 13:28:14.399178  8453 net.cpp:380] fc4_relu4_0_split -> fc4_relu4_0_split_0
I0618 13:28:14.399196  8453 net.cpp:380] fc4_relu4_0_split -> fc4_relu4_0_split_1
I0618 13:28:14.399215  8453 net.cpp:380] fc4_relu4_0_split -> fc4_relu4_0_split_2
I0618 13:28:14.399353  8453 net.cpp:122] Setting up fc4_relu4_0_split
I0618 13:28:14.399372  8453 net.cpp:129] Top shape: 64 128 (8192)
I0618 13:28:14.399382  8453 net.cpp:129] Top shape: 64 128 (8192)
I0618 13:28:14.399391  8453 net.cpp:129] Top shape: 64 128 (8192)
I0618 13:28:14.399423  8453 net.cpp:137] Memory required for data: 10898176
I0618 13:28:14.399441  8453 layer_factory.hpp:77] Creating layer fc5-1
I0618 13:28:14.399479  8453 net.cpp:84] Creating Layer fc5-1
I0618 13:28:14.399489  8453 net.cpp:406] fc5-1 <- fc4_relu4_0_split_0
I0618 13:28:14.399504  8453 net.cpp:380] fc5-1 -> fc5-1
I0618 13:28:14.399741  8453 net.cpp:122] Setting up fc5-1
I0618 13:28:14.399760  8453 net.cpp:129] Top shape: 64 2 (128)
I0618 13:28:14.399767  8453 net.cpp:137] Memory required for data: 10898688
I0618 13:28:14.399781  8453 layer_factory.hpp:77] Creating layer cls_bridge
I0618 13:28:14.414430  8453 net.cpp:84] Creating Layer cls_bridge
I0618 13:28:14.414458  8453 net.cpp:406] cls_bridge <- fc5-1
I0618 13:28:14.414471  8453 net.cpp:406] cls_bridge <- label
I0618 13:28:14.414485  8453 net.cpp:380] cls_bridge -> fc5-1-valid
I0618 13:28:14.414507  8453 net.cpp:380] cls_bridge -> label-valid
I0618 13:28:14.437256  8453 net.cpp:122] Setting up cls_bridge
I0618 13:28:14.437299  8453 net.cpp:129] Top shape: 64 2 (128)
I0618 13:28:14.437310  8453 net.cpp:129] Top shape: 64 1 (64)
I0618 13:28:14.437319  8453 net.cpp:137] Memory required for data: 10899456
I0618 13:28:14.437333  8453 layer_factory.hpp:77] Creating layer fc5-1-valid_cls_bridge_0_split
I0618 13:28:14.437353  8453 net.cpp:84] Creating Layer fc5-1-valid_cls_bridge_0_split
I0618 13:28:14.437367  8453 net.cpp:406] fc5-1-valid_cls_bridge_0_split <- fc5-1-valid
I0618 13:28:14.437387  8453 net.cpp:380] fc5-1-valid_cls_bridge_0_split -> fc5-1-valid_cls_bridge_0_split_0
I0618 13:28:14.437415  8453 net.cpp:380] fc5-1-valid_cls_bridge_0_split -> fc5-1-valid_cls_bridge_0_split_1
I0618 13:28:14.437511  8453 net.cpp:122] Setting up fc5-1-valid_cls_bridge_0_split
I0618 13:28:14.437527  8453 net.cpp:129] Top shape: 64 2 (128)
I0618 13:28:14.437538  8453 net.cpp:129] Top shape: 64 2 (128)
I0618 13:28:14.437546  8453 net.cpp:137] Memory required for data: 10900480
I0618 13:28:14.437552  8453 layer_factory.hpp:77] Creating layer label-valid_cls_bridge_1_split
I0618 13:28:14.437568  8453 net.cpp:84] Creating Layer label-valid_cls_bridge_1_split
I0618 13:28:14.437580  8453 net.cpp:406] label-valid_cls_bridge_1_split <- label-valid
I0618 13:28:14.437595  8453 net.cpp:380] label-valid_cls_bridge_1_split -> label-valid_cls_bridge_1_split_0
I0618 13:28:14.437611  8453 net.cpp:380] label-valid_cls_bridge_1_split -> label-valid_cls_bridge_1_split_1
I0618 13:28:14.437690  8453 net.cpp:122] Setting up label-valid_cls_bridge_1_split
I0618 13:28:14.437707  8453 net.cpp:129] Top shape: 64 1 (64)
I0618 13:28:14.437719  8453 net.cpp:129] Top shape: 64 1 (64)
I0618 13:28:14.437762  8453 net.cpp:137] Memory required for data: 10900992
I0618 13:28:14.438141  8453 layer_factory.hpp:77] Creating layer cls_loss
I0618 13:28:14.438204  8453 net.cpp:84] Creating Layer cls_loss
I0618 13:28:14.438217  8453 net.cpp:406] cls_loss <- fc5-1-valid_cls_bridge_0_split_0
I0618 13:28:14.438235  8453 net.cpp:406] cls_loss <- label-valid_cls_bridge_1_split_0
I0618 13:28:14.438251  8453 net.cpp:380] cls_loss -> cls_loss
…
I0618 13:28:14.441395  8453 net.cpp:380] cls_acc -> cls_acc
I0618 13:28:14.441429  8453 net.cpp:122] Setting up cls_acc
I0618 13:28:14.441444  8453 net.cpp:129] Top shape: (1)
I0618 13:28:14.441453  8453 net.cpp:137] Memory required for data: 10901000
I0618 13:28:14.441462  8453 layer_factory.hpp:77] Creating layer fc5-2
I0618 13:28:14.441478  8453 net.cpp:84] Creating Layer fc5-2
I0618 13:28:14.441488  8453 net.cpp:406] fc5-2 <- fc4_relu4_0_split_1
I0618 13:28:14.441505  8453 net.cpp:380] fc5-2 -> fc5-2
I0618 13:28:14.441790  8453 net.cpp:122] Setting up fc5-2
I0618 13:28:14.441809  8453 net.cpp:129] Top shape: 64 4 (256)
I0618 13:28:14.441817  8453 net.cpp:137] Memory required for data: 10902024
I0618 13:28:14.441834  8453 layer_factory.hpp:77] Creating layer roi_bridge
I0618 13:28:14.442261  8453 net.cpp:84] Creating Layer roi_bridge
I0618 13:28:14.442282  8453 net.cpp:406] roi_bridge <- fc5-2
I0618 13:28:14.442294  8453 net.cpp:406] roi_bridge <- roi
I0618 13:28:14.442309  8453 net.cpp:380] roi_bridge -> fc5-2-valid
I0618 13:28:14.442330  8453 net.cpp:380] roi_bridge -> roi-valid
I0618 13:28:14.444633  8453 net.cpp:122] Setting up roi_bridge
I0618 13:28:14.444663  8453 net.cpp:129] Top shape: 64 4 (256)
I0618 13:28:14.444675  8453 net.cpp:129] Top shape: 64 4 (256)
I0618 13:28:14.444682  8453 net.cpp:137] Memory required for data: 10904072
I0618 13:28:14.444694  8453 layer_factory.hpp:77] Creating layer roi_loss
I0618 13:28:14.444718  8453 net.cpp:84] Creating Layer roi_loss
I0618 13:28:14.444731  8453 net.cpp:406] roi_loss <- fc5-2-valid
I0618 13:28:14.444744  8453 net.cpp:406] roi_loss <- roi-valid
I0618 13:28:14.444756  8453 net.cpp:380] roi_loss -> roi_loss
I0618 13:28:14.444854  8453 net.cpp:122] Setting up roi_loss
I0618 13:28:14.444871  8453 net.cpp:129] Top shape: (1)
I0618 13:28:14.444878  8453 net.cpp:132]     with loss weight 0.5
I0618 13:28:14.444893  8453 net.cpp:137] Memory required for data: 10904076
I0618 13:28:14.444901  8453 layer_factory.hpp:77] Creating layer fc5-3
I0618 13:28:14.444921  8453 net.cpp:84] Creating Layer fc5-3
I0618 13:28:14.444933  8453 net.cpp:406] fc5-3 <- fc4_relu4_0_split_2
I0618 13:28:14.444948  8453 net.cpp:380] fc5-3 -> fc5-3
I0618 13:28:14.445250  8453 net.cpp:122] Setting up fc5-3
I0618 13:28:14.445271  8453 net.cpp:129] Top shape: 64 10 (640)
I0618 13:28:14.445281  8453 net.cpp:137] Memory required for data: 10906636
I0618 13:28:14.445303  8453 layer_factory.hpp:77] Creating layer pts_bridge
I0618 13:28:14.445367  8453 net.cpp:84] Creating Layer pts_bridge
I0618 13:28:14.445384  8453 net.cpp:406] pts_bridge <- fc5-3
I0618 13:28:14.445399  8453 net.cpp:406] pts_bridge <- pts
I0618 13:28:14.445415  8453 net.cpp:380] pts_bridge -> fc5-3-valid
I0618 13:28:14.445435  8453 net.cpp:380] pts_bridge -> pts-valid
I0618 13:28:14.445924  8453 net.cpp:122] Setting up pts_bridge
I0618 13:28:14.445952  8453 net.cpp:129] Top shape: 64 10 (640)
I0618 13:28:14.445966  8453 net.cpp:129] Top shape: 64 10 (640)
I0618 13:28:14.446004  8453 net.cpp:137] Memory required for data: 10911756
I0618 13:28:14.446018  8453 layer_factory.hpp:77] Creating layer pts_loss
I0618 13:28:14.446034  8453 net.cpp:84] Creating Layer pts_loss
I0618 13:28:14.446046  8453 net.cpp:406] pts_loss <- fc5-3-valid
I0618 13:28:14.446061  8453 net.cpp:406] pts_loss <- pts-valid
I0618 13:28:14.446079  8453 net.cpp:380] pts_loss -> pts_loss
…
