…
snapshot: 5000
snapshot_prefix: "./models/48net"
solver_mode: GPU
device_id: 0
net: "train48.prototxt"
train_state {
  level: 0
  stage: ""
}
I0622 14:29:52.354053 32413 solver.cpp:87] Creating training net from net file: train48.prototxt
I0622 14:29:52.354391 32413 net.cpp:51] Initializing net from parameters: 
name: "face_48"
state {
  phase: TRAIN
  level: 0
  stage: ""
}
layer {
  name: "PythonLayer"
  type: "Python"
  top: "data"
  top: "label"
  top: "roi"
  top: "pts"
  python_param {
    module: "pythonLayer"
    layer: "Data_Layer_train"
  }
}
layer {
  name: "conv1"
  type: "Convolution"
  bottom: "data"
  top: "conv1"
  param {
    lr_mult: 1
    decay_mult: 1
  }
  param {
    lr_mult: 2
    decay_mult: 1
  }
  convolution_param {
    num_output: 32
    kernel_size: 3
    stride: 1
    weight_filler {
      type: "xavier"
    }
    bias_filler {
      type: "constant"
      value: 0
    }
  }
}
layer {
  name: "prelu1"
  type: "PReLU"
  bottom: "conv1"
  top: "conv1"
}
layer {
  name: "pool1"
  type: "Pooling"
  bottom: "conv1"
  top: "pool1"
  pooling_param {
    pool: MAX
    kernel_size: 3
    stride: 2
  }
}
layer {
  name: "conv2"
  type: "Convolution"
  bottom: "pool1"
  top: "conv2"
  param {
    lr_mult: 1
    decay_mult: 1
  }
  param {
    lr_mult: 2
    decay_mult: 1
  }
  convolution_param {
    num_output: 64
    kernel_size: 3
    stride: 1
    weight_filler {
      type: "xavier"
    }
    bias_filler {
      type: "constant"
      value: 0
    }
  }
}
layer {
  name: "prelu2"
  type: "PReLU"
  bottom: "conv2"
  top: "conv2"
}
layer {
  name: "pool2"
  type: "Pooling"
  bottom: "conv2"
  top: "pool2"
  pooling_param {
    pool: MAX
    kernel_size: 3
    stride: 2
  }
}
layer {
  name: "conv3"
  type: "Convolution"
  bottom: "pool2"
  top: "conv3"
  param {
    lr_mult: 1
    decay_mult: 1
  }
  param {
    lr_mult: 2
    decay_mult: 1
  }
  convolution_param {
    num_output: 64
    kernel_size: 3
    weight_filler {
      type: "xavier"
    }
    bias_filler {
      type: "constant"
      value: 0
    }
  }
}
layer {
  name: "prelu3"
  type: "PReLU"
  bottom: "conv3"
  top: "conv3"
}
layer {
  name: "pool3"
  type: "Pooling"
  bottom: "conv3"
  top: "pool3"
  pooling_param {
    pool: MAX
    kernel_size: 2
    stride: 2
  }
}
layer {
  name: "conv4"
  type: "Convolution"
  bottom: "pool3"
  top: "conv4"
  param {
    lr_mult: 1
    decay_mult: 1
  }
  param {
    lr_mult: 2
    decay_mult: 1
  }
  convolution_param {
    num_output: 128
    kernel_size: 2
    stride: 1
    weight_filler {
      type: "xavier"
    }
    bias_filler {
      type: "constant"
      value: 0
    }
  }
}
layer {
  name: "prelu4"
  type: "PReLU"
  bottom: "conv4"
  top: "conv4"
}
layer {
  name: "conv5"
  type: "InnerProduct"
  bottom: "conv4"
  top: "conv5"
  param {
    lr_mult: 1
    decay_mult: 1
  }
  param {
    lr_mult: 2
    decay_mult: 1
  }
  inner_product_param {
    num_output: 256
    weight_filler {
      type: "xavier"
    }
    bias_filler {
      type: "constant"
      value: 0
    }
  }
}
layer {
  name: "drop5"
  type: "Dropout"
  bottom: "conv5"
  top: "conv5"
  dropout_param {
    dropout_ratio: 0.25
  }
}
layer {
  name: "prelu5"
  type: "PReLU"
  bottom: "conv5"
  top: "conv5"
}
layer {
  name: "conv6-1"
  type: "InnerProduct"
  bottom: "conv5"
  top: "conv6-1"
  param {
    lr_mult: 1
    decay_mult: 1
  }
  param {
    lr_mult: 2
    decay_mult: 1
  }
  inner_product_param {
    num_output: 2
    weight_filler {
      type: "xavier"
    }
    bias_filler {
      type: "constant"
      value: 0
    }
  }
}
layer {
  name: "cls_bridge"
  type: "Python"
  bottom: "conv6-1"
  bottom: "label"
  top: "conv6-1-valid"
  top: "label-valid"
  python_param {
    module: "pythonLayer"
    layer: "cls_Layer"
  }
}
layer {
  name: "ClassifyLoss"
  type: "SoftmaxWithLoss"
  bottom: "conv6-1-valid"
  bottom: "label-valid"
  top: "ClassifyLoss"
  loss_weight: 1
  propagate_down: true
  propagate_down: false
}
layer {
  name: "cls_Acc"
  type: "Accuracy"
  bottom: "conv6-1-valid"
  bottom: "label-valid"
  top: "cls_Acc"
  include {
    phase: TRAIN
  }
}
layer {
  name: "conv6-2"
  type: "InnerProduct"
  bottom: "conv5"
  top: "conv6-2"
  param {
    lr_mult: 1
    decay_mult: 1
  }
  param {
    lr_mult: 2
    decay_mult: 1
  }
  inner_product_param {
    num_output: 4
    weight_filler {
      type: "xavier"
    }
    bias_filler {
      type: "constant"
      value: 0
    }
  }
}
layer {
  name: "roi_bridge"
  type: "Python"
  bottom: "conv6-2"
  bottom: "roi"
  top: "conv6-2-valid"
  top: "roi-valid"
  propagate_down: true
  propagate_down: false
  python_param {
    module: "pythonLayer"
    layer: "roi_filter_Layer"
  }
}
layer {
  name: "RegressionLoss"
  type: "Python"
  bottom: "conv6-2-valid"
  bottom: "roi-valid"
  top: "RegressionLoss"
  loss_weight: 0.5
  python_param {
    module: "pythonLayer"
    layer: "regression_Layer"
  }
}
layer {
  name: "conv6-3"
  type: "InnerProduct"
  bottom: "conv5"
  top: "conv6-3"
  param {
    lr_mult: 1
    decay_mult: 1
  }
  param {
    lr_mult: 2
    decay_mult: 1
  }
  inner_product_param {
    num_output: 10
    weight_filler {
      type: "xavier"
    }
    bias_filler {
      type: "constant"
      value: 0
    }
  }
}
layer {
  name: "pts_bridge"
  type: "Python"
  bottom: "conv6-3"
  bottom: "pts"
  top: "conv6-3-valid"
  top: "pts-valid"
  propagate_down: true
  propagate_down: false
  python_param {
    module: "pythonLayer"
    layer: "pts_filter_Layer"
  }
}
layer {
  name: "LandmarkLoss"
  type: "Python"
  bottom: "conv6-3-valid"
  bottom: "pts-valid"
  top: "LandmarkLoss"
  loss_weight: 1
  python_param {
    module: "pythonLayer"
    layer: "regression_Layer"
  }
}
I0622 14:29:52.354679 32413 layer_factory.hpp:77] Creating layer PythonLayer
I0622 14:29:52.831001 32413 net.cpp:84] Creating Layer PythonLayer
I0622 14:29:52.831028 32413 net.cpp:380] PythonLayer -> data
I0622 14:29:52.831075 32413 net.cpp:380] PythonLayer -> label
I0622 14:29:52.831085 32413 net.cpp:380] PythonLayer -> roi
I0622 14:29:52.831092 32413 net.cpp:380] PythonLayer -> pts
Start Reading Classify Data into Memory...

80000  Classify Data have been read into Memory...
Start Reading Regression Data into Memory...

40000  Regression Data have been read into Memory...
Start Reading pts-regression Data into Memory...

35000  pts-regression Data have been read into Memory...
I0622 14:44:04.117753 32413 net.cpp:122] Setting up PythonLayer
I0622 14:44:04.120146 32413 net.cpp:129] Top shape: 64 3 48 48 (442368)
I0622 14:44:04.120151 32413 net.cpp:129] Top shape: 64 1 (64)
I0622 14:44:04.120168 32413 net.cpp:129] Top shape: 64 4 (256)
I0622 14:44:04.120173 32413 net.cpp:129] Top shape: 64 10 (640)
I0622 14:44:04.120175 32413 net.cpp:137] Memory required for data: 1773312
I0622 14:44:04.120188 32413 layer_factory.hpp:77] Creating layer conv1
I0622 14:44:04.120216 32413 net.cpp:84] Creating Layer conv1
I0622 14:44:04.120223 32413 net.cpp:406] conv1 <- data
I0622 14:44:04.120237 32413 net.cpp:380] conv1 -> conv1
I0622 14:44:05.178632 32413 net.cpp:122] Setting up conv1
I0622 14:44:05.178675 32413 net.cpp:129] Top shape: 64 32 46 46 (4333568)
I0622 14:44:05.178680 32413 net.cpp:137] Memory required for data: 19107584
I0622 14:44:05.182210 32413 layer_factory.hpp:77] Creating layer prelu1
I0622 14:44:05.182871 32413 net.cpp:84] Creating Layer prelu1
I0622 14:44:05.182891 32413 net.cpp:406] prelu1 <- conv1
I0622 14:44:05.182896 32413 net.cpp:367] prelu1 -> conv1 (in-place)
I0622 14:44:05.184886 32413 net.cpp:122] Setting up prelu1
I0622 14:44:05.184904 32413 net.cpp:129] Top shape: 64 32 46 46 (4333568)
I0622 14:44:05.184922 32413 net.cpp:137] Memory required for data: 36441856
I0622 14:44:05.184932 32413 layer_factory.hpp:77] Creating layer pool1
I0622 14:44:05.185375 32413 net.cpp:84] Creating Layer pool1
I0622 14:44:05.185381 32413 net.cpp:406] pool1 <- conv1
I0622 14:44:05.185405 32413 net.cpp:380] pool1 -> pool1
I0622 14:44:05.186712 32413 net.cpp:122] Setting up pool1
I0622 14:44:05.186718 32413 net.cpp:129] Top shape: 64 32 23 23 (1083392)
I0622 14:44:05.186720 32413 net.cpp:137] Memory required for data: 40775424
I0622 14:44:05.186723 32413 layer_factory.hpp:77] Creating layer conv2
I0622 14:44:05.186749 32413 net.cpp:84] Creating Layer conv2
I0622 14:44:05.186753 32413 net.cpp:406] conv2 <- pool1
I0622 14:44:05.186758 32413 net.cpp:380] conv2 -> conv2
I0622 14:44:05.189210 32413 net.cpp:122] Setting up conv2
I0622 14:44:05.189234 32413 net.cpp:129] Top shape: 64 64 21 21 (1806336)
I0622 14:44:05.189235 32413 net.cpp:137] Memory required for data: 48000768
I0622 14:44:05.189256 32413 layer_factory.hpp:77] Creating layer prelu2
I0622 14:44:05.189263 32413 net.cpp:84] Creating Layer prelu2
I0622 14:44:05.189266 32413 net.cpp:406] prelu2 <- conv2
I0622 14:44:05.189270 32413 net.cpp:367] prelu2 -> conv2 (in-place)
I0622 14:44:05.189884 32413 net.cpp:122] Setting up prelu2
I0622 14:44:05.189893 32413 net.cpp:129] Top shape: 64 64 21 21 (1806336)
I0622 14:44:05.189895 32413 net.cpp:137] Memory required for data: 55226112
I0622 14:44:05.189898 32413 layer_factory.hpp:77] Creating layer pool2
I0622 14:44:05.189903 32413 net.cpp:84] Creating Layer pool2
I0622 14:44:05.189904 32413 net.cpp:406] pool2 <- conv2
I0622 14:44:05.189908 32413 net.cpp:380] pool2 -> pool2
I0622 14:44:05.189934 32413 net.cpp:122] Setting up pool2
I0622 14:44:05.189954 32413 net.cpp:129] Top shape: 64 64 10 10 (409600)
I0622 14:44:05.189957 32413 net.cpp:137] Memory required for data: 56864512
I0622 14:44:05.189960 32413 layer_factory.hpp:77] Creating layer conv3
I0622 14:44:05.189967 32413 net.cpp:84] Creating Layer conv3
I0622 14:44:05.189970 32413 net.cpp:406] conv3 <- pool2
I0622 14:44:05.189975 32413 net.cpp:380] conv3 -> conv3
I0622 14:44:05.191570 32413 net.cpp:122] Setting up conv3
I0622 14:44:05.191598 32413 net.cpp:129] Top shape: 64 64 8 8 (262144)
I0622 14:44:05.191601 32413 net.cpp:137] Memory required for data: 57913088
I0622 14:44:05.191622 32413 layer_factory.hpp:77] Creating layer prelu3
I0622 14:44:05.191642 32413 net.cpp:84] Creating Layer prelu3
I0622 14:44:05.191646 32413 net.cpp:406] prelu3 <- conv3
I0622 14:44:05.191666 32413 net.cpp:367] prelu3 -> conv3 (in-place)
I0622 14:44:05.191761 32413 net.cpp:122] Setting up prelu3
I0622 14:44:05.191766 32413 net.cpp:129] Top shape: 64 64 8 8 (262144)
I0622 14:44:05.191782 32413 net.cpp:137] Memory required for data: 58961664
I0622 14:44:05.191789 32413 layer_factory.hpp:77] Creating layer pool3
I0622 14:44:05.191795 32413 net.cpp:84] Creating Layer pool3
I0622 14:44:05.191818 32413 net.cpp:406] pool3 <- conv3
I0622 14:44:05.191823 32413 net.cpp:380] pool3 -> pool3
I0622 14:44:05.191854 32413 net.cpp:122] Setting up pool3
I0622 14:44:05.191860 32413 net.cpp:129] Top shape: 64 64 4 4 (65536)
I0622 14:44:05.191864 32413 net.cpp:137] Memory required for data: 59223808
I0622 14:44:05.191866 32413 layer_factory.hpp:77] Creating layer conv4
I0622 14:44:05.191874 32413 net.cpp:84] Creating Layer conv4
I0622 14:44:05.191877 32413 net.cpp:406] conv4 <- pool3
I0622 14:44:05.191884 32413 net.cpp:380] conv4 -> conv4
I0622 14:44:05.193617 32413 net.cpp:122] Setting up conv4
I0622 14:44:05.193648 32413 net.cpp:129] Top shape: 64 128 3 3 (73728)
I0622 14:44:05.193653 32413 net.cpp:137] Memory required for data: 59518720
I0622 14:44:05.193661 32413 layer_factory.hpp:77] Creating layer prelu4
I0622 14:44:05.193670 32413 net.cpp:84] Creating Layer prelu4
I0622 14:44:05.193673 32413 net.cpp:406] prelu4 <- conv4
I0622 14:44:05.193680 32413 net.cpp:367] prelu4 -> conv4 (in-place)
I0622 14:44:05.193753 32413 net.cpp:122] Setting up prelu4
I0622 14:44:05.193759 32413 net.cpp:129] Top shape: 64 128 3 3 (73728)
I0622 14:44:05.193763 32413 net.cpp:137] Memory required for data: 59813632
I0622 14:44:05.193768 32413 layer_factory.hpp:77] Creating layer conv5
I0622 14:44:05.194404 32413 net.cpp:84] Creating Layer conv5
I0622 14:44:05.194409 32413 net.cpp:406] conv5 <- conv4
I0622 14:44:05.194414 32413 net.cpp:380] conv5 -> conv5
I0622 14:44:05.195641 32413 net.cpp:122] Setting up conv5
I0622 14:44:05.195647 32413 net.cpp:129] Top shape: 64 256 (16384)
I0622 14:44:05.195649 32413 net.cpp:137] Memory required for data: 59879168
I0622 14:44:05.195653 32413 layer_factory.hpp:77] Creating layer drop5
I0622 14:44:05.196048 32413 net.cpp:84] Creating Layer drop5
I0622 14:44:05.196053 32413 net.cpp:406] drop5 <- conv5
I0622 14:44:05.196058 32413 net.cpp:367] drop5 -> conv5 (in-place)
I0622 14:44:05.196465 32413 net.cpp:122] Setting up drop5
I0622 14:44:05.196472 32413 net.cpp:129] Top shape: 64 256 (16384)
I0622 14:44:05.196475 32413 net.cpp:137] Memory required for data: 59944704
I0622 14:44:05.196477 32413 layer_factory.hpp:77] Creating layer prelu5
I0622 14:44:05.196480 32413 net.cpp:84] Creating Layer prelu5
I0622 14:44:05.196483 32413 net.cpp:406] prelu5 <- conv5
I0622 14:44:05.196486 32413 net.cpp:367] prelu5 -> conv5 (in-place)
I0622 14:44:05.196545 32413 net.cpp:122] Setting up prelu5
I0622 14:44:05.196549 32413 net.cpp:129] Top shape: 64 256 (16384)
I0622 14:44:05.196552 32413 net.cpp:137] Memory required for data: 60010240
I0622 14:44:05.196555 32413 layer_factory.hpp:77] Creating layer conv5_prelu5_0_split
I0622 14:44:05.196560 32413 net.cpp:84] Creating Layer conv5_prelu5_0_split
I0622 14:44:05.196563 32413 net.cpp:406] conv5_prelu5_0_split <- conv5
I0622 14:44:05.196566 32413 net.cpp:380] conv5_prelu5_0_split -> conv5_prelu5_0_split_0
I0622 14:44:05.196571 32413 net.cpp:380] conv5_prelu5_0_split -> conv5_prelu5_0_split_1
I0622 14:44:05.196576 32413 net.cpp:380] conv5_prelu5_0_split -> conv5_prelu5_0_split_2
I0622 14:44:05.197125 32413 net.cpp:122] Setting up conv5_prelu5_0_split
I0622 14:44:05.197131 32413 net.cpp:129] Top shape: 64 256 (16384)
I0622 14:44:05.197134 32413 net.cpp:129] Top shape: 64 256 (16384)
I0622 14:44:05.197136 32413 net.cpp:129] Top shape: 64 256 (16384)
I0622 14:44:05.197139 32413 net.cpp:137] Memory required for data: 60206848
I0622 14:44:05.197140 32413 layer_factory.hpp:77] Creating layer conv6-1
I0622 14:44:05.197151 32413 net.cpp:84] Creating Layer conv6-1
I0622 14:44:05.197154 32413 net.cpp:406] conv6-1 <- conv5_prelu5_0_split_0
I0622 14:44:05.197158 32413 net.cpp:380] conv6-1 -> conv6-1
I0622 14:44:05.197260 32413 net.cpp:122] Setting up conv6-1
I0622 14:44:05.197268 32413 net.cpp:129] Top shape: 64 2 (128)
I0622 14:44:05.197270 32413 net.cpp:137] Memory required for data: 60207360
I0622 14:44:05.197281 32413 layer_factory.hpp:77] Creating layer cls_bridge
I0622 14:44:05.201069 32413 net.cpp:84] Creating Layer cls_bridge
I0622 14:44:05.201078 32413 net.cpp:406] cls_bridge <- conv6-1
I0622 14:44:05.201097 32413 net.cpp:406] cls_bridge <- label
I0622 14:44:05.201102 32413 net.cpp:380] cls_bridge -> conv6-1-valid
I0622 14:44:05.201114 32413 net.cpp:380] cls_bridge -> label-valid
I0622 14:44:05.202649 32413 net.cpp:122] Setting up cls_bridge
I0622 14:44:05.202661 32413 net.cpp:129] Top shape: 64 2 (128)
I0622 14:44:05.202663 32413 net.cpp:129] Top shape: 64 1 (64)
I0622 14:44:05.202666 32413 net.cpp:137] Memory required for data: 60208128
I0622 14:44:05.202668 32413 layer_factory.hpp:77] Creating layer conv6-1-valid_cls_bridge_0_split
I0622 14:44:05.202674 32413 net.cpp:84] Creating Layer conv6-1-valid_cls_bridge_0_split
I0622 14:44:05.202677 32413 net.cpp:406] conv6-1-valid_cls_bridge_0_split <- conv6-1-valid
I0622 14:44:05.202683 32413 net.cpp:380] conv6-1-valid_cls_bridge_0_split -> conv6-1-valid_cls_bridge_0_split_0
I0622 14:44:05.202690 32413 net.cpp:380] conv6-1-valid_cls_bridge_0_split -> conv6-1-valid_cls_bridge_0_split_1
I0622 14:44:05.202718 32413 net.cpp:122] Setting up conv6-1-valid_cls_bridge_0_split
I0622 14:44:05.202723 32413 net.cpp:129] Top shape: 64 2 (128)
I0622 14:44:05.202726 32413 net.cpp:129] Top shape: 64 2 (128)
I0622 14:44:05.202729 32413 net.cpp:137] Memory required for data: 60209152
I0622 14:44:05.202733 32413 layer_factory.hpp:77] Creating layer label-valid_cls_bridge_1_split
I0622 14:44:05.202736 32413 net.cpp:84] Creating Layer label-valid_cls_bridge_1_split
I0622 14:44:05.202739 32413 net.cpp:406] label-valid_cls_bridge_1_split <- label-valid
I0622 14:44:05.202744 32413 net.cpp:380] label-valid_cls_bridge_1_split -> label-valid_cls_bridge_1_split_0
I0622 14:44:05.202749 32413 net.cpp:380] label-valid_cls_bridge_1_split -> label-valid_cls_bridge_1_split_1
I0622 14:44:05.202776 32413 net.cpp:122] Setting up label-valid_cls_bridge_1_split
I0622 14:44:05.202780 32413 net.cpp:129] Top shape: 64 1 (64)
I0622 14:44:05.202783 32413 net.cpp:129] Top shape: 64 1 (64)
I0622 14:44:05.202785 32413 net.cpp:137] Memory required for data: 60209664
I0622 14:44:05.202787 32413 layer_factory.hpp:77] Creating layer ClassifyLoss
I0622 14:44:05.203161 32413 net.cpp:84] Creating Layer ClassifyLoss
I0622 14:44:05.203167 32413 net.cpp:406] ClassifyLoss <- conv6-1-valid_cls_bridge_0_split_0
I0622 14:44:05.203171 32413 net.cpp:406] ClassifyLoss <- label-valid_cls_bridge_1_split_0
…
I0622 14:44:05.206851 32413 net.cpp:380] cls_Acc -> cls_Acc
I0622 14:44:05.206864 32413 net.cpp:122] Setting up cls_Acc
I0622 14:44:05.206868 32413 net.cpp:129] Top shape: (1)
I0622 14:44:05.206869 32413 net.cpp:137] Memory required for data: 60209672
I0622 14:44:05.206873 32413 layer_factory.hpp:77] Creating layer conv6-2
I0622 14:44:05.206881 32413 net.cpp:84] Creating Layer conv6-2
I0622 14:44:05.206882 32413 net.cpp:406] conv6-2 <- conv5_prelu5_0_split_1
I0622 14:44:05.206888 32413 net.cpp:380] conv6-2 -> conv6-2
I0622 14:44:05.206990 32413 net.cpp:122] Setting up conv6-2
I0622 14:44:05.206995 32413 net.cpp:129] Top shape: 64 4 (256)
I0622 14:44:05.206997 32413 net.cpp:137] Memory required for data: 60210696
I0622 14:44:05.207002 32413 layer_factory.hpp:77] Creating layer roi_bridge
I0622 14:44:05.207034 32413 net.cpp:84] Creating Layer roi_bridge
I0622 14:44:05.207038 32413 net.cpp:406] roi_bridge <- conv6-2
I0622 14:44:05.207042 32413 net.cpp:406] roi_bridge <- roi
I0622 14:44:05.207046 32413 net.cpp:380] roi_bridge -> conv6-2-valid
I0622 14:44:05.207063 32413 net.cpp:380] roi_bridge -> roi-valid
I0622 14:44:05.207973 32413 net.cpp:122] Setting up roi_bridge
I0622 14:44:05.207984 32413 net.cpp:129] Top shape: 64 4 (256)
I0622 14:44:05.207988 32413 net.cpp:129] Top shape: 64 4 (256)
I0622 14:44:05.207990 32413 net.cpp:137] Memory required for data: 60212744
I0622 14:44:05.207994 32413 layer_factory.hpp:77] Creating layer RegressionLoss
I0622 14:44:05.208019 32413 net.cpp:84] Creating Layer RegressionLoss
I0622 14:44:05.208024 32413 net.cpp:406] RegressionLoss <- conv6-2-valid
I0622 14:44:05.208030 32413 net.cpp:406] RegressionLoss <- roi-valid
I0622 14:44:05.208034 32413 net.cpp:380] RegressionLoss -> RegressionLoss
I0622 14:44:05.209602 32413 net.cpp:122] Setting up RegressionLoss
I0622 14:44:05.209611 32413 net.cpp:129] Top shape: 1 (1)
I0622 14:44:05.209614 32413 net.cpp:132]     with loss weight 0.5
I0622 14:44:05.209622 32413 net.cpp:137] Memory required for data: 60212748
I0622 14:44:05.209625 32413 layer_factory.hpp:77] Creating layer conv6-3
I0622 14:44:05.209633 32413 net.cpp:84] Creating Layer conv6-3
I0622 14:44:05.209637 32413 net.cpp:406] conv6-3 <- conv5_prelu5_0_split_2
I0622 14:44:05.209642 32413 net.cpp:380] conv6-3 -> conv6-3
I0622 14:44:05.209741 32413 net.cpp:122] Setting up conv6-3
I0622 14:44:05.209745 32413 net.cpp:129] Top shape: 64 10 (640)
I0622 14:44:05.209749 32413 net.cpp:137] Memory required for data: 60215308
I0622 14:44:05.209754 32413 layer_factory.hpp:77] Creating layer pts_bridge
I0622 14:44:05.209771 32413 net.cpp:84] Creating Layer pts_bridge
I0622 14:44:05.209782 32413 net.cpp:406] pts_bridge <- conv6-3
I0622 14:44:05.209787 32413 net.cpp:406] pts_bridge <- pts
I0622 14:44:05.209791 32413 net.cpp:380] pts_bridge -> conv6-3-valid
I0622 14:44:05.209799 32413 net.cpp:380] pts_bridge -> pts-valid
I0622 14:44:05.209862 32413 net.cpp:122] Setting up pts_bridge
I0622 14:44:05.209869 32413 net.cpp:129] Top shape: 64 10 (640)
I0622 14:44:05.209872 32413 net.cpp:129] Top shape: 64 10 (640)
I0622 14:44:05.209873 32413 net.cpp:137] Memory required for data: 60220428
I0622 14:44:05.209875 32413 layer_factory.hpp:77] Creating layer LandmarkLoss
I0622 14:44:05.209888 32413 net.cpp:84] Creating Layer LandmarkLoss
I0622 14:44:05.209892 32413 net.cpp:406] LandmarkLoss <- conv6-3-valid
I0622 14:44:05.209894 32413 net.cpp:406] LandmarkLoss <- pts-valid
I0622 14:44:05.209898 32413 net.cpp:380] LandmarkLoss -> LandmarkLoss
I0622 14:44:05.209975 32413 net.cpp:122] Setting up LandmarkLoss
I0622 14:44:05.209983 32413 net.cpp:129] Top shape: 1 (1)
I0622 14:44:05.209985 32413 net.cpp:132]     with loss weight 1
I0622 14:44:05.209990 32413 net.cpp:137] Memory required for data: 60220432
I0622 14:44:05.209998 32413 net.cpp:198] LandmarkLoss needs backward computation.
I0622 14:44:05.210007 32413 net.cpp:198] pts_bridge needs backward computation.
I0622 14:44:05.210011 32413 net.cpp:198] conv6-3 needs backward computation.
I0622 14:44:05.210014 32413 net.cpp:198] RegressionLoss needs backward computation.
…
