…
snapshot: 10000
snapshot_prefix: "./models/"
solver_mode: GPU
device_id: 0
net: "train24.prototxt"
train_state {
  level: 0
  stage: ""
}
I0610 17:26:22.679219  2219 solver.cpp:87] Creating training net from net file: train24.prototxt
I0610 17:26:22.679692  2219 net.cpp:51] Initializing net from parameters: 
name: "face_24c"
state {
  phase: TRAIN
  level: 0
  stage: ""
}
layer {
  name: "PythonLayer"
  type: "Python"
  top: "data"
  top: "label"
  top: "roi"
  top: "pts"
  python_param {
    module: "pythonLayer"
    layer: "Data_Layer_train"
  }
}
layer {
  name: "conv1"
  type: "Convolution"
  bottom: "data"
  top: "conv1"
  param {
    lr_mult: 1
    decay_mult: 1
  }
  param {
    lr_mult: 2
    decay_mult: 0
  }
  convolution_param {
    num_output: 28
    kernel_size: 3
    weight_filler {
      type: "gaussian"
      std: 0.0001
    }
    bias_filler {
      type: "constant"
    }
  }
}
layer {
  name: "relu1"
  type: "PReLU"
  bottom: "conv1"
  top: "conv1"
}
layer {
  name: "pool1"
  type: "Pooling"
  bottom: "conv1"
  top: "pool1"
  pooling_param {
    pool: MAX
    kernel_size: 3
    stride: 2
  }
}
layer {
  name: "conv2"
  type: "Convolution"
  bottom: "pool1"
  top: "conv2"
  param {
    lr_mult: 1
  }
  param {
    lr_mult: 2
  }
  convolution_param {
    num_output: 48
    kernel_size: 3
    weight_filler {
      type: "gaussian"
      std: 0.0001
    }
    bias_filler {
      type: "constant"
    }
  }
}
layer {
  name: "relu2"
  type: "PReLU"
  bottom: "conv2"
  top: "conv2"
}
layer {
  name: "pool2"
  type: "Pooling"
  bottom: "conv2"
  top: "pool2"
  pooling_param {
    pool: MAX
    kernel_size: 3
    stride: 2
  }
}
layer {
  name: "conv3"
  type: "Convolution"
  bottom: "pool2"
  top: "conv3"
  param {
    lr_mult: 1
    decay_mult: 1
  }
  param {
    lr_mult: 2
    decay_mult: 0
  }
  convolution_param {
    num_output: 64
    kernel_size: 2
    stride: 1
    weight_filler {
      type: "xavier"
    }
    bias_filler {
      type: "constant"
      value: 0
    }
  }
}
layer {
  name: "relu3"
  type: "PReLU"
  bottom: "conv3"
  top: "conv3"
}
layer {
  name: "fc4"
  type: "InnerProduct"
  bottom: "conv3"
  top: "fc4"
  param {
    lr_mult: 1
    decay_mult: 1
  }
  param {
    lr_mult: 2
    decay_mult: 0
  }
  inner_product_param {
    num_output: 128
    weight_filler {
      type: "xavier"
    }
    bias_filler {
      type: "constant"
      value: 0
    }
  }
}
layer {
  name: "relu4"
  type: "PReLU"
  bottom: "fc4"
  top: "fc4"
}
layer {
  name: "fc5-1"
  type: "InnerProduct"
  bottom: "fc4"
  top: "fc5-1"
  param {
    lr_mult: 1
    decay_mult: 1
  }
  param {
    lr_mult: 2
    decay_mult: 0
  }
  inner_product_param {
    num_output: 2
    weight_filler {
      type: "xavier"
    }
    bias_filler {
      type: "constant"
      value: 0
    }
  }
}
layer {
  name: "cls_bridge"
  type: "Python"
  bottom: "fc5-1"
  bottom: "label"
  top: "fc5-1-valid"
  top: "label-valid"
  python_param {
    module: "pythonLayer"
    layer: "cls_Layer"
  }
}
layer {
  name: "cls_loss"
  type: "SoftmaxWithLoss"
  bottom: "fc5-1-valid"
  bottom: "label-valid"
  top: "cls_loss"
  loss_weight: 1
  propagate_down: true
  propagate_down: false
}
layer {
  name: "cls_acc"
  type: "Accuracy"
  bottom: "fc5-1-valid"
  bottom: "label-valid"
  top: "cls_acc"
  include {
    phase: TRAIN
  }
}
layer {
  name: "fc5-2"
  type: "InnerProduct"
  bottom: "fc4"
  top: "fc5-2"
  param {
    lr_mult: 1
    decay_mult: 1
  }
  param {
    lr_mult: 2
    decay_mult: 0
  }
  inner_product_param {
    num_output: 4
    weight_filler {
      type: "xavier"
    }
    bias_filler {
      type: "constant"
      value: 0
    }
  }
}
layer {
  name: "roi_loss"
  type: "Python"
  bottom: "fc5-2"
  bottom: "roi"
  top: "roi_loss"
  loss_weight: 0.5
  python_param {
    module: "pythonLayer"
    layer: "regression_Layer"
  }
}
layer {
  name: "fc5-3"
  type: "InnerProduct"
  bottom: "fc4"
  top: "fc5-3"
  param {
    lr_mult: 1
    decay_mult: 1
  }
  param {
    lr_mult: 2
    decay_mult: 0
  }
  inner_product_param {
    num_output: 10
    weight_filler {
      type: "xavier"
    }
    bias_filler {
      type: "constant"
      value: 0
    }
  }
}
layer {
  name: "pts_loss"
  type: "Python"
  bottom: "fc5-3"
  bottom: "pts"
  top: "pts_loss"
  loss_weight: 0.5
  python_param {
    module: "pythonLayer"
    layer: "regression_Layer"
  }
}
I0610 17:26:22.679909  2219 layer_factory.hpp:77] Creating layer PythonLayer
I0610 17:26:23.710556  2219 net.cpp:84] Creating Layer PythonLayer
I0610 17:26:23.710597  2219 net.cpp:380] PythonLayer -> data
I0610 17:26:23.710631  2219 net.cpp:380] PythonLayer -> label
I0610 17:26:23.710639  2219 net.cpp:380] PythonLayer -> roi
I0610 17:26:23.710657  2219 net.cpp:380] PythonLayer -> pts
Start Reading Classify Data into Memory...

1124063  Classify Data have been read into Memory...
Start Reading Regression Data into Memory...

524063  Regression Data have been read into Memory...
Start Reading pts-regression Data into Memory...

202599  pts-regression Data have been read into Memory...
I0610 18:08:24.014632  2219 net.cpp:122] Setting up PythonLayer
I0610 18:08:24.021947  2219 net.cpp:129] Top shape: 64 3 24 24 (110592)
I0610 18:08:24.021975  2219 net.cpp:129] Top shape: 64 1 (64)
I0610 18:08:24.021986  2219 net.cpp:129] Top shape: 64 4 (256)
I0610 18:08:24.021996  2219 net.cpp:129] Top shape: 64 10 (640)
I0610 18:08:24.022006  2219 net.cpp:137] Memory required for data: 446208
I0610 18:08:24.025451  2219 layer_factory.hpp:77] Creating layer conv1
I0610 18:08:24.030063  2219 net.cpp:84] Creating Layer conv1
I0610 18:08:24.030612  2219 net.cpp:406] conv1 <- data
I0610 18:08:24.031952  2219 net.cpp:380] conv1 -> conv1
I0610 18:08:29.374172  2219 net.cpp:122] Setting up conv1
I0610 18:08:29.379489  2219 net.cpp:129] Top shape: 64 28 22 22 (867328)
I0610 18:08:29.379518  2219 net.cpp:137] Memory required for data: 3915520
I0610 18:08:29.384004  2219 layer_factory.hpp:77] Creating layer relu1
I0610 18:08:29.387825  2219 net.cpp:84] Creating Layer relu1
I0610 18:08:29.387892  2219 net.cpp:406] relu1 <- conv1
I0610 18:08:29.387948  2219 net.cpp:367] relu1 -> conv1 (in-place)
I0610 18:08:29.392845  2219 net.cpp:122] Setting up relu1
I0610 18:08:29.392895  2219 net.cpp:129] Top shape: 64 28 22 22 (867328)
I0610 18:08:29.392909  2219 net.cpp:137] Memory required for data: 7384832
I0610 18:08:29.392947  2219 layer_factory.hpp:77] Creating layer pool1
I0610 18:08:29.413208  2219 net.cpp:84] Creating Layer pool1
I0610 18:08:29.413221  2219 net.cpp:406] pool1 <- conv1
I0610 18:08:29.413228  2219 net.cpp:380] pool1 -> pool1
I0610 18:08:29.476366  2219 net.cpp:122] Setting up pool1
I0610 18:08:29.476405  2219 net.cpp:129] Top shape: 64 28 11 11 (216832)
I0610 18:08:29.476415  2219 net.cpp:137] Memory required for data: 8252160
I0610 18:08:29.476425  2219 layer_factory.hpp:77] Creating layer conv2
I0610 18:08:29.477497  2219 net.cpp:84] Creating Layer conv2
I0610 18:08:29.477540  2219 net.cpp:406] conv2 <- pool1
I0610 18:08:29.477560  2219 net.cpp:380] conv2 -> conv2
I0610 18:08:29.485889  2219 net.cpp:122] Setting up conv2
I0610 18:08:29.485934  2219 net.cpp:129] Top shape: 64 48 9 9 (248832)
I0610 18:08:29.485944  2219 net.cpp:137] Memory required for data: 9247488
I0610 18:08:29.485997  2219 layer_factory.hpp:77] Creating layer relu2
I0610 18:08:29.486021  2219 net.cpp:84] Creating Layer relu2
I0610 18:08:29.486033  2219 net.cpp:406] relu2 <- conv2
I0610 18:08:29.486721  2219 net.cpp:367] relu2 -> conv2 (in-place)
I0610 18:08:29.489073  2219 net.cpp:122] Setting up relu2
I0610 18:08:29.489109  2219 net.cpp:129] Top shape: 64 48 9 9 (248832)
I0610 18:08:29.489159  2219 net.cpp:137] Memory required for data: 10242816
I0610 18:08:29.489181  2219 layer_factory.hpp:77] Creating layer pool2
I0610 18:08:29.489202  2219 net.cpp:84] Creating Layer pool2
I0610 18:08:29.489213  2219 net.cpp:406] pool2 <- conv2
I0610 18:08:29.489233  2219 net.cpp:380] pool2 -> pool2
I0610 18:08:29.489339  2219 net.cpp:122] Setting up pool2
I0610 18:08:29.489359  2219 net.cpp:129] Top shape: 64 48 4 4 (49152)
I0610 18:08:29.489368  2219 net.cpp:137] Memory required for data: 10439424
I0610 18:08:29.489378  2219 layer_factory.hpp:77] Creating layer conv3
I0610 18:08:29.489401  2219 net.cpp:84] Creating Layer conv3
I0610 18:08:29.489413  2219 net.cpp:406] conv3 <- pool2
I0610 18:08:29.489428  2219 net.cpp:380] conv3 -> conv3
I0610 18:08:29.494772  2219 net.cpp:122] Setting up conv3
I0610 18:08:29.494810  2219 net.cpp:129] Top shape: 64 64 3 3 (36864)
I0610 18:08:29.494825  2219 net.cpp:137] Memory required for data: 10586880
I0610 18:08:29.495649  2219 layer_factory.hpp:77] Creating layer relu3
I0610 18:08:29.495690  2219 net.cpp:84] Creating Layer relu3
I0610 18:08:29.495704  2219 net.cpp:406] relu3 <- conv3
I0610 18:08:29.495720  2219 net.cpp:367] relu3 -> conv3 (in-place)
I0610 18:08:29.496054  2219 net.cpp:122] Setting up relu3
I0610 18:08:29.496080  2219 net.cpp:129] Top shape: 64 64 3 3 (36864)
I0610 18:08:29.496089  2219 net.cpp:137] Memory required for data: 10734336
I0610 18:08:29.496114  2219 layer_factory.hpp:77] Creating layer fc4
I0610 18:08:29.496143  2219 net.cpp:84] Creating Layer fc4
I0610 18:08:29.496157  2219 net.cpp:406] fc4 <- conv3
I0610 18:08:29.496248  2219 net.cpp:380] fc4 -> fc4
I0610 18:08:29.501750  2219 net.cpp:122] Setting up fc4
I0610 18:08:29.501793  2219 net.cpp:129] Top shape: 64 128 (8192)
I0610 18:08:29.501806  2219 net.cpp:137] Memory required for data: 10767104
I0610 18:08:29.501827  2219 layer_factory.hpp:77] Creating layer relu4
I0610 18:08:29.501847  2219 net.cpp:84] Creating Layer relu4
I0610 18:08:29.501858  2219 net.cpp:406] relu4 <- fc4
I0610 18:08:29.501874  2219 net.cpp:367] relu4 -> fc4 (in-place)
I0610 18:08:29.502105  2219 net.cpp:122] Setting up relu4
I0610 18:08:29.502123  2219 net.cpp:129] Top shape: 64 128 (8192)
I0610 18:08:29.502132  2219 net.cpp:137] Memory required for data: 10799872
I0610 18:08:29.502146  2219 layer_factory.hpp:77] Creating layer fc4_relu4_0_split
I0610 18:08:29.505203  2219 net.cpp:84] Creating Layer fc4_relu4_0_split
I0610 18:08:29.505233  2219 net.cpp:406] fc4_relu4_0_split <- fc4
I0610 18:08:29.505251  2219 net.cpp:380] fc4_relu4_0_split -> fc4_relu4_0_split_0
I0610 18:08:29.505273  2219 net.cpp:380] fc4_relu4_0_split -> fc4_relu4_0_split_1
I0610 18:08:29.505304  2219 net.cpp:380] fc4_relu4_0_split -> fc4_relu4_0_split_2
I0610 18:08:29.505509  2219 net.cpp:122] Setting up fc4_relu4_0_split
I0610 18:08:29.505532  2219 net.cpp:129] Top shape: 64 128 (8192)
I0610 18:08:29.505547  2219 net.cpp:129] Top shape: 64 128 (8192)
I0610 18:08:29.505556  2219 net.cpp:129] Top shape: 64 128 (8192)
I0610 18:08:29.505563  2219 net.cpp:137] Memory required for data: 10898176
I0610 18:08:29.505977  2219 layer_factory.hpp:77] Creating layer fc5-1
I0610 18:08:29.506041  2219 net.cpp:84] Creating Layer fc5-1
I0610 18:08:29.506058  2219 net.cpp:406] fc5-1 <- fc4_relu4_0_split_0
I0610 18:08:29.506085  2219 net.cpp:380] fc5-1 -> fc5-1
I0610 18:08:29.506458  2219 net.cpp:122] Setting up fc5-1
I0610 18:08:29.506489  2219 net.cpp:129] Top shape: 64 2 (128)
I0610 18:08:29.506497  2219 net.cpp:137] Memory required for data: 10898688
I0610 18:08:29.506515  2219 layer_factory.hpp:77] Creating layer cls_bridge
I0610 18:08:29.541007  2219 net.cpp:84] Creating Layer cls_bridge
I0610 18:08:29.541051  2219 net.cpp:406] cls_bridge <- fc5-1
I0610 18:08:29.541069  2219 net.cpp:406] cls_bridge <- label
I0610 18:08:29.541090  2219 net.cpp:380] cls_bridge -> fc5-1-valid
I0610 18:08:29.541131  2219 net.cpp:380] cls_bridge -> label-valid
I0610 18:08:29.571179  2219 net.cpp:122] Setting up cls_bridge
I0610 18:08:29.571225  2219 net.cpp:129] Top shape: 64 2 (128)
I0610 18:08:29.571238  2219 net.cpp:129] Top shape: 64 1 (64)
I0610 18:08:29.571246  2219 net.cpp:137] Memory required for data: 10899456
I0610 18:08:29.571264  2219 layer_factory.hpp:77] Creating layer fc5-1-valid_cls_bridge_0_split
I0610 18:08:29.571300  2219 net.cpp:84] Creating Layer fc5-1-valid_cls_bridge_0_split
I0610 18:08:29.571315  2219 net.cpp:406] fc5-1-valid_cls_bridge_0_split <- fc5-1-valid
I0610 18:08:29.571337  2219 net.cpp:380] fc5-1-valid_cls_bridge_0_split -> fc5-1-valid_cls_bridge_0_split_0
I0610 18:08:29.571372  2219 net.cpp:380] fc5-1-valid_cls_bridge_0_split -> fc5-1-valid_cls_bridge_0_split_1
I0610 18:08:29.571485  2219 net.cpp:122] Setting up fc5-1-valid_cls_bridge_0_split
I0610 18:08:29.571506  2219 net.cpp:129] Top shape: 64 2 (128)
I0610 18:08:29.571518  2219 net.cpp:129] Top shape: 64 2 (128)
I0610 18:08:29.571530  2219 net.cpp:137] Memory required for data: 10900480
I0610 18:08:29.571540  2219 layer_factory.hpp:77] Creating layer label-valid_cls_bridge_1_split
I0610 18:08:29.571564  2219 net.cpp:84] Creating Layer label-valid_cls_bridge_1_split
I0610 18:08:29.571578  2219 net.cpp:406] label-valid_cls_bridge_1_split <- label-valid
I0610 18:08:29.571596  2219 net.cpp:380] label-valid_cls_bridge_1_split -> label-valid_cls_bridge_1_split_0
I0610 18:08:29.571615  2219 net.cpp:380] label-valid_cls_bridge_1_split -> label-valid_cls_bridge_1_split_1
I0610 18:08:29.571717  2219 net.cpp:122] Setting up label-valid_cls_bridge_1_split
I0610 18:08:29.571737  2219 net.cpp:129] Top shape: 64 1 (64)
I0610 18:08:29.571751  2219 net.cpp:129] Top shape: 64 1 (64)
I0610 18:08:29.571799  2219 net.cpp:137] Memory required for data: 10900992
I0610 18:08:29.571815  2219 layer_factory.hpp:77] Creating layer cls_loss
I0610 18:08:29.571842  2219 net.cpp:84] Creating Layer cls_loss
I0610 18:08:29.571857  2219 net.cpp:406] cls_loss <- fc5-1-valid_cls_bridge_0_split_0
I0610 18:08:29.571873  2219 net.cpp:406] cls_loss <- label-valid_cls_bridge_1_split_0
I0610 18:08:29.571892  2219 net.cpp:380] cls_loss -> cls_loss
…
