…
snapshot: 10000
snapshot_prefix: "./models/"
solver_mode: GPU
device_id: 0
net: "train24.prototxt"
train_state {
  level: 0
  stage: ""
}
I0610 15:00:18.256469  2605 solver.cpp:87] Creating training net from net file: train24.prototxt
I0610 15:00:18.257364  2605 net.cpp:51] Initializing net from parameters: 
name: "face_24c"
state {
  phase: TRAIN
  level: 0
  stage: ""
}
layer {
  name: "PythonLayer"
  type: "Python"
  top: "data"
  top: "label"
  top: "roi"
  top: "pts"
  python_param {
    module: "pythonLayer"
    layer: "Data_Layer_train"
  }
}
layer {
  name: "conv1"
  type: "Convolution"
  bottom: "data"
  top: "conv1"
  param {
    lr_mult: 1
  }
  param {
    lr_mult: 2
  }
  convolution_param {
    num_output: 28
    kernel_size: 3
    weight_filler {
      type: "gaussian"
      std: 0.0001
    }
    bias_filler {
      type: "constant"
    }
  }
}
layer {
  name: "relu1"
  type: "PReLU"
  bottom: "conv1"
  top: "conv1"
}
layer {
  name: "pool1"
  type: "Pooling"
  bottom: "conv1"
  top: "pool1"
  pooling_param {
    pool: MAX
    kernel_size: 3
    stride: 2
  }
}
layer {
  name: "conv2"
  type: "Convolution"
  bottom: "pool1"
  top: "conv2"
  param {
    lr_mult: 1
  }
  param {
    lr_mult: 2
  }
  convolution_param {
    num_output: 48
    kernel_size: 3
    weight_filler {
      type: "gaussian"
      std: 0.0001
    }
    bias_filler {
      type: "constant"
    }
  }
}
layer {
  name: "relu2"
  type: "PReLU"
  bottom: "conv2"
  top: "conv2"
}
layer {
  name: "pool2"
  type: "Pooling"
  bottom: "conv2"
  top: "pool2"
  pooling_param {
    pool: MAX
    kernel_size: 3
    stride: 2
  }
}
layer {
  name: "conv3"
  type: "Convolution"
  bottom: "pool2"
  top: "conv3"
  param {
    lr_mult: 1
    decay_mult: 1
  }
  param {
    lr_mult: 2
    decay_mult: 0
  }
  convolution_param {
    num_output: 64
    kernel_size: 2
    stride: 1
    weight_filler {
      type: "xavier"
    }
    bias_filler {
      type: "constant"
      value: 0
    }
  }
}
layer {
  name: "relu3"
  type: "PReLU"
  bottom: "conv3"
  top: "conv3"
}
layer {
  name: "fc4"
  type: "InnerProduct"
  bottom: "conv3"
  top: "fc4"
  param {
    lr_mult: 1
    decay_mult: 1
  }
  param {
    lr_mult: 2
    decay_mult: 0
  }
  inner_product_param {
    num_output: 128
    weight_filler {
      type: "xavier"
    }
    bias_filler {
      type: "constant"
      value: 0
    }
  }
}
layer {
  name: "relu4"
  type: "PReLU"
  bottom: "fc4"
  top: "fc4"
}
layer {
  name: "fc5-1"
  type: "InnerProduct"
  bottom: "fc4"
  top: "fc5-1"
  param {
    lr_mult: 1
    decay_mult: 1
  }
  param {
    lr_mult: 2
    decay_mult: 0
  }
  inner_product_param {
    num_output: 2
    weight_filler {
      type: "xavier"
    }
    bias_filler {
      type: "constant"
      value: 0
    }
  }
}
layer {
  name: "cls_bridge"
  type: "Python"
  bottom: "fc5-1"
  bottom: "label"
  top: "fc5-1-valid"
  top: "label-valid"
  python_param {
    module: "pythonLayer"
    layer: "cls_Layer"
  }
}
layer {
  name: "cls_loss"
  type: "SoftmaxWithLoss"
  bottom: "fc5-1-valid"
  bottom: "label-valid"
  top: "cls_loss"
  loss_weight: 1
  propagate_down: true
  propagate_down: false
}
layer {
  name: "cls_acc"
  type: "Accuracy"
  bottom: "fc5-1-valid"
  bottom: "label-valid"
  top: "cls_acc"
  include {
    phase: TRAIN
  }
}
layer {
  name: "fc5-2"
  type: "InnerProduct"
  bottom: "fc4"
  top: "fc5-2"
  param {
    lr_mult: 1
    decay_mult: 1
  }
  param {
    lr_mult: 2
    decay_mult: 0
  }
  inner_product_param {
    num_output: 4
    weight_filler {
      type: "xavier"
    }
    bias_filler {
      type: "constant"
      value: 0
    }
  }
}
layer {
  name: "roi_loss"
  type: "Python"
  bottom: "fc5-2"
  bottom: "roi"
  top: "roi_loss"
  loss_weight: 0.5
  python_param {
    module: "pythonLayer"
    layer: "regression_Layer"
  }
}
layer {
  name: "fc5-3"
  type: "InnerProduct"
  bottom: "fc4"
  top: "fc5-3"
  param {
    lr_mult: 1
    decay_mult: 1
  }
  param {
    lr_mult: 2
    decay_mult: 0
  }
  inner_product_param {
    num_output: 10
    weight_filler {
      type: "xavier"
    }
    bias_filler {
      type: "constant"
      value: 0
    }
  }
}
layer {
  name: "pts_loss"
  type: "Python"
  bottom: "fc5-3"
  bottom: "pts"
  top: "pts_loss"
  loss_weight: 0.5
  python_param {
    module: "pythonLayer"
    layer: "regression_Layer"
  }
}
I0610 15:00:18.257839  2605 layer_factory.hpp:77] Creating layer PythonLayer
I0610 15:00:19.508386  2605 net.cpp:84] Creating Layer PythonLayer
I0610 15:00:19.508431  2605 net.cpp:380] PythonLayer -> data
I0610 15:00:19.508450  2605 net.cpp:380] PythonLayer -> label
I0610 15:00:19.508460  2605 net.cpp:380] PythonLayer -> roi
I0610 15:00:19.508466  2605 net.cpp:380] PythonLayer -> pts
Start Reading Classify Data into Memory...

1124063  Classify Data have been read into Memory...
Start Reading Regression Data into Memory...

524063  Regression Data have been read into Memory...
Start Reading pts-regression Data into Memory...

202599  pts-regression Data have been read into Memory...
I0610 15:42:33.832381  2605 net.cpp:122] Setting up PythonLayer
I0610 15:42:33.839668  2605 net.cpp:129] Top shape: 64 3 24 24 (110592)
I0610 15:42:33.839702  2605 net.cpp:129] Top shape: 64 1 (64)
I0610 15:42:33.839718  2605 net.cpp:129] Top shape: 64 4 (256)
I0610 15:42:33.839730  2605 net.cpp:129] Top shape: 64 10 (640)
I0610 15:42:33.839745  2605 net.cpp:137] Memory required for data: 446208
I0610 15:42:33.843314  2605 layer_factory.hpp:77] Creating layer conv1
I0610 15:42:33.848094  2605 net.cpp:84] Creating Layer conv1
I0610 15:42:33.848664  2605 net.cpp:406] conv1 <- data
I0610 15:42:33.850330  2605 net.cpp:380] conv1 -> conv1
I0610 15:42:41.824225  2605 net.cpp:122] Setting up conv1
I0610 15:42:41.826937  2605 net.cpp:129] Top shape: 64 28 22 22 (867328)
I0610 15:42:41.826979  2605 net.cpp:137] Memory required for data: 3915520
I0610 15:42:41.831698  2605 layer_factory.hpp:77] Creating layer relu1
I0610 15:42:41.833686  2605 net.cpp:84] Creating Layer relu1
I0610 15:42:41.833755  2605 net.cpp:406] relu1 <- conv1
I0610 15:42:41.833796  2605 net.cpp:367] relu1 -> conv1 (in-place)
I0610 15:42:41.839054  2605 net.cpp:122] Setting up relu1
I0610 15:42:41.839117  2605 net.cpp:129] Top shape: 64 28 22 22 (867328)
I0610 15:42:41.839138  2605 net.cpp:137] Memory required for data: 7384832
I0610 15:42:41.839197  2605 layer_factory.hpp:77] Creating layer pool1
I0610 15:42:41.839438  2605 net.cpp:84] Creating Layer pool1
I0610 15:42:41.839486  2605 net.cpp:406] pool1 <- conv1
I0610 15:42:41.839541  2605 net.cpp:380] pool1 -> pool1
I0610 15:42:41.842042  2605 net.cpp:122] Setting up pool1
I0610 15:42:41.842106  2605 net.cpp:129] Top shape: 64 28 11 11 (216832)
I0610 15:42:41.842173  2605 net.cpp:137] Memory required for data: 8252160
I0610 15:42:41.842211  2605 layer_factory.hpp:77] Creating layer conv2
I0610 15:42:41.842290  2605 net.cpp:84] Creating Layer conv2
I0610 15:42:41.842322  2605 net.cpp:406] conv2 <- pool1
I0610 15:42:41.842375  2605 net.cpp:380] conv2 -> conv2
I0610 15:42:41.871479  2605 net.cpp:122] Setting up conv2
I0610 15:42:41.871493  2605 net.cpp:129] Top shape: 64 48 9 9 (248832)
I0610 15:42:41.871497  2605 net.cpp:137] Memory required for data: 9247488
I0610 15:42:41.923349  2605 layer_factory.hpp:77] Creating layer relu2
I0610 15:42:41.923367  2605 net.cpp:84] Creating Layer relu2
I0610 15:42:41.923372  2605 net.cpp:406] relu2 <- conv2
I0610 15:42:41.982910  2605 net.cpp:367] relu2 -> conv2 (in-place)
I0610 15:42:41.985155  2605 net.cpp:122] Setting up relu2
I0610 15:42:41.985195  2605 net.cpp:129] Top shape: 64 48 9 9 (248832)
I0610 15:42:41.985205  2605 net.cpp:137] Memory required for data: 10242816
I0610 15:42:41.985222  2605 layer_factory.hpp:77] Creating layer pool2
I0610 15:42:41.985244  2605 net.cpp:84] Creating Layer pool2
I0610 15:42:41.985257  2605 net.cpp:406] pool2 <- conv2
I0610 15:42:41.985271  2605 net.cpp:380] pool2 -> pool2
I0610 15:42:41.985536  2605 net.cpp:122] Setting up pool2
I0610 15:42:41.985558  2605 net.cpp:129] Top shape: 64 48 4 4 (49152)
I0610 15:42:41.985569  2605 net.cpp:137] Memory required for data: 10439424
I0610 15:42:41.985577  2605 layer_factory.hpp:77] Creating layer conv3
I0610 15:42:41.985605  2605 net.cpp:84] Creating Layer conv3
I0610 15:42:41.985617  2605 net.cpp:406] conv3 <- pool2
I0610 15:42:41.985635  2605 net.cpp:380] conv3 -> conv3
I0610 15:42:41.991093  2605 net.cpp:122] Setting up conv3
I0610 15:42:41.991130  2605 net.cpp:129] Top shape: 64 64 3 3 (36864)
I0610 15:42:41.991142  2605 net.cpp:137] Memory required for data: 10586880
I0610 15:42:41.991161  2605 layer_factory.hpp:77] Creating layer relu3
I0610 15:42:41.997025  2605 net.cpp:84] Creating Layer relu3
I0610 15:42:41.997058  2605 net.cpp:406] relu3 <- conv3
I0610 15:42:41.997078  2605 net.cpp:367] relu3 -> conv3 (in-place)
I0610 15:42:41.997458  2605 net.cpp:122] Setting up relu3
I0610 15:42:41.997486  2605 net.cpp:129] Top shape: 64 64 3 3 (36864)
I0610 15:42:41.997496  2605 net.cpp:137] Memory required for data: 10734336
I0610 15:42:41.997524  2605 layer_factory.hpp:77] Creating layer fc4
I0610 15:42:41.997557  2605 net.cpp:84] Creating Layer fc4
I0610 15:42:41.997570  2605 net.cpp:406] fc4 <- conv3
I0610 15:42:41.997642  2605 net.cpp:380] fc4 -> fc4
I0610 15:42:42.001991  2605 net.cpp:122] Setting up fc4
I0610 15:42:42.002084  2605 net.cpp:129] Top shape: 64 128 (8192)
I0610 15:42:42.002099  2605 net.cpp:137] Memory required for data: 10767104
I0610 15:42:42.002123  2605 layer_factory.hpp:77] Creating layer relu4
I0610 15:42:42.002146  2605 net.cpp:84] Creating Layer relu4
I0610 15:42:42.002161  2605 net.cpp:406] relu4 <- fc4
I0610 15:42:42.002178  2605 net.cpp:367] relu4 -> fc4 (in-place)
I0610 15:42:42.002424  2605 net.cpp:122] Setting up relu4
I0610 15:42:42.002444  2605 net.cpp:129] Top shape: 64 128 (8192)
I0610 15:42:42.002456  2605 net.cpp:137] Memory required for data: 10799872
I0610 15:42:42.002470  2605 layer_factory.hpp:77] Creating layer fc4_relu4_0_split
I0610 15:42:42.004838  2605 net.cpp:84] Creating Layer fc4_relu4_0_split
I0610 15:42:42.004871  2605 net.cpp:406] fc4_relu4_0_split <- fc4
I0610 15:42:42.004904  2605 net.cpp:380] fc4_relu4_0_split -> fc4_relu4_0_split_0
I0610 15:42:42.004935  2605 net.cpp:380] fc4_relu4_0_split -> fc4_relu4_0_split_1
I0610 15:42:42.004961  2605 net.cpp:380] fc4_relu4_0_split -> fc4_relu4_0_split_2
I0610 15:42:42.005201  2605 net.cpp:122] Setting up fc4_relu4_0_split
I0610 15:42:42.005233  2605 net.cpp:129] Top shape: 64 128 (8192)
I0610 15:42:42.005252  2605 net.cpp:129] Top shape: 64 128 (8192)
I0610 15:42:42.005270  2605 net.cpp:129] Top shape: 64 128 (8192)
I0610 15:42:42.005285  2605 net.cpp:137] Memory required for data: 10898176
I0610 15:42:42.007877  2605 layer_factory.hpp:77] Creating layer fc5-1
I0610 15:42:42.007935  2605 net.cpp:84] Creating Layer fc5-1
I0610 15:42:42.007951  2605 net.cpp:406] fc5-1 <- fc4_relu4_0_split_0
I0610 15:42:42.007978  2605 net.cpp:380] fc5-1 -> fc5-1
I0610 15:42:42.008339  2605 net.cpp:122] Setting up fc5-1
I0610 15:42:42.008361  2605 net.cpp:129] Top shape: 64 2 (128)
I0610 15:42:42.008373  2605 net.cpp:137] Memory required for data: 10898688
I0610 15:42:42.008391  2605 layer_factory.hpp:77] Creating layer cls_bridge
I0610 15:42:42.035799  2605 net.cpp:84] Creating Layer cls_bridge
I0610 15:42:42.035835  2605 net.cpp:406] cls_bridge <- fc5-1
I0610 15:42:42.035864  2605 net.cpp:406] cls_bridge <- label
I0610 15:42:42.035892  2605 net.cpp:380] cls_bridge -> fc5-1-valid
I0610 15:42:42.035923  2605 net.cpp:380] cls_bridge -> label-valid
I0610 15:42:42.060117  2605 net.cpp:122] Setting up cls_bridge
I0610 15:42:42.060161  2605 net.cpp:129] Top shape: 64 2 (128)
I0610 15:42:42.060184  2605 net.cpp:129] Top shape: 64 1 (64)
I0610 15:42:42.060201  2605 net.cpp:137] Memory required for data: 10899456
I0610 15:42:42.060220  2605 layer_factory.hpp:77] Creating layer fc5-1-valid_cls_bridge_0_split
I0610 15:42:42.060246  2605 net.cpp:84] Creating Layer fc5-1-valid_cls_bridge_0_split
I0610 15:42:42.060263  2605 net.cpp:406] fc5-1-valid_cls_bridge_0_split <- fc5-1-valid
I0610 15:42:42.060297  2605 net.cpp:380] fc5-1-valid_cls_bridge_0_split -> fc5-1-valid_cls_bridge_0_split_0
I0610 15:42:42.060335  2605 net.cpp:380] fc5-1-valid_cls_bridge_0_split -> fc5-1-valid_cls_bridge_0_split_1
I0610 15:42:42.060457  2605 net.cpp:122] Setting up fc5-1-valid_cls_bridge_0_split
I0610 15:42:42.060482  2605 net.cpp:129] Top shape: 64 2 (128)
I0610 15:42:42.060503  2605 net.cpp:129] Top shape: 64 2 (128)
I0610 15:42:42.060516  2605 net.cpp:137] Memory required for data: 10900480
I0610 15:42:42.060533  2605 layer_factory.hpp:77] Creating layer label-valid_cls_bridge_1_split
I0610 15:42:42.060555  2605 net.cpp:84] Creating Layer label-valid_cls_bridge_1_split
I0610 15:42:42.060575  2605 net.cpp:406] label-valid_cls_bridge_1_split <- label-valid
I0610 15:42:42.060598  2605 net.cpp:380] label-valid_cls_bridge_1_split -> label-valid_cls_bridge_1_split_0
I0610 15:42:42.060624  2605 net.cpp:380] label-valid_cls_bridge_1_split -> label-valid_cls_bridge_1_split_1
I0610 15:42:42.060739  2605 net.cpp:122] Setting up label-valid_cls_bridge_1_split
I0610 15:42:42.060762  2605 net.cpp:129] Top shape: 64 1 (64)
I0610 15:42:42.060781  2605 net.cpp:129] Top shape: 64 1 (64)
I0610 15:42:42.060835  2605 net.cpp:137] Memory required for data: 10900992
I0610 15:42:42.060864  2605 layer_factory.hpp:77] Creating layer cls_loss
I0610 15:42:42.060901  2605 net.cpp:84] Creating Layer cls_loss
I0610 15:42:42.060916  2605 net.cpp:406] cls_loss <- fc5-1-valid_cls_bridge_0_split_0
I0610 15:42:42.060933  2605 net.cpp:406] cls_loss <- label-valid_cls_bridge_1_split_0
I0610 15:42:42.060951  2605 net.cpp:380] cls_loss -> cls_loss
…
