…
snapshot: 20000
snapshot_prefix: "./models/12net"
solver_mode: GPU
device_id: 0
net: "train12.prototxt"
train_state {
  level: 0
  stage: ""
}
I0622 17:00:01.235695 28554 solver.cpp:87] Creating training net from net file: train12.prototxt
I0622 17:00:01.235968 28554 net.cpp:51] Initializing net from parameters: 
name: "face_12c"
state {
  phase: TRAIN
  level: 0
  stage: ""
}
layer {
  name: "PythonLayer"
  type: "Python"
  top: "data"
  top: "label"
  top: "roi"
  top: "pts"
  python_param {
    module: "pythonLayer"
    layer: "Data_Layer_train"
  }
}
layer {
  name: "conv1"
  type: "Convolution"
  bottom: "data"
  top: "conv1"
  param {
    lr_mult: 1
    decay_mult: 1
  }
  param {
    lr_mult: 2
    decay_mult: 0
  }
  convolution_param {
    num_output: 10
    kernel_size: 3
    stride: 1
    weight_filler {
      type: "xavier"
    }
    bias_filler {
      type: "constant"
      value: 0
    }
  }
}
layer {
  name: "PReLU1"
  type: "PReLU"
  bottom: "conv1"
  top: "conv1"
}
layer {
  name: "pool1"
  type: "Pooling"
  bottom: "conv1"
  top: "pool1"
  pooling_param {
    pool: MAX
    kernel_size: 2
    stride: 2
  }
}
layer {
  name: "conv2"
  type: "Convolution"
  bottom: "pool1"
  top: "conv2"
  param {
    lr_mult: 1
    decay_mult: 1
  }
  param {
    lr_mult: 2
    decay_mult: 0
  }
  convolution_param {
    num_output: 16
    kernel_size: 3
    stride: 1
    weight_filler {
      type: "xavier"
    }
    bias_filler {
      type: "constant"
      value: 0
    }
  }
}
layer {
  name: "PReLU2"
  type: "PReLU"
  bottom: "conv2"
  top: "conv2"
}
layer {
  name: "conv3"
  type: "Convolution"
  bottom: "conv2"
  top: "conv3"
  param {
    lr_mult: 1
    decay_mult: 1
  }
  param {
    lr_mult: 2
    decay_mult: 0
  }
  convolution_param {
    num_output: 32
    kernel_size: 3
    stride: 1
    weight_filler {
      type: "xavier"
    }
    bias_filler {
      type: "constant"
      value: 0
    }
  }
}
layer {
  name: "PReLU3"
  type: "PReLU"
  bottom: "conv3"
  top: "conv3"
}
layer {
  name: "conv4-1"
  type: "Convolution"
  bottom: "conv3"
  top: "conv4-1"
  param {
    lr_mult: 1
    decay_mult: 1
  }
  param {
    lr_mult: 2
    decay_mult: 0
  }
  convolution_param {
    num_output: 2
    kernel_size: 1
    stride: 1
    weight_filler {
      type: "xavier"
    }
    bias_filler {
      type: "constant"
      value: 0
    }
  }
}
layer {
  name: "cls_bridge"
  type: "Python"
  bottom: "conv4-1"
  bottom: "label"
  top: "conv4-1-valid"
  top: "label-valid"
  python_param {
    module: "pythonLayer"
    layer: "cls_Layer_fc"
  }
}
layer {
  name: "cls_loss"
  type: "SoftmaxWithLoss"
  bottom: "conv4-1-valid"
  bottom: "label-valid"
  top: "cls_loss"
  loss_weight: 1
  propagate_down: true
  propagate_down: false
}
layer {
  name: "cls_Acc"
  type: "Accuracy"
  bottom: "conv4-1-valid"
  bottom: "label-valid"
  top: "cls_Acc"
  include {
    phase: TRAIN
  }
}
layer {
  name: "conv4-2"
  type: "Convolution"
  bottom: "conv3"
  top: "conv4-2"
  param {
    lr_mult: 1
    decay_mult: 1
  }
  param {
    lr_mult: 2
    decay_mult: 0
  }
  convolution_param {
    num_output: 4
    kernel_size: 1
    stride: 1
    weight_filler {
      type: "xavier"
    }
    bias_filler {
      type: "constant"
      value: 0
    }
  }
}
layer {
  name: "roi_loss"
  type: "Python"
  bottom: "conv4-2"
  bottom: "roi"
  top: "roi_loss"
  loss_weight: 0.5
  python_param {
    module: "pythonLayer"
    layer: "regression_Layer"
  }
}
layer {
  name: "conv4-3"
  type: "Convolution"
  bottom: "conv3"
  top: "conv4-3"
  param {
    lr_mult: 1
    decay_mult: 1
  }
  param {
    lr_mult: 2
    decay_mult: 0
  }
  convolution_param {
    num_output: 10
    kernel_size: 1
    stride: 1
    weight_filler {
      type: "xavier"
    }
    bias_filler {
      type: "constant"
      value: 0
    }
  }
}
layer {
  name: "pts_loss"
  type: "Python"
  bottom: "conv4-3"
  bottom: "pts"
  top: "pts_loss"
  loss_weight: 0.5
  python_param {
    module: "pythonLayer"
    layer: "regression_Layer"
  }
}
I0622 17:00:01.236181 28554 layer_factory.hpp:77] Creating layer PythonLayer
I0622 17:00:02.170797 28554 net.cpp:84] Creating Layer PythonLayer
I0622 17:00:02.170835 28554 net.cpp:380] PythonLayer -> data
I0622 17:00:02.170863 28554 net.cpp:380] PythonLayer -> label
I0622 17:00:02.170883 28554 net.cpp:380] PythonLayer -> roi
I0622 17:00:02.170888 28554 net.cpp:380] PythonLayer -> pts
Start Reading Classify Data into Memory...

640000  Classify Data have been read into Memory...
Start Reading Regression Data into Memory...

360000  Regression Data have been read into Memory...
Start Reading pts-regression Data into Memory...

70000  pts-regression Data have been read into Memory...
I0622 17:06:03.933333 28554 net.cpp:122] Setting up PythonLayer
I0622 17:06:03.933717 28554 net.cpp:129] Top shape: 64 3 12 12 (27648)
I0622 17:06:03.933724 28554 net.cpp:129] Top shape: 64 1 (64)
I0622 17:06:03.933743 28554 net.cpp:129] Top shape: 64 4 (256)
I0622 17:06:03.933745 28554 net.cpp:129] Top shape: 64 10 (640)
I0622 17:06:03.933763 28554 net.cpp:137] Memory required for data: 114432
I0622 17:06:03.933771 28554 layer_factory.hpp:77] Creating layer conv1
I0622 17:06:03.933805 28554 net.cpp:84] Creating Layer conv1
I0622 17:06:03.933823 28554 net.cpp:406] conv1 <- data
I0622 17:06:03.933848 28554 net.cpp:380] conv1 -> conv1
I0622 17:06:04.276336 28554 net.cpp:122] Setting up conv1
I0622 17:06:04.276371 28554 net.cpp:129] Top shape: 64 10 10 10 (64000)
I0622 17:06:04.276376 28554 net.cpp:137] Memory required for data: 370432
I0622 17:06:04.276424 28554 layer_factory.hpp:77] Creating layer PReLU1
I0622 17:06:04.276445 28554 net.cpp:84] Creating Layer PReLU1
I0622 17:06:04.276463 28554 net.cpp:406] PReLU1 <- conv1
I0622 17:06:04.276466 28554 net.cpp:367] PReLU1 -> conv1 (in-place)
I0622 17:06:04.276595 28554 net.cpp:122] Setting up PReLU1
I0622 17:06:04.276600 28554 net.cpp:129] Top shape: 64 10 10 10 (64000)
I0622 17:06:04.276602 28554 net.cpp:137] Memory required for data: 626432
I0622 17:06:04.276607 28554 layer_factory.hpp:77] Creating layer pool1
I0622 17:06:04.276610 28554 net.cpp:84] Creating Layer pool1
I0622 17:06:04.276612 28554 net.cpp:406] pool1 <- conv1
I0622 17:06:04.276617 28554 net.cpp:380] pool1 -> pool1
I0622 17:06:04.276674 28554 net.cpp:122] Setting up pool1
I0622 17:06:04.276679 28554 net.cpp:129] Top shape: 64 10 5 5 (16000)
I0622 17:06:04.276680 28554 net.cpp:137] Memory required for data: 690432
I0622 17:06:04.276697 28554 layer_factory.hpp:77] Creating layer conv2
I0622 17:06:04.276705 28554 net.cpp:84] Creating Layer conv2
I0622 17:06:04.276721 28554 net.cpp:406] conv2 <- pool1
I0622 17:06:04.276724 28554 net.cpp:380] conv2 -> conv2
I0622 17:06:04.278087 28554 net.cpp:122] Setting up conv2
I0622 17:06:04.278111 28554 net.cpp:129] Top shape: 64 16 3 3 (9216)
I0622 17:06:04.278113 28554 net.cpp:137] Memory required for data: 727296
I0622 17:06:04.278120 28554 layer_factory.hpp:77] Creating layer PReLU2
I0622 17:06:04.278144 28554 net.cpp:84] Creating Layer PReLU2
I0622 17:06:04.278148 28554 net.cpp:406] PReLU2 <- conv2
I0622 17:06:04.278165 28554 net.cpp:367] PReLU2 -> conv2 (in-place)
I0622 17:06:04.278242 28554 net.cpp:122] Setting up PReLU2
I0622 17:06:04.278247 28554 net.cpp:129] Top shape: 64 16 3 3 (9216)
I0622 17:06:04.278249 28554 net.cpp:137] Memory required for data: 764160
I0622 17:06:04.278252 28554 layer_factory.hpp:77] Creating layer conv3
I0622 17:06:04.278259 28554 net.cpp:84] Creating Layer conv3
I0622 17:06:04.278261 28554 net.cpp:406] conv3 <- conv2
I0622 17:06:04.278264 28554 net.cpp:380] conv3 -> conv3
I0622 17:06:04.279709 28554 net.cpp:122] Setting up conv3
I0622 17:06:04.279721 28554 net.cpp:129] Top shape: 64 32 1 1 (2048)
I0622 17:06:04.279739 28554 net.cpp:137] Memory required for data: 772352
I0622 17:06:04.279744 28554 layer_factory.hpp:77] Creating layer PReLU3
I0622 17:06:04.279762 28554 net.cpp:84] Creating Layer PReLU3
I0622 17:06:04.279764 28554 net.cpp:406] PReLU3 <- conv3
I0622 17:06:04.279767 28554 net.cpp:367] PReLU3 -> conv3 (in-place)
I0622 17:06:04.279886 28554 net.cpp:122] Setting up PReLU3
I0622 17:06:04.279891 28554 net.cpp:129] Top shape: 64 32 1 1 (2048)
I0622 17:06:04.279892 28554 net.cpp:137] Memory required for data: 780544
I0622 17:06:04.279897 28554 layer_factory.hpp:77] Creating layer conv3_PReLU3_0_split
I0622 17:06:04.279916 28554 net.cpp:84] Creating Layer conv3_PReLU3_0_split
I0622 17:06:04.279917 28554 net.cpp:406] conv3_PReLU3_0_split <- conv3
I0622 17:06:04.279935 28554 net.cpp:380] conv3_PReLU3_0_split -> conv3_PReLU3_0_split_0
I0622 17:06:04.279942 28554 net.cpp:380] conv3_PReLU3_0_split -> conv3_PReLU3_0_split_1
I0622 17:06:04.279961 28554 net.cpp:380] conv3_PReLU3_0_split -> conv3_PReLU3_0_split_2
I0622 17:06:04.280006 28554 net.cpp:122] Setting up conv3_PReLU3_0_split
I0622 17:06:04.280011 28554 net.cpp:129] Top shape: 64 32 1 1 (2048)
I0622 17:06:04.280045 28554 net.cpp:129] Top shape: 64 32 1 1 (2048)
I0622 17:06:04.280063 28554 net.cpp:129] Top shape: 64 32 1 1 (2048)
I0622 17:06:04.280066 28554 net.cpp:137] Memory required for data: 805120
I0622 17:06:04.280069 28554 layer_factory.hpp:77] Creating layer conv4-1
I0622 17:06:04.280092 28554 net.cpp:84] Creating Layer conv4-1
I0622 17:06:04.280094 28554 net.cpp:406] conv4-1 <- conv3_PReLU3_0_split_0
I0622 17:06:04.280099 28554 net.cpp:380] conv4-1 -> conv4-1
I0622 17:06:04.281285 28554 net.cpp:122] Setting up conv4-1
I0622 17:06:04.281293 28554 net.cpp:129] Top shape: 64 2 1 1 (128)
I0622 17:06:04.281311 28554 net.cpp:137] Memory required for data: 805632
I0622 17:06:04.281316 28554 layer_factory.hpp:77] Creating layer cls_bridge
I0622 17:06:04.281357 28554 net.cpp:84] Creating Layer cls_bridge
I0622 17:06:04.281361 28554 net.cpp:406] cls_bridge <- conv4-1
I0622 17:06:04.281365 28554 net.cpp:406] cls_bridge <- label
I0622 17:06:04.281369 28554 net.cpp:380] cls_bridge -> conv4-1-valid
I0622 17:06:04.281374 28554 net.cpp:380] cls_bridge -> label-valid
I0622 17:06:04.281476 28554 net.cpp:122] Setting up cls_bridge
I0622 17:06:04.281481 28554 net.cpp:129] Top shape: 64 2 1 1 (128)
I0622 17:06:04.281486 28554 net.cpp:129] Top shape: 64 1 (64)
I0622 17:06:04.281487 28554 net.cpp:137] Memory required for data: 806400
I0622 17:06:04.281491 28554 layer_factory.hpp:77] Creating layer conv4-1-valid_cls_bridge_0_split
I0622 17:06:04.281496 28554 net.cpp:84] Creating Layer conv4-1-valid_cls_bridge_0_split
I0622 17:06:04.281498 28554 net.cpp:406] conv4-1-valid_cls_bridge_0_split <- conv4-1-valid
I0622 17:06:04.281512 28554 net.cpp:380] conv4-1-valid_cls_bridge_0_split -> conv4-1-valid_cls_bridge_0_split_0
I0622 17:06:04.281518 28554 net.cpp:380] conv4-1-valid_cls_bridge_0_split -> conv4-1-valid_cls_bridge_0_split_1
I0622 17:06:04.281543 28554 net.cpp:122] Setting up conv4-1-valid_cls_bridge_0_split
I0622 17:06:04.281548 28554 net.cpp:129] Top shape: 64 2 1 1 (128)
I0622 17:06:04.281551 28554 net.cpp:129] Top shape: 64 2 1 1 (128)
I0622 17:06:04.281554 28554 net.cpp:137] Memory required for data: 807424
I0622 17:06:04.281556 28554 layer_factory.hpp:77] Creating layer label-valid_cls_bridge_1_split
I0622 17:06:04.281560 28554 net.cpp:84] Creating Layer label-valid_cls_bridge_1_split
I0622 17:06:04.281579 28554 net.cpp:406] label-valid_cls_bridge_1_split <- label-valid
I0622 17:06:04.281584 28554 net.cpp:380] label-valid_cls_bridge_1_split -> label-valid_cls_bridge_1_split_0
I0622 17:06:04.281590 28554 net.cpp:380] label-valid_cls_bridge_1_split -> label-valid_cls_bridge_1_split_1
I0622 17:06:04.281642 28554 net.cpp:122] Setting up label-valid_cls_bridge_1_split
I0622 17:06:04.281646 28554 net.cpp:129] Top shape: 64 1 (64)
I0622 17:06:04.281651 28554 net.cpp:129] Top shape: 64 1 (64)
I0622 17:06:04.281652 28554 net.cpp:137] Memory required for data: 807936
I0622 17:06:04.281656 28554 layer_factory.hpp:77] Creating layer cls_loss
I0622 17:06:04.281659 28554 net.cpp:84] Creating Layer cls_loss
I0622 17:06:04.281675 28554 net.cpp:406] cls_loss <- conv4-1-valid_cls_bridge_0_split_0
I0622 17:06:04.281679 28554 net.cpp:406] cls_loss <- label-valid_cls_bridge_1_split_0
I0622 17:06:04.281698 28554 net.cpp:380] cls_loss -> cls_loss
…
