…
snapshot: 10000
snapshot_prefix: "./models/"
solver_mode: GPU
device_id: 0
net: "train24.prototxt"
train_state {
  level: 0
  stage: ""
}
I0609 18:07:13.398663  5120 solver.cpp:87] Creating training net from net file: train24.prototxt
I0609 18:07:13.398977  5120 net.cpp:51] Initializing net from parameters: 
name: "face_24c"
state {
  phase: TRAIN
  level: 0
  stage: ""
}
layer {
  name: "PythonLayer"
  type: "Python"
  top: "data"
  top: "label"
  top: "roi"
  top: "pts"
  python_param {
    module: "pythonLayer"
    layer: "Data_Layer_train"
  }
}
layer {
  name: "conv1"
  type: "Convolution"
  bottom: "data"
  top: "conv1"
  param {
    lr_mult: 1
  }
  param {
    lr_mult: 2
  }
  convolution_param {
    num_output: 28
    kernel_size: 3
    weight_filler {
      type: "gaussian"
      std: 0.0001
    }
    bias_filler {
      type: "constant"
    }
  }
}
layer {
  name: "relu1"
  type: "PReLU"
  bottom: "conv1"
  top: "conv1"
}
layer {
  name: "pool1"
  type: "Pooling"
  bottom: "conv1"
  top: "pool1"
  pooling_param {
    pool: MAX
    kernel_size: 3
    stride: 2
  }
}
layer {
  name: "conv2"
  type: "Convolution"
  bottom: "pool1"
  top: "conv2"
  param {
    lr_mult: 1
  }
  param {
    lr_mult: 2
  }
  convolution_param {
    num_output: 48
    kernel_size: 3
    weight_filler {
      type: "gaussian"
      std: 0.0001
    }
    bias_filler {
      type: "constant"
    }
  }
}
layer {
  name: "relu2"
  type: "PReLU"
  bottom: "conv2"
  top: "conv2"
}
layer {
  name: "pool2"
  type: "Pooling"
  bottom: "conv2"
  top: "pool2"
  pooling_param {
    pool: MAX
    kernel_size: 3
    stride: 2
  }
}
layer {
  name: "conv3"
  type: "Convolution"
  bottom: "pool2"
  top: "conv3"
  param {
    lr_mult: 1
    decay_mult: 1
  }
  param {
    lr_mult: 2
    decay_mult: 0
  }
  convolution_param {
    num_output: 64
    kernel_size: 2
    stride: 1
    weight_filler {
      type: "xavier"
    }
    bias_filler {
      type: "constant"
      value: 0
    }
  }
}
layer {
  name: "relu3"
  type: "PReLU"
  bottom: "conv3"
  top: "conv3"
}
layer {
  name: "fc4"
  type: "InnerProduct"
  bottom: "conv3"
  top: "fc4"
  param {
    lr_mult: 1
    decay_mult: 1
  }
  param {
    lr_mult: 2
    decay_mult: 0
  }
  inner_product_param {
    num_output: 128
    weight_filler {
      type: "xavier"
    }
    bias_filler {
      type: "constant"
      value: 0
    }
  }
}
layer {
  name: "relu4"
  type: "PReLU"
  bottom: "fc4"
  top: "fc4"
}
layer {
  name: "fc5-1"
  type: "InnerProduct"
  bottom: "fc4"
  top: "fc5-1"
  param {
    lr_mult: 1
    decay_mult: 1
  }
  param {
    lr_mult: 2
    decay_mult: 0
  }
  inner_product_param {
    num_output: 2
    weight_filler {
      type: "xavier"
    }
    bias_filler {
      type: "constant"
      value: 0
    }
  }
}
layer {
  name: "cls_bridge"
  type: "Python"
  bottom: "fc5-1"
  bottom: "label"
  top: "fc5-1-valid"
  top: "label-valid"
  python_param {
    module: "pythonLayer"
    layer: "cls_Layer"
  }
}
layer {
  name: "cls_loss"
  type: "SoftmaxWithLoss"
  bottom: "fc5-1-valid"
  bottom: "label-valid"
  top: "cls_loss"
  loss_weight: 1
  propagate_down: true
  propagate_down: false
}
layer {
  name: "cls_acc"
  type: "Accuracy"
  bottom: "fc5-1-valid"
  bottom: "label-valid"
  top: "cls_acc"
  include {
    phase: TRAIN
  }
}
layer {
  name: "fc5-2"
  type: "InnerProduct"
  bottom: "fc4"
  top: "fc5-2"
  param {
    lr_mult: 1
    decay_mult: 1
  }
  param {
    lr_mult: 2
    decay_mult: 0
  }
  inner_product_param {
    num_output: 4
    weight_filler {
      type: "xavier"
    }
    bias_filler {
      type: "constant"
      value: 0
    }
  }
}
layer {
  name: "roi_loss"
  type: "Python"
  bottom: "fc5-2"
  bottom: "roi"
  top: "roi_loss"
  loss_weight: 0.5
  python_param {
    module: "pythonLayer"
    layer: "regression_Layer"
  }
}
layer {
  name: "fc5-3"
  type: "InnerProduct"
  bottom: "fc4"
  top: "fc5-3"
  param {
    lr_mult: 1
    decay_mult: 1
  }
  param {
    lr_mult: 2
    decay_mult: 0
  }
  inner_product_param {
    num_output: 10
    weight_filler {
      type: "xavier"
    }
    bias_filler {
      type: "constant"
      value: 0
    }
  }
}
layer {
  name: "pts_loss"
  type: "Python"
  bottom: "fc5-3"
  bottom: "pts"
  top: "pts_loss"
  loss_weight: 0.5
  python_param {
    module: "pythonLayer"
    layer: "regression_Layer"
  }
}
I0609 18:07:13.399250  5120 layer_factory.hpp:77] Creating layer PythonLayer
I0609 18:07:13.805433  5120 net.cpp:84] Creating Layer PythonLayer
I0609 18:07:13.805470  5120 net.cpp:380] PythonLayer -> data
I0609 18:07:13.805500  5120 net.cpp:380] PythonLayer -> label
I0609 18:07:13.805519  5120 net.cpp:380] PythonLayer -> roi
I0609 18:07:13.805524  5120 net.cpp:380] PythonLayer -> pts
Start Reading Classify Data into Memory...

924063  Classify Data have been read into Memory...
Start Reading Regression Data into Memory...

524063  Regression Data have been read into Memory...
Start Reading pts-regression Data into Memory...

202599  pts-regression Data have been read into Memory...
I0609 18:50:14.208374  5120 net.cpp:122] Setting up PythonLayer
I0609 18:50:14.215178  5120 net.cpp:129] Top shape: 64 3 24 24 (110592)
I0609 18:50:14.215201  5120 net.cpp:129] Top shape: 64 1 (64)
I0609 18:50:14.215211  5120 net.cpp:129] Top shape: 64 4 (256)
I0609 18:50:14.215219  5120 net.cpp:129] Top shape: 64 10 (640)
I0609 18:50:14.215224  5120 net.cpp:137] Memory required for data: 446208
I0609 18:50:14.218355  5120 layer_factory.hpp:77] Creating layer conv1
I0609 18:50:14.223125  5120 net.cpp:84] Creating Layer conv1
I0609 18:50:14.223695  5120 net.cpp:406] conv1 <- data
I0609 18:50:14.224900  5120 net.cpp:380] conv1 -> conv1
I0609 18:50:16.998282  5120 net.cpp:122] Setting up conv1
I0609 18:50:17.000161  5120 net.cpp:129] Top shape: 64 28 22 22 (867328)
I0609 18:50:17.000200  5120 net.cpp:137] Memory required for data: 3915520
I0609 18:50:17.004778  5120 layer_factory.hpp:77] Creating layer relu1
I0609 18:50:17.006609  5120 net.cpp:84] Creating Layer relu1
I0609 18:50:17.006635  5120 net.cpp:406] relu1 <- conv1
I0609 18:50:17.006659  5120 net.cpp:367] relu1 -> conv1 (in-place)
I0609 18:50:17.009999  5120 net.cpp:122] Setting up relu1
I0609 18:50:17.010037  5120 net.cpp:129] Top shape: 64 28 22 22 (867328)
I0609 18:50:17.010051  5120 net.cpp:137] Memory required for data: 7384832
I0609 18:50:17.010072  5120 layer_factory.hpp:77] Creating layer pool1
I0609 18:50:17.010112  5120 net.cpp:84] Creating Layer pool1
I0609 18:50:17.010124  5120 net.cpp:406] pool1 <- conv1
I0609 18:50:17.010143  5120 net.cpp:380] pool1 -> pool1
I0609 18:50:17.012100  5120 net.cpp:122] Setting up pool1
I0609 18:50:17.012130  5120 net.cpp:129] Top shape: 64 28 11 11 (216832)
I0609 18:50:17.012140  5120 net.cpp:137] Memory required for data: 8252160
I0609 18:50:17.012150  5120 layer_factory.hpp:77] Creating layer conv2
I0609 18:50:17.012193  5120 net.cpp:84] Creating Layer conv2
I0609 18:50:17.012207  5120 net.cpp:406] conv2 <- pool1
I0609 18:50:17.012223  5120 net.cpp:380] conv2 -> conv2
I0609 18:50:17.018993  5120 net.cpp:122] Setting up conv2
I0609 18:50:17.019032  5120 net.cpp:129] Top shape: 64 48 9 9 (248832)
I0609 18:50:17.019042  5120 net.cpp:137] Memory required for data: 9247488
I0609 18:50:17.019068  5120 layer_factory.hpp:77] Creating layer relu2
I0609 18:50:17.019088  5120 net.cpp:84] Creating Layer relu2
I0609 18:50:17.019101  5120 net.cpp:406] relu2 <- conv2
I0609 18:50:17.019449  5120 net.cpp:367] relu2 -> conv2 (in-place)
I0609 18:50:17.021630  5120 net.cpp:122] Setting up relu2
I0609 18:50:17.021668  5120 net.cpp:129] Top shape: 64 48 9 9 (248832)
I0609 18:50:17.021678  5120 net.cpp:137] Memory required for data: 10242816
I0609 18:50:17.021704  5120 layer_factory.hpp:77] Creating layer pool2
I0609 18:50:17.021726  5120 net.cpp:84] Creating Layer pool2
I0609 18:50:17.021741  5120 net.cpp:406] pool2 <- conv2
I0609 18:50:17.021759  5120 net.cpp:380] pool2 -> pool2
I0609 18:50:17.021864  5120 net.cpp:122] Setting up pool2
I0609 18:50:17.021883  5120 net.cpp:129] Top shape: 64 48 4 4 (49152)
I0609 18:50:17.021893  5120 net.cpp:137] Memory required for data: 10439424
I0609 18:50:17.021901  5120 layer_factory.hpp:77] Creating layer conv3
I0609 18:50:17.021924  5120 net.cpp:84] Creating Layer conv3
I0609 18:50:17.021936  5120 net.cpp:406] conv3 <- pool2
I0609 18:50:17.021956  5120 net.cpp:380] conv3 -> conv3
I0609 18:50:17.026705  5120 net.cpp:122] Setting up conv3
I0609 18:50:17.026742  5120 net.cpp:129] Top shape: 64 64 3 3 (36864)
I0609 18:50:17.026756  5120 net.cpp:137] Memory required for data: 10586880
I0609 18:50:17.026778  5120 layer_factory.hpp:77] Creating layer relu3
I0609 18:50:17.026800  5120 net.cpp:84] Creating Layer relu3
I0609 18:50:17.026813  5120 net.cpp:406] relu3 <- conv3
I0609 18:50:17.026830  5120 net.cpp:367] relu3 -> conv3 (in-place)
I0609 18:50:17.027097  5120 net.cpp:122] Setting up relu3
I0609 18:50:17.027117  5120 net.cpp:129] Top shape: 64 64 3 3 (36864)
I0609 18:50:17.027129  5120 net.cpp:137] Memory required for data: 10734336
I0609 18:50:17.027150  5120 layer_factory.hpp:77] Creating layer fc4
I0609 18:50:17.027637  5120 net.cpp:84] Creating Layer fc4
I0609 18:50:17.027655  5120 net.cpp:406] fc4 <- conv3
I0609 18:50:17.027717  5120 net.cpp:380] fc4 -> fc4
I0609 18:50:17.031332  5120 net.cpp:122] Setting up fc4
I0609 18:50:17.031371  5120 net.cpp:129] Top shape: 64 128 (8192)
I0609 18:50:17.031383  5120 net.cpp:137] Memory required for data: 10767104
I0609 18:50:17.031410  5120 layer_factory.hpp:77] Creating layer relu4
I0609 18:50:17.031430  5120 net.cpp:84] Creating Layer relu4
I0609 18:50:17.031445  5120 net.cpp:406] relu4 <- fc4
I0609 18:50:17.031461  5120 net.cpp:367] relu4 -> fc4 (in-place)
I0609 18:50:17.031703  5120 net.cpp:122] Setting up relu4
I0609 18:50:17.031723  5120 net.cpp:129] Top shape: 64 128 (8192)
I0609 18:50:17.031736  5120 net.cpp:137] Memory required for data: 10799872
I0609 18:50:17.031751  5120 layer_factory.hpp:77] Creating layer fc4_relu4_0_split
I0609 18:50:17.032517  5120 net.cpp:84] Creating Layer fc4_relu4_0_split
I0609 18:50:17.032536  5120 net.cpp:406] fc4_relu4_0_split <- fc4
I0609 18:50:17.032557  5120 net.cpp:380] fc4_relu4_0_split -> fc4_relu4_0_split_0
I0609 18:50:17.032577  5120 net.cpp:380] fc4_relu4_0_split -> fc4_relu4_0_split_1
I0609 18:50:17.032598  5120 net.cpp:380] fc4_relu4_0_split -> fc4_relu4_0_split_2
I0609 18:50:17.033187  5120 net.cpp:122] Setting up fc4_relu4_0_split
I0609 18:50:17.033224  5120 net.cpp:129] Top shape: 64 128 (8192)
I0609 18:50:17.033248  5120 net.cpp:129] Top shape: 64 128 (8192)
I0609 18:50:17.033269  5120 net.cpp:129] Top shape: 64 128 (8192)
I0609 18:50:17.033287  5120 net.cpp:137] Memory required for data: 10898176
I0609 18:50:17.033306  5120 layer_factory.hpp:77] Creating layer fc5-1
I0609 18:50:17.033329  5120 net.cpp:84] Creating Layer fc5-1
I0609 18:50:17.033342  5120 net.cpp:406] fc5-1 <- fc4_relu4_0_split_0
I0609 18:50:17.033361  5120 net.cpp:380] fc5-1 -> fc5-1
I0609 18:50:17.033632  5120 net.cpp:122] Setting up fc5-1
I0609 18:50:17.033650  5120 net.cpp:129] Top shape: 64 2 (128)
I0609 18:50:17.033661  5120 net.cpp:137] Memory required for data: 10898688
I0609 18:50:17.033687  5120 layer_factory.hpp:77] Creating layer cls_bridge
I0609 18:50:17.054702  5120 net.cpp:84] Creating Layer cls_bridge
I0609 18:50:17.054738  5120 net.cpp:406] cls_bridge <- fc5-1
I0609 18:50:17.054754  5120 net.cpp:406] cls_bridge <- label
I0609 18:50:17.054770  5120 net.cpp:380] cls_bridge -> fc5-1-valid
I0609 18:50:17.054792  5120 net.cpp:380] cls_bridge -> label-valid
I0609 18:50:17.100857  5120 net.cpp:122] Setting up cls_bridge
I0609 18:50:17.100898  5120 net.cpp:129] Top shape: 64 2 (128)
I0609 18:50:17.100908  5120 net.cpp:129] Top shape: 64 1 (64)
I0609 18:50:17.100916  5120 net.cpp:137] Memory required for data: 10899456
I0609 18:50:17.100929  5120 layer_factory.hpp:77] Creating layer fc5-1-valid_cls_bridge_0_split
I0609 18:50:17.100946  5120 net.cpp:84] Creating Layer fc5-1-valid_cls_bridge_0_split
I0609 18:50:17.100957  5120 net.cpp:406] fc5-1-valid_cls_bridge_0_split <- fc5-1-valid
I0609 18:50:17.100975  5120 net.cpp:380] fc5-1-valid_cls_bridge_0_split -> fc5-1-valid_cls_bridge_0_split_0
I0609 18:50:17.101001  5120 net.cpp:380] fc5-1-valid_cls_bridge_0_split -> fc5-1-valid_cls_bridge_0_split_1
I0609 18:50:17.101085  5120 net.cpp:122] Setting up fc5-1-valid_cls_bridge_0_split
I0609 18:50:17.101099  5120 net.cpp:129] Top shape: 64 2 (128)
I0609 18:50:17.101109  5120 net.cpp:129] Top shape: 64 2 (128)
I0609 18:50:17.101115  5120 net.cpp:137] Memory required for data: 10900480
I0609 18:50:17.101121  5120 layer_factory.hpp:77] Creating layer label-valid_cls_bridge_1_split
I0609 18:50:17.101131  5120 net.cpp:84] Creating Layer label-valid_cls_bridge_1_split
I0609 18:50:17.101142  5120 net.cpp:406] label-valid_cls_bridge_1_split <- label-valid
I0609 18:50:17.101155  5120 net.cpp:380] label-valid_cls_bridge_1_split -> label-valid_cls_bridge_1_split_0
I0609 18:50:17.101171  5120 net.cpp:380] label-valid_cls_bridge_1_split -> label-valid_cls_bridge_1_split_1
I0609 18:50:17.101239  5120 net.cpp:122] Setting up label-valid_cls_bridge_1_split
I0609 18:50:17.101254  5120 net.cpp:129] Top shape: 64 1 (64)
I0609 18:50:17.101264  5120 net.cpp:129] Top shape: 64 1 (64)
I0609 18:50:17.101299  5120 net.cpp:137] Memory required for data: 10900992
I0609 18:50:17.101308  5120 layer_factory.hpp:77] Creating layer cls_loss
I0609 18:50:17.101328  5120 net.cpp:84] Creating Layer cls_loss
I0609 18:50:17.101338  5120 net.cpp:406] cls_loss <- fc5-1-valid_cls_bridge_0_split_0
I0609 18:50:17.101351  5120 net.cpp:406] cls_loss <- label-valid_cls_bridge_1_split_0
I0609 18:50:17.101364  5120 net.cpp:380] cls_loss -> cls_loss
…
