…
snapshot: 10000
snapshot_prefix: "./models/"
solver_mode: GPU
device_id: 0
net: "train48.prototxt"
train_state {
  level: 0
  stage: ""
}
I0620 15:17:56.872596 17158 solver.cpp:87] Creating training net from net file: train48.prototxt
I0620 15:17:56.876747 17158 net.cpp:51] Initializing net from parameters: 
name: "face_48"
state {
  phase: TRAIN
  level: 0
  stage: ""
}
layer {
  name: "PythonLayer"
  type: "Python"
  top: "data"
  top: "label"
  top: "roi"
  top: "pts"
  python_param {
    module: "pythonLayer"
    layer: "Data_Layer_train"
  }
}
layer {
  name: "conv1"
  type: "Convolution"
  bottom: "data"
  top: "conv1"
  param {
    lr_mult: 1
    decay_mult: 1
  }
  param {
    lr_mult: 2
    decay_mult: 1
  }
  convolution_param {
    num_output: 32
    kernel_size: 3
    stride: 1
    weight_filler {
      type: "xavier"
    }
    bias_filler {
      type: "constant"
      value: 0
    }
  }
}
layer {
  name: "prelu1"
  type: "PReLU"
  bottom: "conv1"
  top: "conv1"
}
layer {
  name: "pool1"
  type: "Pooling"
  bottom: "conv1"
  top: "pool1"
  pooling_param {
    pool: MAX
    kernel_size: 3
    stride: 2
  }
}
layer {
  name: "conv2"
  type: "Convolution"
  bottom: "pool1"
  top: "conv2"
  param {
    lr_mult: 1
    decay_mult: 1
  }
  param {
    lr_mult: 2
    decay_mult: 1
  }
  convolution_param {
    num_output: 64
    kernel_size: 3
    stride: 1
    weight_filler {
      type: "xavier"
    }
    bias_filler {
      type: "constant"
      value: 0
    }
  }
}
layer {
  name: "prelu2"
  type: "PReLU"
  bottom: "conv2"
  top: "conv2"
}
layer {
  name: "pool2"
  type: "Pooling"
  bottom: "conv2"
  top: "pool2"
  pooling_param {
    pool: MAX
    kernel_size: 3
    stride: 2
  }
}
layer {
  name: "conv3"
  type: "Convolution"
  bottom: "pool2"
  top: "conv3"
  param {
    lr_mult: 1
    decay_mult: 1
  }
  param {
    lr_mult: 2
    decay_mult: 1
  }
  convolution_param {
    num_output: 64
    kernel_size: 3
    weight_filler {
      type: "xavier"
    }
    bias_filler {
      type: "constant"
      value: 0
    }
  }
}
layer {
  name: "prelu3"
  type: "PReLU"
  bottom: "conv3"
  top: "conv3"
}
layer {
  name: "pool3"
  type: "Pooling"
  bottom: "conv3"
  top: "pool3"
  pooling_param {
    pool: MAX
    kernel_size: 2
    stride: 2
  }
}
layer {
  name: "conv4"
  type: "Convolution"
  bottom: "pool3"
  top: "conv4"
  param {
    lr_mult: 1
    decay_mult: 1
  }
  param {
    lr_mult: 2
    decay_mult: 1
  }
  convolution_param {
    num_output: 128
    kernel_size: 2
    stride: 1
    weight_filler {
      type: "xavier"
    }
    bias_filler {
      type: "constant"
      value: 0
    }
  }
}
layer {
  name: "prelu4"
  type: "PReLU"
  bottom: "conv4"
  top: "conv4"
}
layer {
  name: "conv5"
  type: "InnerProduct"
  bottom: "conv4"
  top: "conv5"
  param {
    lr_mult: 1
    decay_mult: 1
  }
  param {
    lr_mult: 2
    decay_mult: 1
  }
  inner_product_param {
    num_output: 256
    weight_filler {
      type: "xavier"
    }
    bias_filler {
      type: "constant"
      value: 0
    }
  }
}
layer {
  name: "drop5"
  type: "Dropout"
  bottom: "conv5"
  top: "conv5"
  dropout_param {
    dropout_ratio: 0.25
  }
}
layer {
  name: "prelu5"
  type: "PReLU"
  bottom: "conv5"
  top: "conv5"
}
layer {
  name: "conv6-1"
  type: "InnerProduct"
  bottom: "conv5"
  top: "conv6-1"
  param {
    lr_mult: 1
    decay_mult: 1
  }
  param {
    lr_mult: 2
    decay_mult: 1
  }
  inner_product_param {
    num_output: 2
    weight_filler {
      type: "xavier"
    }
    bias_filler {
      type: "constant"
      value: 0
    }
  }
}
layer {
  name: "cls_bridge"
  type: "Python"
  bottom: "conv6-1"
  bottom: "label"
  top: "conv6-1-valid"
  top: "label-valid"
  python_param {
    module: "pythonLayer"
    layer: "cls_Layer"
  }
}
layer {
  name: "ClassifyLoss"
  type: "SoftmaxWithLoss"
  bottom: "conv6-1-valid"
  bottom: "label-valid"
  top: "ClassifyLoss"
  loss_weight: 1
  propagate_down: true
  propagate_down: false
}
layer {
  name: "cls_Acc"
  type: "Accuracy"
  bottom: "conv6-1-valid"
  bottom: "label-valid"
  top: "cls_Acc"
  include {
    phase: TRAIN
  }
}
layer {
  name: "conv6-2"
  type: "InnerProduct"
  bottom: "conv5"
  top: "conv6-2"
  param {
    lr_mult: 1
    decay_mult: 1
  }
  param {
    lr_mult: 2
    decay_mult: 1
  }
  inner_product_param {
    num_output: 4
    weight_filler {
      type: "xavier"
    }
    bias_filler {
      type: "constant"
      value: 0
    }
  }
}
layer {
  name: "RegressionLoss"
  type: "Python"
  bottom: "conv6-2"
  bottom: "roi"
  top: "RegressionLoss"
  loss_weight: 0.5
  python_param {
    module: "pythonLayer"
    layer: "regression_Layer"
  }
}
layer {
  name: "conv6-3"
  type: "InnerProduct"
  bottom: "conv5"
  top: "conv6-3"
  param {
    lr_mult: 1
    decay_mult: 1
  }
  param {
    lr_mult: 2
    decay_mult: 1
  }
  inner_product_param {
    num_output: 10
    weight_filler {
      type: "xavier"
    }
    bias_filler {
      type: "constant"
      value: 0
    }
  }
}
layer {
  name: "LandmarkLoss"
  type: "Python"
  bottom: "conv6-3"
  bottom: "pts"
  top: "LandmarkLoss"
  loss_weight: 1
  python_param {
    module: "pythonLayer"
    layer: "regression_Layer"
  }
}
I0620 15:17:56.877094 17158 layer_factory.hpp:77] Creating layer PythonLayer
I0620 15:17:57.355027 17158 net.cpp:84] Creating Layer PythonLayer
I0620 15:17:57.355067 17158 net.cpp:380] PythonLayer -> data
I0620 15:17:57.355094 17158 net.cpp:380] PythonLayer -> label
I0620 15:17:57.355104 17158 net.cpp:380] PythonLayer -> roi
I0620 15:17:57.355109 17158 net.cpp:380] PythonLayer -> pts
Start Reading Classify Data into Memory...

20000  Classify Data have been read into Memory...
Start Reading Regression Data into Memory...

15000  Regression Data have been read into Memory...
Start Reading pts-regression Data into Memory...

10000  pts-regression Data have been read into Memory...
I0620 15:21:52.086805 17158 net.cpp:122] Setting up PythonLayer
I0620 15:21:52.087239 17158 net.cpp:129] Top shape: 64 3 48 48 (442368)
I0620 15:21:52.087280 17158 net.cpp:129] Top shape: 64 1 (64)
I0620 15:21:52.087290 17158 net.cpp:129] Top shape: 64 4 (256)
I0620 15:21:52.087296 17158 net.cpp:129] Top shape: 64 10 (640)
I0620 15:21:52.087302 17158 net.cpp:137] Memory required for data: 1773312
I0620 15:21:52.087335 17158 layer_factory.hpp:77] Creating layer conv1
I0620 15:21:52.087395 17158 net.cpp:84] Creating Layer conv1
I0620 15:21:52.087410 17158 net.cpp:406] conv1 <- data
I0620 15:21:52.087441 17158 net.cpp:380] conv1 -> conv1
I0620 15:21:53.147450 17158 net.cpp:122] Setting up conv1
I0620 15:21:53.147476 17158 net.cpp:129] Top shape: 64 32 46 46 (4333568)
I0620 15:21:53.147480 17158 net.cpp:137] Memory required for data: 19107584
I0620 15:21:53.147505 17158 layer_factory.hpp:77] Creating layer prelu1
I0620 15:21:53.147531 17158 net.cpp:84] Creating Layer prelu1
I0620 15:21:53.147536 17158 net.cpp:406] prelu1 <- conv1
I0620 15:21:53.147541 17158 net.cpp:367] prelu1 -> conv1 (in-place)
I0620 15:21:53.148341 17158 net.cpp:122] Setting up prelu1
I0620 15:21:53.148353 17158 net.cpp:129] Top shape: 64 32 46 46 (4333568)
I0620 15:21:53.148356 17158 net.cpp:137] Memory required for data: 36441856
I0620 15:21:53.148363 17158 layer_factory.hpp:77] Creating layer pool1
I0620 15:21:53.148371 17158 net.cpp:84] Creating Layer pool1
I0620 15:21:53.148375 17158 net.cpp:406] pool1 <- conv1
I0620 15:21:53.148380 17158 net.cpp:380] pool1 -> pool1
I0620 15:21:53.148424 17158 net.cpp:122] Setting up pool1
I0620 15:21:53.148430 17158 net.cpp:129] Top shape: 64 32 23 23 (1083392)
I0620 15:21:53.148435 17158 net.cpp:137] Memory required for data: 40775424
I0620 15:21:53.148438 17158 layer_factory.hpp:77] Creating layer conv2
I0620 15:21:53.148449 17158 net.cpp:84] Creating Layer conv2
I0620 15:21:53.148452 17158 net.cpp:406] conv2 <- pool1
I0620 15:21:53.148458 17158 net.cpp:380] conv2 -> conv2
I0620 15:21:53.151229 17158 net.cpp:122] Setting up conv2
I0620 15:21:53.151240 17158 net.cpp:129] Top shape: 64 64 21 21 (1806336)
I0620 15:21:53.151243 17158 net.cpp:137] Memory required for data: 48000768
I0620 15:21:53.151250 17158 layer_factory.hpp:77] Creating layer prelu2
I0620 15:21:53.151257 17158 net.cpp:84] Creating Layer prelu2
I0620 15:21:53.151259 17158 net.cpp:406] prelu2 <- conv2
I0620 15:21:53.151263 17158 net.cpp:367] prelu2 -> conv2 (in-place)
I0620 15:21:53.151351 17158 net.cpp:122] Setting up prelu2
I0620 15:21:53.151357 17158 net.cpp:129] Top shape: 64 64 21 21 (1806336)
I0620 15:21:53.151360 17158 net.cpp:137] Memory required for data: 55226112
I0620 15:21:53.151363 17158 layer_factory.hpp:77] Creating layer pool2
I0620 15:21:53.151368 17158 net.cpp:84] Creating Layer pool2
I0620 15:21:53.151371 17158 net.cpp:406] pool2 <- conv2
I0620 15:21:53.151376 17158 net.cpp:380] pool2 -> pool2
I0620 15:21:53.151404 17158 net.cpp:122] Setting up pool2
I0620 15:21:53.151410 17158 net.cpp:129] Top shape: 64 64 10 10 (409600)
I0620 15:21:53.151412 17158 net.cpp:137] Memory required for data: 56864512
I0620 15:21:53.151414 17158 layer_factory.hpp:77] Creating layer conv3
I0620 15:21:53.151422 17158 net.cpp:84] Creating Layer conv3
I0620 15:21:53.151425 17158 net.cpp:406] conv3 <- pool2
I0620 15:21:53.151429 17158 net.cpp:380] conv3 -> conv3
I0620 15:21:53.152932 17158 net.cpp:122] Setting up conv3
I0620 15:21:53.152943 17158 net.cpp:129] Top shape: 64 64 8 8 (262144)
I0620 15:21:53.152947 17158 net.cpp:137] Memory required for data: 57913088
I0620 15:21:53.152953 17158 layer_factory.hpp:77] Creating layer prelu3
I0620 15:21:53.152961 17158 net.cpp:84] Creating Layer prelu3
I0620 15:21:53.152964 17158 net.cpp:406] prelu3 <- conv3
I0620 15:21:53.152971 17158 net.cpp:367] prelu3 -> conv3 (in-place)
I0620 15:21:53.153051 17158 net.cpp:122] Setting up prelu3
I0620 15:21:53.153057 17158 net.cpp:129] Top shape: 64 64 8 8 (262144)
I0620 15:21:53.153060 17158 net.cpp:137] Memory required for data: 58961664
I0620 15:21:53.153066 17158 layer_factory.hpp:77] Creating layer pool3
I0620 15:21:53.153072 17158 net.cpp:84] Creating Layer pool3
I0620 15:21:53.153093 17158 net.cpp:406] pool3 <- conv3
I0620 15:21:53.153098 17158 net.cpp:380] pool3 -> pool3
I0620 15:21:53.153131 17158 net.cpp:122] Setting up pool3
I0620 15:21:53.153136 17158 net.cpp:129] Top shape: 64 64 4 4 (65536)
I0620 15:21:53.153139 17158 net.cpp:137] Memory required for data: 59223808
I0620 15:21:53.153141 17158 layer_factory.hpp:77] Creating layer conv4
I0620 15:21:53.153151 17158 net.cpp:84] Creating Layer conv4
I0620 15:21:53.153153 17158 net.cpp:406] conv4 <- pool3
I0620 15:21:53.153159 17158 net.cpp:380] conv4 -> conv4
I0620 15:21:53.154618 17158 net.cpp:122] Setting up conv4
I0620 15:21:53.154628 17158 net.cpp:129] Top shape: 64 128 3 3 (73728)
I0620 15:21:53.154630 17158 net.cpp:137] Memory required for data: 59518720
I0620 15:21:53.154635 17158 layer_factory.hpp:77] Creating layer prelu4
I0620 15:21:53.154640 17158 net.cpp:84] Creating Layer prelu4
I0620 15:21:53.154644 17158 net.cpp:406] prelu4 <- conv4
I0620 15:21:53.154647 17158 net.cpp:367] prelu4 -> conv4 (in-place)
I0620 15:21:53.154716 17158 net.cpp:122] Setting up prelu4
I0620 15:21:53.154722 17158 net.cpp:129] Top shape: 64 128 3 3 (73728)
I0620 15:21:53.154726 17158 net.cpp:137] Memory required for data: 59813632
I0620 15:21:53.154728 17158 layer_factory.hpp:77] Creating layer conv5
I0620 15:21:53.154736 17158 net.cpp:84] Creating Layer conv5
I0620 15:21:53.154737 17158 net.cpp:406] conv5 <- conv4
I0620 15:21:53.154743 17158 net.cpp:380] conv5 -> conv5
I0620 15:21:53.156024 17158 net.cpp:122] Setting up conv5
I0620 15:21:53.156030 17158 net.cpp:129] Top shape: 64 256 (16384)
I0620 15:21:53.156033 17158 net.cpp:137] Memory required for data: 59879168
I0620 15:21:53.156036 17158 layer_factory.hpp:77] Creating layer drop5
I0620 15:21:53.156042 17158 net.cpp:84] Creating Layer drop5
I0620 15:21:53.156044 17158 net.cpp:406] drop5 <- conv5
I0620 15:21:53.156047 17158 net.cpp:367] drop5 -> conv5 (in-place)
I0620 15:21:53.156067 17158 net.cpp:122] Setting up drop5
I0620 15:21:53.156071 17158 net.cpp:129] Top shape: 64 256 (16384)
I0620 15:21:53.156074 17158 net.cpp:137] Memory required for data: 59944704
I0620 15:21:53.156075 17158 layer_factory.hpp:77] Creating layer prelu5
I0620 15:21:53.156080 17158 net.cpp:84] Creating Layer prelu5
I0620 15:21:53.156081 17158 net.cpp:406] prelu5 <- conv5
I0620 15:21:53.156085 17158 net.cpp:367] prelu5 -> conv5 (in-place)
I0620 15:21:53.156137 17158 net.cpp:122] Setting up prelu5
I0620 15:21:53.156142 17158 net.cpp:129] Top shape: 64 256 (16384)
I0620 15:21:53.156144 17158 net.cpp:137] Memory required for data: 60010240
I0620 15:21:53.156147 17158 layer_factory.hpp:77] Creating layer conv5_prelu5_0_split
I0620 15:21:53.156152 17158 net.cpp:84] Creating Layer conv5_prelu5_0_split
I0620 15:21:53.156154 17158 net.cpp:406] conv5_prelu5_0_split <- conv5
I0620 15:21:53.156157 17158 net.cpp:380] conv5_prelu5_0_split -> conv5_prelu5_0_split_0
I0620 15:21:53.156162 17158 net.cpp:380] conv5_prelu5_0_split -> conv5_prelu5_0_split_1
I0620 15:21:53.156165 17158 net.cpp:380] conv5_prelu5_0_split -> conv5_prelu5_0_split_2
I0620 15:21:53.156198 17158 net.cpp:122] Setting up conv5_prelu5_0_split
I0620 15:21:53.156203 17158 net.cpp:129] Top shape: 64 256 (16384)
I0620 15:21:53.156204 17158 net.cpp:129] Top shape: 64 256 (16384)
I0620 15:21:53.156206 17158 net.cpp:129] Top shape: 64 256 (16384)
I0620 15:21:53.156209 17158 net.cpp:137] Memory required for data: 60206848
I0620 15:21:53.156211 17158 layer_factory.hpp:77] Creating layer conv6-1
I0620 15:21:53.156217 17158 net.cpp:84] Creating Layer conv6-1
I0620 15:21:53.156220 17158 net.cpp:406] conv6-1 <- conv5_prelu5_0_split_0
I0620 15:21:53.156225 17158 net.cpp:380] conv6-1 -> conv6-1
I0620 15:21:53.156296 17158 net.cpp:122] Setting up conv6-1
I0620 15:21:53.156299 17158 net.cpp:129] Top shape: 64 2 (128)
I0620 15:21:53.156301 17158 net.cpp:137] Memory required for data: 60207360
I0620 15:21:53.156308 17158 layer_factory.hpp:77] Creating layer cls_bridge
I0620 15:21:53.156354 17158 net.cpp:84] Creating Layer cls_bridge
I0620 15:21:53.156358 17158 net.cpp:406] cls_bridge <- conv6-1
I0620 15:21:53.156370 17158 net.cpp:406] cls_bridge <- label
I0620 15:21:53.156376 17158 net.cpp:380] cls_bridge -> conv6-1-valid
I0620 15:21:53.156383 17158 net.cpp:380] cls_bridge -> label-valid
I0620 15:21:53.156497 17158 net.cpp:122] Setting up cls_bridge
I0620 15:21:53.156503 17158 net.cpp:129] Top shape: 64 2 (128)
I0620 15:21:53.156507 17158 net.cpp:129] Top shape: 64 1 (64)
I0620 15:21:53.156510 17158 net.cpp:137] Memory required for data: 60208128
I0620 15:21:53.156513 17158 layer_factory.hpp:77] Creating layer conv6-1-valid_cls_bridge_0_split
I0620 15:21:53.156518 17158 net.cpp:84] Creating Layer conv6-1-valid_cls_bridge_0_split
I0620 15:21:53.156522 17158 net.cpp:406] conv6-1-valid_cls_bridge_0_split <- conv6-1-valid
I0620 15:21:53.156528 17158 net.cpp:380] conv6-1-valid_cls_bridge_0_split -> conv6-1-valid_cls_bridge_0_split_0
I0620 15:21:53.156533 17158 net.cpp:380] conv6-1-valid_cls_bridge_0_split -> conv6-1-valid_cls_bridge_0_split_1
I0620 15:21:53.156558 17158 net.cpp:122] Setting up conv6-1-valid_cls_bridge_0_split
I0620 15:21:53.156563 17158 net.cpp:129] Top shape: 64 2 (128)
I0620 15:21:53.156566 17158 net.cpp:129] Top shape: 64 2 (128)
I0620 15:21:53.156569 17158 net.cpp:137] Memory required for data: 60209152
I0620 15:21:53.156571 17158 layer_factory.hpp:77] Creating layer label-valid_cls_bridge_1_split
I0620 15:21:53.156579 17158 net.cpp:84] Creating Layer label-valid_cls_bridge_1_split
I0620 15:21:53.156584 17158 net.cpp:406] label-valid_cls_bridge_1_split <- label-valid
I0620 15:21:53.156589 17158 net.cpp:380] label-valid_cls_bridge_1_split -> label-valid_cls_bridge_1_split_0
I0620 15:21:53.156594 17158 net.cpp:380] label-valid_cls_bridge_1_split -> label-valid_cls_bridge_1_split_1
I0620 15:21:53.156617 17158 net.cpp:122] Setting up label-valid_cls_bridge_1_split
I0620 15:21:53.156622 17158 net.cpp:129] Top shape: 64 1 (64)
I0620 15:21:53.156626 17158 net.cpp:129] Top shape: 64 1 (64)
I0620 15:21:53.156630 17158 net.cpp:137] Memory required for data: 60209664
I0620 15:21:53.156632 17158 layer_factory.hpp:77] Creating layer ClassifyLoss
I0620 15:21:53.156637 17158 net.cpp:84] Creating Layer ClassifyLoss
I0620 15:21:53.156641 17158 net.cpp:406] ClassifyLoss <- conv6-1-valid_cls_bridge_0_split_0
I0620 15:21:53.156644 17158 net.cpp:406] ClassifyLoss <- label-valid_cls_bridge_1_split_0
…
