…
snapshot: 20000
snapshot_prefix: "./models/"
solver_mode: GPU
device_id: 0
net: "train12.prototxt"
train_state {
  level: 0
  stage: ""
}
I0620 19:27:30.552676  7850 solver.cpp:87] Creating training net from net file: train12.prototxt
I0620 19:27:30.552958  7850 net.cpp:51] Initializing net from parameters: 
name: "face_12c"
state {
  phase: TRAIN
  level: 0
  stage: ""
}
layer {
  name: "PythonLayer"
  type: "Python"
  top: "data"
  top: "label"
  top: "roi"
  top: "pts"
  python_param {
    module: "pythonLayer"
    layer: "Data_Layer_train"
  }
}
layer {
  name: "conv1"
  type: "Convolution"
  bottom: "data"
  top: "conv1"
  param {
    lr_mult: 1
    decay_mult: 1
  }
  param {
    lr_mult: 2
    decay_mult: 0
  }
  convolution_param {
    num_output: 10
    kernel_size: 3
    stride: 1
    weight_filler {
      type: "xavier"
    }
    bias_filler {
      type: "constant"
      value: 0
    }
  }
}
layer {
  name: "PReLU1"
  type: "PReLU"
  bottom: "conv1"
  top: "conv1"
}
layer {
  name: "pool1"
  type: "Pooling"
  bottom: "conv1"
  top: "pool1"
  pooling_param {
    pool: MAX
    kernel_size: 2
    stride: 2
  }
}
layer {
  name: "conv2"
  type: "Convolution"
  bottom: "pool1"
  top: "conv2"
  param {
    lr_mult: 1
    decay_mult: 1
  }
  param {
    lr_mult: 2
    decay_mult: 0
  }
  convolution_param {
    num_output: 16
    kernel_size: 3
    stride: 1
    weight_filler {
      type: "xavier"
    }
    bias_filler {
      type: "constant"
      value: 0
    }
  }
}
layer {
  name: "PReLU2"
  type: "PReLU"
  bottom: "conv2"
  top: "conv2"
}
layer {
  name: "conv3"
  type: "Convolution"
  bottom: "conv2"
  top: "conv3"
  param {
    lr_mult: 1
    decay_mult: 1
  }
  param {
    lr_mult: 2
    decay_mult: 0
  }
  convolution_param {
    num_output: 32
    kernel_size: 3
    stride: 1
    weight_filler {
      type: "xavier"
    }
    bias_filler {
      type: "constant"
      value: 0
    }
  }
}
layer {
  name: "PReLU3"
  type: "PReLU"
  bottom: "conv3"
  top: "conv3"
}
layer {
  name: "conv4-1"
  type: "Convolution"
  bottom: "conv3"
  top: "conv4-1"
  param {
    lr_mult: 1
    decay_mult: 1
  }
  param {
    lr_mult: 2
    decay_mult: 0
  }
  convolution_param {
    num_output: 2
    kernel_size: 1
    stride: 1
    weight_filler {
      type: "xavier"
    }
    bias_filler {
      type: "constant"
      value: 0
    }
  }
}
layer {
  name: "cls_bridge"
  type: "Python"
  bottom: "conv4-1"
  bottom: "label"
  top: "conv4-1-valid"
  top: "label-valid"
  python_param {
    module: "pythonLayer"
    layer: "cls_Layer_fc"
  }
}
layer {
  name: "cls_loss"
  type: "SoftmaxWithLoss"
  bottom: "conv4-1-valid"
  bottom: "label-valid"
  top: "cls_loss"
  loss_weight: 1
  propagate_down: true
  propagate_down: false
}
layer {
  name: "cls_Acc"
  type: "Accuracy"
  bottom: "conv4-1-valid"
  bottom: "label-valid"
  top: "cls_Acc"
  include {
    phase: TRAIN
  }
}
layer {
  name: "conv4-2"
  type: "Convolution"
  bottom: "conv3"
  top: "conv4-2"
  param {
    lr_mult: 1
    decay_mult: 1
  }
  param {
    lr_mult: 2
    decay_mult: 0
  }
  convolution_param {
    num_output: 4
    kernel_size: 1
    stride: 1
    weight_filler {
      type: "xavier"
    }
    bias_filler {
      type: "constant"
      value: 0
    }
  }
}
layer {
  name: "roi_loss"
  type: "Python"
  bottom: "conv4-2"
  bottom: "roi"
  top: "roi_loss"
  loss_weight: 0.5
  python_param {
    module: "pythonLayer"
    layer: "regression_Layer"
  }
}
layer {
  name: "conv4-3"
  type: "Convolution"
  bottom: "conv3"
  top: "conv4-3"
  param {
    lr_mult: 1
    decay_mult: 1
  }
  param {
    lr_mult: 2
    decay_mult: 0
  }
  convolution_param {
    num_output: 10
    kernel_size: 1
    stride: 1
    weight_filler {
      type: "xavier"
    }
    bias_filler {
      type: "constant"
      value: 0
    }
  }
}
layer {
  name: "pts_loss"
  type: "Python"
  bottom: "conv4-3"
  bottom: "pts"
  top: "pts_loss"
  loss_weight: 0.5
  python_param {
    module: "pythonLayer"
    layer: "regression_Layer"
  }
}
I0620 19:27:30.553196  7850 layer_factory.hpp:77] Creating layer PythonLayer
I0620 19:27:31.087601  7850 net.cpp:84] Creating Layer PythonLayer
I0620 19:27:31.087646  7850 net.cpp:380] PythonLayer -> data
I0620 19:27:31.087688  7850 net.cpp:380] PythonLayer -> label
I0620 19:27:31.087726  7850 net.cpp:380] PythonLayer -> roi
I0620 19:27:31.087736  7850 net.cpp:380] PythonLayer -> pts
Start Reading Classify Data into Memory...

640000  Classify Data have been read into Memory...
Start Reading Regression Data into Memory...

360000  Regression Data have been read into Memory...
Start Reading pts-regression Data into Memory...

200000  pts-regression Data have been read into Memory...
I0620 19:34:15.107364  7850 net.cpp:122] Setting up PythonLayer
I0620 19:34:15.107659  7850 net.cpp:129] Top shape: 64 3 12 12 (27648)
I0620 19:34:15.107666  7850 net.cpp:129] Top shape: 64 1 (64)
I0620 19:34:15.107671  7850 net.cpp:129] Top shape: 64 4 (256)
I0620 19:34:15.107674  7850 net.cpp:129] Top shape: 64 10 (640)
I0620 19:34:15.107677  7850 net.cpp:137] Memory required for data: 114432
I0620 19:34:15.107691  7850 layer_factory.hpp:77] Creating layer conv1
I0620 19:34:15.107717  7850 net.cpp:84] Creating Layer conv1
I0620 19:34:15.107724  7850 net.cpp:406] conv1 <- data
I0620 19:34:15.107739  7850 net.cpp:380] conv1 -> conv1
I0620 19:34:15.489534  7850 net.cpp:122] Setting up conv1
I0620 19:34:15.489575  7850 net.cpp:129] Top shape: 64 10 10 10 (64000)
I0620 19:34:15.489579  7850 net.cpp:137] Memory required for data: 370432
I0620 19:34:15.489616  7850 layer_factory.hpp:77] Creating layer PReLU1
I0620 19:34:15.489639  7850 net.cpp:84] Creating Layer PReLU1
I0620 19:34:15.489642  7850 net.cpp:406] PReLU1 <- conv1
I0620 19:34:15.489661  7850 net.cpp:367] PReLU1 -> conv1 (in-place)
I0620 19:34:15.489781  7850 net.cpp:122] Setting up PReLU1
I0620 19:34:15.489786  7850 net.cpp:129] Top shape: 64 10 10 10 (64000)
I0620 19:34:15.489802  7850 net.cpp:137] Memory required for data: 626432
I0620 19:34:15.489807  7850 layer_factory.hpp:77] Creating layer pool1
I0620 19:34:15.489812  7850 net.cpp:84] Creating Layer pool1
I0620 19:34:15.489815  7850 net.cpp:406] pool1 <- conv1
I0620 19:34:15.489820  7850 net.cpp:380] pool1 -> pool1
I0620 19:34:15.489881  7850 net.cpp:122] Setting up pool1
I0620 19:34:15.489886  7850 net.cpp:129] Top shape: 64 10 5 5 (16000)
I0620 19:34:15.489902  7850 net.cpp:137] Memory required for data: 690432
I0620 19:34:15.489905  7850 layer_factory.hpp:77] Creating layer conv2
I0620 19:34:15.489914  7850 net.cpp:84] Creating Layer conv2
I0620 19:34:15.489917  7850 net.cpp:406] conv2 <- pool1
I0620 19:34:15.489922  7850 net.cpp:380] conv2 -> conv2
I0620 19:34:15.492053  7850 net.cpp:122] Setting up conv2
I0620 19:34:15.492071  7850 net.cpp:129] Top shape: 64 16 3 3 (9216)
I0620 19:34:15.492074  7850 net.cpp:137] Memory required for data: 727296
I0620 19:34:15.492084  7850 layer_factory.hpp:77] Creating layer PReLU2
I0620 19:34:15.492091  7850 net.cpp:84] Creating Layer PReLU2
I0620 19:34:15.492095  7850 net.cpp:406] PReLU2 <- conv2
I0620 19:34:15.492100  7850 net.cpp:367] PReLU2 -> conv2 (in-place)
I0620 19:34:15.492163  7850 net.cpp:122] Setting up PReLU2
I0620 19:34:15.492169  7850 net.cpp:129] Top shape: 64 16 3 3 (9216)
I0620 19:34:15.492172  7850 net.cpp:137] Memory required for data: 764160
I0620 19:34:15.492177  7850 layer_factory.hpp:77] Creating layer conv3
I0620 19:34:15.492183  7850 net.cpp:84] Creating Layer conv3
I0620 19:34:15.492187  7850 net.cpp:406] conv3 <- conv2
I0620 19:34:15.492192  7850 net.cpp:380] conv3 -> conv3
I0620 19:34:15.493711  7850 net.cpp:122] Setting up conv3
I0620 19:34:15.493722  7850 net.cpp:129] Top shape: 64 32 1 1 (2048)
I0620 19:34:15.493726  7850 net.cpp:137] Memory required for data: 772352
I0620 19:34:15.493731  7850 layer_factory.hpp:77] Creating layer PReLU3
I0620 19:34:15.493736  7850 net.cpp:84] Creating Layer PReLU3
I0620 19:34:15.493739  7850 net.cpp:406] PReLU3 <- conv3
I0620 19:34:15.493744  7850 net.cpp:367] PReLU3 -> conv3 (in-place)
I0620 19:34:15.493831  7850 net.cpp:122] Setting up PReLU3
I0620 19:34:15.493836  7850 net.cpp:129] Top shape: 64 32 1 1 (2048)
I0620 19:34:15.493854  7850 net.cpp:137] Memory required for data: 780544
I0620 19:34:15.493858  7850 layer_factory.hpp:77] Creating layer conv3_PReLU3_0_split
I0620 19:34:15.493865  7850 net.cpp:84] Creating Layer conv3_PReLU3_0_split
I0620 19:34:15.493868  7850 net.cpp:406] conv3_PReLU3_0_split <- conv3
I0620 19:34:15.493873  7850 net.cpp:380] conv3_PReLU3_0_split -> conv3_PReLU3_0_split_0
I0620 19:34:15.493880  7850 net.cpp:380] conv3_PReLU3_0_split -> conv3_PReLU3_0_split_1
I0620 19:34:15.493883  7850 net.cpp:380] conv3_PReLU3_0_split -> conv3_PReLU3_0_split_2
I0620 19:34:15.493916  7850 net.cpp:122] Setting up conv3_PReLU3_0_split
I0620 19:34:15.493921  7850 net.cpp:129] Top shape: 64 32 1 1 (2048)
I0620 19:34:15.493943  7850 net.cpp:129] Top shape: 64 32 1 1 (2048)
I0620 19:34:15.493947  7850 net.cpp:129] Top shape: 64 32 1 1 (2048)
I0620 19:34:15.493950  7850 net.cpp:137] Memory required for data: 805120
I0620 19:34:15.493953  7850 layer_factory.hpp:77] Creating layer conv4-1
I0620 19:34:15.493960  7850 net.cpp:84] Creating Layer conv4-1
I0620 19:34:15.493963  7850 net.cpp:406] conv4-1 <- conv3_PReLU3_0_split_0
I0620 19:34:15.493968  7850 net.cpp:380] conv4-1 -> conv4-1
I0620 19:34:15.495252  7850 net.cpp:122] Setting up conv4-1
I0620 19:34:15.495261  7850 net.cpp:129] Top shape: 64 2 1 1 (128)
I0620 19:34:15.495265  7850 net.cpp:137] Memory required for data: 805632
I0620 19:34:15.495270  7850 layer_factory.hpp:77] Creating layer cls_bridge
I0620 19:34:15.495316  7850 net.cpp:84] Creating Layer cls_bridge
I0620 19:34:15.495321  7850 net.cpp:406] cls_bridge <- conv4-1
I0620 19:34:15.495324  7850 net.cpp:406] cls_bridge <- label
I0620 19:34:15.495329  7850 net.cpp:380] cls_bridge -> conv4-1-valid
I0620 19:34:15.495334  7850 net.cpp:380] cls_bridge -> label-valid
I0620 19:34:15.495447  7850 net.cpp:122] Setting up cls_bridge
I0620 19:34:15.495455  7850 net.cpp:129] Top shape: 64 2 1 1 (128)
I0620 19:34:15.495457  7850 net.cpp:129] Top shape: 64 1 (64)
I0620 19:34:15.495460  7850 net.cpp:137] Memory required for data: 806400
I0620 19:34:15.495463  7850 layer_factory.hpp:77] Creating layer conv4-1-valid_cls_bridge_0_split
I0620 19:34:15.495468  7850 net.cpp:84] Creating Layer conv4-1-valid_cls_bridge_0_split
I0620 19:34:15.495471  7850 net.cpp:406] conv4-1-valid_cls_bridge_0_split <- conv4-1-valid
I0620 19:34:15.495476  7850 net.cpp:380] conv4-1-valid_cls_bridge_0_split -> conv4-1-valid_cls_bridge_0_split_0
I0620 19:34:15.495482  7850 net.cpp:380] conv4-1-valid_cls_bridge_0_split -> conv4-1-valid_cls_bridge_0_split_1
I0620 19:34:15.495520  7850 net.cpp:122] Setting up conv4-1-valid_cls_bridge_0_split
I0620 19:34:15.495525  7850 net.cpp:129] Top shape: 64 2 1 1 (128)
I0620 19:34:15.495543  7850 net.cpp:129] Top shape: 64 2 1 1 (128)
I0620 19:34:15.495545  7850 net.cpp:137] Memory required for data: 807424
I0620 19:34:15.495548  7850 layer_factory.hpp:77] Creating layer label-valid_cls_bridge_1_split
I0620 19:34:15.495553  7850 net.cpp:84] Creating Layer label-valid_cls_bridge_1_split
I0620 19:34:15.495555  7850 net.cpp:406] label-valid_cls_bridge_1_split <- label-valid
I0620 19:34:15.495560  7850 net.cpp:380] label-valid_cls_bridge_1_split -> label-valid_cls_bridge_1_split_0
I0620 19:34:15.495568  7850 net.cpp:380] label-valid_cls_bridge_1_split -> label-valid_cls_bridge_1_split_1
I0620 19:34:15.495620  7850 net.cpp:122] Setting up label-valid_cls_bridge_1_split
I0620 19:34:15.495623  7850 net.cpp:129] Top shape: 64 1 (64)
I0620 19:34:15.495627  7850 net.cpp:129] Top shape: 64 1 (64)
I0620 19:34:15.495628  7850 net.cpp:137] Memory required for data: 807936
I0620 19:34:15.495643  7850 layer_factory.hpp:77] Creating layer cls_loss
I0620 19:34:15.495647  7850 net.cpp:84] Creating Layer cls_loss
I0620 19:34:15.495651  7850 net.cpp:406] cls_loss <- conv4-1-valid_cls_bridge_0_split_0
I0620 19:34:15.495667  7850 net.cpp:406] cls_loss <- label-valid_cls_bridge_1_split_0
I0620 19:34:15.495671  7850 net.cpp:380] cls_loss -> cls_loss
…
