…
snapshot: 10000
snapshot_prefix: "./models/"
solver_mode: GPU
device_id: 0
net: "train12.prototxt"
train_state {
  level: 0
  stage: ""
}
I0612 10:12:37.105005  4951 solver.cpp:87] Creating training net from net file: train12.prototxt
I0612 10:12:37.105315  4951 net.cpp:51] Initializing net from parameters: 
name: "face_12c"
state {
  phase: TRAIN
  level: 0
  stage: ""
}
layer {
  name: "PythonLayer"
  type: "Python"
  top: "data"
  top: "label"
  top: "roi"
  top: "pts"
  python_param {
    module: "pythonLayer"
    layer: "Data_Layer_train"
  }
}
layer {
  name: "conv1"
  type: "Convolution"
  bottom: "data"
  top: "conv1"
  param {
    lr_mult: 1
    decay_mult: 1
  }
  param {
    lr_mult: 2
    decay_mult: 0
  }
  convolution_param {
    num_output: 10
    kernel_size: 3
    weight_filler {
      type: "gaussian"
      std: 0.0001
    }
    bias_filler {
      type: "constant"
    }
  }
}
layer {
  name: "relu1"
  type: "PReLU"
  bottom: "conv1"
  top: "conv1"
}
layer {
  name: "pool1"
  type: "Pooling"
  bottom: "conv1"
  top: "pool1"
  pooling_param {
    pool: MAX
    kernel_size: 3
    stride: 2
  }
}
layer {
  name: "conv2"
  type: "Convolution"
  bottom: "pool1"
  top: "conv2"
  param {
    lr_mult: 1
  }
  param {
    lr_mult: 2
  }
  convolution_param {
    num_output: 16
    kernel_size: 3
    weight_filler {
      type: "gaussian"
      std: 0.0001
    }
    bias_filler {
      type: "constant"
    }
  }
}
layer {
  name: "relu2"
  type: "PReLU"
  bottom: "conv2"
  top: "conv2"
}
layer {
  name: "conv3"
  type: "Convolution"
  bottom: "conv2"
  top: "conv3"
  param {
    lr_mult: 1
    decay_mult: 1
  }
  param {
    lr_mult: 2
    decay_mult: 0
  }
  convolution_param {
    num_output: 32
    kernel_size: 3
    stride: 1
    weight_filler {
      type: "xavier"
    }
    bias_filler {
      type: "constant"
      value: 0
    }
  }
}
layer {
  name: "relu3"
  type: "PReLU"
  bottom: "conv3"
  top: "conv3"
}
layer {
  name: "conv4-1"
  type: "Convolution"
  bottom: "conv3"
  top: "conv4-1"
  param {
    lr_mult: 1
    decay_mult: 1
  }
  param {
    lr_mult: 2
    decay_mult: 0
  }
  convolution_param {
    num_output: 2
    kernel_size: 1
    stride: 1
    weight_filler {
      type: "xavier"
    }
    bias_filler {
      type: "constant"
      value: 0
    }
  }
}
layer {
  name: "cls_bridge"
  type: "Python"
  bottom: "conv4-1"
  bottom: "label"
  top: "conv4-1-valid"
  top: "label-valid"
  python_param {
    module: "pythonLayer"
    layer: "cls_Layer_fc"
  }
}
layer {
  name: "cls_loss"
  type: "SoftmaxWithLoss"
  bottom: "conv4-1-valid"
  bottom: "label-valid"
  top: "cls_loss"
  loss_weight: 1
  propagate_down: true
  propagate_down: false
}
layer {
  name: "cls_Acc"
  type: "Accuracy"
  bottom: "conv4-1-valid"
  bottom: "label-valid"
  top: "cls_Acc"
  include {
    phase: TRAIN
  }
}
layer {
  name: "conv4-2"
  type: "Convolution"
  bottom: "conv3"
  top: "conv4-2"
  param {
    lr_mult: 1
    decay_mult: 1
  }
  param {
    lr_mult: 2
    decay_mult: 0
  }
  convolution_param {
    num_output: 4
    kernel_size: 1
    stride: 1
    weight_filler {
      type: "xavier"
    }
    bias_filler {
      type: "constant"
      value: 0
    }
  }
}
layer {
  name: "roi_loss"
  type: "Python"
  bottom: "conv4-2"
  bottom: "roi"
  top: "roi_loss"
  loss_weight: 0.5
  python_param {
    module: "pythonLayer"
    layer: "regression_Layer"
  }
}
layer {
  name: "conv4-3"
  type: "Convolution"
  bottom: "conv3"
  top: "conv4-3"
  param {
    lr_mult: 1
    decay_mult: 1
  }
  param {
    lr_mult: 2
    decay_mult: 0
  }
  convolution_param {
    num_output: 10
    kernel_size: 1
    stride: 1
    weight_filler {
      type: "xavier"
    }
    bias_filler {
      type: "constant"
      value: 0
    }
  }
}
layer {
  name: "pts_loss"
  type: "Python"
  bottom: "conv4-3"
  bottom: "pts"
  top: "pts_loss"
  loss_weight: 0.5
  python_param {
    module: "pythonLayer"
    layer: "regression_Layer"
  }
}
I0612 10:12:37.105553  4951 layer_factory.hpp:77] Creating layer PythonLayer
I0612 10:12:37.553582  4951 net.cpp:84] Creating Layer PythonLayer
I0612 10:12:37.553619  4951 net.cpp:380] PythonLayer -> data
I0612 10:12:37.553650  4951 net.cpp:380] PythonLayer -> label
I0612 10:12:37.553671  4951 net.cpp:380] PythonLayer -> roi
I0612 10:12:37.553678  4951 net.cpp:380] PythonLayer -> pts
Start Reading Classify Data into Memory...

788878  Classify Data have been read into Memory...
Start Reading Regression Data into Memory...

488878  Regression Data have been read into Memory...
Start Reading pts-regression Data into Memory...

202599  pts-regression Data have been read into Memory...
I0612 10:20:53.325038  4951 net.cpp:122] Setting up PythonLayer
I0612 10:20:53.325327  4951 net.cpp:129] Top shape: 64 3 12 12 (27648)
I0612 10:20:53.325337  4951 net.cpp:129] Top shape: 64 1 (64)
I0612 10:20:53.325342  4951 net.cpp:129] Top shape: 64 4 (256)
I0612 10:20:53.325346  4951 net.cpp:129] Top shape: 64 10 (640)
I0612 10:20:53.325348  4951 net.cpp:137] Memory required for data: 114432
I0612 10:20:53.325356  4951 layer_factory.hpp:77] Creating layer conv1
I0612 10:20:53.325379  4951 net.cpp:84] Creating Layer conv1
I0612 10:20:53.325387  4951 net.cpp:406] conv1 <- data
I0612 10:20:53.325402  4951 net.cpp:380] conv1 -> conv1
I0612 10:20:54.156728  4951 net.cpp:122] Setting up conv1
I0612 10:20:54.156785  4951 net.cpp:129] Top shape: 64 10 10 10 (64000)
I0612 10:20:54.156795  4951 net.cpp:137] Memory required for data: 370432
I0612 10:20:54.156844  4951 layer_factory.hpp:77] Creating layer relu1
I0612 10:20:54.156868  4951 net.cpp:84] Creating Layer relu1
I0612 10:20:54.156878  4951 net.cpp:406] relu1 <- conv1
I0612 10:20:54.156891  4951 net.cpp:367] relu1 -> conv1 (in-place)
I0612 10:20:54.157119  4951 net.cpp:122] Setting up relu1
I0612 10:20:54.157135  4951 net.cpp:129] Top shape: 64 10 10 10 (64000)
I0612 10:20:54.157145  4951 net.cpp:137] Memory required for data: 626432
I0612 10:20:54.157157  4951 layer_factory.hpp:77] Creating layer pool1
I0612 10:20:54.157169  4951 net.cpp:84] Creating Layer pool1
I0612 10:20:54.157178  4951 net.cpp:406] pool1 <- conv1
I0612 10:20:54.157192  4951 net.cpp:380] pool1 -> pool1
I0612 10:20:54.157282  4951 net.cpp:122] Setting up pool1
I0612 10:20:54.157295  4951 net.cpp:129] Top shape: 64 10 5 5 (16000)
I0612 10:20:54.157302  4951 net.cpp:137] Memory required for data: 690432
I0612 10:20:54.157310  4951 layer_factory.hpp:77] Creating layer conv2
I0612 10:20:54.157330  4951 net.cpp:84] Creating Layer conv2
I0612 10:20:54.157341  4951 net.cpp:406] conv2 <- pool1
I0612 10:20:54.157353  4951 net.cpp:380] conv2 -> conv2
I0612 10:20:54.160815  4951 net.cpp:122] Setting up conv2
I0612 10:20:54.160836  4951 net.cpp:129] Top shape: 64 16 3 3 (9216)
I0612 10:20:54.160841  4951 net.cpp:137] Memory required for data: 727296
I0612 10:20:54.160856  4951 layer_factory.hpp:77] Creating layer relu2
I0612 10:20:54.160867  4951 net.cpp:84] Creating Layer relu2
I0612 10:20:54.160876  4951 net.cpp:406] relu2 <- conv2
I0612 10:20:54.160883  4951 net.cpp:367] relu2 -> conv2 (in-place)
I0612 10:20:54.161020  4951 net.cpp:122] Setting up relu2
I0612 10:20:54.161031  4951 net.cpp:129] Top shape: 64 16 3 3 (9216)
I0612 10:20:54.161036  4951 net.cpp:137] Memory required for data: 764160
I0612 10:20:54.161043  4951 layer_factory.hpp:77] Creating layer conv3
I0612 10:20:54.161056  4951 net.cpp:84] Creating Layer conv3
I0612 10:20:54.161063  4951 net.cpp:406] conv3 <- conv2
I0612 10:20:54.161073  4951 net.cpp:380] conv3 -> conv3
I0612 10:20:54.164103  4951 net.cpp:122] Setting up conv3
I0612 10:20:54.164120  4951 net.cpp:129] Top shape: 64 32 1 1 (2048)
I0612 10:20:54.164126  4951 net.cpp:137] Memory required for data: 772352
I0612 10:20:54.164134  4951 layer_factory.hpp:77] Creating layer relu3
I0612 10:20:54.164141  4951 net.cpp:84] Creating Layer relu3
I0612 10:20:54.164146  4951 net.cpp:406] relu3 <- conv3
I0612 10:20:54.164155  4951 net.cpp:367] relu3 -> conv3 (in-place)
I0612 10:20:54.164261  4951 net.cpp:122] Setting up relu3
I0612 10:20:54.164270  4951 net.cpp:129] Top shape: 64 32 1 1 (2048)
I0612 10:20:54.164274  4951 net.cpp:137] Memory required for data: 780544
I0612 10:20:54.164284  4951 layer_factory.hpp:77] Creating layer conv3_relu3_0_split
I0612 10:20:54.164294  4951 net.cpp:84] Creating Layer conv3_relu3_0_split
I0612 10:20:54.164297  4951 net.cpp:406] conv3_relu3_0_split <- conv3
I0612 10:20:54.164305  4951 net.cpp:380] conv3_relu3_0_split -> conv3_relu3_0_split_0
I0612 10:20:54.164317  4951 net.cpp:380] conv3_relu3_0_split -> conv3_relu3_0_split_1
I0612 10:20:54.164327  4951 net.cpp:380] conv3_relu3_0_split -> conv3_relu3_0_split_2
I0612 10:20:54.164386  4951 net.cpp:122] Setting up conv3_relu3_0_split
I0612 10:20:54.164394  4951 net.cpp:129] Top shape: 64 32 1 1 (2048)
I0612 10:20:54.164427  4951 net.cpp:129] Top shape: 64 32 1 1 (2048)
I0612 10:20:54.164434  4951 net.cpp:129] Top shape: 64 32 1 1 (2048)
I0612 10:20:54.164439  4951 net.cpp:137] Memory required for data: 805120
I0612 10:20:54.164444  4951 layer_factory.hpp:77] Creating layer conv4-1
I0612 10:20:54.164458  4951 net.cpp:84] Creating Layer conv4-1
I0612 10:20:54.164463  4951 net.cpp:406] conv4-1 <- conv3_relu3_0_split_0
I0612 10:20:54.164471  4951 net.cpp:380] conv4-1 -> conv4-1
I0612 10:20:54.166537  4951 net.cpp:122] Setting up conv4-1
I0612 10:20:54.166553  4951 net.cpp:129] Top shape: 64 2 1 1 (128)
I0612 10:20:54.166558  4951 net.cpp:137] Memory required for data: 805632
I0612 10:20:54.166568  4951 layer_factory.hpp:77] Creating layer cls_bridge
I0612 10:20:54.166630  4951 net.cpp:84] Creating Layer cls_bridge
I0612 10:20:54.166638  4951 net.cpp:406] cls_bridge <- conv4-1
I0612 10:20:54.166646  4951 net.cpp:406] cls_bridge <- label
I0612 10:20:54.166653  4951 net.cpp:380] cls_bridge -> conv4-1-valid
I0612 10:20:54.166663  4951 net.cpp:380] cls_bridge -> label-valid
I0612 10:20:54.166831  4951 net.cpp:122] Setting up cls_bridge
I0612 10:20:54.166846  4951 net.cpp:129] Top shape: 64 2 1 1 (128)
I0612 10:20:54.166851  4951 net.cpp:129] Top shape: 64 1 (64)
I0612 10:20:54.166857  4951 net.cpp:137] Memory required for data: 806400
I0612 10:20:54.166862  4951 layer_factory.hpp:77] Creating layer conv4-1-valid_cls_bridge_0_split
I0612 10:20:54.166870  4951 net.cpp:84] Creating Layer conv4-1-valid_cls_bridge_0_split
I0612 10:20:54.166875  4951 net.cpp:406] conv4-1-valid_cls_bridge_0_split <- conv4-1-valid
I0612 10:20:54.166883  4951 net.cpp:380] conv4-1-valid_cls_bridge_0_split -> conv4-1-valid_cls_bridge_0_split_0
I0612 10:20:54.166894  4951 net.cpp:380] conv4-1-valid_cls_bridge_0_split -> conv4-1-valid_cls_bridge_0_split_1
I0612 10:20:54.166940  4951 net.cpp:122] Setting up conv4-1-valid_cls_bridge_0_split
I0612 10:20:54.166949  4951 net.cpp:129] Top shape: 64 2 1 1 (128)
I0612 10:20:54.166955  4951 net.cpp:129] Top shape: 64 2 1 1 (128)
I0612 10:20:54.166960  4951 net.cpp:137] Memory required for data: 807424
I0612 10:20:54.166965  4951 layer_factory.hpp:77] Creating layer label-valid_cls_bridge_1_split
I0612 10:20:54.166972  4951 net.cpp:84] Creating Layer label-valid_cls_bridge_1_split
I0612 10:20:54.166977  4951 net.cpp:406] label-valid_cls_bridge_1_split <- label-valid
I0612 10:20:54.166985  4951 net.cpp:380] label-valid_cls_bridge_1_split -> label-valid_cls_bridge_1_split_0
I0612 10:20:54.166998  4951 net.cpp:380] label-valid_cls_bridge_1_split -> label-valid_cls_bridge_1_split_1
I0612 10:20:54.167042  4951 net.cpp:122] Setting up label-valid_cls_bridge_1_split
I0612 10:20:54.167050  4951 net.cpp:129] Top shape: 64 1 (64)
I0612 10:20:54.167057  4951 net.cpp:129] Top shape: 64 1 (64)
I0612 10:20:54.167062  4951 net.cpp:137] Memory required for data: 807936
I0612 10:20:54.167067  4951 layer_factory.hpp:77] Creating layer cls_loss
I0612 10:20:54.167074  4951 net.cpp:84] Creating Layer cls_loss
I0612 10:20:54.167081  4951 net.cpp:406] cls_loss <- conv4-1-valid_cls_bridge_0_split_0
I0612 10:20:54.167088  4951 net.cpp:406] cls_loss <- label-valid_cls_bridge_1_split_0
I0612 10:20:54.167095  4951 net.cpp:380] cls_loss -> cls_loss
…
