…
snapshot: 5000
snapshot_prefix: "./models/"
solver_mode: GPU
device_id: 0
net: "train24.prototxt"
train_state {
  level: 0
  stage: ""
}
I0620 19:42:31.055537  8751 solver.cpp:87] Creating training net from net file: train24.prototxt
I0620 19:42:31.055865  8751 net.cpp:51] Initializing net from parameters: 
name: "face_24c"
state {
  phase: TRAIN
  level: 0
  stage: ""
}
layer {
  name: "PythonLayer"
  type: "Python"
  top: "data"
  top: "label"
  top: "roi"
  top: "pts"
  python_param {
    module: "pythonLayer"
    layer: "Data_Layer_train"
  }
}
layer {
  name: "conv1"
  type: "Convolution"
  bottom: "data"
  top: "conv1"
  param {
    lr_mult: 1
  }
  param {
    lr_mult: 2
  }
  convolution_param {
    num_output: 28
    kernel_size: 3
    stride: 1
    weight_filler {
      type: "xavier"
    }
    bias_filler {
      type: "constant"
      value: 0
    }
  }
}
layer {
  name: "prelu1"
  type: "PReLU"
  bottom: "conv1"
  top: "conv1"
}
layer {
  name: "pool1"
  type: "Pooling"
  bottom: "conv1"
  top: "pool1"
  pooling_param {
    pool: MAX
    kernel_size: 3
    stride: 2
  }
}
layer {
  name: "conv2"
  type: "Convolution"
  bottom: "pool1"
  top: "conv2"
  param {
    lr_mult: 1
  }
  param {
    lr_mult: 2
  }
  convolution_param {
    num_output: 48
    kernel_size: 3
    stride: 1
    weight_filler {
      type: "xavier"
    }
    bias_filler {
      type: "constant"
      value: 0
    }
  }
}
layer {
  name: "prelu2"
  type: "PReLU"
  bottom: "conv2"
  top: "conv2"
}
layer {
  name: "pool2"
  type: "Pooling"
  bottom: "conv2"
  top: "pool2"
  pooling_param {
    pool: MAX
    kernel_size: 3
    stride: 2
  }
}
layer {
  name: "conv3"
  type: "Convolution"
  bottom: "pool2"
  top: "conv3"
  param {
    lr_mult: 1
    decay_mult: 1
  }
  param {
    lr_mult: 2
    decay_mult: 0
  }
  convolution_param {
    num_output: 64
    kernel_size: 2
    stride: 1
    weight_filler {
      type: "xavier"
    }
    bias_filler {
      type: "constant"
      value: 0
    }
  }
}
layer {
  name: "prelu3"
  type: "PReLU"
  bottom: "conv3"
  top: "conv3"
}
layer {
  name: "conv4"
  type: "InnerProduct"
  bottom: "conv3"
  top: "conv4"
  param {
    lr_mult: 1
    decay_mult: 1
  }
  param {
    lr_mult: 2
    decay_mult: 0
  }
  inner_product_param {
    num_output: 128
    weight_filler {
      type: "xavier"
    }
    bias_filler {
      type: "constant"
      value: 0
    }
  }
}
layer {
  name: "prelu4"
  type: "PReLU"
  bottom: "conv4"
  top: "conv4"
}
layer {
  name: "conv5-1"
  type: "InnerProduct"
  bottom: "conv4"
  top: "conv5-1"
  param {
    lr_mult: 1
    decay_mult: 1
  }
  param {
    lr_mult: 2
    decay_mult: 0
  }
  inner_product_param {
    num_output: 2
    weight_filler {
      type: "xavier"
    }
    bias_filler {
      type: "constant"
      value: 0
    }
  }
}
layer {
  name: "cls_bridge"
  type: "Python"
  bottom: "conv5-1"
  bottom: "label"
  top: "conv5-1-valid"
  top: "label-valid"
  python_param {
    module: "pythonLayer"
    layer: "cls_Layer"
  }
}
layer {
  name: "cls_loss"
  type: "SoftmaxWithLoss"
  bottom: "conv5-1-valid"
  bottom: "label-valid"
  top: "cls_loss"
  loss_weight: 1
  propagate_down: true
  propagate_down: false
}
layer {
  name: "cls_acc"
  type: "Accuracy"
  bottom: "conv5-1-valid"
  bottom: "label-valid"
  top: "cls_acc"
  include {
    phase: TRAIN
  }
}
layer {
  name: "conv5-2"
  type: "InnerProduct"
  bottom: "conv4"
  top: "conv5-2"
  param {
    lr_mult: 1
    decay_mult: 1
  }
  param {
    lr_mult: 2
    decay_mult: 0
  }
  inner_product_param {
    num_output: 4
    weight_filler {
      type: "xavier"
    }
    bias_filler {
      type: "constant"
      value: 0
    }
  }
}
layer {
  name: "roi_loss"
  type: "Python"
  bottom: "conv5-2"
  bottom: "roi"
  top: "roi_loss"
  loss_weight: 0.5
  python_param {
    module: "pythonLayer"
    layer: "regression_Layer"
  }
}
layer {
  name: "conv5-3"
  type: "InnerProduct"
  bottom: "conv4"
  top: "conv5-3"
  param {
    lr_mult: 1
    decay_mult: 1
  }
  param {
    lr_mult: 2
    decay_mult: 0
  }
  inner_product_param {
    num_output: 10
    weight_filler {
      type: "xavier"
    }
    bias_filler {
      type: "constant"
      value: 0
    }
  }
}
layer {
  name: "pts_loss"
  type: "Python"
  bottom: "conv5-3"
  bottom: "pts"
  top: "pts_loss"
  loss_weight: 0.5
  python_param {
    module: "pythonLayer"
    layer: "regression_Layer"
  }
}
I0620 19:42:31.056141  8751 layer_factory.hpp:77] Creating layer PythonLayer
I0620 19:42:31.826578  8751 net.cpp:84] Creating Layer PythonLayer
I0620 19:42:31.826616  8751 net.cpp:380] PythonLayer -> data
I0620 19:42:31.826649  8751 net.cpp:380] PythonLayer -> label
I0620 19:42:31.826669  8751 net.cpp:380] PythonLayer -> roi
I0620 19:42:31.826674  8751 net.cpp:380] PythonLayer -> pts
Start Reading Classify Data into Memory...

20000  Classify Data have been read into Memory...
Start Reading Regression Data into Memory...

10000  Regression Data have been read into Memory...
Start Reading pts-regression Data into Memory...

10000  pts-regression Data have been read into Memory...
I0620 19:43:23.452088  8751 net.cpp:122] Setting up PythonLayer
I0620 19:43:23.452154  8751 net.cpp:129] Top shape: 64 3 24 24 (110592)
I0620 19:43:23.452159  8751 net.cpp:129] Top shape: 64 1 (64)
I0620 19:43:23.452164  8751 net.cpp:129] Top shape: 64 4 (256)
I0620 19:43:23.452193  8751 net.cpp:129] Top shape: 64 10 (640)
I0620 19:43:23.452198  8751 net.cpp:137] Memory required for data: 446208
I0620 19:43:23.452221  8751 layer_factory.hpp:77] Creating layer conv1
I0620 19:43:23.452253  8751 net.cpp:84] Creating Layer conv1
I0620 19:43:23.452258  8751 net.cpp:406] conv1 <- data
I0620 19:43:23.452280  8751 net.cpp:380] conv1 -> conv1
I0620 19:43:23.787845  8751 net.cpp:122] Setting up conv1
I0620 19:43:23.787881  8751 net.cpp:129] Top shape: 64 28 22 22 (867328)
I0620 19:43:23.787886  8751 net.cpp:137] Memory required for data: 3915520
I0620 19:43:23.787933  8751 layer_factory.hpp:77] Creating layer prelu1
I0620 19:43:23.787955  8751 net.cpp:84] Creating Layer prelu1
I0620 19:43:23.787971  8751 net.cpp:406] prelu1 <- conv1
I0620 19:43:23.787976  8751 net.cpp:367] prelu1 -> conv1 (in-place)
I0620 19:43:23.788614  8751 net.cpp:122] Setting up prelu1
I0620 19:43:23.788622  8751 net.cpp:129] Top shape: 64 28 22 22 (867328)
I0620 19:43:23.788640  8751 net.cpp:137] Memory required for data: 7384832
I0620 19:43:23.788645  8751 layer_factory.hpp:77] Creating layer pool1
I0620 19:43:23.788666  8751 net.cpp:84] Creating Layer pool1
I0620 19:43:23.788668  8751 net.cpp:406] pool1 <- conv1
I0620 19:43:23.788687  8751 net.cpp:380] pool1 -> pool1
I0620 19:43:23.788753  8751 net.cpp:122] Setting up pool1
I0620 19:43:23.788758  8751 net.cpp:129] Top shape: 64 28 11 11 (216832)
I0620 19:43:23.788760  8751 net.cpp:137] Memory required for data: 8252160
I0620 19:43:23.788763  8751 layer_factory.hpp:77] Creating layer conv2
I0620 19:43:23.788769  8751 net.cpp:84] Creating Layer conv2
I0620 19:43:23.788771  8751 net.cpp:406] conv2 <- pool1
I0620 19:43:23.788775  8751 net.cpp:380] conv2 -> conv2
I0620 19:43:23.789947  8751 net.cpp:122] Setting up conv2
I0620 19:43:23.789955  8751 net.cpp:129] Top shape: 64 48 9 9 (248832)
I0620 19:43:23.789971  8751 net.cpp:137] Memory required for data: 9247488
I0620 19:43:23.789978  8751 layer_factory.hpp:77] Creating layer prelu2
I0620 19:43:23.789996  8751 net.cpp:84] Creating Layer prelu2
I0620 19:43:23.790000  8751 net.cpp:406] prelu2 <- conv2
I0620 19:43:23.790019  8751 net.cpp:367] prelu2 -> conv2 (in-place)
I0620 19:43:23.790617  8751 net.cpp:122] Setting up prelu2
I0620 19:43:23.790627  8751 net.cpp:129] Top shape: 64 48 9 9 (248832)
I0620 19:43:23.790645  8751 net.cpp:137] Memory required for data: 10242816
I0620 19:43:23.790649  8751 layer_factory.hpp:77] Creating layer pool2
I0620 19:43:23.790665  8751 net.cpp:84] Creating Layer pool2
I0620 19:43:23.790668  8751 net.cpp:406] pool2 <- conv2
I0620 19:43:23.790671  8751 net.cpp:380] pool2 -> pool2
I0620 19:43:23.790738  8751 net.cpp:122] Setting up pool2
I0620 19:43:23.790755  8751 net.cpp:129] Top shape: 64 48 4 4 (49152)
I0620 19:43:23.790758  8751 net.cpp:137] Memory required for data: 10439424
I0620 19:43:23.790760  8751 layer_factory.hpp:77] Creating layer conv3
I0620 19:43:23.790781  8751 net.cpp:84] Creating Layer conv3
I0620 19:43:23.790782  8751 net.cpp:406] conv3 <- pool2
I0620 19:43:23.790786  8751 net.cpp:380] conv3 -> conv3
I0620 19:43:23.791985  8751 net.cpp:122] Setting up conv3
I0620 19:43:23.791995  8751 net.cpp:129] Top shape: 64 64 3 3 (36864)
I0620 19:43:23.792011  8751 net.cpp:137] Memory required for data: 10586880
I0620 19:43:23.792016  8751 layer_factory.hpp:77] Creating layer prelu3
I0620 19:43:23.792037  8751 net.cpp:84] Creating Layer prelu3
I0620 19:43:23.792040  8751 net.cpp:406] prelu3 <- conv3
I0620 19:43:23.792059  8751 net.cpp:367] prelu3 -> conv3 (in-place)
I0620 19:43:23.792173  8751 net.cpp:122] Setting up prelu3
I0620 19:43:23.792179  8751 net.cpp:129] Top shape: 64 64 3 3 (36864)
I0620 19:43:23.792181  8751 net.cpp:137] Memory required for data: 10734336
I0620 19:43:23.792186  8751 layer_factory.hpp:77] Creating layer conv4
I0620 19:43:23.792191  8751 net.cpp:84] Creating Layer conv4
I0620 19:43:23.792209  8751 net.cpp:406] conv4 <- conv3
I0620 19:43:23.792230  8751 net.cpp:380] conv4 -> conv4
I0620 19:43:23.793083  8751 net.cpp:122] Setting up conv4
I0620 19:43:23.793092  8751 net.cpp:129] Top shape: 64 128 (8192)
I0620 19:43:23.793108  8751 net.cpp:137] Memory required for data: 10767104
I0620 19:43:23.793113  8751 layer_factory.hpp:77] Creating layer prelu4
I0620 19:43:23.793118  8751 net.cpp:84] Creating Layer prelu4
I0620 19:43:23.793120  8751 net.cpp:406] prelu4 <- conv4
I0620 19:43:23.793125  8751 net.cpp:367] prelu4 -> conv4 (in-place)
I0620 19:43:23.793176  8751 net.cpp:122] Setting up prelu4
I0620 19:43:23.793180  8751 net.cpp:129] Top shape: 64 128 (8192)
I0620 19:43:23.793184  8751 net.cpp:137] Memory required for data: 10799872
I0620 19:43:23.793187  8751 layer_factory.hpp:77] Creating layer conv4_prelu4_0_split
I0620 19:43:23.793191  8751 net.cpp:84] Creating Layer conv4_prelu4_0_split
I0620 19:43:23.793207  8751 net.cpp:406] conv4_prelu4_0_split <- conv4
I0620 19:43:23.793211  8751 net.cpp:380] conv4_prelu4_0_split -> conv4_prelu4_0_split_0
I0620 19:43:23.793231  8751 net.cpp:380] conv4_prelu4_0_split -> conv4_prelu4_0_split_1
I0620 19:43:23.793236  8751 net.cpp:380] conv4_prelu4_0_split -> conv4_prelu4_0_split_2
I0620 19:43:23.793278  8751 net.cpp:122] Setting up conv4_prelu4_0_split
I0620 19:43:23.793282  8751 net.cpp:129] Top shape: 64 128 (8192)
I0620 19:43:23.793287  8751 net.cpp:129] Top shape: 64 128 (8192)
I0620 19:43:23.793303  8751 net.cpp:129] Top shape: 64 128 (8192)
I0620 19:43:23.793305  8751 net.cpp:137] Memory required for data: 10898176
I0620 19:43:23.793308  8751 layer_factory.hpp:77] Creating layer conv5-1
I0620 19:43:23.793313  8751 net.cpp:84] Creating Layer conv5-1
I0620 19:43:23.793316  8751 net.cpp:406] conv5-1 <- conv4_prelu4_0_split_0
I0620 19:43:23.793320  8751 net.cpp:380] conv5-1 -> conv5-1
I0620 19:43:23.793381  8751 net.cpp:122] Setting up conv5-1
I0620 19:43:23.793386  8751 net.cpp:129] Top shape: 64 2 (128)
I0620 19:43:23.793388  8751 net.cpp:137] Memory required for data: 10898688
I0620 19:43:23.793393  8751 layer_factory.hpp:77] Creating layer cls_bridge
I0620 19:43:23.793460  8751 net.cpp:84] Creating Layer cls_bridge
I0620 19:43:23.793465  8751 net.cpp:406] cls_bridge <- conv5-1
I0620 19:43:23.793483  8751 net.cpp:406] cls_bridge <- label
I0620 19:43:23.793485  8751 net.cpp:380] cls_bridge -> conv5-1-valid
I0620 19:43:23.793490  8751 net.cpp:380] cls_bridge -> label-valid
I0620 19:43:23.793609  8751 net.cpp:122] Setting up cls_bridge
I0620 19:43:23.793617  8751 net.cpp:129] Top shape: 64 2 (128)
I0620 19:43:23.793620  8751 net.cpp:129] Top shape: 64 1 (64)
I0620 19:43:23.793622  8751 net.cpp:137] Memory required for data: 10899456
I0620 19:43:23.793627  8751 layer_factory.hpp:77] Creating layer conv5-1-valid_cls_bridge_0_split
I0620 19:43:23.793630  8751 net.cpp:84] Creating Layer conv5-1-valid_cls_bridge_0_split
I0620 19:43:23.793633  8751 net.cpp:406] conv5-1-valid_cls_bridge_0_split <- conv5-1-valid
I0620 19:43:23.793638  8751 net.cpp:380] conv5-1-valid_cls_bridge_0_split -> conv5-1-valid_cls_bridge_0_split_0
I0620 19:43:23.793647  8751 net.cpp:380] conv5-1-valid_cls_bridge_0_split -> conv5-1-valid_cls_bridge_0_split_1
I0620 19:43:23.793668  8751 net.cpp:122] Setting up conv5-1-valid_cls_bridge_0_split
I0620 19:43:23.793673  8751 net.cpp:129] Top shape: 64 2 (128)
I0620 19:43:23.793676  8751 net.cpp:129] Top shape: 64 2 (128)
I0620 19:43:23.793679  8751 net.cpp:137] Memory required for data: 10900480
I0620 19:43:23.793684  8751 layer_factory.hpp:77] Creating layer label-valid_cls_bridge_1_split
I0620 19:43:23.793686  8751 net.cpp:84] Creating Layer label-valid_cls_bridge_1_split
I0620 19:43:23.793689  8751 net.cpp:406] label-valid_cls_bridge_1_split <- label-valid
I0620 19:43:23.793694  8751 net.cpp:380] label-valid_cls_bridge_1_split -> label-valid_cls_bridge_1_split_0
I0620 19:43:23.793699  8751 net.cpp:380] label-valid_cls_bridge_1_split -> label-valid_cls_bridge_1_split_1
I0620 19:43:23.793720  8751 net.cpp:122] Setting up label-valid_cls_bridge_1_split
I0620 19:43:23.793732  8751 net.cpp:129] Top shape: 64 1 (64)
I0620 19:43:23.793736  8751 net.cpp:129] Top shape: 64 1 (64)
I0620 19:43:23.793740  8751 net.cpp:137] Memory required for data: 10900992
I0620 19:43:23.793742  8751 layer_factory.hpp:77] Creating layer cls_loss
I0620 19:43:23.793748  8751 net.cpp:84] Creating Layer cls_loss
I0620 19:43:23.793752  8751 net.cpp:406] cls_loss <- conv5-1-valid_cls_bridge_0_split_0
I0620 19:43:23.793756  8751 net.cpp:406] cls_loss <- label-valid_cls_bridge_1_split_0
I0620 19:43:23.793761  8751 net.cpp:380] cls_loss -> cls_loss
…
