…
snapshot: 5000
snapshot_prefix: "./models/48net"
solver_mode: GPU
device_id: 0
net: "train48.prototxt"
train_state {
  level: 0
  stage: ""
}
I0621 11:43:42.134580  9364 solver.cpp:87] Creating training net from net file: train48.prototxt
I0621 11:43:42.134896  9364 net.cpp:51] Initializing net from parameters: 
name: "face_48"
state {
  phase: TRAIN
  level: 0
  stage: ""
}
layer {
  name: "PythonLayer"
  type: "Python"
  top: "data"
  top: "label"
  top: "roi"
  top: "pts"
  python_param {
    module: "pythonLayer"
    layer: "Data_Layer_train"
  }
}
layer {
  name: "conv1"
  type: "Convolution"
  bottom: "data"
  top: "conv1"
  param {
    lr_mult: 1
    decay_mult: 1
  }
  param {
    lr_mult: 2
    decay_mult: 1
  }
  convolution_param {
    num_output: 32
    kernel_size: 3
    stride: 1
    weight_filler {
      type: "xavier"
    }
    bias_filler {
      type: "constant"
      value: 0
    }
  }
}
layer {
  name: "prelu1"
  type: "PReLU"
  bottom: "conv1"
  top: "conv1"
}
layer {
  name: "pool1"
  type: "Pooling"
  bottom: "conv1"
  top: "pool1"
  pooling_param {
    pool: MAX
    kernel_size: 3
    stride: 2
  }
}
layer {
  name: "conv2"
  type: "Convolution"
  bottom: "pool1"
  top: "conv2"
  param {
    lr_mult: 1
    decay_mult: 1
  }
  param {
    lr_mult: 2
    decay_mult: 1
  }
  convolution_param {
    num_output: 64
    kernel_size: 3
    stride: 1
    weight_filler {
      type: "xavier"
    }
    bias_filler {
      type: "constant"
      value: 0
    }
  }
}
layer {
  name: "prelu2"
  type: "PReLU"
  bottom: "conv2"
  top: "conv2"
}
layer {
  name: "pool2"
  type: "Pooling"
  bottom: "conv2"
  top: "pool2"
  pooling_param {
    pool: MAX
    kernel_size: 3
    stride: 2
  }
}
layer {
  name: "conv3"
  type: "Convolution"
  bottom: "pool2"
  top: "conv3"
  param {
    lr_mult: 1
    decay_mult: 1
  }
  param {
    lr_mult: 2
    decay_mult: 1
  }
  convolution_param {
    num_output: 64
    kernel_size: 3
    weight_filler {
      type: "xavier"
    }
    bias_filler {
      type: "constant"
      value: 0
    }
  }
}
layer {
  name: "prelu3"
  type: "PReLU"
  bottom: "conv3"
  top: "conv3"
}
layer {
  name: "pool3"
  type: "Pooling"
  bottom: "conv3"
  top: "pool3"
  pooling_param {
    pool: MAX
    kernel_size: 2
    stride: 2
  }
}
layer {
  name: "conv4"
  type: "Convolution"
  bottom: "pool3"
  top: "conv4"
  param {
    lr_mult: 1
    decay_mult: 1
  }
  param {
    lr_mult: 2
    decay_mult: 1
  }
  convolution_param {
    num_output: 128
    kernel_size: 2
    stride: 1
    weight_filler {
      type: "xavier"
    }
    bias_filler {
      type: "constant"
      value: 0
    }
  }
}
layer {
  name: "prelu4"
  type: "PReLU"
  bottom: "conv4"
  top: "conv4"
}
layer {
  name: "conv5"
  type: "InnerProduct"
  bottom: "conv4"
  top: "conv5"
  param {
    lr_mult: 1
    decay_mult: 1
  }
  param {
    lr_mult: 2
    decay_mult: 1
  }
  inner_product_param {
    num_output: 256
    weight_filler {
      type: "xavier"
    }
    bias_filler {
      type: "constant"
      value: 0
    }
  }
}
layer {
  name: "drop5"
  type: "Dropout"
  bottom: "conv5"
  top: "conv5"
  dropout_param {
    dropout_ratio: 0.25
  }
}
layer {
  name: "prelu5"
  type: "PReLU"
  bottom: "conv5"
  top: "conv5"
}
layer {
  name: "conv6-1"
  type: "InnerProduct"
  bottom: "conv5"
  top: "conv6-1"
  param {
    lr_mult: 1
    decay_mult: 1
  }
  param {
    lr_mult: 2
    decay_mult: 1
  }
  inner_product_param {
    num_output: 2
    weight_filler {
      type: "xavier"
    }
    bias_filler {
      type: "constant"
      value: 0
    }
  }
}
layer {
  name: "cls_bridge"
  type: "Python"
  bottom: "conv6-1"
  bottom: "label"
  top: "conv6-1-valid"
  top: "label-valid"
  python_param {
    module: "pythonLayer"
    layer: "cls_Layer"
  }
}
layer {
  name: "ClassifyLoss"
  type: "SoftmaxWithLoss"
  bottom: "conv6-1-valid"
  bottom: "label-valid"
  top: "ClassifyLoss"
  loss_weight: 1
  propagate_down: true
  propagate_down: false
}
layer {
  name: "cls_Acc"
  type: "Accuracy"
  bottom: "conv6-1-valid"
  bottom: "label-valid"
  top: "cls_Acc"
  include {
    phase: TRAIN
  }
}
layer {
  name: "conv6-2"
  type: "InnerProduct"
  bottom: "conv5"
  top: "conv6-2"
  param {
    lr_mult: 1
    decay_mult: 1
  }
  param {
    lr_mult: 2
    decay_mult: 1
  }
  inner_product_param {
    num_output: 4
    weight_filler {
      type: "xavier"
    }
    bias_filler {
      type: "constant"
      value: 0
    }
  }
}
layer {
  name: "RegressionLoss"
  type: "Python"
  bottom: "conv6-2"
  bottom: "roi"
  top: "RegressionLoss"
  loss_weight: 0.5
  python_param {
    module: "pythonLayer"
    layer: "regression_Layer"
  }
}
layer {
  name: "conv6-3"
  type: "InnerProduct"
  bottom: "conv5"
  top: "conv6-3"
  param {
    lr_mult: 1
    decay_mult: 1
  }
  param {
    lr_mult: 2
    decay_mult: 1
  }
  inner_product_param {
    num_output: 10
    weight_filler {
      type: "xavier"
    }
    bias_filler {
      type: "constant"
      value: 0
    }
  }
}
layer {
  name: "LandmarkLoss"
  type: "Python"
  bottom: "conv6-3"
  bottom: "pts"
  top: "LandmarkLoss"
  loss_weight: 1
  python_param {
    module: "pythonLayer"
    layer: "regression_Layer"
  }
}
I0621 11:43:42.135179  9364 layer_factory.hpp:77] Creating layer PythonLayer
I0621 11:43:42.569911  9364 net.cpp:84] Creating Layer PythonLayer
I0621 11:43:42.569934  9364 net.cpp:380] PythonLayer -> data
I0621 11:43:42.569964  9364 net.cpp:380] PythonLayer -> label
I0621 11:43:42.569972  9364 net.cpp:380] PythonLayer -> roi
I0621 11:43:42.569989  9364 net.cpp:380] PythonLayer -> pts
Start Reading Classify Data into Memory...

20000  Classify Data have been read into Memory...
Start Reading Regression Data into Memory...

15000  Regression Data have been read into Memory...
Start Reading pts-regression Data into Memory...

10000  pts-regression Data have been read into Memory...
I0621 11:47:33.871841  9364 net.cpp:122] Setting up PythonLayer
I0621 11:47:33.872298  9364 net.cpp:129] Top shape: 64 3 48 48 (442368)
I0621 11:47:33.872318  9364 net.cpp:129] Top shape: 64 1 (64)
I0621 11:47:33.872323  9364 net.cpp:129] Top shape: 64 4 (256)
I0621 11:47:33.872340  9364 net.cpp:129] Top shape: 64 10 (640)
I0621 11:47:33.872344  9364 net.cpp:137] Memory required for data: 1773312
I0621 11:47:33.872352  9364 layer_factory.hpp:77] Creating layer conv1
I0621 11:47:33.872387  9364 net.cpp:84] Creating Layer conv1
I0621 11:47:33.872393  9364 net.cpp:406] conv1 <- data
I0621 11:47:33.872419  9364 net.cpp:380] conv1 -> conv1
I0621 11:47:34.199587  9364 net.cpp:122] Setting up conv1
I0621 11:47:34.199623  9364 net.cpp:129] Top shape: 64 32 46 46 (4333568)
I0621 11:47:34.199628  9364 net.cpp:137] Memory required for data: 19107584
I0621 11:47:34.199661  9364 layer_factory.hpp:77] Creating layer prelu1
I0621 11:47:34.199684  9364 net.cpp:84] Creating Layer prelu1
I0621 11:47:34.199688  9364 net.cpp:406] prelu1 <- conv1
I0621 11:47:34.199693  9364 net.cpp:367] prelu1 -> conv1 (in-place)
I0621 11:47:34.200318  9364 net.cpp:122] Setting up prelu1
I0621 11:47:34.200326  9364 net.cpp:129] Top shape: 64 32 46 46 (4333568)
I0621 11:47:34.200343  9364 net.cpp:137] Memory required for data: 36441856
I0621 11:47:34.200350  9364 layer_factory.hpp:77] Creating layer pool1
I0621 11:47:34.200369  9364 net.cpp:84] Creating Layer pool1
I0621 11:47:34.200372  9364 net.cpp:406] pool1 <- conv1
I0621 11:47:34.200376  9364 net.cpp:380] pool1 -> pool1
I0621 11:47:34.200408  9364 net.cpp:122] Setting up pool1
I0621 11:47:34.200413  9364 net.cpp:129] Top shape: 64 32 23 23 (1083392)
I0621 11:47:34.200415  9364 net.cpp:137] Memory required for data: 40775424
I0621 11:47:34.200417  9364 layer_factory.hpp:77] Creating layer conv2
I0621 11:47:34.200425  9364 net.cpp:84] Creating Layer conv2
I0621 11:47:34.200428  9364 net.cpp:406] conv2 <- pool1
I0621 11:47:34.200431  9364 net.cpp:380] conv2 -> conv2
I0621 11:47:34.202111  9364 net.cpp:122] Setting up conv2
I0621 11:47:34.202134  9364 net.cpp:129] Top shape: 64 64 21 21 (1806336)
I0621 11:47:34.202137  9364 net.cpp:137] Memory required for data: 48000768
I0621 11:47:34.202157  9364 layer_factory.hpp:77] Creating layer prelu2
I0621 11:47:34.202162  9364 net.cpp:84] Creating Layer prelu2
I0621 11:47:34.202165  9364 net.cpp:406] prelu2 <- conv2
I0621 11:47:34.202169  9364 net.cpp:367] prelu2 -> conv2 (in-place)
I0621 11:47:34.202293  9364 net.cpp:122] Setting up prelu2
I0621 11:47:34.202297  9364 net.cpp:129] Top shape: 64 64 21 21 (1806336)
I0621 11:47:34.202314  9364 net.cpp:137] Memory required for data: 55226112
I0621 11:47:34.202317  9364 layer_factory.hpp:77] Creating layer pool2
I0621 11:47:34.202337  9364 net.cpp:84] Creating Layer pool2
I0621 11:47:34.202339  9364 net.cpp:406] pool2 <- conv2
I0621 11:47:34.202343  9364 net.cpp:380] pool2 -> pool2
I0621 11:47:34.202368  9364 net.cpp:122] Setting up pool2
I0621 11:47:34.202373  9364 net.cpp:129] Top shape: 64 64 10 10 (409600)
I0621 11:47:34.202375  9364 net.cpp:137] Memory required for data: 56864512
I0621 11:47:34.202378  9364 layer_factory.hpp:77] Creating layer conv3
I0621 11:47:34.202384  9364 net.cpp:84] Creating Layer conv3
I0621 11:47:34.202388  9364 net.cpp:406] conv3 <- pool2
I0621 11:47:34.202391  9364 net.cpp:380] conv3 -> conv3
I0621 11:47:34.203335  9364 net.cpp:122] Setting up conv3
I0621 11:47:34.203343  9364 net.cpp:129] Top shape: 64 64 8 8 (262144)
I0621 11:47:34.203361  9364 net.cpp:137] Memory required for data: 57913088
I0621 11:47:34.203366  9364 layer_factory.hpp:77] Creating layer prelu3
I0621 11:47:34.203372  9364 net.cpp:84] Creating Layer prelu3
I0621 11:47:34.203374  9364 net.cpp:406] prelu3 <- conv3
I0621 11:47:34.203378  9364 net.cpp:367] prelu3 -> conv3 (in-place)
I0621 11:47:34.203460  9364 net.cpp:122] Setting up prelu3
I0621 11:47:34.203466  9364 net.cpp:129] Top shape: 64 64 8 8 (262144)
I0621 11:47:34.203483  9364 net.cpp:137] Memory required for data: 58961664
I0621 11:47:34.203488  9364 layer_factory.hpp:77] Creating layer pool3
I0621 11:47:34.203492  9364 net.cpp:84] Creating Layer pool3
I0621 11:47:34.203517  9364 net.cpp:406] pool3 <- conv3
I0621 11:47:34.203524  9364 net.cpp:380] pool3 -> pool3
I0621 11:47:34.203591  9364 net.cpp:122] Setting up pool3
I0621 11:47:34.203596  9364 net.cpp:129] Top shape: 64 64 4 4 (65536)
I0621 11:47:34.203600  9364 net.cpp:137] Memory required for data: 59223808
I0621 11:47:34.203603  9364 layer_factory.hpp:77] Creating layer conv4
I0621 11:47:34.203608  9364 net.cpp:84] Creating Layer conv4
I0621 11:47:34.203611  9364 net.cpp:406] conv4 <- pool3
I0621 11:47:34.203616  9364 net.cpp:380] conv4 -> conv4
I0621 11:47:34.204797  9364 net.cpp:122] Setting up conv4
I0621 11:47:34.204807  9364 net.cpp:129] Top shape: 64 128 3 3 (73728)
I0621 11:47:34.204823  9364 net.cpp:137] Memory required for data: 59518720
I0621 11:47:34.204829  9364 layer_factory.hpp:77] Creating layer prelu4
I0621 11:47:34.204833  9364 net.cpp:84] Creating Layer prelu4
I0621 11:47:34.204836  9364 net.cpp:406] prelu4 <- conv4
I0621 11:47:34.204840  9364 net.cpp:367] prelu4 -> conv4 (in-place)
I0621 11:47:34.204900  9364 net.cpp:122] Setting up prelu4
I0621 11:47:34.204917  9364 net.cpp:129] Top shape: 64 128 3 3 (73728)
I0621 11:47:34.204921  9364 net.cpp:137] Memory required for data: 59813632
I0621 11:47:34.204923  9364 layer_factory.hpp:77] Creating layer conv5
I0621 11:47:34.204943  9364 net.cpp:84] Creating Layer conv5
I0621 11:47:34.204946  9364 net.cpp:406] conv5 <- conv4
I0621 11:47:34.204951  9364 net.cpp:380] conv5 -> conv5
I0621 11:47:34.206116  9364 net.cpp:122] Setting up conv5
I0621 11:47:34.206122  9364 net.cpp:129] Top shape: 64 256 (16384)
I0621 11:47:34.206125  9364 net.cpp:137] Memory required for data: 59879168
I0621 11:47:34.206130  9364 layer_factory.hpp:77] Creating layer drop5
I0621 11:47:34.206133  9364 net.cpp:84] Creating Layer drop5
I0621 11:47:34.206137  9364 net.cpp:406] drop5 <- conv5
I0621 11:47:34.206141  9364 net.cpp:367] drop5 -> conv5 (in-place)
I0621 11:47:34.206159  9364 net.cpp:122] Setting up drop5
I0621 11:47:34.206163  9364 net.cpp:129] Top shape: 64 256 (16384)
I0621 11:47:34.206166  9364 net.cpp:137] Memory required for data: 59944704
I0621 11:47:34.206168  9364 layer_factory.hpp:77] Creating layer prelu5
I0621 11:47:34.206172  9364 net.cpp:84] Creating Layer prelu5
I0621 11:47:34.206176  9364 net.cpp:406] prelu5 <- conv5
I0621 11:47:34.206179  9364 net.cpp:367] prelu5 -> conv5 (in-place)
I0621 11:47:34.206228  9364 net.cpp:122] Setting up prelu5
I0621 11:47:34.206233  9364 net.cpp:129] Top shape: 64 256 (16384)
I0621 11:47:34.206235  9364 net.cpp:137] Memory required for data: 60010240
I0621 11:47:34.206239  9364 layer_factory.hpp:77] Creating layer conv5_prelu5_0_split
I0621 11:47:34.206244  9364 net.cpp:84] Creating Layer conv5_prelu5_0_split
I0621 11:47:34.206248  9364 net.cpp:406] conv5_prelu5_0_split <- conv5
I0621 11:47:34.206251  9364 net.cpp:380] conv5_prelu5_0_split -> conv5_prelu5_0_split_0
I0621 11:47:34.206256  9364 net.cpp:380] conv5_prelu5_0_split -> conv5_prelu5_0_split_1
I0621 11:47:34.206261  9364 net.cpp:380] conv5_prelu5_0_split -> conv5_prelu5_0_split_2
I0621 11:47:34.206291  9364 net.cpp:122] Setting up conv5_prelu5_0_split
I0621 11:47:34.206295  9364 net.cpp:129] Top shape: 64 256 (16384)
I0621 11:47:34.206300  9364 net.cpp:129] Top shape: 64 256 (16384)
I0621 11:47:34.206302  9364 net.cpp:129] Top shape: 64 256 (16384)
I0621 11:47:34.206305  9364 net.cpp:137] Memory required for data: 60206848
I0621 11:47:34.206307  9364 layer_factory.hpp:77] Creating layer conv6-1
I0621 11:47:34.206315  9364 net.cpp:84] Creating Layer conv6-1
I0621 11:47:34.206317  9364 net.cpp:406] conv6-1 <- conv5_prelu5_0_split_0
I0621 11:47:34.206321  9364 net.cpp:380] conv6-1 -> conv6-1
I0621 11:47:34.206388  9364 net.cpp:122] Setting up conv6-1
I0621 11:47:34.206393  9364 net.cpp:129] Top shape: 64 2 (128)
I0621 11:47:34.206396  9364 net.cpp:137] Memory required for data: 60207360
I0621 11:47:34.206403  9364 layer_factory.hpp:77] Creating layer cls_bridge
I0621 11:47:34.206444  9364 net.cpp:84] Creating Layer cls_bridge
I0621 11:47:34.206447  9364 net.cpp:406] cls_bridge <- conv6-1
I0621 11:47:34.206460  9364 net.cpp:406] cls_bridge <- label
I0621 11:47:34.206465  9364 net.cpp:380] cls_bridge -> conv6-1-valid
I0621 11:47:34.206471  9364 net.cpp:380] cls_bridge -> label-valid
I0621 11:47:34.206565  9364 net.cpp:122] Setting up cls_bridge
I0621 11:47:34.206573  9364 net.cpp:129] Top shape: 64 2 (128)
I0621 11:47:34.206576  9364 net.cpp:129] Top shape: 64 1 (64)
I0621 11:47:34.206578  9364 net.cpp:137] Memory required for data: 60208128
I0621 11:47:34.206581  9364 layer_factory.hpp:77] Creating layer conv6-1-valid_cls_bridge_0_split
I0621 11:47:34.206586  9364 net.cpp:84] Creating Layer conv6-1-valid_cls_bridge_0_split
I0621 11:47:34.206589  9364 net.cpp:406] conv6-1-valid_cls_bridge_0_split <- conv6-1-valid
I0621 11:47:34.206593  9364 net.cpp:380] conv6-1-valid_cls_bridge_0_split -> conv6-1-valid_cls_bridge_0_split_0
I0621 11:47:34.206599  9364 net.cpp:380] conv6-1-valid_cls_bridge_0_split -> conv6-1-valid_cls_bridge_0_split_1
I0621 11:47:34.206624  9364 net.cpp:122] Setting up conv6-1-valid_cls_bridge_0_split
I0621 11:47:34.206627  9364 net.cpp:129] Top shape: 64 2 (128)
I0621 11:47:34.206630  9364 net.cpp:129] Top shape: 64 2 (128)
I0621 11:47:34.206634  9364 net.cpp:137] Memory required for data: 60209152
I0621 11:47:34.206636  9364 layer_factory.hpp:77] Creating layer label-valid_cls_bridge_1_split
I0621 11:47:34.206640  9364 net.cpp:84] Creating Layer label-valid_cls_bridge_1_split
I0621 11:47:34.206642  9364 net.cpp:406] label-valid_cls_bridge_1_split <- label-valid
I0621 11:47:34.206647  9364 net.cpp:380] label-valid_cls_bridge_1_split -> label-valid_cls_bridge_1_split_0
I0621 11:47:34.206651  9364 net.cpp:380] label-valid_cls_bridge_1_split -> label-valid_cls_bridge_1_split_1
I0621 11:47:34.206673  9364 net.cpp:122] Setting up label-valid_cls_bridge_1_split
I0621 11:47:34.206677  9364 net.cpp:129] Top shape: 64 1 (64)
I0621 11:47:34.206681  9364 net.cpp:129] Top shape: 64 1 (64)
I0621 11:47:34.206684  9364 net.cpp:137] Memory required for data: 60209664
I0621 11:47:34.206686  9364 layer_factory.hpp:77] Creating layer ClassifyLoss
I0621 11:47:34.206691  9364 net.cpp:84] Creating Layer ClassifyLoss
I0621 11:47:34.206693  9364 net.cpp:406] ClassifyLoss <- conv6-1-valid_cls_bridge_0_split_0
I0621 11:47:34.206697  9364 net.cpp:406] ClassifyLoss <- label-valid_cls_bridge_1_split_0
…
