…
snapshot: 10000
snapshot_prefix: "./models/"
solver_mode: GPU
device_id: 0
net: "train12.prototxt"
train_state {
  level: 0
  stage: ""
}
I0612 10:39:51.569615  6160 solver.cpp:87] Creating training net from net file: train12.prototxt
I0612 10:39:51.569917  6160 net.cpp:51] Initializing net from parameters: 
name: "face_12c"
state {
  phase: TRAIN
  level: 0
  stage: ""
}
layer {
  name: "PythonLayer"
  type: "Python"
  top: "data"
  top: "label"
  top: "roi"
  top: "pts"
  python_param {
    module: "pythonLayer"
    layer: "Data_Layer_train"
  }
}
layer {
  name: "conv1"
  type: "Convolution"
  bottom: "data"
  top: "conv1"
  param {
    lr_mult: 1
    decay_mult: 1
  }
  param {
    lr_mult: 2
    decay_mult: 0
  }
  convolution_param {
    num_output: 10
    kernel_size: 3
    stride: 1
    weight_filler {
      type: "xavier"
    }
    bias_filler {
      type: "constant"
      value: 0
    }
  }
}
layer {
  name: "relu1"
  type: "PReLU"
  bottom: "conv1"
  top: "conv1"
}
layer {
  name: "pool1"
  type: "Pooling"
  bottom: "conv1"
  top: "pool1"
  pooling_param {
    pool: MAX
    kernel_size: 2
    stride: 2
  }
}
layer {
  name: "conv2"
  type: "Convolution"
  bottom: "pool1"
  top: "conv2"
  param {
    lr_mult: 1
    decay_mult: 1
  }
  param {
    lr_mult: 2
    decay_mult: 0
  }
  convolution_param {
    num_output: 16
    kernel_size: 3
    stride: 1
    weight_filler {
      type: "xavier"
    }
    bias_filler {
      type: "constant"
      value: 0
    }
  }
}
layer {
  name: "relu2"
  type: "PReLU"
  bottom: "conv2"
  top: "conv2"
}
layer {
  name: "conv3"
  type: "Convolution"
  bottom: "conv2"
  top: "conv3"
  param {
    lr_mult: 1
    decay_mult: 1
  }
  param {
    lr_mult: 2
    decay_mult: 0
  }
  convolution_param {
    num_output: 32
    kernel_size: 3
    stride: 1
    weight_filler {
      type: "xavier"
    }
    bias_filler {
      type: "constant"
      value: 0
    }
  }
}
layer {
  name: "relu3"
  type: "PReLU"
  bottom: "conv3"
  top: "conv3"
}
layer {
  name: "conv4-1"
  type: "Convolution"
  bottom: "conv3"
  top: "conv4-1"
  param {
    lr_mult: 1
    decay_mult: 1
  }
  param {
    lr_mult: 2
    decay_mult: 0
  }
  convolution_param {
    num_output: 2
    kernel_size: 1
    stride: 1
    weight_filler {
      type: "xavier"
    }
    bias_filler {
      type: "constant"
      value: 0
    }
  }
}
layer {
  name: "cls_bridge"
  type: "Python"
  bottom: "conv4-1"
  bottom: "label"
  top: "conv4-1-valid"
  top: "label-valid"
  python_param {
    module: "pythonLayer"
    layer: "cls_Layer_fc"
  }
}
layer {
  name: "cls_loss"
  type: "SoftmaxWithLoss"
  bottom: "conv4-1-valid"
  bottom: "label-valid"
  top: "cls_loss"
  loss_weight: 1
  propagate_down: true
  propagate_down: false
}
layer {
  name: "cls_Acc"
  type: "Accuracy"
  bottom: "conv4-1-valid"
  bottom: "label-valid"
  top: "cls_Acc"
  include {
    phase: TRAIN
  }
}
layer {
  name: "conv4-2"
  type: "Convolution"
  bottom: "conv3"
  top: "conv4-2"
  param {
    lr_mult: 1
    decay_mult: 1
  }
  param {
    lr_mult: 2
    decay_mult: 0
  }
  convolution_param {
    num_output: 4
    kernel_size: 1
    stride: 1
    weight_filler {
      type: "xavier"
    }
    bias_filler {
      type: "constant"
      value: 0
    }
  }
}
layer {
  name: "roi_loss"
  type: "Python"
  bottom: "conv4-2"
  bottom: "roi"
  top: "roi_loss"
  loss_weight: 0.5
  python_param {
    module: "pythonLayer"
    layer: "regression_Layer"
  }
}
layer {
  name: "conv4-3"
  type: "Convolution"
  bottom: "conv3"
  top: "conv4-3"
  param {
    lr_mult: 1
    decay_mult: 1
  }
  param {
    lr_mult: 2
    decay_mult: 0
  }
  convolution_param {
    num_output: 10
    kernel_size: 1
    stride: 1
    weight_filler {
      type: "xavier"
    }
    bias_filler {
      type: "constant"
      value: 0
    }
  }
}
layer {
  name: "pts_loss"
  type: "Python"
  bottom: "conv4-3"
  bottom: "pts"
  top: "pts_loss"
  loss_weight: 0.5
  python_param {
    module: "pythonLayer"
    layer: "regression_Layer"
  }
}
I0612 10:39:51.570158  6160 layer_factory.hpp:77] Creating layer PythonLayer
I0612 10:39:51.970806  6160 net.cpp:84] Creating Layer PythonLayer
I0612 10:39:51.970844  6160 net.cpp:380] PythonLayer -> data
I0612 10:39:51.970860  6160 net.cpp:380] PythonLayer -> label
I0612 10:39:51.970871  6160 net.cpp:380] PythonLayer -> roi
I0612 10:39:51.970890  6160 net.cpp:380] PythonLayer -> pts
Start Reading Classify Data into Memory...

788878  Classify Data have been read into Memory...
Start Reading Regression Data into Memory...

488878  Regression Data have been read into Memory...
Start Reading pts-regression Data into Memory...

202599  pts-regression Data have been read into Memory...
I0612 10:48:09.184084  6160 net.cpp:122] Setting up PythonLayer
I0612 10:48:09.185765  6160 net.cpp:129] Top shape: 64 3 12 12 (27648)
I0612 10:48:09.185773  6160 net.cpp:129] Top shape: 64 1 (64)
I0612 10:48:09.185791  6160 net.cpp:129] Top shape: 64 4 (256)
I0612 10:48:09.185796  6160 net.cpp:129] Top shape: 64 10 (640)
I0612 10:48:09.185798  6160 net.cpp:137] Memory required for data: 114432
I0612 10:48:09.185820  6160 layer_factory.hpp:77] Creating layer conv1
I0612 10:48:09.185865  6160 net.cpp:84] Creating Layer conv1
I0612 10:48:09.185871  6160 net.cpp:406] conv1 <- data
I0612 10:48:09.185895  6160 net.cpp:380] conv1 -> conv1
I0612 10:48:09.528915  6160 net.cpp:122] Setting up conv1
I0612 10:48:09.528950  6160 net.cpp:129] Top shape: 64 10 10 10 (64000)
I0612 10:48:09.528954  6160 net.cpp:137] Memory required for data: 370432
I0612 10:48:09.529002  6160 layer_factory.hpp:77] Creating layer relu1
I0612 10:48:09.529024  6160 net.cpp:84] Creating Layer relu1
I0612 10:48:09.529042  6160 net.cpp:406] relu1 <- conv1
I0612 10:48:09.529045  6160 net.cpp:367] relu1 -> conv1 (in-place)
I0612 10:48:09.529191  6160 net.cpp:122] Setting up relu1
I0612 10:48:09.529196  6160 net.cpp:129] Top shape: 64 10 10 10 (64000)
I0612 10:48:09.529197  6160 net.cpp:137] Memory required for data: 626432
I0612 10:48:09.529216  6160 layer_factory.hpp:77] Creating layer pool1
I0612 10:48:09.529220  6160 net.cpp:84] Creating Layer pool1
I0612 10:48:09.529238  6160 net.cpp:406] pool1 <- conv1
I0612 10:48:09.529242  6160 net.cpp:380] pool1 -> pool1
I0612 10:48:09.529314  6160 net.cpp:122] Setting up pool1
I0612 10:48:09.529319  6160 net.cpp:129] Top shape: 64 10 5 5 (16000)
I0612 10:48:09.529320  6160 net.cpp:137] Memory required for data: 690432
I0612 10:48:09.529322  6160 layer_factory.hpp:77] Creating layer conv2
I0612 10:48:09.529330  6160 net.cpp:84] Creating Layer conv2
I0612 10:48:09.529332  6160 net.cpp:406] conv2 <- pool1
I0612 10:48:09.529336  6160 net.cpp:380] conv2 -> conv2
I0612 10:48:09.530728  6160 net.cpp:122] Setting up conv2
I0612 10:48:09.530752  6160 net.cpp:129] Top shape: 64 16 3 3 (9216)
I0612 10:48:09.530755  6160 net.cpp:137] Memory required for data: 727296
I0612 10:48:09.530776  6160 layer_factory.hpp:77] Creating layer relu2
I0612 10:48:09.530781  6160 net.cpp:84] Creating Layer relu2
I0612 10:48:09.530799  6160 net.cpp:406] relu2 <- conv2
I0612 10:48:09.530803  6160 net.cpp:367] relu2 -> conv2 (in-place)
I0612 10:48:09.530884  6160 net.cpp:122] Setting up relu2
I0612 10:48:09.530901  6160 net.cpp:129] Top shape: 64 16 3 3 (9216)
I0612 10:48:09.530903  6160 net.cpp:137] Memory required for data: 764160
I0612 10:48:09.530907  6160 layer_factory.hpp:77] Creating layer conv3
I0612 10:48:09.530930  6160 net.cpp:84] Creating Layer conv3
I0612 10:48:09.530932  6160 net.cpp:406] conv3 <- conv2
I0612 10:48:09.530938  6160 net.cpp:380] conv3 -> conv3
I0612 10:48:09.532306  6160 net.cpp:122] Setting up conv3
I0612 10:48:09.532316  6160 net.cpp:129] Top shape: 64 32 1 1 (2048)
I0612 10:48:09.532333  6160 net.cpp:137] Memory required for data: 772352
I0612 10:48:09.532338  6160 layer_factory.hpp:77] Creating layer relu3
I0612 10:48:09.532344  6160 net.cpp:84] Creating Layer relu3
I0612 10:48:09.532348  6160 net.cpp:406] relu3 <- conv3
I0612 10:48:09.532352  6160 net.cpp:367] relu3 -> conv3 (in-place)
I0612 10:48:09.532416  6160 net.cpp:122] Setting up relu3
I0612 10:48:09.532421  6160 net.cpp:129] Top shape: 64 32 1 1 (2048)
I0612 10:48:09.532424  6160 net.cpp:137] Memory required for data: 780544
I0612 10:48:09.532443  6160 layer_factory.hpp:77] Creating layer conv3_relu3_0_split
I0612 10:48:09.532462  6160 net.cpp:84] Creating Layer conv3_relu3_0_split
I0612 10:48:09.532465  6160 net.cpp:406] conv3_relu3_0_split <- conv3
I0612 10:48:09.532471  6160 net.cpp:380] conv3_relu3_0_split -> conv3_relu3_0_split_0
I0612 10:48:09.532476  6160 net.cpp:380] conv3_relu3_0_split -> conv3_relu3_0_split_1
I0612 10:48:09.532481  6160 net.cpp:380] conv3_relu3_0_split -> conv3_relu3_0_split_2
I0612 10:48:09.532516  6160 net.cpp:122] Setting up conv3_relu3_0_split
I0612 10:48:09.532521  6160 net.cpp:129] Top shape: 64 32 1 1 (2048)
I0612 10:48:09.532543  6160 net.cpp:129] Top shape: 64 32 1 1 (2048)
I0612 10:48:09.532546  6160 net.cpp:129] Top shape: 64 32 1 1 (2048)
I0612 10:48:09.532549  6160 net.cpp:137] Memory required for data: 805120
I0612 10:48:09.532552  6160 layer_factory.hpp:77] Creating layer conv4-1
I0612 10:48:09.532559  6160 net.cpp:84] Creating Layer conv4-1
I0612 10:48:09.532563  6160 net.cpp:406] conv4-1 <- conv3_relu3_0_split_0
I0612 10:48:09.532583  6160 net.cpp:380] conv4-1 -> conv4-1
I0612 10:48:09.533728  6160 net.cpp:122] Setting up conv4-1
I0612 10:48:09.533736  6160 net.cpp:129] Top shape: 64 2 1 1 (128)
I0612 10:48:09.533753  6160 net.cpp:137] Memory required for data: 805632
I0612 10:48:09.533757  6160 layer_factory.hpp:77] Creating layer cls_bridge
I0612 10:48:09.533812  6160 net.cpp:84] Creating Layer cls_bridge
I0612 10:48:09.533818  6160 net.cpp:406] cls_bridge <- conv4-1
I0612 10:48:09.533835  6160 net.cpp:406] cls_bridge <- label
I0612 10:48:09.533838  6160 net.cpp:380] cls_bridge -> conv4-1-valid
I0612 10:48:09.533844  6160 net.cpp:380] cls_bridge -> label-valid
I0612 10:48:09.533963  6160 net.cpp:122] Setting up cls_bridge
I0612 10:48:09.533970  6160 net.cpp:129] Top shape: 64 2 1 1 (128)
I0612 10:48:09.533987  6160 net.cpp:129] Top shape: 64 1 (64)
I0612 10:48:09.533990  6160 net.cpp:137] Memory required for data: 806400
I0612 10:48:09.533993  6160 layer_factory.hpp:77] Creating layer conv4-1-valid_cls_bridge_0_split
I0612 10:48:09.533998  6160 net.cpp:84] Creating Layer conv4-1-valid_cls_bridge_0_split
I0612 10:48:09.534003  6160 net.cpp:406] conv4-1-valid_cls_bridge_0_split <- conv4-1-valid
I0612 10:48:09.534008  6160 net.cpp:380] conv4-1-valid_cls_bridge_0_split -> conv4-1-valid_cls_bridge_0_split_0
I0612 10:48:09.534025  6160 net.cpp:380] conv4-1-valid_cls_bridge_0_split -> conv4-1-valid_cls_bridge_0_split_1
I0612 10:48:09.534052  6160 net.cpp:122] Setting up conv4-1-valid_cls_bridge_0_split
I0612 10:48:09.534057  6160 net.cpp:129] Top shape: 64 2 1 1 (128)
I0612 10:48:09.534060  6160 net.cpp:129] Top shape: 64 2 1 1 (128)
I0612 10:48:09.534063  6160 net.cpp:137] Memory required for data: 807424
I0612 10:48:09.534065  6160 layer_factory.hpp:77] Creating layer label-valid_cls_bridge_1_split
I0612 10:48:09.534070  6160 net.cpp:84] Creating Layer label-valid_cls_bridge_1_split
I0612 10:48:09.534073  6160 net.cpp:406] label-valid_cls_bridge_1_split <- label-valid
I0612 10:48:09.534092  6160 net.cpp:380] label-valid_cls_bridge_1_split -> label-valid_cls_bridge_1_split_0
I0612 10:48:09.534099  6160 net.cpp:380] label-valid_cls_bridge_1_split -> label-valid_cls_bridge_1_split_1
I0612 10:48:09.534138  6160 net.cpp:122] Setting up label-valid_cls_bridge_1_split
I0612 10:48:09.534143  6160 net.cpp:129] Top shape: 64 1 (64)
I0612 10:48:09.534147  6160 net.cpp:129] Top shape: 64 1 (64)
I0612 10:48:09.534149  6160 net.cpp:137] Memory required for data: 807936
I0612 10:48:09.534152  6160 layer_factory.hpp:77] Creating layer cls_loss
I0612 10:48:09.534173  6160 net.cpp:84] Creating Layer cls_loss
I0612 10:48:09.534176  6160 net.cpp:406] cls_loss <- conv4-1-valid_cls_bridge_0_split_0
I0612 10:48:09.534184  6160 net.cpp:406] cls_loss <- label-valid_cls_bridge_1_split_0
I0612 10:48:09.534188  6160 net.cpp:380] cls_loss -> cls_loss
…
