…
snapshot: 5000
snapshot_prefix: "./models/"
solver_mode: GPU
device_id: 0
net: "train24.prototxt"
train_state {
  level: 0
  stage: ""
}
I0622 16:08:07.413101  5246 solver.cpp:87] Creating training net from net file: train24.prototxt
I0622 16:08:07.413426  5246 net.cpp:51] Initializing net from parameters: 
name: "face_24c"
state {
  phase: TRAIN
  level: 0
  stage: ""
}
layer {
  name: "PythonLayer"
  type: "Python"
  top: "data"
  top: "label"
  top: "roi"
  top: "pts"
  python_param {
    module: "pythonLayer"
    layer: "Data_Layer_train"
  }
}
layer {
  name: "conv1"
  type: "Convolution"
  bottom: "data"
  top: "conv1"
  param {
    lr_mult: 1
  }
  param {
    lr_mult: 2
  }
  convolution_param {
    num_output: 28
    kernel_size: 3
    stride: 1
    weight_filler {
      type: "xavier"
    }
    bias_filler {
      type: "constant"
      value: 0
    }
  }
}
layer {
  name: "prelu1"
  type: "PReLU"
  bottom: "conv1"
  top: "conv1"
}
layer {
  name: "pool1"
  type: "Pooling"
  bottom: "conv1"
  top: "pool1"
  pooling_param {
    pool: MAX
    kernel_size: 3
    stride: 2
  }
}
layer {
  name: "conv2"
  type: "Convolution"
  bottom: "pool1"
  top: "conv2"
  param {
    lr_mult: 1
  }
  param {
    lr_mult: 2
  }
  convolution_param {
    num_output: 48
    kernel_size: 3
    stride: 1
    weight_filler {
      type: "xavier"
    }
    bias_filler {
      type: "constant"
      value: 0
    }
  }
}
layer {
  name: "prelu2"
  type: "PReLU"
  bottom: "conv2"
  top: "conv2"
}
layer {
  name: "pool2"
  type: "Pooling"
  bottom: "conv2"
  top: "pool2"
  pooling_param {
    pool: MAX
    kernel_size: 3
    stride: 2
  }
}
layer {
  name: "conv3"
  type: "Convolution"
  bottom: "pool2"
  top: "conv3"
  param {
    lr_mult: 1
    decay_mult: 1
  }
  param {
    lr_mult: 2
    decay_mult: 0
  }
  convolution_param {
    num_output: 64
    kernel_size: 2
    stride: 1
    weight_filler {
      type: "xavier"
    }
    bias_filler {
      type: "constant"
      value: 0
    }
  }
}
layer {
  name: "prelu3"
  type: "PReLU"
  bottom: "conv3"
  top: "conv3"
}
layer {
  name: "conv4"
  type: "InnerProduct"
  bottom: "conv3"
  top: "conv4"
  param {
    lr_mult: 1
    decay_mult: 1
  }
  param {
    lr_mult: 2
    decay_mult: 0
  }
  inner_product_param {
    num_output: 128
    weight_filler {
      type: "xavier"
    }
    bias_filler {
      type: "constant"
      value: 0
    }
  }
}
layer {
  name: "prelu4"
  type: "PReLU"
  bottom: "conv4"
  top: "conv4"
}
layer {
  name: "conv5-1"
  type: "InnerProduct"
  bottom: "conv4"
  top: "conv5-1"
  param {
    lr_mult: 1
    decay_mult: 1
  }
  param {
    lr_mult: 2
    decay_mult: 0
  }
  inner_product_param {
    num_output: 2
    weight_filler {
      type: "xavier"
    }
    bias_filler {
      type: "constant"
      value: 0
    }
  }
}
layer {
  name: "cls_bridge"
  type: "Python"
  bottom: "conv5-1"
  bottom: "label"
  top: "conv5-1-valid"
  top: "label-valid"
  python_param {
    module: "pythonLayer"
    layer: "cls_Layer"
  }
}
layer {
  name: "cls_loss"
  type: "SoftmaxWithLoss"
  bottom: "conv5-1-valid"
  bottom: "label-valid"
  top: "cls_loss"
  loss_weight: 1
  propagate_down: true
  propagate_down: false
}
layer {
  name: "cls_acc"
  type: "Accuracy"
  bottom: "conv5-1-valid"
  bottom: "label-valid"
  top: "cls_acc"
  include {
    phase: TRAIN
  }
}
layer {
  name: "conv5-2"
  type: "InnerProduct"
  bottom: "conv4"
  top: "conv5-2"
  param {
    lr_mult: 1
    decay_mult: 1
  }
  param {
    lr_mult: 2
    decay_mult: 0
  }
  inner_product_param {
    num_output: 4
    weight_filler {
      type: "xavier"
    }
    bias_filler {
      type: "constant"
      value: 0
    }
  }
}
layer {
  name: "roi_bridge"
  type: "Python"
  bottom: "conv5-2"
  bottom: "roi"
  top: "conv5-2-valid"
  top: "roi-valid"
  propagate_down: true
  propagate_down: false
  python_param {
    module: "pythonLayer"
    layer: "roi_filter_Layer"
  }
}
layer {
  name: "roi_loss"
  type: "EuclideanLoss"
  bottom: "conv5-2-valid"
  bottom: "roi-valid"
  top: "roi_loss"
  loss_weight: 0.5
  propagate_down: true
  propagate_down: false
}
layer {
  name: "conv5-3"
  type: "InnerProduct"
  bottom: "conv4"
  top: "conv5-3"
  param {
    lr_mult: 1
    decay_mult: 1
  }
  param {
    lr_mult: 2
    decay_mult: 0
  }
  inner_product_param {
    num_output: 10
    weight_filler {
      type: "xavier"
    }
    bias_filler {
      type: "constant"
      value: 0
    }
  }
}
layer {
  name: "pts_bridge"
  type: "Python"
  bottom: "conv5-3"
  bottom: "pts"
  top: "conv5-3-valid"
  top: "pts-valid"
  propagate_down: true
  propagate_down: false
  python_param {
    module: "pythonLayer"
    layer: "pts_filter_Layer"
  }
}
layer {
  name: "pts_loss"
  type: "EuclideanLoss"
  bottom: "conv5-3-valid"
  bottom: "pts-valid"
  top: "pts_loss"
  loss_weight: 0.5
  propagate_down: true
  propagate_down: false
}
I0622 16:08:07.413702  5246 layer_factory.hpp:77] Creating layer PythonLayer
I0622 16:08:07.920182  5246 net.cpp:84] Creating Layer PythonLayer
I0622 16:08:07.920207  5246 net.cpp:380] PythonLayer -> data
I0622 16:08:07.920250  5246 net.cpp:380] PythonLayer -> label
I0622 16:08:07.920261  5246 net.cpp:380] PythonLayer -> roi
I0622 16:08:07.920267  5246 net.cpp:380] PythonLayer -> pts
Start Reading Classify Data into Memory...

80000  Classify Data have been read into Memory...
Start Reading Regression Data into Memory...

40000  Regression Data have been read into Memory...
Start Reading pts-regression Data into Memory...

40000  pts-regression Data have been read into Memory...
I0622 16:11:38.008424  5246 net.cpp:122] Setting up PythonLayer
I0622 16:11:38.008738  5246 net.cpp:129] Top shape: 64 3 24 24 (110592)
I0622 16:11:38.008746  5246 net.cpp:129] Top shape: 64 1 (64)
I0622 16:11:38.008750  5246 net.cpp:129] Top shape: 64 4 (256)
I0622 16:11:38.008754  5246 net.cpp:129] Top shape: 64 10 (640)
I0622 16:11:38.008756  5246 net.cpp:137] Memory required for data: 446208
I0622 16:11:38.008780  5246 layer_factory.hpp:77] Creating layer conv1
I0622 16:11:38.008798  5246 net.cpp:84] Creating Layer conv1
I0622 16:11:38.008818  5246 net.cpp:406] conv1 <- data
I0622 16:11:38.008827  5246 net.cpp:380] conv1 -> conv1
I0622 16:11:38.374814  5246 net.cpp:122] Setting up conv1
I0622 16:11:38.374852  5246 net.cpp:129] Top shape: 64 28 22 22 (867328)
I0622 16:11:38.374855  5246 net.cpp:137] Memory required for data: 3915520
I0622 16:11:38.374905  5246 layer_factory.hpp:77] Creating layer prelu1
I0622 16:11:38.374928  5246 net.cpp:84] Creating Layer prelu1
I0622 16:11:38.374944  5246 net.cpp:406] prelu1 <- conv1
I0622 16:11:38.374948  5246 net.cpp:367] prelu1 -> conv1 (in-place)
I0622 16:11:38.375609  5246 net.cpp:122] Setting up prelu1
I0622 16:11:38.375633  5246 net.cpp:129] Top shape: 64 28 22 22 (867328)
I0622 16:11:38.375636  5246 net.cpp:137] Memory required for data: 7384832
I0622 16:11:38.375658  5246 layer_factory.hpp:77] Creating layer pool1
I0622 16:11:38.375663  5246 net.cpp:84] Creating Layer pool1
I0622 16:11:38.375681  5246 net.cpp:406] pool1 <- conv1
I0622 16:11:38.375686  5246 net.cpp:380] pool1 -> pool1
I0622 16:11:38.375733  5246 net.cpp:122] Setting up pool1
I0622 16:11:38.375738  5246 net.cpp:129] Top shape: 64 28 11 11 (216832)
I0622 16:11:38.375741  5246 net.cpp:137] Memory required for data: 8252160
I0622 16:11:38.375743  5246 layer_factory.hpp:77] Creating layer conv2
I0622 16:11:38.375751  5246 net.cpp:84] Creating Layer conv2
I0622 16:11:38.375752  5246 net.cpp:406] conv2 <- pool1
I0622 16:11:38.375756  5246 net.cpp:380] conv2 -> conv2
I0622 16:11:38.376936  5246 net.cpp:122] Setting up conv2
I0622 16:11:38.376960  5246 net.cpp:129] Top shape: 64 48 9 9 (248832)
I0622 16:11:38.376962  5246 net.cpp:137] Memory required for data: 9247488
I0622 16:11:38.376984  5246 layer_factory.hpp:77] Creating layer prelu2
I0622 16:11:38.376988  5246 net.cpp:84] Creating Layer prelu2
I0622 16:11:38.377007  5246 net.cpp:406] prelu2 <- conv2
I0622 16:11:38.377012  5246 net.cpp:367] prelu2 -> conv2 (in-place)
I0622 16:11:38.377610  5246 net.cpp:122] Setting up prelu2
I0622 16:11:38.377619  5246 net.cpp:129] Top shape: 64 48 9 9 (248832)
I0622 16:11:38.377636  5246 net.cpp:137] Memory required for data: 10242816
I0622 16:11:38.377641  5246 layer_factory.hpp:77] Creating layer pool2
I0622 16:11:38.377646  5246 net.cpp:84] Creating Layer pool2
I0622 16:11:38.377650  5246 net.cpp:406] pool2 <- conv2
I0622 16:11:38.377655  5246 net.cpp:380] pool2 -> pool2
I0622 16:11:38.377694  5246 net.cpp:122] Setting up pool2
I0622 16:11:38.377713  5246 net.cpp:129] Top shape: 64 48 4 4 (49152)
I0622 16:11:38.377715  5246 net.cpp:137] Memory required for data: 10439424
I0622 16:11:38.377717  5246 layer_factory.hpp:77] Creating layer conv3
I0622 16:11:38.377723  5246 net.cpp:84] Creating Layer conv3
I0622 16:11:38.377725  5246 net.cpp:406] conv3 <- pool2
I0622 16:11:38.377729  5246 net.cpp:380] conv3 -> conv3
I0622 16:11:38.378906  5246 net.cpp:122] Setting up conv3
I0622 16:11:38.378916  5246 net.cpp:129] Top shape: 64 64 3 3 (36864)
I0622 16:11:38.378932  5246 net.cpp:137] Memory required for data: 10586880
I0622 16:11:38.378938  5246 layer_factory.hpp:77] Creating layer prelu3
I0622 16:11:38.378958  5246 net.cpp:84] Creating Layer prelu3
I0622 16:11:38.378960  5246 net.cpp:406] prelu3 <- conv3
I0622 16:11:38.378965  5246 net.cpp:367] prelu3 -> conv3 (in-place)
I0622 16:11:38.379041  5246 net.cpp:122] Setting up prelu3
I0622 16:11:38.379046  5246 net.cpp:129] Top shape: 64 64 3 3 (36864)
I0622 16:11:38.379048  5246 net.cpp:137] Memory required for data: 10734336
I0622 16:11:38.379053  5246 layer_factory.hpp:77] Creating layer conv4
I0622 16:11:38.379058  5246 net.cpp:84] Creating Layer conv4
I0622 16:11:38.379093  5246 net.cpp:406] conv4 <- conv3
I0622 16:11:38.379098  5246 net.cpp:380] conv4 -> conv4
I0622 16:11:38.379981  5246 net.cpp:122] Setting up conv4
I0622 16:11:38.379989  5246 net.cpp:129] Top shape: 64 128 (8192)
I0622 16:11:38.380005  5246 net.cpp:137] Memory required for data: 10767104
I0622 16:11:38.380010  5246 layer_factory.hpp:77] Creating layer prelu4
I0622 16:11:38.380029  5246 net.cpp:84] Creating Layer prelu4
I0622 16:11:38.380033  5246 net.cpp:406] prelu4 <- conv4
I0622 16:11:38.380038  5246 net.cpp:367] prelu4 -> conv4 (in-place)
I0622 16:11:38.380101  5246 net.cpp:122] Setting up prelu4
I0622 16:11:38.380106  5246 net.cpp:129] Top shape: 64 128 (8192)
I0622 16:11:38.380110  5246 net.cpp:137] Memory required for data: 10799872
I0622 16:11:38.380127  5246 layer_factory.hpp:77] Creating layer conv4_prelu4_0_split
I0622 16:11:38.380132  5246 net.cpp:84] Creating Layer conv4_prelu4_0_split
I0622 16:11:38.380136  5246 net.cpp:406] conv4_prelu4_0_split <- conv4
I0622 16:11:38.380139  5246 net.cpp:380] conv4_prelu4_0_split -> conv4_prelu4_0_split_0
I0622 16:11:38.380144  5246 net.cpp:380] conv4_prelu4_0_split -> conv4_prelu4_0_split_1
I0622 16:11:38.380149  5246 net.cpp:380] conv4_prelu4_0_split -> conv4_prelu4_0_split_2
I0622 16:11:38.380182  5246 net.cpp:122] Setting up conv4_prelu4_0_split
I0622 16:11:38.380198  5246 net.cpp:129] Top shape: 64 128 (8192)
I0622 16:11:38.380201  5246 net.cpp:129] Top shape: 64 128 (8192)
I0622 16:11:38.380219  5246 net.cpp:129] Top shape: 64 128 (8192)
I0622 16:11:38.380223  5246 net.cpp:137] Memory required for data: 10898176
I0622 16:11:38.380224  5246 layer_factory.hpp:77] Creating layer conv5-1
I0622 16:11:38.380229  5246 net.cpp:84] Creating Layer conv5-1
I0622 16:11:38.380233  5246 net.cpp:406] conv5-1 <- conv4_prelu4_0_split_0
I0622 16:11:38.380237  5246 net.cpp:380] conv5-1 -> conv5-1
I0622 16:11:38.380300  5246 net.cpp:122] Setting up conv5-1
I0622 16:11:38.380304  5246 net.cpp:129] Top shape: 64 2 (128)
I0622 16:11:38.380306  5246 net.cpp:137] Memory required for data: 10898688
I0622 16:11:38.380311  5246 layer_factory.hpp:77] Creating layer cls_bridge
I0622 16:11:38.380359  5246 net.cpp:84] Creating Layer cls_bridge
I0622 16:11:38.380364  5246 net.cpp:406] cls_bridge <- conv5-1
I0622 16:11:38.380367  5246 net.cpp:406] cls_bridge <- label
I0622 16:11:38.380373  5246 net.cpp:380] cls_bridge -> conv5-1-valid
I0622 16:11:38.380378  5246 net.cpp:380] cls_bridge -> label-valid
I0622 16:11:38.380476  5246 net.cpp:122] Setting up cls_bridge
I0622 16:11:38.380484  5246 net.cpp:129] Top shape: 64 2 (128)
I0622 16:11:38.380488  5246 net.cpp:129] Top shape: 64 1 (64)
I0622 16:11:38.380491  5246 net.cpp:137] Memory required for data: 10899456
I0622 16:11:38.380493  5246 layer_factory.hpp:77] Creating layer conv5-1-valid_cls_bridge_0_split
I0622 16:11:38.380498  5246 net.cpp:84] Creating Layer conv5-1-valid_cls_bridge_0_split
I0622 16:11:38.380502  5246 net.cpp:406] conv5-1-valid_cls_bridge_0_split <- conv5-1-valid
I0622 16:11:38.380507  5246 net.cpp:380] conv5-1-valid_cls_bridge_0_split -> conv5-1-valid_cls_bridge_0_split_0
I0622 16:11:38.380515  5246 net.cpp:380] conv5-1-valid_cls_bridge_0_split -> conv5-1-valid_cls_bridge_0_split_1
I0622 16:11:38.380538  5246 net.cpp:122] Setting up conv5-1-valid_cls_bridge_0_split
I0622 16:11:38.380543  5246 net.cpp:129] Top shape: 64 2 (128)
I0622 16:11:38.380548  5246 net.cpp:129] Top shape: 64 2 (128)
I0622 16:11:38.380549  5246 net.cpp:137] Memory required for data: 10900480
I0622 16:11:38.380553  5246 layer_factory.hpp:77] Creating layer label-valid_cls_bridge_1_split
I0622 16:11:38.380556  5246 net.cpp:84] Creating Layer label-valid_cls_bridge_1_split
I0622 16:11:38.380559  5246 net.cpp:406] label-valid_cls_bridge_1_split <- label-valid
I0622 16:11:38.380564  5246 net.cpp:380] label-valid_cls_bridge_1_split -> label-valid_cls_bridge_1_split_0
I0622 16:11:38.380569  5246 net.cpp:380] label-valid_cls_bridge_1_split -> label-valid_cls_bridge_1_split_1
I0622 16:11:38.380591  5246 net.cpp:122] Setting up label-valid_cls_bridge_1_split
I0622 16:11:38.380604  5246 net.cpp:129] Top shape: 64 1 (64)
I0622 16:11:38.380607  5246 net.cpp:129] Top shape: 64 1 (64)
I0622 16:11:38.380610  5246 net.cpp:137] Memory required for data: 10900992
I0622 16:11:38.380614  5246 layer_factory.hpp:77] Creating layer cls_loss
I0622 16:11:38.380620  5246 net.cpp:84] Creating Layer cls_loss
I0622 16:11:38.380623  5246 net.cpp:406] cls_loss <- conv5-1-valid_cls_bridge_0_split_0
I0622 16:11:38.380627  5246 net.cpp:406] cls_loss <- label-valid_cls_bridge_1_split_0
I0622 16:11:38.380632  5246 net.cpp:380] cls_loss -> cls_loss
…
I0622 16:11:38.380882  5246 net.cpp:380] cls_acc -> cls_acc
I0622 16:11:38.380889  5246 net.cpp:122] Setting up cls_acc
I0622 16:11:38.380894  5246 net.cpp:129] Top shape: (1)
I0622 16:11:38.380897  5246 net.cpp:137] Memory required for data: 10901000
I0622 16:11:38.380899  5246 layer_factory.hpp:77] Creating layer conv5-2
I0622 16:11:38.380904  5246 net.cpp:84] Creating Layer conv5-2
I0622 16:11:38.380908  5246 net.cpp:406] conv5-2 <- conv4_prelu4_0_split_1
I0622 16:11:38.380913  5246 net.cpp:380] conv5-2 -> conv5-2
I0622 16:11:38.380986  5246 net.cpp:122] Setting up conv5-2
I0622 16:11:38.380991  5246 net.cpp:129] Top shape: 64 4 (256)
I0622 16:11:38.380995  5246 net.cpp:137] Memory required for data: 10902024
I0622 16:11:38.381000  5246 layer_factory.hpp:77] Creating layer roi_bridge
I0622 16:11:38.381016  5246 net.cpp:84] Creating Layer roi_bridge
I0622 16:11:38.381021  5246 net.cpp:406] roi_bridge <- conv5-2
I0622 16:11:38.381024  5246 net.cpp:406] roi_bridge <- roi
I0622 16:11:38.381029  5246 net.cpp:380] roi_bridge -> conv5-2-valid
I0622 16:11:38.381034  5246 net.cpp:380] roi_bridge -> roi-valid
I0622 16:11:38.381099  5246 net.cpp:122] Setting up roi_bridge
I0622 16:11:38.381108  5246 net.cpp:129] Top shape: 64 4 (256)
I0622 16:11:38.381110  5246 net.cpp:129] Top shape: 64 4 (256)
I0622 16:11:38.381114  5246 net.cpp:137] Memory required for data: 10904072
I0622 16:11:38.381116  5246 layer_factory.hpp:77] Creating layer roi_loss
I0622 16:11:38.381121  5246 net.cpp:84] Creating Layer roi_loss
I0622 16:11:38.381124  5246 net.cpp:406] roi_loss <- conv5-2-valid
I0622 16:11:38.381129  5246 net.cpp:406] roi_loss <- roi-valid
I0622 16:11:38.381132  5246 net.cpp:380] roi_loss -> roi_loss
I0622 16:11:38.381157  5246 net.cpp:122] Setting up roi_loss
I0622 16:11:38.381161  5246 net.cpp:129] Top shape: (1)
I0622 16:11:38.381165  5246 net.cpp:132]     with loss weight 0.5
I0622 16:11:38.381170  5246 net.cpp:137] Memory required for data: 10904076
I0622 16:11:38.381172  5246 layer_factory.hpp:77] Creating layer conv5-3
I0622 16:11:38.381177  5246 net.cpp:84] Creating Layer conv5-3
I0622 16:11:38.381181  5246 net.cpp:406] conv5-3 <- conv4_prelu4_0_split_2
I0622 16:11:38.381186  5246 net.cpp:380] conv5-3 -> conv5-3
I0622 16:11:38.381261  5246 net.cpp:122] Setting up conv5-3
I0622 16:11:38.381266  5246 net.cpp:129] Top shape: 64 10 (640)
I0622 16:11:38.381269  5246 net.cpp:137] Memory required for data: 10906636
I0622 16:11:38.381276  5246 layer_factory.hpp:77] Creating layer pts_bridge
I0622 16:11:38.381291  5246 net.cpp:84] Creating Layer pts_bridge
I0622 16:11:38.381295  5246 net.cpp:406] pts_bridge <- conv5-3
I0622 16:11:38.381299  5246 net.cpp:406] pts_bridge <- pts
I0622 16:11:38.381302  5246 net.cpp:380] pts_bridge -> conv5-3-valid
I0622 16:11:38.381309  5246 net.cpp:380] pts_bridge -> pts-valid
I0622 16:11:38.381364  5246 net.cpp:122] Setting up pts_bridge
I0622 16:11:38.381377  5246 net.cpp:129] Top shape: 64 10 (640)
I0622 16:11:38.381381  5246 net.cpp:129] Top shape: 64 10 (640)
I0622 16:11:38.381384  5246 net.cpp:137] Memory required for data: 10911756
I0622 16:11:38.381386  5246 layer_factory.hpp:77] Creating layer pts_loss
I0622 16:11:38.381392  5246 net.cpp:84] Creating Layer pts_loss
I0622 16:11:38.381394  5246 net.cpp:406] pts_loss <- conv5-3-valid
I0622 16:11:38.381399  5246 net.cpp:406] pts_loss <- pts-valid
I0622 16:11:38.381402  5246 net.cpp:380] pts_loss -> pts_loss
…
