…
snapshot: 10000
snapshot_prefix: "./models/"
solver_mode: GPU
device_id: 0
net: "train12.prototxt"
train_state {
  level: 0
  stage: ""
}
I0608 14:38:27.576958 12431 solver.cpp:87] Creating training net from net file: train12.prototxt
I0608 14:38:27.577245 12431 net.cpp:51] Initializing net from parameters: 
name: "face_12c"
state {
  phase: TRAIN
  level: 0
  stage: ""
}
layer {
  name: "PythonLayer"
  type: "Python"
  top: "data"
  top: "label"
  top: "roi"
  top: "pts"
  python_param {
    module: "pythonLayer"
    layer: "Data_Layer_train"
  }
}
layer {
  name: "conv1"
  type: "Convolution"
  bottom: "data"
  top: "conv1"
  param {
    lr_mult: 1
  }
  param {
    lr_mult: 2
  }
  convolution_param {
    num_output: 10
    kernel_size: 3
    weight_filler {
      type: "gaussian"
      std: 0.0001
    }
    bias_filler {
      type: "constant"
    }
  }
}
layer {
  name: "relu1"
  type: "PReLU"
  bottom: "conv1"
  top: "conv1"
}
layer {
  name: "pool1"
  type: "Pooling"
  bottom: "conv1"
  top: "pool1"
  pooling_param {
    pool: MAX
    kernel_size: 3
    stride: 2
  }
}
layer {
  name: "conv2"
  type: "Convolution"
  bottom: "pool1"
  top: "conv2"
  param {
    lr_mult: 1
  }
  param {
    lr_mult: 2
  }
  convolution_param {
    num_output: 16
    kernel_size: 3
    weight_filler {
      type: "gaussian"
      std: 0.0001
    }
    bias_filler {
      type: "constant"
    }
  }
}
layer {
  name: "relu2"
  type: "PReLU"
  bottom: "conv2"
  top: "conv2"
}
layer {
  name: "conv3"
  type: "Convolution"
  bottom: "conv2"
  top: "conv3"
  param {
    lr_mult: 1
    decay_mult: 1
  }
  param {
    lr_mult: 2
    decay_mult: 0
  }
  convolution_param {
    num_output: 32
    kernel_size: 3
    stride: 1
    weight_filler {
      type: "xavier"
    }
    bias_filler {
      type: "constant"
      value: 0
    }
  }
}
layer {
  name: "relu3"
  type: "PReLU"
  bottom: "conv3"
  top: "conv3"
}
layer {
  name: "conv4-1"
  type: "Convolution"
  bottom: "conv3"
  top: "conv4-1"
  param {
    lr_mult: 1
    decay_mult: 1
  }
  param {
    lr_mult: 2
    decay_mult: 0
  }
  convolution_param {
    num_output: 2
    kernel_size: 1
    stride: 1
    weight_filler {
      type: "xavier"
    }
    bias_filler {
      type: "constant"
      value: 0
    }
  }
}
layer {
  name: "cls_bridge"
  type: "Python"
  bottom: "conv4-1"
  bottom: "label"
  top: "conv4-1-valid"
  top: "label-valid"
  python_param {
    module: "pythonLayer"
    layer: "cls_Layer_fc"
  }
}
layer {
  name: "cls_loss"
  type: "SoftmaxWithLoss"
  bottom: "conv4-1-valid"
  bottom: "label-valid"
  top: "cls_loss"
  loss_weight: 1
  propagate_down: true
  propagate_down: false
}
layer {
  name: "cls_Acc"
  type: "Accuracy"
  bottom: "conv4-1-valid"
  bottom: "label-valid"
  top: "cls_Acc"
  include {
    phase: TRAIN
  }
}
layer {
  name: "conv4-2"
  type: "Convolution"
  bottom: "conv3"
  top: "conv4-2"
  param {
    lr_mult: 1
    decay_mult: 1
  }
  param {
    lr_mult: 2
    decay_mult: 0
  }
  convolution_param {
    num_output: 4
    kernel_size: 1
    stride: 1
    weight_filler {
      type: "xavier"
    }
    bias_filler {
      type: "constant"
      value: 0
    }
  }
}
layer {
  name: "roi_loss"
  type: "Python"
  bottom: "conv4-2"
  bottom: "roi"
  top: "roi_loss"
  loss_weight: 0.5
  python_param {
    module: "pythonLayer"
    layer: "regression_Layer"
  }
}
layer {
  name: "conv4-3"
  type: "Convolution"
  bottom: "conv3"
  top: "conv4-3"
  param {
    lr_mult: 1
    decay_mult: 1
  }
  param {
    lr_mult: 2
    decay_mult: 0
  }
  convolution_param {
    num_output: 10
    kernel_size: 1
    stride: 1
    weight_filler {
      type: "xavier"
    }
    bias_filler {
      type: "constant"
      value: 0
    }
  }
}
layer {
  name: "pts_loss"
  type: "Python"
  bottom: "conv4-3"
  bottom: "pts"
  top: "pts_loss"
  loss_weight: 0.5
  python_param {
    module: "pythonLayer"
    layer: "regression_Layer"
  }
}
I0608 14:38:27.577474 12431 layer_factory.hpp:77] Creating layer PythonLayer
I0608 14:38:28.005544 12431 net.cpp:84] Creating Layer PythonLayer
I0608 14:38:28.005583 12431 net.cpp:380] PythonLayer -> data
I0608 14:38:28.005612 12431 net.cpp:380] PythonLayer -> label
I0608 14:38:28.005632 12431 net.cpp:380] PythonLayer -> roi
I0608 14:38:28.005638 12431 net.cpp:380] PythonLayer -> pts
Start Reading Classify Data into Memory...

788878  Classify Data have been read into Memory...
Start Reading Regression Data into Memory...

488878  Regression Data have been read into Memory...
Start Reading pts-regression Data into Memory...

202599  pts-regression Data have been read into Memory...
I0608 14:47:02.364038 12431 net.cpp:122] Setting up PythonLayer
I0608 14:47:02.365310 12431 net.cpp:129] Top shape: 64 3 12 12 (27648)
I0608 14:47:02.365319 12431 net.cpp:129] Top shape: 64 1 (64)
I0608 14:47:02.365324 12431 net.cpp:129] Top shape: 64 4 (256)
I0608 14:47:02.365329 12431 net.cpp:129] Top shape: 64 10 (640)
I0608 14:47:02.365331 12431 net.cpp:137] Memory required for data: 114432
I0608 14:47:02.365345 12431 layer_factory.hpp:77] Creating layer conv1
I0608 14:47:02.365372 12431 net.cpp:84] Creating Layer conv1
I0608 14:47:02.365381 12431 net.cpp:406] conv1 <- data
I0608 14:47:02.365396 12431 net.cpp:380] conv1 -> conv1
I0608 14:47:02.794782 12431 net.cpp:122] Setting up conv1
I0608 14:47:02.794831 12431 net.cpp:129] Top shape: 64 10 10 10 (64000)
I0608 14:47:02.794836 12431 net.cpp:137] Memory required for data: 370432
I0608 14:47:02.798321 12431 layer_factory.hpp:77] Creating layer relu1
I0608 14:47:02.799063 12431 net.cpp:84] Creating Layer relu1
I0608 14:47:02.799088 12431 net.cpp:406] relu1 <- conv1
I0608 14:47:02.799093 12431 net.cpp:367] relu1 -> conv1 (in-place)
I0608 14:47:02.800917 12431 net.cpp:122] Setting up relu1
I0608 14:47:02.800936 12431 net.cpp:129] Top shape: 64 10 10 10 (64000)
I0608 14:47:02.800942 12431 net.cpp:137] Memory required for data: 626432
I0608 14:47:02.800952 12431 layer_factory.hpp:77] Creating layer pool1
I0608 14:47:02.801198 12431 net.cpp:84] Creating Layer pool1
I0608 14:47:02.801205 12431 net.cpp:406] pool1 <- conv1
I0608 14:47:02.801224 12431 net.cpp:380] pool1 -> pool1
I0608 14:47:02.801970 12431 net.cpp:122] Setting up pool1
I0608 14:47:02.801988 12431 net.cpp:129] Top shape: 64 10 5 5 (16000)
I0608 14:47:02.801993 12431 net.cpp:137] Memory required for data: 690432
I0608 14:47:02.802000 12431 layer_factory.hpp:77] Creating layer conv2
I0608 14:47:02.802016 12431 net.cpp:84] Creating Layer conv2
I0608 14:47:02.802021 12431 net.cpp:406] conv2 <- pool1
I0608 14:47:02.802029 12431 net.cpp:380] conv2 -> conv2
I0608 14:47:02.804273 12431 net.cpp:122] Setting up conv2
I0608 14:47:02.804293 12431 net.cpp:129] Top shape: 64 16 3 3 (9216)
I0608 14:47:02.804309 12431 net.cpp:137] Memory required for data: 727296
I0608 14:47:02.804321 12431 layer_factory.hpp:77] Creating layer relu2
I0608 14:47:02.804327 12431 net.cpp:84] Creating Layer relu2
I0608 14:47:02.804330 12431 net.cpp:406] relu2 <- conv2
I0608 14:47:02.804334 12431 net.cpp:367] relu2 -> conv2 (in-place)
I0608 14:47:02.804412 12431 net.cpp:122] Setting up relu2
I0608 14:47:02.804419 12431 net.cpp:129] Top shape: 64 16 3 3 (9216)
I0608 14:47:02.804433 12431 net.cpp:137] Memory required for data: 764160
I0608 14:47:02.804440 12431 layer_factory.hpp:77] Creating layer conv3
I0608 14:47:02.804448 12431 net.cpp:84] Creating Layer conv3
I0608 14:47:02.804451 12431 net.cpp:406] conv3 <- conv2
I0608 14:47:02.804455 12431 net.cpp:380] conv3 -> conv3
I0608 14:47:02.807687 12431 net.cpp:122] Setting up conv3
I0608 14:47:02.807711 12431 net.cpp:129] Top shape: 64 32 1 1 (2048)
I0608 14:47:02.807715 12431 net.cpp:137] Memory required for data: 772352
I0608 14:47:02.807724 12431 layer_factory.hpp:77] Creating layer relu3
I0608 14:47:02.807732 12431 net.cpp:84] Creating Layer relu3
I0608 14:47:02.807736 12431 net.cpp:406] relu3 <- conv3
I0608 14:47:02.807742 12431 net.cpp:367] relu3 -> conv3 (in-place)
I0608 14:47:02.807823 12431 net.cpp:122] Setting up relu3
I0608 14:47:02.807828 12431 net.cpp:129] Top shape: 64 32 1 1 (2048)
I0608 14:47:02.807832 12431 net.cpp:137] Memory required for data: 780544
I0608 14:47:02.807838 12431 layer_factory.hpp:77] Creating layer conv3_relu3_0_split
I0608 14:47:02.808032 12431 net.cpp:84] Creating Layer conv3_relu3_0_split
I0608 14:47:02.808037 12431 net.cpp:406] conv3_relu3_0_split <- conv3
I0608 14:47:02.808043 12431 net.cpp:380] conv3_relu3_0_split -> conv3_relu3_0_split_0
I0608 14:47:02.808063 12431 net.cpp:380] conv3_relu3_0_split -> conv3_relu3_0_split_1
I0608 14:47:02.808068 12431 net.cpp:380] conv3_relu3_0_split -> conv3_relu3_0_split_2
I0608 14:47:02.808594 12431 net.cpp:122] Setting up conv3_relu3_0_split
I0608 14:47:02.808600 12431 net.cpp:129] Top shape: 64 32 1 1 (2048)
I0608 14:47:02.808639 12431 net.cpp:129] Top shape: 64 32 1 1 (2048)
I0608 14:47:02.808655 12431 net.cpp:129] Top shape: 64 32 1 1 (2048)
I0608 14:47:02.808657 12431 net.cpp:137] Memory required for data: 805120
I0608 14:47:02.808660 12431 layer_factory.hpp:77] Creating layer conv4-1
I0608 14:47:02.808682 12431 net.cpp:84] Creating Layer conv4-1
I0608 14:47:02.808686 12431 net.cpp:406] conv4-1 <- conv3_relu3_0_split_0
I0608 14:47:02.808691 12431 net.cpp:380] conv4-1 -> conv4-1
I0608 14:47:02.810199 12431 net.cpp:122] Setting up conv4-1
I0608 14:47:02.810223 12431 net.cpp:129] Top shape: 64 2 1 1 (128)
I0608 14:47:02.810225 12431 net.cpp:137] Memory required for data: 805632
I0608 14:47:02.810231 12431 layer_factory.hpp:77] Creating layer cls_bridge
I0608 14:47:02.814617 12431 net.cpp:84] Creating Layer cls_bridge
I0608 14:47:02.814625 12431 net.cpp:406] cls_bridge <- conv4-1
I0608 14:47:02.814643 12431 net.cpp:406] cls_bridge <- label
I0608 14:47:02.814649 12431 net.cpp:380] cls_bridge -> conv4-1-valid
I0608 14:47:02.814656 12431 net.cpp:380] cls_bridge -> label-valid
I0608 14:47:02.823253 12431 net.cpp:122] Setting up cls_bridge
I0608 14:47:02.823288 12431 net.cpp:129] Top shape: 64 2 1 1 (128)
I0608 14:47:02.823292 12431 net.cpp:129] Top shape: 64 1 (64)
I0608 14:47:02.823295 12431 net.cpp:137] Memory required for data: 806400
I0608 14:47:02.823299 12431 layer_factory.hpp:77] Creating layer conv4-1-valid_cls_bridge_0_split
I0608 14:47:02.823308 12431 net.cpp:84] Creating Layer conv4-1-valid_cls_bridge_0_split
I0608 14:47:02.823312 12431 net.cpp:406] conv4-1-valid_cls_bridge_0_split <- conv4-1-valid
I0608 14:47:02.823318 12431 net.cpp:380] conv4-1-valid_cls_bridge_0_split -> conv4-1-valid_cls_bridge_0_split_0
I0608 14:47:02.823324 12431 net.cpp:380] conv4-1-valid_cls_bridge_0_split -> conv4-1-valid_cls_bridge_0_split_1
I0608 14:47:02.823355 12431 net.cpp:122] Setting up conv4-1-valid_cls_bridge_0_split
I0608 14:47:02.823359 12431 net.cpp:129] Top shape: 64 2 1 1 (128)
I0608 14:47:02.823361 12431 net.cpp:129] Top shape: 64 2 1 1 (128)
I0608 14:47:02.823364 12431 net.cpp:137] Memory required for data: 807424
I0608 14:47:02.823366 12431 layer_factory.hpp:77] Creating layer label-valid_cls_bridge_1_split
I0608 14:47:02.823369 12431 net.cpp:84] Creating Layer label-valid_cls_bridge_1_split
I0608 14:47:02.823371 12431 net.cpp:406] label-valid_cls_bridge_1_split <- label-valid
I0608 14:47:02.823375 12431 net.cpp:380] label-valid_cls_bridge_1_split -> label-valid_cls_bridge_1_split_0
I0608 14:47:02.823382 12431 net.cpp:380] label-valid_cls_bridge_1_split -> label-valid_cls_bridge_1_split_1
I0608 14:47:02.823406 12431 net.cpp:122] Setting up label-valid_cls_bridge_1_split
I0608 14:47:02.823410 12431 net.cpp:129] Top shape: 64 1 (64)
I0608 14:47:02.823413 12431 net.cpp:129] Top shape: 64 1 (64)
I0608 14:47:02.823415 12431 net.cpp:137] Memory required for data: 807936
I0608 14:47:02.823417 12431 layer_factory.hpp:77] Creating layer cls_loss
I0608 14:47:02.823421 12431 net.cpp:84] Creating Layer cls_loss
I0608 14:47:02.823424 12431 net.cpp:406] cls_loss <- conv4-1-valid_cls_bridge_0_split_0
I0608 14:47:02.823427 12431 net.cpp:406] cls_loss <- label-valid_cls_bridge_1_split_0
I0608 14:47:02.823431 12431 net.cpp:380] cls_loss -> cls_loss
…
