…
snapshot: 5000
snapshot_prefix: "./models/48net"
solver_mode: GPU
device_id: 0
net: "train48.prototxt"
train_state {
  level: 0
  stage: ""
}
I0621 13:05:15.122172 10834 solver.cpp:87] Creating training net from net file: train48.prototxt
I0621 13:05:15.122481 10834 net.cpp:51] Initializing net from parameters: 
name: "face_48"
state {
  phase: TRAIN
  level: 0
  stage: ""
}
layer {
  name: "PythonLayer"
  type: "Python"
  top: "data"
  top: "label"
  top: "roi"
  top: "pts"
  python_param {
    module: "pythonLayer"
    layer: "Data_Layer_train"
  }
}
layer {
  name: "conv1"
  type: "Convolution"
  bottom: "data"
  top: "conv1"
  param {
    lr_mult: 1
    decay_mult: 1
  }
  param {
    lr_mult: 2
    decay_mult: 1
  }
  convolution_param {
    num_output: 32
    kernel_size: 3
    stride: 1
    weight_filler {
      type: "xavier"
    }
    bias_filler {
      type: "constant"
      value: 0
    }
  }
}
layer {
  name: "prelu1"
  type: "PReLU"
  bottom: "conv1"
  top: "conv1"
}
layer {
  name: "pool1"
  type: "Pooling"
  bottom: "conv1"
  top: "pool1"
  pooling_param {
    pool: MAX
    kernel_size: 3
    stride: 2
  }
}
layer {
  name: "conv2"
  type: "Convolution"
  bottom: "pool1"
  top: "conv2"
  param {
    lr_mult: 1
    decay_mult: 1
  }
  param {
    lr_mult: 2
    decay_mult: 1
  }
  convolution_param {
    num_output: 64
    kernel_size: 3
    stride: 1
    weight_filler {
      type: "xavier"
    }
    bias_filler {
      type: "constant"
      value: 0
    }
  }
}
layer {
  name: "prelu2"
  type: "PReLU"
  bottom: "conv2"
  top: "conv2"
}
layer {
  name: "pool2"
  type: "Pooling"
  bottom: "conv2"
  top: "pool2"
  pooling_param {
    pool: MAX
    kernel_size: 3
    stride: 2
  }
}
layer {
  name: "conv3"
  type: "Convolution"
  bottom: "pool2"
  top: "conv3"
  param {
    lr_mult: 1
    decay_mult: 1
  }
  param {
    lr_mult: 2
    decay_mult: 1
  }
  convolution_param {
    num_output: 64
    kernel_size: 3
    weight_filler {
      type: "xavier"
    }
    bias_filler {
      type: "constant"
      value: 0
    }
  }
}
layer {
  name: "prelu3"
  type: "PReLU"
  bottom: "conv3"
  top: "conv3"
}
layer {
  name: "pool3"
  type: "Pooling"
  bottom: "conv3"
  top: "pool3"
  pooling_param {
    pool: MAX
    kernel_size: 2
    stride: 2
  }
}
layer {
  name: "conv4"
  type: "Convolution"
  bottom: "pool3"
  top: "conv4"
  param {
    lr_mult: 1
    decay_mult: 1
  }
  param {
    lr_mult: 2
    decay_mult: 1
  }
  convolution_param {
    num_output: 128
    kernel_size: 2
    stride: 1
    weight_filler {
      type: "xavier"
    }
    bias_filler {
      type: "constant"
      value: 0
    }
  }
}
layer {
  name: "prelu4"
  type: "PReLU"
  bottom: "conv4"
  top: "conv4"
}
layer {
  name: "conv5"
  type: "InnerProduct"
  bottom: "conv4"
  top: "conv5"
  param {
    lr_mult: 1
    decay_mult: 1
  }
  param {
    lr_mult: 2
    decay_mult: 1
  }
  inner_product_param {
    num_output: 256
    weight_filler {
      type: "xavier"
    }
    bias_filler {
      type: "constant"
      value: 0
    }
  }
}
layer {
  name: "drop5"
  type: "Dropout"
  bottom: "conv5"
  top: "conv5"
  dropout_param {
    dropout_ratio: 0.25
  }
}
layer {
  name: "prelu5"
  type: "PReLU"
  bottom: "conv5"
  top: "conv5"
}
layer {
  name: "conv6-1"
  type: "InnerProduct"
  bottom: "conv5"
  top: "conv6-1"
  param {
    lr_mult: 1
    decay_mult: 1
  }
  param {
    lr_mult: 2
    decay_mult: 1
  }
  inner_product_param {
    num_output: 2
    weight_filler {
      type: "xavier"
    }
    bias_filler {
      type: "constant"
      value: 0
    }
  }
}
layer {
  name: "cls_bridge"
  type: "Python"
  bottom: "conv6-1"
  bottom: "label"
  top: "conv6-1-valid"
  top: "label-valid"
  python_param {
    module: "pythonLayer"
    layer: "cls_Layer"
  }
}
layer {
  name: "ClassifyLoss"
  type: "SoftmaxWithLoss"
  bottom: "conv6-1-valid"
  bottom: "label-valid"
  top: "ClassifyLoss"
  loss_weight: 1
  propagate_down: true
  propagate_down: false
}
layer {
  name: "cls_Acc"
  type: "Accuracy"
  bottom: "conv6-1-valid"
  bottom: "label-valid"
  top: "cls_Acc"
  include {
    phase: TRAIN
  }
}
layer {
  name: "conv6-2"
  type: "InnerProduct"
  bottom: "conv5"
  top: "conv6-2"
  param {
    lr_mult: 1
    decay_mult: 1
  }
  param {
    lr_mult: 2
    decay_mult: 1
  }
  inner_product_param {
    num_output: 4
    weight_filler {
      type: "xavier"
    }
    bias_filler {
      type: "constant"
      value: 0
    }
  }
}
layer {
  name: "RegressionLoss"
  type: "Python"
  bottom: "conv6-2"
  bottom: "roi"
  top: "RegressionLoss"
  loss_weight: 0.5
  python_param {
    module: "pythonLayer"
    layer: "regression_Layer"
  }
}
layer {
  name: "conv6-3"
  type: "InnerProduct"
  bottom: "conv5"
  top: "conv6-3"
  param {
    lr_mult: 1
    decay_mult: 1
  }
  param {
    lr_mult: 2
    decay_mult: 1
  }
  inner_product_param {
    num_output: 10
    weight_filler {
      type: "xavier"
    }
    bias_filler {
      type: "constant"
      value: 0
    }
  }
}
layer {
  name: "LandmarkLoss"
  type: "Python"
  bottom: "conv6-3"
  bottom: "pts"
  top: "LandmarkLoss"
  loss_weight: 1
  python_param {
    module: "pythonLayer"
    layer: "regression_Layer"
  }
}
I0621 13:05:15.122738 10834 layer_factory.hpp:77] Creating layer PythonLayer
I0621 13:05:15.534325 10834 net.cpp:84] Creating Layer PythonLayer
I0621 13:05:15.534349 10834 net.cpp:380] PythonLayer -> data
I0621 13:05:15.534364 10834 net.cpp:380] PythonLayer -> label
I0621 13:05:15.534373 10834 net.cpp:380] PythonLayer -> roi
I0621 13:05:15.534377 10834 net.cpp:380] PythonLayer -> pts
Start Reading Classify Data into Memory...

20000  Classify Data have been read into Memory...
Start Reading Regression Data into Memory...

15000  Regression Data have been read into Memory...
Start Reading pts-regression Data into Memory...

10000  pts-regression Data have been read into Memory...
I0621 13:09:05.469251 10834 net.cpp:122] Setting up PythonLayer
I0621 13:09:05.471143 10834 net.cpp:129] Top shape: 64 3 48 48 (442368)
I0621 13:09:05.471151 10834 net.cpp:129] Top shape: 64 1 (64)
I0621 13:09:05.471154 10834 net.cpp:129] Top shape: 64 4 (256)
I0621 13:09:05.471156 10834 net.cpp:129] Top shape: 64 10 (640)
I0621 13:09:05.471158 10834 net.cpp:137] Memory required for data: 1773312
I0621 13:09:05.471171 10834 layer_factory.hpp:77] Creating layer conv1
I0621 13:09:05.471197 10834 net.cpp:84] Creating Layer conv1
I0621 13:09:05.471204 10834 net.cpp:406] conv1 <- data
I0621 13:09:05.471218 10834 net.cpp:380] conv1 -> conv1
I0621 13:09:05.808024 10834 net.cpp:122] Setting up conv1
I0621 13:09:05.808061 10834 net.cpp:129] Top shape: 64 32 46 46 (4333568)
I0621 13:09:05.808066 10834 net.cpp:137] Memory required for data: 19107584
I0621 13:09:05.808104 10834 layer_factory.hpp:77] Creating layer prelu1
I0621 13:09:05.808127 10834 net.cpp:84] Creating Layer prelu1
I0621 13:09:05.808145 10834 net.cpp:406] prelu1 <- conv1
I0621 13:09:05.808151 10834 net.cpp:367] prelu1 -> conv1 (in-place)
I0621 13:09:05.808784 10834 net.cpp:122] Setting up prelu1
I0621 13:09:05.808807 10834 net.cpp:129] Top shape: 64 32 46 46 (4333568)
I0621 13:09:05.808810 10834 net.cpp:137] Memory required for data: 36441856
I0621 13:09:05.808831 10834 layer_factory.hpp:77] Creating layer pool1
I0621 13:09:05.808837 10834 net.cpp:84] Creating Layer pool1
I0621 13:09:05.808841 10834 net.cpp:406] pool1 <- conv1
I0621 13:09:05.808845 10834 net.cpp:380] pool1 -> pool1
I0621 13:09:05.808881 10834 net.cpp:122] Setting up pool1
I0621 13:09:05.808887 10834 net.cpp:129] Top shape: 64 32 23 23 (1083392)
I0621 13:09:05.808889 10834 net.cpp:137] Memory required for data: 40775424
I0621 13:09:05.808892 10834 layer_factory.hpp:77] Creating layer conv2
I0621 13:09:05.808899 10834 net.cpp:84] Creating Layer conv2
I0621 13:09:05.808902 10834 net.cpp:406] conv2 <- pool1
I0621 13:09:05.808908 10834 net.cpp:380] conv2 -> conv2
I0621 13:09:05.810592 10834 net.cpp:122] Setting up conv2
I0621 13:09:05.810602 10834 net.cpp:129] Top shape: 64 64 21 21 (1806336)
I0621 13:09:05.810619 10834 net.cpp:137] Memory required for data: 48000768
I0621 13:09:05.810626 10834 layer_factory.hpp:77] Creating layer prelu2
I0621 13:09:05.810631 10834 net.cpp:84] Creating Layer prelu2
I0621 13:09:05.810634 10834 net.cpp:406] prelu2 <- conv2
I0621 13:09:05.810638 10834 net.cpp:367] prelu2 -> conv2 (in-place)
I0621 13:09:05.810753 10834 net.cpp:122] Setting up prelu2
I0621 13:09:05.810758 10834 net.cpp:129] Top shape: 64 64 21 21 (1806336)
I0621 13:09:05.810775 10834 net.cpp:137] Memory required for data: 55226112
I0621 13:09:05.810778 10834 layer_factory.hpp:77] Creating layer pool2
I0621 13:09:05.810797 10834 net.cpp:84] Creating Layer pool2
I0621 13:09:05.810801 10834 net.cpp:406] pool2 <- conv2
I0621 13:09:05.810804 10834 net.cpp:380] pool2 -> pool2
I0621 13:09:05.810844 10834 net.cpp:122] Setting up pool2
I0621 13:09:05.810849 10834 net.cpp:129] Top shape: 64 64 10 10 (409600)
I0621 13:09:05.810852 10834 net.cpp:137] Memory required for data: 56864512
I0621 13:09:05.810854 10834 layer_factory.hpp:77] Creating layer conv3
I0621 13:09:05.810873 10834 net.cpp:84] Creating Layer conv3
I0621 13:09:05.810875 10834 net.cpp:406] conv3 <- pool2
I0621 13:09:05.810879 10834 net.cpp:380] conv3 -> conv3
I0621 13:09:05.811875 10834 net.cpp:122] Setting up conv3
I0621 13:09:05.811884 10834 net.cpp:129] Top shape: 64 64 8 8 (262144)
I0621 13:09:05.811902 10834 net.cpp:137] Memory required for data: 57913088
I0621 13:09:05.811906 10834 layer_factory.hpp:77] Creating layer prelu3
I0621 13:09:05.811926 10834 net.cpp:84] Creating Layer prelu3
I0621 13:09:05.811929 10834 net.cpp:406] prelu3 <- conv3
I0621 13:09:05.811933 10834 net.cpp:367] prelu3 -> conv3 (in-place)
I0621 13:09:05.812002 10834 net.cpp:122] Setting up prelu3
I0621 13:09:05.812019 10834 net.cpp:129] Top shape: 64 64 8 8 (262144)
I0621 13:09:05.812021 10834 net.cpp:137] Memory required for data: 58961664
I0621 13:09:05.812041 10834 layer_factory.hpp:77] Creating layer pool3
I0621 13:09:05.812046 10834 net.cpp:84] Creating Layer pool3
I0621 13:09:05.812077 10834 net.cpp:406] pool3 <- conv3
I0621 13:09:05.812083 10834 net.cpp:380] pool3 -> pool3
I0621 13:09:05.812121 10834 net.cpp:122] Setting up pool3
I0621 13:09:05.812125 10834 net.cpp:129] Top shape: 64 64 4 4 (65536)
I0621 13:09:05.812142 10834 net.cpp:137] Memory required for data: 59223808
I0621 13:09:05.812144 10834 layer_factory.hpp:77] Creating layer conv4
I0621 13:09:05.812150 10834 net.cpp:84] Creating Layer conv4
I0621 13:09:05.812153 10834 net.cpp:406] conv4 <- pool3
I0621 13:09:05.812157 10834 net.cpp:380] conv4 -> conv4
I0621 13:09:05.813349 10834 net.cpp:122] Setting up conv4
I0621 13:09:05.813357 10834 net.cpp:129] Top shape: 64 128 3 3 (73728)
I0621 13:09:05.813360 10834 net.cpp:137] Memory required for data: 59518720
I0621 13:09:05.813380 10834 layer_factory.hpp:77] Creating layer prelu4
I0621 13:09:05.813385 10834 net.cpp:84] Creating Layer prelu4
I0621 13:09:05.813388 10834 net.cpp:406] prelu4 <- conv4
I0621 13:09:05.813392 10834 net.cpp:367] prelu4 -> conv4 (in-place)
I0621 13:09:05.813462 10834 net.cpp:122] Setting up prelu4
I0621 13:09:05.813467 10834 net.cpp:129] Top shape: 64 128 3 3 (73728)
I0621 13:09:05.813470 10834 net.cpp:137] Memory required for data: 59813632
I0621 13:09:05.813488 10834 layer_factory.hpp:77] Creating layer conv5
I0621 13:09:05.813494 10834 net.cpp:84] Creating Layer conv5
I0621 13:09:05.813496 10834 net.cpp:406] conv5 <- conv4
I0621 13:09:05.813501 10834 net.cpp:380] conv5 -> conv5
I0621 13:09:05.814666 10834 net.cpp:122] Setting up conv5
I0621 13:09:05.814671 10834 net.cpp:129] Top shape: 64 256 (16384)
I0621 13:09:05.814673 10834 net.cpp:137] Memory required for data: 59879168
I0621 13:09:05.814678 10834 layer_factory.hpp:77] Creating layer drop5
I0621 13:09:05.814683 10834 net.cpp:84] Creating Layer drop5
I0621 13:09:05.814687 10834 net.cpp:406] drop5 <- conv5
I0621 13:09:05.814690 10834 net.cpp:367] drop5 -> conv5 (in-place)
I0621 13:09:05.814709 10834 net.cpp:122] Setting up drop5
I0621 13:09:05.814713 10834 net.cpp:129] Top shape: 64 256 (16384)
I0621 13:09:05.814716 10834 net.cpp:137] Memory required for data: 59944704
I0621 13:09:05.814719 10834 layer_factory.hpp:77] Creating layer prelu5
I0621 13:09:05.814723 10834 net.cpp:84] Creating Layer prelu5
I0621 13:09:05.814726 10834 net.cpp:406] prelu5 <- conv5
I0621 13:09:05.814729 10834 net.cpp:367] prelu5 -> conv5 (in-place)
I0621 13:09:05.814779 10834 net.cpp:122] Setting up prelu5
I0621 13:09:05.814784 10834 net.cpp:129] Top shape: 64 256 (16384)
I0621 13:09:05.814785 10834 net.cpp:137] Memory required for data: 60010240
I0621 13:09:05.814790 10834 layer_factory.hpp:77] Creating layer conv5_prelu5_0_split
I0621 13:09:05.814795 10834 net.cpp:84] Creating Layer conv5_prelu5_0_split
I0621 13:09:05.814797 10834 net.cpp:406] conv5_prelu5_0_split <- conv5
I0621 13:09:05.814801 10834 net.cpp:380] conv5_prelu5_0_split -> conv5_prelu5_0_split_0
I0621 13:09:05.814806 10834 net.cpp:380] conv5_prelu5_0_split -> conv5_prelu5_0_split_1
I0621 13:09:05.814811 10834 net.cpp:380] conv5_prelu5_0_split -> conv5_prelu5_0_split_2
I0621 13:09:05.814841 10834 net.cpp:122] Setting up conv5_prelu5_0_split
I0621 13:09:05.814846 10834 net.cpp:129] Top shape: 64 256 (16384)
I0621 13:09:05.814849 10834 net.cpp:129] Top shape: 64 256 (16384)
I0621 13:09:05.814852 10834 net.cpp:129] Top shape: 64 256 (16384)
I0621 13:09:05.814855 10834 net.cpp:137] Memory required for data: 60206848
I0621 13:09:05.814857 10834 layer_factory.hpp:77] Creating layer conv6-1
I0621 13:09:05.814863 10834 net.cpp:84] Creating Layer conv6-1
I0621 13:09:05.814867 10834 net.cpp:406] conv6-1 <- conv5_prelu5_0_split_0
I0621 13:09:05.814872 10834 net.cpp:380] conv6-1 -> conv6-1
I0621 13:09:05.814937 10834 net.cpp:122] Setting up conv6-1
I0621 13:09:05.814942 10834 net.cpp:129] Top shape: 64 2 (128)
I0621 13:09:05.814945 10834 net.cpp:137] Memory required for data: 60207360
I0621 13:09:05.814952 10834 layer_factory.hpp:77] Creating layer cls_bridge
I0621 13:09:05.814996 10834 net.cpp:84] Creating Layer cls_bridge
I0621 13:09:05.814999 10834 net.cpp:406] cls_bridge <- conv6-1
I0621 13:09:05.815011 10834 net.cpp:406] cls_bridge <- label
I0621 13:09:05.815016 10834 net.cpp:380] cls_bridge -> conv6-1-valid
I0621 13:09:05.815023 10834 net.cpp:380] cls_bridge -> label-valid
I0621 13:09:05.815132 10834 net.cpp:122] Setting up cls_bridge
I0621 13:09:05.815140 10834 net.cpp:129] Top shape: 64 2 (128)
I0621 13:09:05.815143 10834 net.cpp:129] Top shape: 64 1 (64)
I0621 13:09:05.815145 10834 net.cpp:137] Memory required for data: 60208128
I0621 13:09:05.815148 10834 layer_factory.hpp:77] Creating layer conv6-1-valid_cls_bridge_0_split
I0621 13:09:05.815152 10834 net.cpp:84] Creating Layer conv6-1-valid_cls_bridge_0_split
I0621 13:09:05.815156 10834 net.cpp:406] conv6-1-valid_cls_bridge_0_split <- conv6-1-valid
I0621 13:09:05.815160 10834 net.cpp:380] conv6-1-valid_cls_bridge_0_split -> conv6-1-valid_cls_bridge_0_split_0
I0621 13:09:05.815166 10834 net.cpp:380] conv6-1-valid_cls_bridge_0_split -> conv6-1-valid_cls_bridge_0_split_1
I0621 13:09:05.815189 10834 net.cpp:122] Setting up conv6-1-valid_cls_bridge_0_split
I0621 13:09:05.815194 10834 net.cpp:129] Top shape: 64 2 (128)
I0621 13:09:05.815197 10834 net.cpp:129] Top shape: 64 2 (128)
I0621 13:09:05.815199 10834 net.cpp:137] Memory required for data: 60209152
I0621 13:09:05.815202 10834 layer_factory.hpp:77] Creating layer label-valid_cls_bridge_1_split
I0621 13:09:05.815207 10834 net.cpp:84] Creating Layer label-valid_cls_bridge_1_split
I0621 13:09:05.815209 10834 net.cpp:406] label-valid_cls_bridge_1_split <- label-valid
I0621 13:09:05.815213 10834 net.cpp:380] label-valid_cls_bridge_1_split -> label-valid_cls_bridge_1_split_0
I0621 13:09:05.815218 10834 net.cpp:380] label-valid_cls_bridge_1_split -> label-valid_cls_bridge_1_split_1
I0621 13:09:05.815240 10834 net.cpp:122] Setting up label-valid_cls_bridge_1_split
I0621 13:09:05.815244 10834 net.cpp:129] Top shape: 64 1 (64)
I0621 13:09:05.815248 10834 net.cpp:129] Top shape: 64 1 (64)
I0621 13:09:05.815250 10834 net.cpp:137] Memory required for data: 60209664
I0621 13:09:05.815253 10834 layer_factory.hpp:77] Creating layer ClassifyLoss
I0621 13:09:05.815258 10834 net.cpp:84] Creating Layer ClassifyLoss
I0621 13:09:05.815261 10834 net.cpp:406] ClassifyLoss <- conv6-1-valid_cls_bridge_0_split_0
I0621 13:09:05.815264 10834 net.cpp:406] ClassifyLoss <- label-valid_cls_bridge_1_split_0
…
