…
snapshot: 10000
snapshot_prefix: "./models/"
solver_mode: GPU
device_id: 0
net: "train24.prototxt"
train_state {
  level: 0
  stage: ""
}
I0614 09:36:17.064484  2083 solver.cpp:87] Creating training net from net file: train24.prototxt
I0614 09:36:17.064800  2083 net.cpp:51] Initializing net from parameters: 
name: "face_24c"
state {
  phase: TRAIN
  level: 0
  stage: ""
}
layer {
  name: "PythonLayer"
  type: "Python"
  top: "data"
  top: "label"
  top: "roi"
  top: "pts"
  python_param {
    module: "pythonLayer"
    layer: "Data_Layer_train"
  }
}
layer {
  name: "conv1"
  type: "Convolution"
  bottom: "data"
  top: "conv1"
  param {
    lr_mult: 0
    decay_mult: 0
  }
  param {
    lr_mult: 0
    decay_mult: 0
  }
  convolution_param {
    num_output: 28
    kernel_size: 3
    weight_filler {
      type: "gaussian"
      std: 0.0001
    }
    bias_filler {
      type: "constant"
      value: 0
    }
  }
}
layer {
  name: "relu1"
  type: "PReLU"
  bottom: "conv1"
  top: "conv1"
}
layer {
  name: "pool1"
  type: "Pooling"
  bottom: "conv1"
  top: "pool1"
  pooling_param {
    pool: MAX
    kernel_size: 3
    stride: 2
  }
}
layer {
  name: "conv2"
  type: "Convolution"
  bottom: "pool1"
  top: "conv2"
  param {
    lr_mult: 1
  }
  param {
    lr_mult: 2
  }
  convolution_param {
    num_output: 48
    kernel_size: 3
    weight_filler {
      type: "gaussian"
      std: 0.0001
    }
    bias_filler {
      type: "constant"
    }
  }
}
layer {
  name: "relu2"
  type: "PReLU"
  bottom: "conv2"
  top: "conv2"
}
layer {
  name: "pool2"
  type: "Pooling"
  bottom: "conv2"
  top: "pool2"
  pooling_param {
    pool: MAX
    kernel_size: 3
    stride: 2
  }
}
layer {
  name: "conv3"
  type: "Convolution"
  bottom: "pool2"
  top: "conv3"
  param {
    lr_mult: 1
    decay_mult: 1
  }
  param {
    lr_mult: 2
    decay_mult: 0
  }
  convolution_param {
    num_output: 64
    kernel_size: 2
    stride: 1
    weight_filler {
      type: "xavier"
    }
    bias_filler {
      type: "constant"
      value: 0
    }
  }
}
layer {
  name: "relu3"
  type: "PReLU"
  bottom: "conv3"
  top: "conv3"
}
layer {
  name: "fc4"
  type: "InnerProduct"
  bottom: "conv3"
  top: "fc4"
  param {
    lr_mult: 1
    decay_mult: 1
  }
  param {
    lr_mult: 2
    decay_mult: 0
  }
  inner_product_param {
    num_output: 128
    weight_filler {
      type: "xavier"
    }
    bias_filler {
      type: "constant"
      value: 0
    }
  }
}
layer {
  name: "relu4"
  type: "PReLU"
  bottom: "fc4"
  top: "fc4"
}
layer {
  name: "fc5-1"
  type: "InnerProduct"
  bottom: "fc4"
  top: "fc5-1"
  param {
    lr_mult: 1
    decay_mult: 1
  }
  param {
    lr_mult: 2
    decay_mult: 0
  }
  inner_product_param {
    num_output: 2
    weight_filler {
      type: "xavier"
    }
    bias_filler {
      type: "constant"
      value: 0
    }
  }
}
layer {
  name: "cls_bridge"
  type: "Python"
  bottom: "fc5-1"
  bottom: "label"
  top: "fc5-1-valid"
  top: "label-valid"
  python_param {
    module: "pythonLayer"
    layer: "cls_Layer"
  }
}
layer {
  name: "cls_loss"
  type: "SoftmaxWithLoss"
  bottom: "fc5-1-valid"
  bottom: "label-valid"
  top: "cls_loss"
  loss_weight: 1
  propagate_down: true
  propagate_down: false
}
layer {
  name: "cls_acc"
  type: "Accuracy"
  bottom: "fc5-1-valid"
  bottom: "label-valid"
  top: "cls_acc"
  include {
    phase: TRAIN
  }
}
layer {
  name: "fc5-2"
  type: "InnerProduct"
  bottom: "fc4"
  top: "fc5-2"
  param {
    lr_mult: 1
    decay_mult: 1
  }
  param {
    lr_mult: 2
    decay_mult: 0
  }
  inner_product_param {
    num_output: 4
    weight_filler {
      type: "xavier"
    }
    bias_filler {
      type: "constant"
      value: 0
    }
  }
}
layer {
  name: "roi_loss"
  type: "Python"
  bottom: "fc5-2"
  bottom: "roi"
  top: "roi_loss"
  loss_weight: 0.5
  python_param {
    module: "pythonLayer"
    layer: "regression_Layer"
  }
}
layer {
  name: "fc5-3"
  type: "InnerProduct"
  bottom: "fc4"
  top: "fc5-3"
  param {
    lr_mult: 1
    decay_mult: 1
  }
  param {
    lr_mult: 2
    decay_mult: 0
  }
  inner_product_param {
    num_output: 10
    weight_filler {
      type: "xavier"
    }
    bias_filler {
      type: "constant"
      value: 0
    }
  }
}
layer {
  name: "pts_loss"
  type: "Python"
  bottom: "fc5-3"
  bottom: "pts"
  top: "pts_loss"
  loss_weight: 0.5
  python_param {
    module: "pythonLayer"
    layer: "regression_Layer"
  }
}
I0614 09:36:17.065013  2083 layer_factory.hpp:77] Creating layer PythonLayer
I0614 09:36:17.480654  2083 net.cpp:84] Creating Layer PythonLayer
I0614 09:36:17.480691  2083 net.cpp:380] PythonLayer -> data
I0614 09:36:17.480739  2083 net.cpp:380] PythonLayer -> label
I0614 09:36:17.480762  2083 net.cpp:380] PythonLayer -> roi
I0614 09:36:17.480778  2083 net.cpp:380] PythonLayer -> pts
Start Reading Classify Data into Memory...

1124566  Classify Data have been read into Memory...
Start Reading Regression Data into Memory...

524566  Regression Data have been read into Memory...
Start Reading pts-regression Data into Memory...

202599  pts-regression Data have been read into Memory...
I0614 10:33:21.065197  2083 net.cpp:122] Setting up PythonLayer
I0614 10:33:21.070710  2083 net.cpp:129] Top shape: 64 3 24 24 (110592)
I0614 10:33:21.070736  2083 net.cpp:129] Top shape: 64 1 (64)
I0614 10:33:21.070744  2083 net.cpp:129] Top shape: 64 4 (256)
I0614 10:33:21.070749  2083 net.cpp:129] Top shape: 64 10 (640)
I0614 10:33:21.070755  2083 net.cpp:137] Memory required for data: 446208
I0614 10:33:21.074772  2083 layer_factory.hpp:77] Creating layer conv1
I0614 10:33:21.078596  2083 net.cpp:84] Creating Layer conv1
I0614 10:33:21.078630  2083 net.cpp:406] conv1 <- data
I0614 10:33:21.089092  2083 net.cpp:380] conv1 -> conv1
I0614 10:33:23.782296  2083 net.cpp:122] Setting up conv1
I0614 10:33:23.791579  2083 net.cpp:129] Top shape: 64 28 22 22 (867328)
I0614 10:33:23.791616  2083 net.cpp:137] Memory required for data: 3915520
I0614 10:33:23.806510  2083 layer_factory.hpp:77] Creating layer relu1
I0614 10:33:23.813817  2083 net.cpp:84] Creating Layer relu1
I0614 10:33:23.814043  2083 net.cpp:406] relu1 <- conv1
I0614 10:33:23.814131  2083 net.cpp:367] relu1 -> conv1 (in-place)
I0614 10:33:23.826949  2083 net.cpp:122] Setting up relu1
I0614 10:33:23.827391  2083 net.cpp:129] Top shape: 64 28 22 22 (867328)
I0614 10:33:23.827431  2083 net.cpp:137] Memory required for data: 7384832
I0614 10:33:23.830169  2083 layer_factory.hpp:77] Creating layer pool1
I0614 10:33:23.830242  2083 net.cpp:84] Creating Layer pool1
I0614 10:33:23.830262  2083 net.cpp:406] pool1 <- conv1
I0614 10:33:23.830283  2083 net.cpp:380] pool1 -> pool1
I0614 10:33:23.834898  2083 net.cpp:122] Setting up pool1
I0614 10:33:23.834954  2083 net.cpp:129] Top shape: 64 28 11 11 (216832)
I0614 10:33:23.834985  2083 net.cpp:137] Memory required for data: 8252160
I0614 10:33:23.835002  2083 layer_factory.hpp:77] Creating layer conv2
I0614 10:33:23.835053  2083 net.cpp:84] Creating Layer conv2
I0614 10:33:23.835069  2083 net.cpp:406] conv2 <- pool1
I0614 10:33:23.835109  2083 net.cpp:380] conv2 -> conv2
I0614 10:33:23.841905  2083 net.cpp:122] Setting up conv2
I0614 10:33:23.841958  2083 net.cpp:129] Top shape: 64 48 9 9 (248832)
I0614 10:33:23.841995  2083 net.cpp:137] Memory required for data: 9247488
I0614 10:33:23.842034  2083 layer_factory.hpp:77] Creating layer relu2
I0614 10:33:23.842057  2083 net.cpp:84] Creating Layer relu2
I0614 10:33:23.842097  2083 net.cpp:406] relu2 <- conv2
I0614 10:33:23.842120  2083 net.cpp:367] relu2 -> conv2 (in-place)
I0614 10:33:23.844610  2083 net.cpp:122] Setting up relu2
I0614 10:33:23.844650  2083 net.cpp:129] Top shape: 64 48 9 9 (248832)
I0614 10:33:23.844679  2083 net.cpp:137] Memory required for data: 10242816
I0614 10:33:23.844704  2083 layer_factory.hpp:77] Creating layer pool2
I0614 10:33:23.845191  2083 net.cpp:84] Creating Layer pool2
I0614 10:33:23.845213  2083 net.cpp:406] pool2 <- conv2
I0614 10:33:23.845238  2083 net.cpp:380] pool2 -> pool2
I0614 10:33:23.845376  2083 net.cpp:122] Setting up pool2
I0614 10:33:23.845430  2083 net.cpp:129] Top shape: 64 48 4 4 (49152)
I0614 10:33:23.845459  2083 net.cpp:137] Memory required for data: 10439424
I0614 10:33:23.845479  2083 layer_factory.hpp:77] Creating layer conv3
I0614 10:33:23.845510  2083 net.cpp:84] Creating Layer conv3
I0614 10:33:23.845526  2083 net.cpp:406] conv3 <- pool2
I0614 10:33:23.845577  2083 net.cpp:380] conv3 -> conv3
I0614 10:33:23.849843  2083 net.cpp:122] Setting up conv3
I0614 10:33:23.849871  2083 net.cpp:129] Top shape: 64 64 3 3 (36864)
I0614 10:33:23.849895  2083 net.cpp:137] Memory required for data: 10586880
I0614 10:33:23.849915  2083 layer_factory.hpp:77] Creating layer relu3
I0614 10:33:23.849932  2083 net.cpp:84] Creating Layer relu3
I0614 10:33:23.849943  2083 net.cpp:406] relu3 <- conv3
I0614 10:33:23.849961  2083 net.cpp:367] relu3 -> conv3 (in-place)
I0614 10:33:23.850183  2083 net.cpp:122] Setting up relu3
I0614 10:33:23.850203  2083 net.cpp:129] Top shape: 64 64 3 3 (36864)
I0614 10:33:23.850213  2083 net.cpp:137] Memory required for data: 10734336
I0614 10:33:23.850242  2083 layer_factory.hpp:77] Creating layer fc4
I0614 10:33:23.850260  2083 net.cpp:84] Creating Layer fc4
I0614 10:33:23.850270  2083 net.cpp:406] fc4 <- conv3
I0614 10:33:23.850489  2083 net.cpp:380] fc4 -> fc4
I0614 10:33:23.852738  2083 net.cpp:122] Setting up fc4
I0614 10:33:23.852758  2083 net.cpp:129] Top shape: 64 128 (8192)
I0614 10:33:23.852769  2083 net.cpp:137] Memory required for data: 10767104
I0614 10:33:23.853016  2083 layer_factory.hpp:77] Creating layer relu4
I0614 10:33:23.853034  2083 net.cpp:84] Creating Layer relu4
I0614 10:33:23.853051  2083 net.cpp:406] relu4 <- fc4
I0614 10:33:23.853065  2083 net.cpp:367] relu4 -> fc4 (in-place)
I0614 10:33:23.853195  2083 net.cpp:122] Setting up relu4
I0614 10:33:23.853209  2083 net.cpp:129] Top shape: 64 128 (8192)
I0614 10:33:23.853217  2083 net.cpp:137] Memory required for data: 10799872
I0614 10:33:23.853236  2083 layer_factory.hpp:77] Creating layer fc4_relu4_0_split
I0614 10:33:23.854112  2083 net.cpp:84] Creating Layer fc4_relu4_0_split
I0614 10:33:23.854125  2083 net.cpp:406] fc4_relu4_0_split <- fc4
I0614 10:33:23.854147  2083 net.cpp:380] fc4_relu4_0_split -> fc4_relu4_0_split_0
I0614 10:33:23.854163  2083 net.cpp:380] fc4_relu4_0_split -> fc4_relu4_0_split_1
I0614 10:33:23.854177  2083 net.cpp:380] fc4_relu4_0_split -> fc4_relu4_0_split_2
I0614 10:33:23.854274  2083 net.cpp:122] Setting up fc4_relu4_0_split
I0614 10:33:23.854287  2083 net.cpp:129] Top shape: 64 128 (8192)
I0614 10:33:23.854297  2083 net.cpp:129] Top shape: 64 128 (8192)
I0614 10:33:23.854315  2083 net.cpp:129] Top shape: 64 128 (8192)
I0614 10:33:23.854322  2083 net.cpp:137] Memory required for data: 10898176
I0614 10:33:23.854331  2083 layer_factory.hpp:77] Creating layer fc5-1
I0614 10:33:23.854346  2083 net.cpp:84] Creating Layer fc5-1
I0614 10:33:23.854353  2083 net.cpp:406] fc5-1 <- fc4_relu4_0_split_0
I0614 10:33:23.854368  2083 net.cpp:380] fc5-1 -> fc5-1
I0614 10:33:23.854527  2083 net.cpp:122] Setting up fc5-1
I0614 10:33:23.854540  2083 net.cpp:129] Top shape: 64 2 (128)
I0614 10:33:23.854548  2083 net.cpp:137] Memory required for data: 10898688
I0614 10:33:23.854562  2083 layer_factory.hpp:77] Creating layer cls_bridge
I0614 10:33:23.872634  2083 net.cpp:84] Creating Layer cls_bridge
I0614 10:33:23.872648  2083 net.cpp:406] cls_bridge <- fc5-1
I0614 10:33:23.872658  2083 net.cpp:406] cls_bridge <- label
I0614 10:33:23.872669  2083 net.cpp:380] cls_bridge -> fc5-1-valid
I0614 10:33:23.872681  2083 net.cpp:380] cls_bridge -> label-valid
I0614 10:33:23.886736  2083 net.cpp:122] Setting up cls_bridge
I0614 10:33:23.886752  2083 net.cpp:129] Top shape: 64 2 (128)
I0614 10:33:23.886762  2083 net.cpp:129] Top shape: 64 1 (64)
I0614 10:33:23.886768  2083 net.cpp:137] Memory required for data: 10899456
I0614 10:33:23.886777  2083 layer_factory.hpp:77] Creating layer fc5-1-valid_cls_bridge_0_split
I0614 10:33:23.886787  2083 net.cpp:84] Creating Layer fc5-1-valid_cls_bridge_0_split
I0614 10:33:23.886795  2083 net.cpp:406] fc5-1-valid_cls_bridge_0_split <- fc5-1-valid
I0614 10:33:23.886813  2083 net.cpp:380] fc5-1-valid_cls_bridge_0_split -> fc5-1-valid_cls_bridge_0_split_0
I0614 10:33:23.886828  2083 net.cpp:380] fc5-1-valid_cls_bridge_0_split -> fc5-1-valid_cls_bridge_0_split_1
I0614 10:33:23.886876  2083 net.cpp:122] Setting up fc5-1-valid_cls_bridge_0_split
I0614 10:33:23.886900  2083 net.cpp:129] Top shape: 64 2 (128)
I0614 10:33:23.886909  2083 net.cpp:129] Top shape: 64 2 (128)
I0614 10:33:23.886914  2083 net.cpp:137] Memory required for data: 10900480
I0614 10:33:23.886920  2083 layer_factory.hpp:77] Creating layer label-valid_cls_bridge_1_split
I0614 10:33:23.886931  2083 net.cpp:84] Creating Layer label-valid_cls_bridge_1_split
I0614 10:33:23.886937  2083 net.cpp:406] label-valid_cls_bridge_1_split <- label-valid
I0614 10:33:23.886946  2083 net.cpp:380] label-valid_cls_bridge_1_split -> label-valid_cls_bridge_1_split_0
I0614 10:33:23.886956  2083 net.cpp:380] label-valid_cls_bridge_1_split -> label-valid_cls_bridge_1_split_1
I0614 10:33:23.887008  2083 net.cpp:122] Setting up label-valid_cls_bridge_1_split
I0614 10:33:23.887018  2083 net.cpp:129] Top shape: 64 1 (64)
I0614 10:33:23.887027  2083 net.cpp:129] Top shape: 64 1 (64)
I0614 10:33:23.887063  2083 net.cpp:137] Memory required for data: 10900992
I0614 10:33:23.887071  2083 layer_factory.hpp:77] Creating layer cls_loss
I0614 10:33:23.887084  2083 net.cpp:84] Creating Layer cls_loss
I0614 10:33:23.887091  2083 net.cpp:406] cls_loss <- fc5-1-valid_cls_bridge_0_split_0
I0614 10:33:23.887100  2083 net.cpp:406] cls_loss <- label-valid_cls_bridge_1_split_0
I0614 10:33:23.887111  2083 net.cpp:380] cls_loss -> cls_loss
…
