…
stepsize: 30000
snapshot: 1
snapshot_prefix: "./models/"
solver_mode: GPU
device_id: 0
net: "train12.prototxt"
train_state {
  level: 0
  stage: ""
}
I0620 14:46:26.584336 15637 solver.cpp:87] Creating training net from net file: train12.prototxt
I0620 14:46:26.584636 15637 net.cpp:51] Initializing net from parameters: 
name: "face_12c"
state {
  phase: TRAIN
  level: 0
  stage: ""
}
layer {
  name: "PythonLayer"
  type: "Python"
  top: "data"
  top: "label"
  top: "roi"
  top: "pts"
  python_param {
    module: "pythonLayer"
    layer: "Data_Layer_train"
  }
}
layer {
  name: "conv1"
  type: "Convolution"
  bottom: "data"
  top: "conv1"
  param {
    lr_mult: 1
    decay_mult: 1
  }
  param {
    lr_mult: 2
    decay_mult: 0
  }
  convolution_param {
    num_output: 10
    kernel_size: 3
    stride: 1
    weight_filler {
      type: "xavier"
    }
    bias_filler {
      type: "constant"
      value: 0
    }
  }
}
layer {
  name: "PReLU1"
  type: "PReLU"
  bottom: "conv1"
  top: "conv1"
}
layer {
  name: "pool1"
  type: "Pooling"
  bottom: "conv1"
  top: "pool1"
  pooling_param {
    pool: MAX
    kernel_size: 2
    stride: 2
  }
}
layer {
  name: "conv2"
  type: "Convolution"
  bottom: "pool1"
  top: "conv2"
  param {
    lr_mult: 1
    decay_mult: 1
  }
  param {
    lr_mult: 2
    decay_mult: 0
  }
  convolution_param {
    num_output: 16
    kernel_size: 3
    stride: 1
    weight_filler {
      type: "xavier"
    }
    bias_filler {
      type: "constant"
      value: 0
    }
  }
}
layer {
  name: "PReLU2"
  type: "PReLU"
  bottom: "conv2"
  top: "conv2"
}
layer {
  name: "conv3"
  type: "Convolution"
  bottom: "conv2"
  top: "conv3"
  param {
    lr_mult: 1
    decay_mult: 1
  }
  param {
    lr_mult: 2
    decay_mult: 0
  }
  convolution_param {
    num_output: 32
    kernel_size: 3
    stride: 1
    weight_filler {
      type: "xavier"
    }
    bias_filler {
      type: "constant"
      value: 0
    }
  }
}
layer {
  name: "PReLU3"
  type: "PReLU"
  bottom: "conv3"
  top: "conv3"
}
layer {
  name: "conv4-1"
  type: "Convolution"
  bottom: "conv3"
  top: "conv4-1"
  param {
    lr_mult: 1
    decay_mult: 1
  }
  param {
    lr_mult: 2
    decay_mult: 0
  }
  convolution_param {
    num_output: 2
    kernel_size: 1
    stride: 1
    weight_filler {
      type: "xavier"
    }
    bias_filler {
      type: "constant"
      value: 0
    }
  }
}
layer {
  name: "cls_bridge"
  type: "Python"
  bottom: "conv4-1"
  bottom: "label"
  top: "conv4-1-valid"
  top: "label-valid"
  python_param {
    module: "pythonLayer"
    layer: "cls_Layer_fc"
  }
}
layer {
  name: "cls_loss"
  type: "SoftmaxWithLoss"
  bottom: "conv4-1-valid"
  bottom: "label-valid"
  top: "cls_loss"
  loss_weight: 1
  propagate_down: true
  propagate_down: false
}
layer {
  name: "cls_Acc"
  type: "Accuracy"
  bottom: "conv4-1-valid"
  bottom: "label-valid"
  top: "cls_Acc"
  include {
    phase: TRAIN
  }
}
layer {
  name: "conv4-2"
  type: "Convolution"
  bottom: "conv3"
  top: "conv4-2"
  param {
    lr_mult: 1
    decay_mult: 1
  }
  param {
    lr_mult: 2
    decay_mult: 0
  }
  convolution_param {
    num_output: 4
    kernel_size: 1
    stride: 1
    weight_filler {
      type: "xavier"
    }
    bias_filler {
      type: "constant"
      value: 0
    }
  }
}
layer {
  name: "roi_loss"
  type: "Python"
  bottom: "conv4-2"
  bottom: "roi"
  top: "roi_loss"
  loss_weight: 0.5
  python_param {
    module: "pythonLayer"
    layer: "regression_Layer"
  }
}
layer {
  name: "conv4-3"
  type: "Convolution"
  bottom: "conv3"
  top: "conv4-3"
  param {
    lr_mult: 1
    decay_mult: 1
  }
  param {
    lr_mult: 2
    decay_mult: 0
  }
  convolution_param {
    num_output: 10
    kernel_size: 1
    stride: 1
    weight_filler {
      type: "xavier"
    }
    bias_filler {
      type: "constant"
      value: 0
    }
  }
}
layer {
  name: "pts_loss"
  type: "Python"
  bottom: "conv4-3"
  bottom: "pts"
  top: "pts_loss"
  loss_weight: 0.5
  python_param {
    module: "pythonLayer"
    layer: "regression_Layer"
  }
}
I0620 14:46:26.584897 15637 layer_factory.hpp:77] Creating layer PythonLayer
I0620 14:46:26.994217 15637 net.cpp:84] Creating Layer PythonLayer
I0620 14:46:26.994254 15637 net.cpp:380] PythonLayer -> data
I0620 14:46:26.994282 15637 net.cpp:380] PythonLayer -> label
I0620 14:46:26.994293 15637 net.cpp:380] PythonLayer -> roi
I0620 14:46:26.994312 15637 net.cpp:380] PythonLayer -> pts
Start Reading Classify Data into Memory...

640000  Classify Data have been read into Memory...
Start Reading Regression Data into Memory...

360000  Regression Data have been read into Memory...
Start Reading pts-regression Data into Memory...

200000  pts-regression Data have been read into Memory...
I0620 14:53:09.786315 15637 net.cpp:122] Setting up PythonLayer
I0620 14:53:09.786680 15637 net.cpp:129] Top shape: 64 3 12 12 (27648)
I0620 14:53:09.786701 15637 net.cpp:129] Top shape: 64 1 (64)
I0620 14:53:09.786706 15637 net.cpp:129] Top shape: 64 4 (256)
I0620 14:53:09.786725 15637 net.cpp:129] Top shape: 64 10 (640)
I0620 14:53:09.786751 15637 net.cpp:137] Memory required for data: 114432
I0620 14:53:09.786773 15637 layer_factory.hpp:77] Creating layer conv1
I0620 14:53:09.786808 15637 net.cpp:84] Creating Layer conv1
I0620 14:53:09.786813 15637 net.cpp:406] conv1 <- data
I0620 14:53:09.786834 15637 net.cpp:380] conv1 -> conv1
I0620 14:53:10.138571 15637 net.cpp:122] Setting up conv1
I0620 14:53:10.138593 15637 net.cpp:129] Top shape: 64 10 10 10 (64000)
I0620 14:53:10.138597 15637 net.cpp:137] Memory required for data: 370432
I0620 14:53:10.138630 15637 layer_factory.hpp:77] Creating layer PReLU1
I0620 14:53:10.138641 15637 net.cpp:84] Creating Layer PReLU1
I0620 14:53:10.138646 15637 net.cpp:406] PReLU1 <- conv1
I0620 14:53:10.138650 15637 net.cpp:367] PReLU1 -> conv1 (in-place)
I0620 14:53:10.138737 15637 net.cpp:122] Setting up PReLU1
I0620 14:53:10.138742 15637 net.cpp:129] Top shape: 64 10 10 10 (64000)
I0620 14:53:10.138746 15637 net.cpp:137] Memory required for data: 626432
I0620 14:53:10.138764 15637 layer_factory.hpp:77] Creating layer pool1
I0620 14:53:10.138770 15637 net.cpp:84] Creating Layer pool1
I0620 14:53:10.138773 15637 net.cpp:406] pool1 <- conv1
I0620 14:53:10.138777 15637 net.cpp:380] pool1 -> pool1
I0620 14:53:10.138820 15637 net.cpp:122] Setting up pool1
I0620 14:53:10.138825 15637 net.cpp:129] Top shape: 64 10 5 5 (16000)
I0620 14:53:10.138842 15637 net.cpp:137] Memory required for data: 690432
I0620 14:53:10.138845 15637 layer_factory.hpp:77] Creating layer conv2
I0620 14:53:10.138854 15637 net.cpp:84] Creating Layer conv2
I0620 14:53:10.138856 15637 net.cpp:406] conv2 <- pool1
I0620 14:53:10.138861 15637 net.cpp:380] conv2 -> conv2
I0620 14:53:10.140236 15637 net.cpp:122] Setting up conv2
I0620 14:53:10.140246 15637 net.cpp:129] Top shape: 64 16 3 3 (9216)
I0620 14:53:10.140264 15637 net.cpp:137] Memory required for data: 727296
I0620 14:53:10.140271 15637 layer_factory.hpp:77] Creating layer PReLU2
I0620 14:53:10.140276 15637 net.cpp:84] Creating Layer PReLU2
I0620 14:53:10.140280 15637 net.cpp:406] PReLU2 <- conv2
I0620 14:53:10.140297 15637 net.cpp:367] PReLU2 -> conv2 (in-place)
I0620 14:53:10.140370 15637 net.cpp:122] Setting up PReLU2
I0620 14:53:10.140375 15637 net.cpp:129] Top shape: 64 16 3 3 (9216)
I0620 14:53:10.140391 15637 net.cpp:137] Memory required for data: 764160
I0620 14:53:10.140394 15637 layer_factory.hpp:77] Creating layer conv3
I0620 14:53:10.140415 15637 net.cpp:84] Creating Layer conv3
I0620 14:53:10.140419 15637 net.cpp:406] conv3 <- conv2
I0620 14:53:10.140422 15637 net.cpp:380] conv3 -> conv3
I0620 14:53:10.141819 15637 net.cpp:122] Setting up conv3
I0620 14:53:10.141842 15637 net.cpp:129] Top shape: 64 32 1 1 (2048)
I0620 14:53:10.141845 15637 net.cpp:137] Memory required for data: 772352
I0620 14:53:10.141850 15637 layer_factory.hpp:77] Creating layer PReLU3
I0620 14:53:10.141870 15637 net.cpp:84] Creating Layer PReLU3
I0620 14:53:10.141873 15637 net.cpp:406] PReLU3 <- conv3
I0620 14:53:10.141877 15637 net.cpp:367] PReLU3 -> conv3 (in-place)
I0620 14:53:10.141990 15637 net.cpp:122] Setting up PReLU3
I0620 14:53:10.141995 15637 net.cpp:129] Top shape: 64 32 1 1 (2048)
I0620 14:53:10.142011 15637 net.cpp:137] Memory required for data: 780544
I0620 14:53:10.142016 15637 layer_factory.hpp:77] Creating layer conv3_PReLU3_0_split
I0620 14:53:10.142036 15637 net.cpp:84] Creating Layer conv3_PReLU3_0_split
I0620 14:53:10.142040 15637 net.cpp:406] conv3_PReLU3_0_split <- conv3
I0620 14:53:10.142043 15637 net.cpp:380] conv3_PReLU3_0_split -> conv3_PReLU3_0_split_0
I0620 14:53:10.142048 15637 net.cpp:380] conv3_PReLU3_0_split -> conv3_PReLU3_0_split_1
I0620 14:53:10.142053 15637 net.cpp:380] conv3_PReLU3_0_split -> conv3_PReLU3_0_split_2
I0620 14:53:10.142084 15637 net.cpp:122] Setting up conv3_PReLU3_0_split
I0620 14:53:10.142102 15637 net.cpp:129] Top shape: 64 32 1 1 (2048)
I0620 14:53:10.142139 15637 net.cpp:129] Top shape: 64 32 1 1 (2048)
I0620 14:53:10.142143 15637 net.cpp:129] Top shape: 64 32 1 1 (2048)
I0620 14:53:10.142146 15637 net.cpp:137] Memory required for data: 805120
I0620 14:53:10.142149 15637 layer_factory.hpp:77] Creating layer conv4-1
I0620 14:53:10.142156 15637 net.cpp:84] Creating Layer conv4-1
I0620 14:53:10.142159 15637 net.cpp:406] conv4-1 <- conv3_PReLU3_0_split_0
I0620 14:53:10.142164 15637 net.cpp:380] conv4-1 -> conv4-1
I0620 14:53:10.143285 15637 net.cpp:122] Setting up conv4-1
I0620 14:53:10.143292 15637 net.cpp:129] Top shape: 64 2 1 1 (128)
I0620 14:53:10.143296 15637 net.cpp:137] Memory required for data: 805632
I0620 14:53:10.143301 15637 layer_factory.hpp:77] Creating layer cls_bridge
I0620 14:53:10.143343 15637 net.cpp:84] Creating Layer cls_bridge
I0620 14:53:10.143347 15637 net.cpp:406] cls_bridge <- conv4-1
I0620 14:53:10.143352 15637 net.cpp:406] cls_bridge <- label
I0620 14:53:10.143357 15637 net.cpp:380] cls_bridge -> conv4-1-valid
I0620 14:53:10.143362 15637 net.cpp:380] cls_bridge -> label-valid
I0620 14:53:10.143460 15637 net.cpp:122] Setting up cls_bridge
I0620 14:53:10.143467 15637 net.cpp:129] Top shape: 64 2 1 1 (128)
I0620 14:53:10.143471 15637 net.cpp:129] Top shape: 64 1 (64)
I0620 14:53:10.143473 15637 net.cpp:137] Memory required for data: 806400
I0620 14:53:10.143476 15637 layer_factory.hpp:77] Creating layer conv4-1-valid_cls_bridge_0_split
I0620 14:53:10.143481 15637 net.cpp:84] Creating Layer conv4-1-valid_cls_bridge_0_split
I0620 14:53:10.143484 15637 net.cpp:406] conv4-1-valid_cls_bridge_0_split <- conv4-1-valid
I0620 14:53:10.143489 15637 net.cpp:380] conv4-1-valid_cls_bridge_0_split -> conv4-1-valid_cls_bridge_0_split_0
I0620 14:53:10.143496 15637 net.cpp:380] conv4-1-valid_cls_bridge_0_split -> conv4-1-valid_cls_bridge_0_split_1
I0620 14:53:10.143525 15637 net.cpp:122] Setting up conv4-1-valid_cls_bridge_0_split
I0620 14:53:10.143530 15637 net.cpp:129] Top shape: 64 2 1 1 (128)
I0620 14:53:10.143534 15637 net.cpp:129] Top shape: 64 2 1 1 (128)
I0620 14:53:10.143537 15637 net.cpp:137] Memory required for data: 807424
I0620 14:53:10.143540 15637 layer_factory.hpp:77] Creating layer label-valid_cls_bridge_1_split
I0620 14:53:10.143544 15637 net.cpp:84] Creating Layer label-valid_cls_bridge_1_split
I0620 14:53:10.143548 15637 net.cpp:406] label-valid_cls_bridge_1_split <- label-valid
I0620 14:53:10.143553 15637 net.cpp:380] label-valid_cls_bridge_1_split -> label-valid_cls_bridge_1_split_0
I0620 14:53:10.143559 15637 net.cpp:380] label-valid_cls_bridge_1_split -> label-valid_cls_bridge_1_split_1
I0620 14:53:10.143584 15637 net.cpp:122] Setting up label-valid_cls_bridge_1_split
I0620 14:53:10.143589 15637 net.cpp:129] Top shape: 64 1 (64)
I0620 14:53:10.143591 15637 net.cpp:129] Top shape: 64 1 (64)
I0620 14:53:10.143594 15637 net.cpp:137] Memory required for data: 807936
I0620 14:53:10.143596 15637 layer_factory.hpp:77] Creating layer cls_loss
I0620 14:53:10.143601 15637 net.cpp:84] Creating Layer cls_loss
I0620 14:53:10.143604 15637 net.cpp:406] cls_loss <- conv4-1-valid_cls_bridge_0_split_0
I0620 14:53:10.143609 15637 net.cpp:406] cls_loss <- label-valid_cls_bridge_1_split_0
I0620 14:53:10.143612 15637 net.cpp:380] cls_loss -> cls_loss
…
